checkpoints_old2/ppo_academy_empty_goal_close.pth (torch, 718950 bytes, 45 tensors)

conv1.weight f4 [16, 16, 3, 3]
0	0xbe203523	-0.1564527
1	0xbdb2af55	-0.08724848
2	0xbd9ff2a5	-0.07809953
3	0xbd8daa39	-0.06917233
4	0x3dc2046c	0.094735
5	0x3d23eb82	0.04001952
6	0x3ad062c5	0.0015898576
7	0xbaaef806	-0.0013349063
8	0xbdea68bd	-0.114457585
9	0x3d97bdae	0.074092254
10	0x3d51f6a7	0.051260617
11	0xbc99365b	-0.018702677
12	0x3d7ba786	0.06143906
13	0x3d8c379b	0.068465434
14	0x3c170d41	0.009219469
15	0xbcc116ce	-0.023570444
16	0x3d323db7	0.043515887
17	0xbb87bf2f	-0.004142664
18	0xbd7a352d	-0.06108587
19	0x3ce5bf75	0.028045395
20	0xbdc2cb14	-0.0951139
21	0x3d8f32fe	0.06992148
22	0xbd6cfd53	-0.057858776
23	0x3d4665a3	0.048436772
24	0xbdc391eb	-0.09549316
25	0xbd10c284	-0.035341755
26	0xbd6325df	-0.05545604
27	0xbe189284	-0.14899641
28	0xbce2d706	-0.027690422
29	0x3bef998e	0.0073120063
30	0xbd8f9599	-0.07010955
31	0x3cc5a8b4	0.024128295
32	0xbde07c11	-0.10961164
33	0x3d85ce13	0.06533446
34	0xbd04ac4d	-0.03239088
35	0x3ce88f7b	0.02838873
36	0xbd34d724	-0.044150487
37	0x3da11a60	0.07866359
38	0xbd63c00f	-0.055603083
39	0x3d7686e2	0.060187228
40	0xbbefb614	-0.0073154066
41	0x3d21d7bd	0.039512385
42	0xbd836c73	-0.064171694
43	0x3d17bb06	0.037043594
44	0xbd8cc291	-0.06873048
45	0x3cc88b0f	0.02448037
46	0x3d49eb99	0.04929695
47	0x3c4c4e12	0.012469785
48	0x3c2b239a	0.0104455
49	0x3d6027b5	0.054725368
50	0xbd40ae9e	-0.047041528
51	0xbd052e1e	-0.032514684
52	0x3e137420	0.14399767
53	0xbd3b59ec	-0.045740053
54	0x3c3450ca	0.01100559
55	0xbcf6d600	-0.03013134
56	0x3e0fe91b	0.14053766
57	0x3da02f64	0.07821539
58	0xbe42a750	-0.19009137
59	0x3d8f5faf	0.07000672
60	0xbbd73fe3	-0.006568895
61	0xbd182f73	-0.037154626
62	0x3d3ae5a9	0.045629177
63	0xbdbfff80	-0.09374905
64	0xbe1ae5fb	-0.15126793
65	0x3cb08afc	0.021550648
66	0x3da4ea05	0.08052448
67	0xbbe00601	-0.006836653
68	0x3bf7b0b0	0.0075589046
69	0xbd71a538	-0.058995456
70	0xbdde3a37	-0.10850947
71	0x3cd98438	0.026552305
72	0x3b13936f	0.0022518297
73	0xbd4bc813	-0.049751353
74	0xbd73f0ff	-0.059556004
75	0x3d3dde70	0.04635471
76	0x3c754d4c	0.014972042
77	0xbd21d800	-0.039512634
78	0x3d0b9bd5	0.03408416
79	0xbdaaee70	-0.083462596
80	0xbde1c3ac	-0.110236496
81	0x3dbac6ec	0.091199726
82	0x3d5af427	0.053455498
83	0xbcf44fc3	-0.02982319
84	0x3e0625f2	0.13100412
85	0x3d479eb2	0.048735328
86	0xbc02aa76	-0.007975211
87	0x3d374073	0.044739198
88	0x3c99e2a7	0.018784834
89	0xbd489889	-0.048973594
90	0x3dc885de	0.09791158
91	0xbd66c0ea	-0.05633632
92	0x3e1d3468	0.15352023
93	0xbc7e8f14	-0.015537042
94	0x3d54a40c	0.05191426
95	0x3d47d66a	0.048788466
96	0xbddda593	-0.108225964
97	0x3dcd51c8	0.10025364
98	0x3e14fbaf	0.14549135
99	0xbcc24d46	-0.023718487
100	0xbd623dae	-0.055234604
101	0xbd216a90	-0.039408267
102	0xbdc11d45	-0.09429411
103	0x3cfa7c52	0.030576859
104	0x3d1032c1	0.035204653
105	0xbe11e232	-0.14246443
106	0x3c5800d7	0.013183794
107	0x3d0a0e04	0.033704773
108	0x3c9f0def	0.019415824
109	0x3d8ae28c	0.06781492
110	0xbdb2dd98	-0.08733672
111	0xbdbae268	-0.09125215
112	0xbdba5e5e	-0.0910003
113	0xbd866389	-0.065619536
114	0x3da51b2e	0.08061825
115	0xbda96cd5	-0.08272711
116	0xbd889cda	-0.06670542
117	0x3dd7eee8	0.105436146
118	0x3da77df7	0.08178323
119	0x3d91f4fb	0.071268044
120	0xbd1c25af	-0.038121875
121	0xbd6971b0	-0.056993186
122	0xbd79958c	-0.060933635
123	0xbccd114d	-0.025032664
124	0x3d88db7b	0.066824876
125	0xbc258c96	-0.010104319
126	0x3e1c6d07	0.15275966
127	0x3d8b5631	0.06803549
128	0x3d1531ce	0.03642445
129	0xbdecabe5	-0.11556224
130	0x3e2ccd05	0.16875084
131	0xbe540887	-0.20706378
132	0x3d9d0d7d	0.07668588
133	0xbc8ae2b3	-0.016953802
134	0x3d4bd239	0.04976103
135	0x3d5ce9b9	0.053933833
136	0x3d76620e	0.060152106
137	0xbd8415ed	-0.064494945
138	0xbdd1cadf	-0.10243773
139	0x3c2524c0	0.010079563
140	0x3cdce13f	0.026962874
141	0xbde6d129	-0.11270363
142	0x3cc60424	0.024171896
143	0xbc7646d6	-0.015031537
144	0xbe061ee9	-0.13097729
145	0xbd613593	-0.054982733
146	0x3d3304e4	0.043705836
147	0xbc9ecdce	-0.019385245
148	0x3d9f8a01	0.07789994
149	0xbb8375d1	-0.0040118475
150	0x3dc8efa7	0.09811335
151	0x3d6f3da0	0.05840838
152	0x3d58edd1	0.052961174
153	0x3d3dba0f	0.046320017
154	0xbd283aa6	-0.041071557
155	0x3cd16373	0.025560116
156	0x3d6660de	0.056244723
157	0x3c984cbd	0.01859128
158	0x3b8bf245	0.004270824
159	0xbd44d8e0	-0.04805839
160	0xbd911644	-0.07084325
161	0x3d304231	0.043031875
162	0x3d15bffa	0.036560036
163	0x3c8b3f5e	0.01699799
164	0xbcf4a8b4	-0.0298656
165	0xbd819258	-0.06326741
166	0xbd9e8184	-0.07739547
167	0xbc85dde4	-0.016341157
168	0xbbe5f1cb	-0.0070173494
169	0xbe105a12	-0.14096859
170	0xbc5581c2	-0.013031425
171	0xbe078ccf	-0.13237308
172	0xbd96b683	-0.0735903
173	0xbd9d88a4	-0.07692078
174	0xbdfada60	-0.12248683
175	0xbd9d7d6f	-0.0768994
176	0x3cc9d509	0.024637716
177	0x3d003e3b	0.031309348
178	0xbbc89909	-0.006121759
179	0xbdb3054a	-0.08741243
180	0xbdd0abad	-0.101889946
181	0x3d02f08a	0.031967677
182	0x3ccd0772	0.025027964
183	0x3c6e230b	0.014534722
184	0x3da0df09	0.078550406
185	0x3d41eee9	0.047346983
186	0x3d76dc82	0.060268886
187	0x3d69d985	0.05709221
188	0x3c0f1948	0.008734055
189	0xbc25a547	-0.010110206
190	0x3d1a0f58	0.03761229
191	0x3db91e63	0.09038999
192	0xbad47de3	-0.0016211834
193	0xbc33acaf	-0.010966464
194	0xbd533d26	-0.051571988
195	0x3d7817c5	0.060569543
196	0x3d8e6401	0.06952668
197	0x3df92233	0.12164726
198	0xbe039b28	-0.12852156
199	0xbd012f56	-0.031539284
200	0x3d609daf	0.05483788
201	0x3d83f937	0.06444018
202	0x3da0b2fc	0.078466386
203	0x3cd9750f	0.026545076
204	0xbcab5bfa	-0.020917881
205	0xbd9ea1e3	-0.07745721
206	0x3db82c19	0.08992786
207	0xbd0c2d8e	-0.03422313
208	0xbe109d7c	-0.14122576
209	0x3c1b7de2	0.009490462
210	0x3d3d58db	0.046227317
211	0xbdcb8aaa	-0.099385574
212	0x3d85fdf2	0.06542577
213	0xbc9bfd8d	-0.0190418
214	0xbd5df03b	-0.05418418
215	0xbd2a8ac5	-0.041636247
216	0xbdf32d31	-0.11873854
217	0xbe007193	-0.12543325
218	0xbd329ace	-0.043604665
219	0x3d5ad0a9	0.05342165
220	0x3dfc32e7	0.12314396
221	0xbcddf471	-0.027094098
222	0xbc3d6999	-0.011560821
223	0xbd96fedb	-0.073728286
224	0x3c4ac173	0.012375223
225	0xbc16d6b2	-0.009206461
226	0xbd279709	-0.040915523
227	0xbdbadb70	-0.09123886
228	0xbc950f4b	-0.018195769
229	0xbce0f69e	-0.027461346
230	0xbd6523b6	-0.05594226
231	0xbdf7795b	-0.120836936
232	0x3d65d0bb	0.056107264
233	0x3db529f1	0.0884589
234	0x3db28b45	0.0871797
235	0x3d95035b	0.07276031
236	0x3e388b52	0.18021896
237	0x3da579db	0.08079883
238	0xbdad4afd	-0.084615685
239	0xbaa626bd	-0.001267634
240	0x3cc12650	0.02357784
241	0x3d9d690b	0.07686051
242	0x3d925caf	0.07146584
243	0xbd49ddca	-0.04928378
244	0xbdfa1077	-0.12210172
245	0xbc941fe7	-0.018081618
246	0x3def9265	0.116978444
247	0xbe148c55	-0.14506657
248	0xbc3a06fc	-0.011354204
249	0x3c33d925	0.010977064
250	0xbcc4e125	-0.024033139
251	0xbd9e7793	-0.07737651
252	0xbc3ab82c	-0.011396449
253	0xbd3c77ad	-0.04601257
254	0xbdbd1a20	-0.092334986
255	0x3c68bcf7	0.014205209

conv1.bias f4 [16]
0	0x3d4aba39	0.049494002
1	0xbd991bf9	-0.074760385
2	0x3d88bd91	0.06676782
3	0xbd6581c8	-0.056031972
4	0x3d80b33e	0.06284188
5	0xbd156c16	-0.036480032
6	0x3d407459	0.046985958
7	0x3d17e735	0.03708573
8	0x3d8f585b	0.06999274
9	0x3b761590	0.0037549473
10	0xbd8b63ac	-0.0680612
11	0x3d923708	0.07139403
12	0x3d0dd0b1	0.03462285
13	0xbb38e4ce	-0.002821255
14	0x3d10eea7	0.035383847
15	0xbcce64e6	-0.025194596

res1a.conv1.weight f4 [16, 16, 3, 3]
0	0xbc8aebce	-0.016958144
1	0x3d946f02	0.072477356
2	0xbd4ec26b	-0.05047838
3	0x3d348b7d	0.04407834
4	0x3cffff0f	0.031249551
5	0x3d6bba2b	0.05755059
6	0xbd3cc72e	-0.04608839
7	0x3dc3b187	0.09555345
8	0xbd125798	-0.035728067
9	0xbd5b782f	-0.053581413
10	0x3d99d687	0.07511621
11	0xbb7f3a64	-0.0038944716
12	0xbc1afb4a	-0.009459326
13	0xbc105249	-0.008808681
14	0x3c93f9b2	0.0180634
15	0x3c87bbb5	0.016568998
16	0xbd4752bf	-0.048662897
17	0x3ddbee58	0.1073882
18	0xbc409c9b	-0.011756088
19	0x3cbdcf9b	0.023170283
20	0xbd29e796	-0.041480623
21	0xbdd0bc66	-0.10192184
22	0x3db1f34c	0.08688983
23	0xbd39d220	-0.045366406
24	0xbd8aa580	-0.06769848
25	0xbd54ffea	-0.05200187
26	0x3c3e3295	0.011608739
27	0xbd849bc2	-0.06475021
28	0xbcff7176	-0.031182032
29	0x3d11e463	0.035618197
30	0xbdb8e32f	-0.09027707
31	0x3dbd2d16	0.09237115
32	0x3cd0f09a	0.025505353
33	0x3c0a6fc2	0.008449497
34	0x3d8624d5	0.06549994
35	0x3cfccf84	0.03086067
36	0x3ca07e60	0.01959151
37	0xbcd3ea1d	-0.02586847
38	0x3ca41a0c	0.020031951
39	0x3d496ba0	0.049174905
40	0x3d71999a	0.058984376
41	0x3db39991	0.08769525
42	0x3d777faf	0.060424503
43	0xbcf5b72f	-0.029994575
44	0x3dba23dd	0.09088872
45	0x3c06ed63	0.008235308
46	0xbcac7779	-0.021053063
47	0xbd9132c1	-0.07089759
48	0xbe06d5fc	-0.13167566
49	0xbd3a1d61	-0.045438174
50	0xbd09af43	-0.03361441
51	0xbd4d3e7c	-0.050108418
52	0xbd5791b0	-0.052629173
53	0xbd67540b	-0.056476634
54	0xbd7e93fe	-0.062152855
55	0x3d5fbe81	0.054625038
56	0x3d609af3	0.05483527
57	0x3bc43b5f	0.005988523
58	0x3d169517	0.036763277
59	0x3d56624d	0.05233984
60	0x3cb58b5e	0.022161182
61	0xbc59c2b9	-0.013291054
62	0x3d149951	0.036279026
63	0x3d4db026	0.050216816
64	0xbd5cb462	-0.053882964
65	0x3ca2b4a9	0.019861536
66	0xbbda5fbf	-0.006664246
67	0xbc7bcaf8	-0.015368216
68	0x3dbb1b56	0.09136073
69	0x3d87e5a8	0.066356
70	0x3da1e4c9	0.079049654
71	0xbd0a9b11	-0.03383929
72	0x3d0dd2da	0.03462491
73	0x3d591c35	0.053005416
74	0xbc8940aa	-0.016754467
75	0xbc44d291	-0.012013094
76	0xbddbf803	-0.10740664
77	0xbd7aaadb	-0.061198097
78	0xbd333207	-0.04374888
79	0xbd10fa00	-0.03539467
80	0xbdce536c	-0.10074505
81	0xbc047bd3	-0.008086163
82	0xbcb59a9e	-0.022168454
83	0xbb5e95b0	-0.0033963732
84	0x3c937ea5	0.018004725
85	0x3d4c49a3	0.049874913
86	0xbd288a11	-0.041147295
87	0xbd7955dc	-0.060872898
88	0x3d9d45d2	0.07679333
89	0x3d4bdbf6	0.049770318
90	0xbd873244	-0.06601384
91	0x3c21a60e	0.009866251
92	0x3c96e7a2	0.018420998
93	0xbd5e8539	-0.05432627
94	0x3e02ba62	0.12766412
95	0x3d7b8ebe	0.061415426
96	0xbce24898	-0.027622506
97	0xbc5aa740	-0.01334554
98	0x3ce96c9d	0.028494174
99	0xbcb2920f	-0.021798162
100	0xbd85babb	-0.06529757
101	0xbd359bbe	-0.04433798
102	0xbd3f4b8d	-0.04670291
103	0xbdbbdb22	-0.09172656
104	0xbc8793d4	-0.016549982
105	0x3cac2431	0.021013351
106	0x3cfc521d	0.030800873
107	0xbd816d55	-0.063196816
108	0xbbdd8aea	-0.0067609446
109	0x3debc39f	0.11511921
110	0xbd267bc1	-0.040645365
111	0xbd012b2e	-0.03153532
112	0x3da98b34	0.08278504
113	0x3db6c9f4	0.08925238
114	0xbd08bebe	-0.03338503
115	0x3d0f87f1	0.035041753
116	0x3dc52d80	0.09627819
117	0x3d1454e9	0.03621379
118	0xbd178306	-0.036990188
119	0x3d00171e	0.031272046
120	0xbdaf75b5	-0.08567373
121	0x3d99420b	0.074833
122	0x3d54badd	0.05193602
123	0xbd1755f1	-0.036947194
124	0x3d2109fd	0.039316166
125	0xbccd061a	-0.025027324
126	0xbd7c4117	-0.061585512
127	0x3ddc51f5	0.107578196
128	0x3d9ccdb2	0.07656421
129	0x3d101a85	0.03518154
130	0x3d57e88a	0.052712
131	0x3d1b67c7	0.037940767
132	0xbd9608d7	-0.07325905
133	0xbc27864e	-0.010224892
134	0xbc9c4ade	-0.019078668
135	0xbc8708c9	-0.016483681
136	0xbca2d4cc	-0.01987686
137	0xbcc15cd3	-0.023603832
138	0x3c5765f8	0.01314687
139	0x3da7b0bd	0.08188007
140	0xbd4f0838	-0.050544947
141	0x3b60a76a	0.0034279474
142	0x3a8d4597	0.0010778186
143	0x3d86f175	0.06589023
144	0xb9f17d26	-0.00046060345
145	0xbd7e3ab1	-0.06206769
146	0x3d1e4d4b	0.03864793
147	0xbd6cb578	-0.05779025
148	0x3d92da08	0.071704924
149	0x3d6d3ef2	0.057921357
150	0x3c44a384	0.012001876
151	0xbc9cd661	-0.019145193
152	0x3cee47fa	0.029087055
153	0x3d5be9c5	0.053689737
154	0x3d6dddd7	0.05807289
155	0x3d70ac86	0.05875828
156	0xbcc7ef2e	-0.024406042
157	0x3d832bc3	0.06404831
158	0xba927951	-0.0011175071
159	0x3dd59b42	0.10430004
160	0x3cee3f65	0.029082963
161	0x3db816a6	0.08988695
162	0xbd7dea27	-0.061990883
163	0x3d58fdd7	0.052976456
164	0x3d9957d1	0.07487453
165	0xbd095dfb	-0.033536892
166	0xbd709cd6	-0.05874332
167	0x3db137f8	0.08653253
168	0x3d4a8e71	0.04945225
169	0x3d8b7911	0.06810201
170	0xbd2e50b4	-0.042557433
171	0x3da29f95	0.07940594
172	0xbc8e2a36	-0.017354112
173	0xbcf58f76	-0.029975634
174	0xbc2f25f5	-0.010690202
175	0x3d056b9f	0.03257334
176	0x3cb1e910	0.021717578
177	0x3d888747	0.06666427
178	0x3b634140	0.0034676343
179	0xbd130247	-0.035890844
180	0x3cbdd60b	0.023173353
181	0x3d435388	0.047687083
182	0xbc07ad32	-0.008281039
183	0x3d498897	0.049202528
184	0x3cbec872	0.02328894
185	0xbd505f84	-0.05087234
186	0xbc7b801d	-0.015350369
187	0x3d72fba3	0.05932201
188	0x3cc153d2	0.023599539
189	0xbc0deb0a	-0.008661995
190	0x3d622626	0.055212162
191	0xbcab5d76	-0.02091859
192	0xbd80a12d	-0.06280742
193	0xbc3afe62	-0.011413189
194	0x3d8120aa	0.06305058
195	0x3db4426f	0.08801734
196	0x3d1c19e9	0.038110647
197	0xbc2a692f	-0.010401054
198	0xbd75ea33	-0.060037803
199	0x3da52a14	0.080646664
200	0xbd75cd44	-0.06001021
201	0xbd77c6e6	-0.06049242
202	0xbd6732ff	-0.056445118
203	0x3d216902	0.039406784
204	0xbd8fccbf	-0.07021474
205	0x3d1347bd	0.035957087
206	0xbd5ba57a	-0.053624608
207	0x3da12eb0	0.07870233
208	0x3d9ddae8	0.07707769
209	0xbc6e7d50	-0.014556244
210	0x3d1c0f5b	0.03810058
211	0xbd90c21c	-0.070682734
212	0xbd1d7505	-0.038441677
213	0x3a842b1f	0.0010083652
214	0xbbc07b84	-0.005874099
215	0x3d6d6d2a	0.057965435
216	0xbddc5aff	-0.10759544
217	0x3cea80c1	0.028625848
218	0xbd17a95f	-0.03702676
219	0xbcd7f41c	-0.026361518
220	0x3c3e0860	0.011598676
221	0xbc9aee40	-0.018912435
222	0x3c77bf58	0.0151213035
223	0x3ca9f24d	0.02074542
224	0xbd1b6952	-0.03794224
225	0x3d55ff41	0.052245382
226	0x3d2343e8	0.039859682
227	0xbcab6e9b	-0.020926764
228	0x3d6d2ecf	0.05790597
229	0xbc37d0e1	-0.011219234
230	0x3ccd943b	0.025095096
231	0x388e8809	6.796426e-05
232	0x3dc2fc74	0.09520808
233	0xbcf02e62	-0.029318992
234	0x3ca94252	0.020661507
235	0xbabb34e2	-0.0014282728
236	0xbd4c165e	-0.04982602
237	0x3e0b9b2b	0.1363341
238	0xbbc8a41a	-0.006123078
239	0x3dbb622d	0.09149585
240	0xbc6270ea	-0.013820866
241	0x3dbe02b5	0.0927786
242	0x3d7a9339	0.06117556
243	0xbc99daae	-0.018781032
244	0xbd9fb2a6	-0.07797746
245	0xbd9240e8	-0.07141286
246	0x3b87b85f	0.004141852
247	0x3ce9bbae	0.028531875
248	0xbd6ab5a7	-0.057302143
249	0x3c99ec91	0.018789561
250	0x3c1e5dcf	0.00966592
251	0x39c97689	0.00038426023
252	0x3c26821c	0.010162856
253	0xbd87647c	-0.06610963
254	0x3d9a533a	0.075354055
255	0xbd527e87	-0.051390197

res1a.conv1.bias f4 [16]
0	0xbc086cf5	-0.008326759
1	0x3da03332	0.07822265
2	0xbc9be8a3	-0.019031828
3	0xbc8f45a3	-0.01748926
4	0xbd02dbb6	-0.031947814
5	0x3d5e5dfa	0.05428884
6	0xbb9d1bee	-0.0047945892
7	0xbd382b84	-0.044963375
8	0xbdad4471	-0.0846032
9	0x3c5aa68b	0.013345371
10	0xbab043ba	-0.0013447918
11	0xbc9cad81	-0.019125702
12	0xbd8b3238	-0.06796688
13	0xbc288f3e	-0.010288058
14	0xbc8605e2	-0.016360227
15	0x3a298564	0.0006466715

res1a.conv2.weight f4 [16, 16, 3, 3]
0	0x3db92961	0.090410955
1	0xbc912d10	-0.017721683
2	0x3ba4e137	0.0050317305
3	0x3cda98ab	0.026684126
4	0xbd560e48	-0.052259713
5	0x3df32d12	0.11873831
6	0x3d9d80b1	0.076905616
7	0x3cd5adf2	0.02608392
8	0x3dbea94c	0.093096346
9	0xbccf64dc	-0.025316648
10	0x3d8bd96a	0.06828578
11	0xbd04da72	-0.03243489
12	0x3d9533f7	0.07285302
13	0x3dab8595	0.08375088
14	0xbd0ed7e4	-0.034873858
15	0xbd2964c6	-0.04135587
16	0x3d884c72	0.06655206
17	0xbd26ee21	-0.04075444
18	0x3c082f88	0.008312114
19	0x3d373abd	0.04473375
20	0x3d8e8c25	0.06960324
21	0xbce4cda1	-0.027930083
22	0x3d993da0	0.07482457
23	0x3db099e2	0.08623101
24	0xbcb5641b	-0.02214246
25	0x3d040fbd	0.03224157
26	0x3d5f8999	0.054574583
27	0x3d357244	0.044298425
28	0x3dd4c6cf	0.10389482
29	0x3dca8d2d	0.098902084
30	0x3dd5b31d	0.10434554
31	0xbd19e7c0	-0.03757453
32	0xbcc6ec2a	-0.024282534
33	0xbc6f5e59	-0.014609897
34	0x3d8c90c1	0.06863547
35	0x3d7e8a02	0.062143333
36	0x3d7b73d7	0.06138977
37	0x3d6ecf60	0.058303237
38	0xbd367931	-0.04454917
39	0xbcb2c9a1	-0.02182466
40	0xbcd36bed	-0.025808299
41	0xbd121b9e	-0.03567087
42	0x3d4e869a	0.050421335
43	0x3c7126d2	0.014718728
44	0x3cd37e07	0.02581693
45	0x3bdd6900	0.0067569017
46	0xbc720a73	-0.014772999
47	0x3daef468	0.085427105
48	0x3d2c5140	0.042069674
49	0x3cee6073	0.029098725
50	0x3d47f019	0.04881296
51	0xbbf9d0ad	-0.007623753
52	0xbd86facd	-0.06590805
53	0x3bfd14cd	0.007723427
54	0xbd81bec4	-0.06335214
55	0x3d455f5b	0.04818664
56	0x3d5b40e1	0.05352867
57	0x3d524499	0.05133495
58	0x3d8f113c	0.06985709
59	0x3daad37e	0.0834112
60	0xbdeac571	-0.1146344
61	0xbdb593cc	-0.08866081
62	0x3dc34971	0.09535492
63	0xbd109447	-0.03529766
64	0x3dab235c	0.08356354
65	0x3dc8a425	0.09796933
66	0x3d2f2615	0.042760927
67	0xbcd3fa5d	-0.025876218
68	0xbd474867	-0.048653033
69	0x3d63c6e3	0.055609595
70	0x3c51cafc	0.012804743
71	0x3c6e612b	0.014549534
72	0xbde06852	-0.109573975
73	0xbdf27c93	-0.11840167
74	0xbd291110	-0.041276038
75	0xbd1cb3eb	-0.03825752
76	0xbdd74611	-0.10511411
77	0x3d2ae77d	0.04172467
78	0xbb953de1	-0.0045544957
79	0xbd22262c	-0.039587185
80	0xbd8627c0	-0.065505505
81	0xbb6a32f9	-0.0035735948
82	0xbd45f3a6	-0.048328064
83	0xbd1083c3	-0.035281908
84	0x3cf95496	0.030435842
85	0xbd8d3bbe	-0.068961605
86	0xbc80129b	-0.015633872
87	0x3c8e0bf6	0.017339688
88	0xbd5c2e2a	-0.053754963
89	0xbc8fab0f	-0.017537622
90	0xbd13f6ca	-0.03612403
91	0xbd25fdd2	-0.040525265
92	0x3d213e14	0.039365843
93	0x3cb940dd	0.022613937
94	0x3d07626f	0.033052858
95	0x3da3c363	0.079962514
96	0x3ddf037a	0.10889335
97	0x3d412485	0.04715397
98	0x3bb82f3e	0.005620866
99	0xbd17373e	-0.036917917
100	0xbdca925c	-0.09891197
101	0xbcfec319	-0.03109889
102	0xbce63908	-0.028103366
103	0xbd79f14f	-0.061021145
104	0xbd2e3332	-0.042529292
105	0x3c8e5722	0.017375533
106	0xbc54361a	-0.012952352
107	0x3d5cf3fe	0.053943627
108	0xbd645286	-0.055742763
109	0x3db1e925	0.08687047
110	0x3de75ef2	0.11297406
111	0x3c99f0d2	0.01879159
112	0xbcdb3feb	-0.026763877
113	0xbca70981	-0.020390274
114	0xbd79b9b5	-0.06096812
115	0xbd620331	-0.055178825
116	0x3d5332e6	0.051562212
117	0x3cd16da4	0.025564976
118	0xbd03b100	-0.032151222
119	0x3d6e1603	0.05812646
120	0x3d9445b7	0.072398596
121	0x3de0b720	0.10972428
122	0x3dcce12f	0.10003888
123	0x3ca6eedc	0.020377569
124	0x3d7598e6	0.05996027
125	0x3c4cf4a1	0.012509496
126	0x3d574e7f	0.052565094
127	0x3dfae5a5	0.122508325
128	0x3c808ef0	0.015693158
129	0x3caa3bd6	0.020780485
130	0x3c68eda2	0.014216812
131	0x3d98fc2d	0.07469974
132	0x3d9273e6	0.07151012
133	0x3e055258	0.13019693
134	0x3cbaedf2	0.02281854
135	0x3d3a0b1a	0.045420744
136	0x3d928045	0.07153372
137	0xbc7b82ec	-0.015351038
138	0x3d8d758a	0.069071844
139	0x3d2ce2ea	0.04220859
140	0x3cda211b	0.026627114
141	0xbd59552e	-0.05305975
142	0xbd3a5932	-0.04549522
143	0x3d96f1be	0.073703274
144	0xbd4665cf	-0.048436936
145	0xbd85e5a1	-0.06537939
146	0x3bd3227a	0.006443319
147	0xbd0bb545	-0.03410842
148	0xbd1e2c41	-0.038616423
149	0xbd96f692	-0.07371248
150	0x3c9b3a30	0.018948644
151	0xbd7d7a34	-0.06188412
152	0xbd42f78d	-0.047599364
153	0xbd0b8366	-0.03406086
154	0x3d191ece	0.037382893
155	0x3ce315df	0.02772039
156	0xbda80b5b	-0.08205291
157	0x3d085658	0.03328547
158	0xba47b85b	-0.00076187187
159	0xbc81d808	-0.015850082
160	0xbd2255fb	-0.03963278
161	0xbd4b1ae0	-0.049586177
162	0xbd835286	-0.064122245
163	0xbd598298	-0.05310306
164	0x3db2e2e1	0.0873468
165	0xbd489bad	-0.04897659
166	0x3d01a4f5	0.031651456
167	0xbd577a5b	-0.05260692
168	0x3d588b3a	0.05286715
169	0xbd782c59	-0.06058917
170	0x3d9fa54f	0.07795202
171	0xbd8f3a30	-0.0699352
172	0xbd2bcb11	-0.041941706
173	0x3c770f6f	0.015079363
174	0x3d03e04a	0.03219632
175	0x3d6f6dc8	0.058454305
176	0x3b8fc2aa	0.0043872194
177	0xbdd7dc0d	-0.10540018
178	0xbda58abd	-0.08083103
179	0xbd9dc51d	-0.07703612
180	0xbb18ca78	-0.002331404
181	0xbd7101d3	-0.05883963
182	0x3db1c1ca	0.086795405
183	0xbd76db08	-0.06026748
184	0xbdb50283	-0.0883837
185	0xbd4cb002	-0.04997254
186	0x3d22eebb	0.039778452
187	0x3c6faae6	0.014628148
188	0xbd89d1d8	-0.06729478
189	0xbd909563	-0.07059743
190	0x3d76e590	0.06027752
191	0xbd918b8c	-0.071066946
192	0xbd68245c	-0.0566753
193	0xbd3c7c5b	-0.046017032
194	0x3c848681	0.016177418
195	0xbb098e16	-0.002098923
196	0xbdb240ec	-0.08703789
197	0xbcf9db1d	-0.03049999
198	0x3d91139c	0.07083818
199	0xbc406c91	-0.011744634
200	0x3db0eb7b	0.08638664
201	0x3d20b53f	0.03923535
202	0x3d29ba1e	0.04143726
203	0x3d3c25e3	0.04593457
204	0x3d4c1ed4	0.049834087
205	0x3da6a370	0.08136642
206	0xbd09243e	-0.03348183
207	0x3cfb6672	0.030688498
208	0x3d7e2dfa	0.062055565
209	0x3d8c734e	0.0685793
210	0xbc4f677d	-0.012658951
211	0xbc3023e7	-0.010750747
212	0xbd9ab250	-0.07553542
213	0xbae74176	-0.001764341
214	0xbdab3ce8	-0.08361226
215	0xbc532429	-0.012887039
216	0xbd98a722	-0.07453753
217	0x3acc2553	0.0015575088
218	0x3d3de0a0	0.046356797
219	0xbd60071c	-0.05469428
220	0x3c6d9b30	0.014502332
221	0x3dd3ebed	0.10347734
222	0x3d7282de	0.059206836
223	0xbd092059	-0.033478115
224	0xbd661a1c	-0.056177244
225	0x3ace4c87	0.001573936
226	0xbd8631af	-0.06552445
227	0x3da60291	0.08105958
228	0x3c93b2b0	0.01802954
229	0xbcaacb70	-0.02084896
230	0xbc2ef042	-0.010677399
231	0x3d4cdf4e	0.050017647
232	0x3d713408	0.05888751
233	0xbd460005	-0.048339862
234	0xbd33764d	-0.043813992
235	0x3d3a52d3	0.045489144
236	0x3be6ff39	0.007049468
237	0x3cc10445	0.023561606
238	0xbd77a968	-0.060464293
239	0x3c885a94	0.016644754
240	0x3c3b87f1	0.011445985
241	0x3d62df26	0.055388592
242	0x3d51f380	0.05125761
243	0x3d8761e0	0.06610465
244	0xbd078324	-0.03308405
245	0x3dc6c491	0.09705461
246	0x3d402f81	0.046920303
247	0x3d88d9cb	0.06682166
248	0x3d02d364	0.03193988
249	0x3d819fe8	0.06329328
250	0xbd289562	-0.041158088
251	0xbd2a0b85	-0.041514892
252	0x3d5e1294	0.054216936
253	0x3c945b65	0.018109987
254	0x3cd49277	0.025948746
255	0xbdcbdf19	-0.09954662

res1a.conv2.bias f4 [16]
0	0xbd245d6c	-0.040128157
1	0xbd822c38	-0.0635609
2	0x3d346424	0.044040814
3	0x3d026389	0.031833205
4	0xbd2d6d18	-0.042340368
5	0x3d11efb3	0.035628986
6	0xbd8a86a5	-0.06763963
7	0xbd3f8065	-0.046753306
8	0xbd8bf1c8	-0.068332255
9	0x3c8abfeb	0.016937217
10	0xbd86265f	-0.065502875
11	0x3d337f1d	0.043822397
12	0x3d900a39	0.070332
13	0xbced6a9d	-0.028981501
14	0xbb2e70d9	-0.0026617555
15	0xbc4dcda9	-0.01256124

res1b.conv1.weight f4 [16, 16, 3, 3]
0	0xbc0d9c35	-0.0086432
1	0x3ce3b711	0.027797254
2	0x3dce8269	0.100834675
3	0x3c5d4ad7	0.013506613
4	0x3d446ae2	0.047953494
5	0xbcc909f1	-0.024540873
6	0xbd919e5f	-0.07110285
7	0x3b79c3a9	0.0038111007
8	0xbd66ddea	-0.056363977
9	0xbc549de1	-0.012977094
10	0x3e31df1a	0.17370263
11	0x3dc6bdd1	0.09704173
12	0x3d927a9f	0.07152294
13	0x3c2eb29e	0.010662703
14	0xbd861e86	-0.06548791
15	0xbd5d9fa6	-0.05410733
16	0x3ceade1b	0.028670361
17	0xbb274de7	-0.002552861
18	0x3db1b6e5	0.086774625
19	0x3d0edad7	0.03487667
20	0x3dd47d75	0.103754915
21	0xbb9fba38	-0.004874494
22	0x3d49850b	0.049199145
23	0x3d600e95	0.054701407
24	0xbd06890f	-0.032845553
25	0xbd394fe5	-0.04524221
26	0x3c27ff31	0.0102537135
27	0xbc8f493e	-0.01749098
28	0x3d81fa58	0.063465774
29	0x3d843793	0.064559124
30	0x3d868f9e	0.065703616
31	0x3c521469	0.012822249
32	0xbd5feb40	-0.05466771
33	0xbc995553	-0.018717444
34	0x3d809c40	0.06279802
35	0x3cdaf22e	0.026726808
36	0x3d8772bd	0.066136815
37	0x3d618bab	0.05506484
38	0xbd286819	-0.0411149
39	0xbc524fc7	-0.012836403
40	0x3d7b82e4	0.061404124
41	0x3dbec91c	0.09315702
42	0x3d2f66e0	0.04282272
43	0x3cfdfd06	0.03100444
44	0x3d8b69c6	0.06807284
45	0xbd06aec9	-0.032881532
46	0xbbafa78d	-0.00536055
47	0x3d25898b	0.040414374
48	0x3c9e61f6	0.01933382
49	0xbdc0fcbb	-0.094232045
50	0xbd0b48c9	-0.03400496
51	0x3ba2f64a	0.0049732076
52	0x3c047ed4	0.008086879
53	0xbca52d4c	-0.0201632
54	0xbd322c42	-0.04349924
55	0xbe02a1cf	-0.12757038
56	0x3cfc8dc6	0.030829322
57	0x3cc65ae5	0.024213264
58	0xbde3bf46	-0.11120467
59	0xbd8c8bb4	-0.06862584
60	0x3cdf88d8	0.027286932
61	0xbda70f35	-0.081571974
62	0xbe3d54bc	-0.18489355
63	0xbd368f3e	-0.0445702
64	0xbc01910a	-0.007908115
65	0xbd0712a6	-0.03297677
66	0xbd51c59c	-0.051213846
67	0x3d3b8aff	0.045786854
68	0x3d2df688	0.04247144
69	0xbd60adcf	-0.054853257
70	0x3d39c186	0.045350574
71	0x3ccd9592	0.025095735
72	0x3c9764da	0.018480707
73	0xbd3758c0	-0.044762373
74	0xbc952a37	-0.018208606
75	0x3da29d61	0.07940174
76	0x3d5120d9	0.051056717
77	0xbd0ab514	-0.033864096
78	0xbc9d4492	-0.019197736
79	0xbd054c40	-0.03254342
80	0x3cf419f0	0.029797524
81	0xbd8bfd08	-0.06835371
82	0xbcbc3f97	-0.02297954
83	0xbd234e3f	-0.039869543
84	0xbc60e968	-0.013727523
85	0xbdb9831d	-0.09058211
86	0xbc2fe72e	-0.01073627
87	0xbd7d7af9	-0.061884854
88	0xbd8bd42b	-0.06827577
89	0xbdbe2377	-0.09284108
90	0x3b722a31	0.0036951418
91	0x3d3ed497	0.04658946
92	0x3dbe36e2	0.09287812
93	0x3ca7a766	0.020465564
94	0x3d4df89c	0.05028592
95	0x3d43e729	0.047827873
96	0x3c012ba2	0.007883938
97	0x3d7f1721	0.062277917
98	0x3c824503	0.015902048
99	0x3c737810	0.014860168
100	0xbddefbc5	-0.10887865
101	0xbc40337f	-0.011731028
102	0xbbf8d916	-0.007594238
103	0x3cf7b7e4	0.030239053
104	0x3d7a656f	0.06113189
105	0xbd885065	-0.06655959
106	0xbd8292d4	-0.063756615
107	0xbc66bd3b	-0.014083202
108	0x3c9b4271	0.01895258
109	0x3c45a33b	0.012062843
110	0xbc93254e	-0.017962124
111	0x3d510709	0.0510321
112	0xbd0037ad	-0.031303097
113	0xbd523d4b	-0.051327985
114	0xbd79ad1b	-0.060956102
115	0xbcc69473	-0.024240708
116	0x3ba90c9a	0.005158973
117	0xbd6c82da	-0.057741977
118	0xbc8b2de3	-0.016989654
119	0x3cf66d5f	0.03008145
120	0x3cb5360b	0.022120496
121	0xbbe0f64f	-0.0068653
122	0xbd28e6bd	-0.041235674
123	0xbdc732df	-0.097265
124	0x3d856586	0.06513505
125	0x3dcff6ec	0.101545185
126	0x3c969b11	0.018384488
127	0x3d3544f6	0.04425522
128	0x3dbd2330	0.09235227
129	0x3db39eab	0.08770498
130	0xbc52a942	-0.012857737
131	0x3da6096e	0.08107267
132	0xbd90007c	-0.070313424
133	0x3cfa8e88	0.030585542
134	0xbd2bcd75	-0.041943986
135	0x3d28379f	0.04106867
136	0x3d180625	0.037115235
137	0xbc0c8af5	-0.008578052
138	0x3cf403bd	0.029786939
139	0x3d96a8cb	0.073564135
140	0x3de1b164	0.11020163
141	0x3d385877	0.04500624
142	0xbd35478f	-0.044257697
143	0xba0ba795	-0.0005327401
144	0xbdd07438	-0.10178417
145	0xbdb64e54	-0.08901659
146	0xbc32da65	-0.010916327
147	0x3d04a8b2	0.032387443
148	0xbd9c9ca3	-0.076470636
149	0xbd526f3a	-0.051375605
150	0x3ab816a8	0.0014044838
151	0x3d7557b4	0.059898093
152	0x3c1d0e43	0.00958592
153	0x3cbe3a65	0.023221204
154	0x3dbf7513	0.09348502
155	0xbd932221	-0.07184244
156	0xbd8be68c	-0.06831083
157	0x3c87de4c	0.016585492
158	0xbdb6613d	-0.089052655
159	0xbd9ff77a	-0.07810874
160	0xbadf8b2d	-0.0017055027
161	0x3e23c480	0.15992928
162	0xbd4d644a	-0.05014447
163	0xbd254fea	-0.040359415
164	0xbc533cd4	-0.0128929205
165	0xbd905294	-0.070470005
166	0xbcbc0879	-0.022953259
167	0xbb541d2a	-0.0032366016
168	0xbca71d8b	-0.02039983
169	0xbd1f9150	-0.03895694
170	0x3aa85ce0	0.0012845062
171	0xbd61b87e	-0.055107586
172	0x3c9e275b	0.019305876
173	0x3b2d17fd	0.0026412003
174	0xbd6cc014	-0.057800367
175	0x3d8e2ef0	0.06942546
176	0xbd2201a1	-0.039552335
177	0xbc8b724e	-0.017022278
178	0x3d6758d5	0.0564812
179	0xbd5cf366	-0.05394306
180	0xbcccfcca	-0.025022883
181	0x3b7ca6ee	0.0038551646
182	0xbd7c24c7	-0.06155851
183	0xbcd37071	-0.025810452
184	0xbd734c52	-0.059398957
185	0xbcce20f2	-0.025162194
186	0x3bef5976	0.0073043657
187	0x3c0f854b	0.008759807
188	0xbd37162e	-0.044698887
189	0xbb09d296	-0.002103006
190	0xbd72e0d6	-0.05929645
191	0x3d2ad7da	0.04170976
192	0xbbe396eb	-0.006945481
193	0x3d6727ee	0.056434564
194	0xbd9002fe	-0.07031821
195	0xbce997df	-0.0285148
196	0x3d4313ff	0.04762649
197	0x3b2b5a28	0.0026146267
198	0x3d323c3b	0.04351447
199	0xbcb1c307	-0.021699442
200	0xbd75919b	-0.059953313
201	0xbca6d002	-0.020362858
202	0x3d833389	0.06406314
203	0xbdb61a19	-0.088916965
204	0x3d8001ec	0.062503666
205	0xbd256df8	-0.040388077
206	0xbd73c7ce	-0.05951672
207	0x3ab0e885	0.0013497031
208	0xbb88404e	-0.0041580563
209	0xbdc157eb	-0.09440597
210	0xbd9e6fb1	-0.07736147
211	0xbcaac65f	-0.020846544
212	0x3d65ce5b	0.056105
213	0x3d92fa89	0.07176692
214	0xbda78547	-0.081797175
215	0x3d5effa0	0.054443
216	0xbdfc4088	-0.12316996
217	0xbddc196f	-0.107470386
218	0xbde560e4	-0.11200121
219	0xbd7a0689	-0.06104139
220	0xbd607886	-0.05480244
221	0xbd4fcc37	-0.050731864
222	0xbd9e43bb	-0.07727762
223	0xbb39571d	-0.0028280683
224	0x3d5fdc73	0.054653596
225	0xbd333f55	-0.04376157
226	0xbd84cecc	-0.06484756
227	0x3c40ef89	0.01177586
228	0x3caf0b41	0.021367671
229	0xbd405659	-0.046957348
230	0x3d52d7a4	0.051475182
231	0x3d2838db	0.041069847
232	0x3d492193	0.049104284
233	0xbdbb2143	-0.091372035
234	0xbce77b13	-0.028256929
235	0x3e0029b8	0.12515914
236	0xbd8f7691	-0.070050366
237	0x3d8d0ea1	0.06887556
238	0x3d9ecc50	0.07753813
239	0xbd5082f6	-0.050906144
240	0xb89bdd9a	-7.4322525e-05
241	0x3cab252f	0.020891754
242	0x3d1001e0	0.03515804
243	0xbd668e6c	-0.056288168
244	0x3c0beade	0.008539883
245	0xbd99da28	-0.07512313
246	0x3d14cedb	0.036330085
247	0xbce458d1	-0.027874382
248	0xbd6cccca	-0.05781249
249	0xbd9cebef	-0.07662188
250	0xbd89e0fd	-0.06732366
251	0x3c3916b6	0.011296919
252	0x3d677734	0.056510165
253	0x3d2e744d	0.04259138
254	0xbc7d7aea	-0.0154711995
255	0x3ce77670	0.028254718

res1b.conv1.bias f4 [16]
0	0x3d29392e	0.041314296
1	0x3d9dd974	0.077074915
2	0xbd48db6e	-0.04903739
3	0x3ce77b9b	0.028257182
4	0xbd5f1ca0	-0.05447066
5	0xbd46f9c2	-0.04857803
6	0x3d009079	0.03138778
7	0xbc82e70b	-0.01597931
8	0x3d3fd995	0.04683836
9	0xbd53f55e	-0.051747672
10	0x3d9e6d16	0.0773565
11	0xbd9daa9f	-0.07698559
12	0x3d026ec4	0.031843916
13	0x3ccabee8	0.024749234
14	0xbc403ca2	-0.011733206
15	0x3ce0067c	0.027346842

res1b.conv2.weight f4 [16, 16, 3, 3]
0	0x3d0a9d67	0.033841517
1	0xbdb55746	-0.08854537
2	0xbdd2d58b	-0.10294636
3	0x3c511ecc	0.01276369
4	0xbba9ecc1	-0.005185694
5	0xbdd2d2c4	-0.102941066
6	0xbaa818d2	-0.001282478
7	0xbcc5ff93	-0.024169719
8	0x3cd07a96	0.025449079
9	0xbd2a1e12	-0.041532584
10	0x3d8239cb	0.063586794
11	0x3c55227a	0.013008708
12	0x3d480706	0.048834823
13	0x3c4f31a5	0.0126461135
14	0x3d1be6ec	0.03806202
15	0x3d85b30c	0.06528291
16	0x3d45bc5a	0.04827533
17	0x3cc56a2c	0.024098478
18	0xbd243279	-0.040087197
19	0xbc5544e6	-0.013016915
20	0xbd098d7a	-0.03358219
21	0x3d01d6bd	0.03169893
22	0xbcfce613	-0.030871427
23	0xbd1130bc	-0.035446867
24	0x3ce6266c	0.028094493
25	0x3d992f29	0.07479698
26	0x3d4ba959	0.04972205
27	0xbd9401e6	-0.072269246
28	0xbd8c1fc3	-0.068419956
29	0xbbc1c9bc	-0.005913941
30	0xbb65e0de	-0.0035076658
31	0xbda8bd09	-0.082391806
32	0x3d4b2eec	0.049605295
33	0xbd4e78cd	-0.050408173
34	0x3c419207	0.011814601
35	0xbdf0c813	-0.11756911
36	0x3d89c7a7	0.06727534
37	0x3d967f3f	0.07348489
38	0x3ca21870	0.019787043
39	0xbd0a24c8	-0.033726484
40	0x3d043245	0.032274503
41	0x3d762903	0.060097706
42	0x3bc38ecf	0.005967952
43	0x3ccde9b3	0.02513585
44	0xbb8e2a32	-0.004338526
45	0xbc9137b1	-0.017726751
46	0xbd87ebff	-0.066368096
47	0xbbe9d08f	-0.007135458
48	0xbd9bfb7c	-0.07616326
49	0x3d6ef695	0.058340628
50	0x3beb44ba	0.0071798237
51	0x3bc26816	0.005932818
52	0x3d048c38	0.032360286
53	0x3d6658fa	0.0562372
54	0xbc8aeb83	-0.016958004
55	0xbd6a4c2e	-0.057201557
56	0xbcb11d12	-0.021620307
57	0xbd15f001	-0.03660584
58	0x3cca172d	0.024669254
59	0xbc723838	-0.014783911
60	0xbd8067a9	-0.062697716
61	0xbd1993a6	-0.037494324
62	0x3c1efc39	0.009703689
63	0xbd680924	-0.056649342
64	0xbd047dd7	-0.032346573
65	0xbd9bfa32	-0.0761608
66	0x3cda217d	0.026627297
67	0xbcde6b51	-0.027150782
68	0x3d0d3d9d	0.034482587
69	0x3d74af8d	0.05973773
70	0x3d7468c2	0.059670217
71	0x3cb385a6	0.021914314
72	0x3d457cd1	0.048214737
73	0xbd5fd3cf	-0.054645356
74	0xbd0af3f1	-0.033924047
75	0x3db13214	0.0865213
76	0x3dbcd001	0.09219361
77	0xbb8a2d4a	-0.0042168247
78	0x3d97d9d6	0.07414596
79	0x3d99b042	0.07504322
80	0x3d1ba67f	0.03800058
81	0xbc911da4	-0.017714329
82	0xbd947377	-0.07248586
83	0x3d4daeea	0.05021564
84	0x3d41cb13	0.047312807
85	0x3dc0f60f	0.09421932
86	0x3db19611	0.08671201
87	0x3d3ced76	0.046124898
88	0x3d82dfc1	0.06390334
89	0xbd9355f4	-0.07194129
90	0x3d9e05f9	0.07715983
91	0xbc491c3f	-0.012274801
92	0xbd95e08e	-0.07318221
93	0x3d84be84	0.064816505
94	0x3cfb6f90	0.030692846
95	0xbdbd1d4f	-0.09234106
96	0xbd250a0b	-0.04029278
97	0x3da9a1c1	0.08282805
98	0xbd991537	-0.074747495
99	0x3d172975	0.03690477
100	0xbd79f4a9	-0.06102434
101	0x3d6bdf21	0.05758584
102	0x3d6fe86d	0.058571268
103	0xbd53233c	-0.051547274
104	0x3c09e4f8	0.008416407
105	0x3ba1691e	0.004925861
106	0x3bfab11f	0.007650509
107	0xbd99879f	-0.07496571
108	0xbd59a746	-0.05313804
109	0xbd1684e7	-0.03674784
110	0x3ba4a2b2	0.0050242776
111	0xbb292f58	-0.0025815573
112	0xbcb7fe5d	-0.022460157
113	0xbc7f26ba	-0.015573198
114	0xbd5f7678	-0.05455634
115	0x3c3bb2e4	0.011456225
116	0xbce1b813	-0.027553594
117	0xbc507971	-0.012724266
118	0xbd280b03	-0.041026127
119	0xbdb24d7f	-0.087061875
120	0xbc00f6c2	-0.007871332
121	0x3d928d99	0.07155914
122	0xbdaa83c6	-0.08325915
123	0xbc053a38	-0.008131556
124	0xbc13e255	-0.00902613
125	0xbc8b6382	-0.017015222
126	0x3d0c60f3	0.034272145
127	0xbda3aaa2	-0.0799153
128	0xbd5794c9	-0.052632127
129	0x3ccfb6f3	0.025355792
130	0x3d8da988	0.06917101
131	0x3d475328	0.04866329
132	0x3cd78264	0.026307292
133	0xbc96d9b3	-0.018414354
134	0x3d8ae3bf	0.0678172
135	0x3dbcdf3d	0.09222267
136	0x3dc69de3	0.09698083
137	0x3cb08488	0.02154757
138	0xbb8e7dcf	-0.0043484936
139	0x3cf36fbc	0.029716365
140	0x3d066eb2	0.03282041
141	0x3d2feaa2	0.042948373
142	0xbd01a5bc	-0.031652197
143	0xbd88be14	-0.066768795
144	0x3d9a3f9b	0.07531663
145	0xbcbad47a	-0.022806395
146	0xbd8f902d	-0.07009921
147	0x3d0fe92e	0.035134487
148	0x3dcab0a7	0.09896975
149	0x3bf90260	0.00759916
150	0x3db77151	0.0895716
151	0x3d79fbfa	0.06103132
152	0xbd3dab1d	-0.046305764
153	0xbd0b492f	-0.03400534
154	0x3d87c5bf	0.06629514
155	0x3d8138da	0.06309672
156	0xbc042ca4	-0.008067284
157	0xbda578bb	-0.08079668
158	0xbdb04c68	-0.08608323
159	0xbda4688e	-0.08027755
160	0xbdbbda31	-0.09172476
161	0x3d5a109f	0.053238507
162	0x3d9c5ab1	0.076344855
163	0x3d97dc45	0.0741506
164	0xbd2be834	-0.041969493
165	0x3d041446	0.032245897
166	0xbd4048b1	-0.046944324
167	0x3d8fecd3	0.070275925
168	0xbd6dc059	-0.058044765
169	0x3dbe33db	0.092872344
170	0x3d4d68d5	0.050148804
171	0xbdb311ae	-0.087436065
172	0xbdd8d979	-0.105883546
173	0x3c974146	0.018463742
174	0xbae7556f	-0.0017649363
175	0xbc0d9abf	-0.008642851
176	0xbd95d312	-0.07315649
177	0xbd13e327	-0.0361053
178	0x3d56cee0	0.052443385
179	0xbcbf90b8	-0.023384437
180	0x3daf2fba	0.08554025
181	0x3cdc5f62	0.02690095
182	0x3d52d5bf	0.051473375
183	0x3daff089	0.085908
184	0xbd187dd7	-0.037229385
185	0xbd990937	-0.07472461
186	0x3d5c4a48	0.053781778
187	0xba26a6e4	-0.0006357266
188	0xbc2918ed	-0.010320884
189	0xbd2dd5b4	-0.04244013
190	0xbd130f98	-0.035903543
191	0x3db72548	0.08942658
192	0xbda74ce3	-0.08168962
193	0x3b429bb2	0.0029694852
194	0x3c34b0b8	0.011028461
195	0xbdb274ff	-0.087137215
196	0x3b959e0c	0.00456596
197	0x3d5ce8c4	0.05393292
198	0xbd4ddc57	-0.05025896
199	0xbda30746	-0.07960372
200	0x3c5122a6	0.0127646085
201	0xbc4c9fa8	-0.012489237
202	0xbdce630a	-0.10077484
203	0x3d6eac37	0.058269706
204	0x3d5df0f1	0.054184858
205	0xbdb431b7	-0.08798545
206	0xbd69e637	-0.057104316
207	0x3c6e344e	0.014538838
208	0x3d4ae842	0.049537905
209	0x3d9d6244	0.07684758
210	0x3dbe106d	0.09280477
211	0x3cfb8373	0.030702328
212	0xbcae03ed	-0.021242106
213	0xbcd1bb54	-0.02560202
214	0xbcddb257	-0.027062578
215	0xbc27078c	-0.01019467
216	0x3db0dd29	0.08635933
217	0x3d1650d1	0.036698166
218	0xbd39aad1	-0.04532892
219	0x3cd38ce7	0.025824023
220	0x3dae954b	0.08524569
221	0x3d9046ef	0.070447795
222	0x3daa4aa5	0.083150186
223	0xbd94f18b	-0.07272633
224	0x3d0cd121	0.03437913
225	0xbcdecede	-0.027198251
226	0x39ed1b9f	0.00045224742
227	0x3d02af6f	0.031905588
228	0xbb5942db	-0.0033151421
229	0xbd84fed3	-0.06493916
230	0xbc27485a	-0.010210121
231	0xbdd6ce23	-0.10488536
232	0xbdc66e3a	-0.09688993
233	0x3d5fdada	0.054652072
234	0xbd02d4de	-0.031941287
235	0x3d6cc828	0.05780807
236	0x3d04cbcc	0.03242092
237	0xbd3df1ae	-0.04637306
238	0x3d366548	0.044530183
239	0x3b6bcdd9	0.003598085
240	0x3d5689d5	0.05237754
241	0xbd7a19e9	-0.061059866
242	0x3d8e6451	0.069527276
243	0x3d0c7862	0.034294493
244	0x3a4427e0	0.00074827485
245	0x3cba1695	0.022715846
246	0xbd0f070b	-0.034918826
247	0xbc16f9a3	-0.0092147915
248	0x3c08ba59	0.00834521
249	0x3d6d9f99	0.058013532
250	0xbd8da572	-0.06916322
251	0xbc55422b	-0.013016264
252	0x3cd6d2cd	0.026223565
253	0xbcf53b6b	-0.02993556
254	0xbc702fd2	-0.014659839
255	0xbd313226	-0.043260716

res1b.conv2.bias f4 [16]
0	0x3d7f8e79	0.062391732
1	0xbc95a35b	-0.01826637
2	0x3d5b36d8	0.0535191
3	0x3d3f0c0c	0.04664235
4	0xbc11b52d	-0.008893293
5	0x3c92a331	0.017900081
6	0xbd670422	-0.056400426
7	0x3d57661b	0.05258761
8	0xbc89dc60	-0.016828716
9	0xbcdee0d4	-0.027206816
10	0xbd9a00f4	-0.07519713
11	0xbd912b95	-0.07088391
12	0x3d3eb6a3	0.046560895
13	0x3ce1f0f0	0.027580708
14	0x3c0d9314	0.008641023
15	0xbd180c33	-0.03712101

conv2.weight f4 [32, 16, 3, 3]
0	0xbc4adddd	-0.012381998
1	0xbdbebee4	-0.09313753
2	0x3d6273bd	0.055286158
3	0x3d4dd8db	0.050255638
4	0x3ce5e2e5	0.028062293
5	0xbdb9ac52	-0.090660706
6	0xbda63ab7	-0.08116668
7	0xbd2aa6ca	-0.04166297
8	0xbddb5617	-0.1070978
9	0x3d387590	0.04503399
10	0x3c7ab242	0.015301289
11	0xbd42d7d4	-0.04756911
12	0x3cadcaba	0.021214832
13	0xbc4e182a	-0.012579003
14	0x3ba2798c	0.004958337
15	0x3d72314b	0.05912904
16	0xbd3cda74	-0.04610677
17	0xbd508405	-0.050907154
18	0xbb8cd727	-0.004298109
19	0x3ba808b1	0.005127989
20	0x3d150470	0.036381185
21	0xbc059971	-0.008154259
22	0xbd3efa29	-0.04662529
23	0xbd983071	-0.074311145
24	0x3cd17f91	0.025573524
25	0x3c42ae98	0.011882447
26	0xbd072942	-0.03299833
27	0xbda24b01	-0.07924462
28	0xbd956f44	-0.07296613
29	0xbdcd418e	-0.10022269
30	0x3d023bdb	0.031795364
31	0xbd672b50	-0.05643779
32	0xbd43d131	-0.047806922
33	0xbcf0dcf2	-0.02940223
34	0x3d260bfe	0.04053878
35	0xbc580b4d	-0.013186288
36	0xbcc61ca9	-0.024183588
37	0xbd4c5f5d	-0.049895633
38	0x3d811d8f	0.06304466
39	0x3d6dc1a3	0.058045994
40	0x3d8e2f22	0.069425836
41	0xbd8be525	-0.06830815
42	0x3d7ed967	0.06221905
43	0x3d6183d7	0.055057373
44	0x3d8821b6	0.06647055
45	0xbd113e44	-0.03545977
46	0x3d821001	0.06350709
47	0xbd7b7c92	-0.061398096
48	0xbd194978	-0.03742358
49	0xbd2be9fa	-0.041971184
50	0xbde2797f	-0.1105833
51	0xbced5e71	-0.028975697
52	0x3aafe9a9	0.0013421077
53	0xbdf468e0	-0.11934066
54	0x3d1c4f41	0.03816152
55	0x3dc67d78	0.096919
56	0x3d7c5f8a	0.06161455
57	0x3d9b7362	0.07590367
58	0xbcb523f7	-0.022111876
59	0xbd08d1c4	-0.033403173
60	0xbd01c722	-0.03168405
61	0x3cf9c5a5	0.030489752
62	0x3d3875fa	0.045034386
63	0xbd4c6740	-0.049903154
64	0x3d72041e	0.059085958
65	0x3c87581f	0.016521512
66	0xbdc8becd	-0.09802017
67	0x3cd4e6cf	0.025988964
68	0x3cd61e9f	0.026137648
69	0x3cb1a1a9	0.02168353
70	0xbcd2ebd0	-0.02574721
71	0x3c2148e6	0.0098440405
72	0x3d343ab2	0.04400129
73	0x3d2a9070	0.041641653
74	0x3dbc9cfb	0.09209629
75	0xbd560f07	-0.052260425
76	0xbd752801	-0.059852604
77	0xbd0d6f31	-0.03452987
78	0xbdb920d6	-0.09039466
79	0x3d48b76c	0.04900305
80	0x3cfa88b1	0.030582758
81	0xbbdf6a7e	-0.006818115
82	0xbd707895	-0.058708746
83	0xbd2ecff7	-0.0426788
84	0x3c853c28	0.016264036
85	0x3cfb37bf	0.03066623
86	0xbd633f23	-0.055480134
87	0x3d38de06	0.045133613
88	0xbc50e0fd	-0.012748954
89	0x3d95b8a9	0.07310612
90	0xbd4eb6bc	-0.050467238
91	0xbcc2867c	-0.023745768
92	0xbd32f62c	-0.0436918
93	0xbd1856bc	-0.03719209
94	0xbcbf2afb	-0.023335924
95	0xbc595d50	-0.013266876
96	0x3c9a63f1	0.018846484
97	0xbc8c403e	-0.017120477
98	0x3c8472f4	0.016168095
99	0xbd292610	-0.041296065
100	0x3da76372	0.081732646
101	0xbce57dbb	-0.028014055
102	0x3d371056	0.044693314
103	0xbd854eb1	-0.0650915
104	0x3c08256e	0.008309705
105	0xbd1985ea	-0.037481226
106	0xbda89050	-0.082306504
107	0xbd596e86	-0.05308392
108	0xbd089273	-0.03334279
109	0xbcfd0803	-0.03088761
110	0xbd6b04d5	-0.057377655
111	0x3d65b0a0	0.056076646
112	0xbd645710	-0.05574709
113	0xbc889d7c	-0.016676657
114	0x3a93b8db	0.0011270301
115	0x3acec0b8	0.0015773987
116	0xbdda7f78	-0.10668844
117	0xbd692b46	-0.056926034
118	0xbcbfc2ce	-0.02340832
119	0x3d988170	0.07446563
120	0x3ca0f1f5	0.019646624
121	0x3d9629e5	0.073322095
122	0xbc7cf7df	-0.015439956
123	0x3da0f73a	0.07859655
124	0x3c3548a0	0.011064678
125	0x3d89478f	0.06703102
126	0xbb8fe71f	-0.0043915655
127	0xbc575afb	-0.01314425
128	0x3d4a0e8e	0.049330287
129	0x3d3681ca	0.04455737
130	0x3db40102	0.08789255
131	0xbd9e4e9b	-0.077298366
132	0x3cdac92b	0.026707252
133	0x3d1e4f38	0.038649768
134	0xbd96ef7a	-0.07369895
135	0xbcbc3eb6	-0.022979122
136	0xbd5f52fa	-0.054522492
137	0xbd948c35	-0.07253305
138	0xbaa6146e	-0.0012670883
139	0x3d91fccc	0.07128295
140	0xbd9d3cfd	-0.07677648
141	0xbcbbb3c2	-0.022912864
142	0xbc0e31a1	-0.008678825
143	0xbd90866d	-0.0705689
144	0x3d023d67	0.03179684
145	0xbb9c2647	-0.004765305
146	0xbd73e4b3	-0.059544276
147	0xbd91a7d6	-0.0711209
148	0x3c985111	0.018593343
149	0x3d390568	0.04517117
150	0xbd944cb9	-0.07241196
151	0x3bb2b2e7	0.0054534557
152	0x3d49ead8	0.04929623
153	0x3d5a8a4d	0.05335455
154	0x3dc4cbe0	0.096091986
155	0xbc1c67bb	-0.009546216
156	0x3d787497	0.060658064
157	0x3db64647	0.08900123
158	0xbc1cbeb8	-0.009566955
159	0x3c94ce33	0.01816473
160	0x3d8536a8	0.065045655
161	0xbd6c4168	-0.057679564
162	0x3d567316	0.05235585
163	0xbced0886	-0.028934728
164	0x3d3a4e4e	0.045484833
165	0x3d5a378d	0.053275634
166	0x399d16bc	0.00029962312
167	0xbd9ede10	-0.07757199
168	0x3d9e967a	0.07743545
169	0xbcb7ffb4	-0.022460796
170	0x3d1f6b20	0.03892052
171	0xbc5e2594	-0.013558764
172	0x3d5a6531	0.05331916
173	0x3d646f94	0.05577047
174	0x3d83980c	0.06425485
175	0xbb1f9ef9	-0.002435623
176	0x3d9dbdea	0.07702239
177	0x3d31eb89	0.043437514
178	0x3c7c8d15	0.015414496
179	0x3d8fa610	0.07014096
180	0xbdb55d17	-0.08855646
181	0x3d866061	0.065613516
182	0xbd698197	-0.057008352
183	0xbdb68110	-0.089113355
184	0xbd758ce7	-0.059948828
185	0x3d90e92e	0.070757255
186	0x3d132c09	0.035930667
187	0xbd3c58cf	-0.045983132
188	0xbdb9b077	-0.09066861
189	0xbd617505	-0.05504324
190	0x3d9bc94c	0.07606754
191	0xbcd79762	-0.026317302
192	0xbd8dd19a	-0.06924744
193	0xbca031d8	-0.019555017
194	0x3d20886d	0.039192606
195	0xbdaa8514	-0.08326164
196	0xbcc09a9f	-0.02351123
197	0x3de3ed94	0.11129299
198	0xbd3427e0	-0.04398334
199	0x3c8f5726	0.01749761
200	0x3d8d9d95	0.06914822
201	0xbd0461ba	-0.03231976
202	0xbd53ed4b	-0.051739972
203	0xbd3201b5	-0.04345866
204	0x3d885fee	0.06658922
205	0xbd3508fe	-0.04419803
206	0xbb7a39af	-0.0038181355
207	0xbcf5ca79	-0.030003773
208	0x3d530ab0	0.051523864
209	0x3c84b58b	0.016199848
210	0x3dbd1b16	0.09233682
211	0xbd3a9cf7	-0.04555985
212	0x3d4335a8	0.047658592
213	0x3d662804	0.056190506
214	0x3d828fa2	0.06375052
215	0xbbc958bb	-0.0061446107
216	0x3da9d0d9	0.08291788
217	0xb9611d71	-0.0002146864
218	0xbd416140	-0.047211885
219	0x3d395cd3	0.04525454
220	0x3d733f2e	0.059386425
221	0xbd2826e8	-0.04105273
222	0x3dacd7fa	0.08439632
223	0x3d61121e	0.05494892
224	0xbd117e0d	-0.035520602
225	0xbd322768	-0.043494612
226	0xbcf708af	-0.030155508
227	0x3c5db3d8	0.013531648
228	0x3cd8dad3	0.026471531
229	0xbbe26a43	-0.00690964
230	0x3d8d1c7b	0.06890198
231	0xbd46d887	-0.04854634
232	0x3d1ef17c	0.038804516
233	0xbc87cbde	-0.016576704
234	0xbcda7e88	-0.026671663
235	0x3d7455ce	0.059652142
236	0xbd952369	-0.072821446
237	0xbd3ad8ed	-0.045617033
238	0x3d48a17e	0.048982136
239	0xbc3c8c7b	-0.0115081025
240	0x3c138d44	0.009005848
241	0x3cc76f7c	0.024345152
242	0x3d99776c	0.07493481
243	0x3d37edc8	0.0449045
244	0x3d895193	0.06705012
245	0x3d57be11	0.052671496
246	0xbd792e88	-0.06083539
247	0xbc7220e0	-0.014778346
248	0xbc0c77ca	-0.008573482
249	0x3d921252	0.071324006
250	0x3d1a4f2d	0.037673164
251	0xbcf415b1	-0.0297955
252	0x3d848be7	0.06471997
253	0xbcba2f84	-0.022727735
254	0x3db89757	0.09013241
255	0xbd822979	-0.063555665

conv2.bias f4 [32]
0	0xbb45e0e8	-0.003019387
1	0xbcd57b48	-0.026059762
2	0xbd837944	-0.06419614
3	0xbd30afcd	-0.043136407
4	0x3ccc8996	0.02496795
5	0x3cdafef0	0.026732892
6	0x3d349fe2	0.04409779
7	0xbd68ab54	-0.056804016
8	0xbce99c21	-0.02851683
9	0xbd1f9b0b	-0.03896622
10	0xbd0546bd	-0.032538164
11	0xbc26871c	-0.0101640485
12	0xbd8f06d5	-0.06983725
13	0xbd6d6040	-0.05795312
14	0xbcbee3ce	-0.023301985
15	0xbcf01778	-0.029308066
16	0xbd50e04b	-0.050995152
17	0xbd36778c	-0.044547603
18	0xbc53ea2d	-0.01293425
19	0x3d20a1e8	0.039216906
20	0xb9111576	-0.00013836272
21	0x3d15442e	0.036441974
22	0xbcdbc48c	-0.02682712
23	0xbc304769	-0.010759213
24	0x3b7e66e8	0.003881866
25	0x3c87b91e	0.016567763
26	0xbd283967	-0.04107037
27	0xbd8755d2	-0.06608166
28	0xbca20753	-0.019778883
29	0x3ccc8509	0.02496578
30	0xbd6748b1	-0.05646581
31	0x3d30a11d	0.0431224
