checkpoints/ppo_academy_empty_goal.pth (torch, 718650 bytes, 45 tensors)

conv1.weight f4 [16, 16, 3, 3]
-0.05367345 0.031101184 -0.030913372 0.0636511 0.08654478 0.12955123 0.028399387 -0.007294653
0.01185715 0.027159536 -0.0028746608 0.056864675 -0.08325538 -0.030949136 0.01594918 -0.120967634
-0.015311709 -0.057426274 0.13454178 0.064557925 0.14625765 0.022832816 0.13266924 0.14984109
0.051644042 0.021928906 0.11655596 0.02615413 0.14441988 0.055551972 -0.053511698 0.026899297
0.04441789 0.045136523 0.15370095 0.05427111 -0.019147562 -0.018543296 0.03629444 0.003472351
0.0878866 0.04093265 0.0041081365 -0.029631296 0.012358097 0.021188712 -0.030768072 0.06021883
-0.04436932 -0.03609549 -0.063136786 -0.037236825 -0.039845567 -0.017616723 0.06853401 0.07890166
0.06250731 0.04160399 0.018182956 -0.0066920933 0.01523487 0.08681421 0.0069467914 0.09694092
0.10452828 -0.07909742 0.025847938 0.049235053 0.04949988 -0.030893242 0.09730247 -0.008790397
0.012111393 0.07200636 -0.048247457 -0.030523904 -0.0069013215 -0.062318325 -0.0942547 0.11210953
0.02131216 0.0129645765 -0.12820365 0.09349305 0.027516024 -0.08888717 -0.019821629 -0.037811235
-0.00041505523 -0.024544964 0.044083875 0.16979799 0.009974658 -0.00030474947 0.01353191 0.086260274
0.010503288 0.0818634 0.03731537 0.14604926 0.15578155 -0.028916996 0.002081085 0.12609425
0.009064404 -0.010608295 0.037046146 0.12541184 -0.05801067 -0.05690955 0.02634957 0.04838093
0.090186685 0.018523809 0.05138494 -0.0068209954 -0.007676489 -0.16971299 0.07239695 0.019693526
-0.16297142 -0.013394175 0.041294325 -0.03386992 -0.079334214 0.0813681 0.044515714 0.14307268
0.08931845 -0.03160785 -0.014714007 0.14550333 0.045589324 -0.20231716 0.1503993 -0.07902761
-0.013883768 -0.023440996 0.066718735 0.104343876 -0.002297793 -0.047881704 0.17883983 0.015539512
0.013458291 0.015115218 0.09846546 0.030033126 0.05822946 -0.016099798 0.007609229 0.06460166
-0.08738155 -0.107280925 -0.06579341 -0.08272382 0.045331404 -0.08229237 -0.13666536 -0.013782871
-0.074960686 0.09548735 -0.09906672 -0.19828375 0.015274368 -0.1380802 -0.090931825 -0.19631545
0.022952467 0.051752888 0.14256231 0.084644035 -0.19458382 0.024134442 0.0380482 0.08357607
0.007354092 0.051719848 0.0038804258 -0.0803031 0.0047314567 -0.09524844 0.07275171 0.014916751
0.13168514 0.02628003 -0.15059005 0.07480038 -0.013940177 -0.0050349906 -0.18298122 -0.10076295
0.053677596 0.013824007 -0.1315214 -0.0063976245 -0.11500729 0.05310395 -0.25299346 0.12573478
-0.05189976 -0.11745695 -0.14623635 -0.18997602 -0.09066699 -0.06526672 -0.009279316 -0.03820742
-0.10337602 0.0073786876 0.04825391 -0.029594703 0.020278724 -0.15629588 0.021371707 -0.11594901
-0.017520962 -0.02904317 0.03794934 -0.05418333 -0.026378123 0.047157597 0.0030123335 -0.16886665
-0.0125120105 -0.013449671 -0.013550465 -0.20176785 -0.09114316 0.024704212 0.006426578 -0.10341392
-0.10050577 0.06229034 -0.08795677 -0.23635249 0.00956754 0.14636244 -0.09937311 -0.190584
-0.052574955 -0.09972351 0.08713541 0.1268674 -0.06130654 -0.109742045 0.072774515 0.001809825
0.02084392 -0.010486867 -0.11343374 -0.12959442 -0.08951474 0.056452926 0.029436786 -0.075673
00000000: b1d8 5bbd e9c7 fe3c 0a3e fdbc 825b 823d
00000010: 643e b13d 14a9 043e d5a5 e83c fc07 efbb
00000020: 7e44 423c ad7d de3c ce64 3cbb efea 683d
00000030: cc81 aabd 0b89 fdbc dba7 823c e1bd f7bd
00000040: f6dd 7abc d037 6bbd 52c5 093e f236 843d
00000050: 91c4 153e e30b bb3c 72da 073e f16f 193e
00000060: b488 533d 40a4 b33c e4b4 ee3d 3041 d63c
00000070: cee2 133e 778a 633d 152f 5bbd ea5b dc3c
00000080: 89ef 353d 13e1 383d c863 1d3e 624b 5e3d
00000090: 59db 9cbc 1ce8 97bc 7ba9 143d 6290 633b
000000a0: e4fd b33d ffa8 273d 8c9d 863b 55bd f2bc
000000b0: 9e79 4a3c f393 ad3c 530d fcbc 05a8 763d
000000c0: 9bbc 35bd ddd8 13bd dc4d 81bd a485 18bd
000000d0: 1b35 23bd f250 90bc 8f5b 8c3d 3297 a13d
000000e0: d503 803d f268 2a3d 6cf4 943c 5949 dbbb
000000f0: ad9b 793c a6cb b13d e9a1 e33b f688 c63d
00000100: ec12 d63d d4fd a1bd 0ebf d33c b2aa 493d
00000110: 63c0 4a3d d313 fdbc 8446 c73d 9905 10bc
00000120: dd6e 463c 1278 933d 209f 45bd 440d fabc
00000130: 7b24 e2bb 8041 7fbd 9c08 c1bd ae99 e53d
00000140: d796 ae3c 6069 543c d147 03be 4979 bf3d
00000150: 4969 e13c 7a0a b6bd f860 a2bc f4df 1abd
00000160: c59b d9b9 8512 c9bc 4b91 343d 86df 2d3e
00000170: bf6c 233c c8c6 9fb9 f2b4 5d3c 3aa9 b03d
00000180: fc15 2c3c 00a8 a73d 00d8 183d f08d 153e
00000190: 3385 1f3e 56e3 ecbc d062 083b da1e 013e
000001a0: de82 143c 6ace 2dbc b3bd 173d f66b 003e
000001b0: 999c 6dbd fd19 69bd 0edb d73c 152b 463d
000001c0: ccb3 b83d 3ebf 973c 0479 523d a882 dfbb
000001d0: 0f8b fbbb 3ec9 2dbe da44 943d 5154 a13c
000001e0: fbe1 26be 3e73 5bbc 3d24 293d 2fbb 0abd
000001f0: fa79 a2bd 52a4 a63d 1c56 363d a581 123e
00000200: 97ec b63d 3c77 01bd 0513 71bc d3fe 143e
00000210: dfbb 3a3d 3b2c 4fbe 4602 1a3e 3ad9 a1bd
00000220: be78 63bc 5507 c0bc d5a3 883d 3eb2 d53d
00000230: 9296 16bb 9b1f 44bd ca21 373e 7099 7e3c
00000240: 2a80 5c3c d2a5 773c 42a8 c93d 0808 f63c
00000250: 0482 6e3d b9e3 83bc d756 f93b e04d 843d
00000260: 19f5 b2bd 1ab6 dbbd b2be 86bd 1b6b a9bd
00000270: 6cad 393d e788 a8bd 01f2 0bbe 8dd1 61bc
00000280: fd84 99bd df8e c33d 7ee3 cabd e50a 4bbe
00000290: 5841 7a3c e564 0dbe 773a babd eb06 49be
000002a0: d006 bc3c d6fa 533d dbfb 113e da59 ad3d
000002b0: fb40 47be 98b5 c53c 6ed8 1b3d ee29 ab3d
000002c0: 98fa f03b 31d8 533d be4e 7e3b f475 a4bd
000002d0: 560a 9b3b 9d11 c3bd d9fe 943d 6365 743c
000002e0: 78d8 063e 3849 d73c 4734 1abe f130 993d
000002f0: 5765 64bc 90fc a4bb 6e5f 3bbe ce5c cebd
00000300: 0add 5b3d 167e 623c 8cad 06be 2aa3 d1bb
00000310: f188 ebbd 8783 593d 5c88 81be 9ec0 003e
00000320: d894 54bd 458d f0bd fbbe 15be 1389 42be
00000330: 9daf b9bd 8faa 85bd 4608 18bc 627f 1cbd
00000340: cfb6 d3bd ebc8 f13b e4a5 453d 9770 f2bc
00000350: 911f a63c 070c 20be b813 af3c ad76 edbd
00000360: 1f88 8fbc f1eb edbc c470 1b3d 57ef 5dbd
00000370: ef16 d8bc 5328 413d 926a 453b 61eb 2cbe
00000380: 2dff 4cbc 025c 5cbc c502 5ebc 3b9c 4ebe
00000390: 44a9 babd 7d60 ca3c 0b96 d23b adca d3bd
000003a0: f8d5 cdbd 2824 7f3d ae22 b4bd 6306 72be
000003b0: 2cc1 1c3c 09e0 153e 2184 cbbd 7428 43be
000003c0: d658 57bd d73b ccbd 0d74 b23d 87e9 013e
000003d0: 911c 7bbd 70c0 e0bd ce0a 953d a637 ed3a
000003e0: dec0 aa3c 1cd1 2bbc f34f e8bd 66b4 04be
000003f0: 8153 b7bd 2f3b 673d 6a25 f13c 72fa 9abd

conv1.bias f4 [16]
0.03001041 0.04387564 -0.02127066 -0.07666269 -0.0016013662 0.048528925 0.03636925 0.02454348
0.030005151 -0.0032194369 0.014677512 -0.020130489 -0.0014613172 0.017182086 0.047425162 -0.055476125
00000000: 64d8 f53c f1b6 333d cf3f aebc 5401 9dbd
00000010: efe4 d1ba 44c6 463d ecf7 143d 680f c93c
00000020: 5dcd f53c 30fd 52bb f379 703c b2e8 a4bc
00000030: ab89 bfba 72c1 8c3c e340 423d ef3a 63bd

res1a.conv1.weight f4 [16, 16, 3, 3]
0.008311734 0.061619427 0.029561881 0.07841758 0.025593536 -0.058550254 0.10122379 0.07494402
-0.048175804 -0.11096821 0.012323555 -0.084577285 -0.060996164 -0.033804387 0.029173356 -0.092686236
0.053904857 0.08870698 -0.0075715063 0.07510416 -0.024206966 0.052709095 0.03996779 -0.005924469
-0.036060162 0.020830162 -0.04737821 -0.09904708 0.0334677 0.05091938 -0.039391365 0.05162878
-0.00846516 0.075696304 0.09361743 0.04843882 0.019164084 0.032325257 0.032551695 -0.036407486
-0.07131434 -0.013982982 -0.017564738 -0.026504928 0.019241855 0.011613157 0.053269234 -0.08460409
0.03583158 -0.0011882867 0.025029408 -0.0017061143 -0.074593544 -0.10635276 -0.015530626 0.04887071
-0.044686873 -0.09135048 -0.07211116 -0.04291811 -0.044445116 -0.012007457 0.013423221 0.044380832
0.076485775 -0.06141837 0.06467886 -0.081785455 -0.06935955 0.06945252 0.027107874 -0.03151285
-0.026078243 -0.07228902 0.03136501 0.026745629 0.02041759 -0.025718028 -0.057530243 -0.100804895
0.015097177 0.08661488 0.09230691 0.03209676 0.07769284 0.077521555 0.012101886 -0.0056208447
0.10805842 0.12763031 -0.0010667356 0.03366801 -0.01336786 0.0035472044 0.0109357815 0.057743862
0.021814693 0.080174424 -0.037661184 -0.03876566 -0.05603621 0.07908966 0.015595346 -0.10721587
-0.049103666 -0.024199555 0.014218617 0.035496604 0.09328524 0.029716838 0.08880696 0.06579698
0.08065925 0.046943147 -0.06988556 -0.023466809 0.059232906 0.04523521 0.031896506 -0.046938367
-0.06441006 0.06466098 -0.053218033 -0.010162349 0.011661277 -0.03583783 -0.11493715 -0.020124312
-0.069246694 -0.08950553 -0.022841398 0.041018516 0.0040331604 0.057253465 -0.034954075 0.020498475
-0.021858951 0.03696516 0.012696443 -0.022818433 0.052163213 0.059396848 0.1275722 -0.09180379
-0.053180262 0.075726226 0.033203263 -0.0687494 0.021350998 0.037231326 0.1331997 0.06325611
-0.10825694 -0.05913376 0.05349887 0.07788233 0.0048226668 0.026915027 -0.035714515 0.104597375
-0.038196534 0.017909175 -0.04573979 0.0028953012 -0.11748524 -0.06590559 -0.047161706 0.06565925
-0.08319794 -0.083386846 -0.016960114 -0.024654727 -0.06234122 0.012935434 0.051205475 -0.045472972
0.030010747 -0.041640025 0.08812163 -0.0906291 0.069583714 -0.02585377 0.110416256 0.07338243
-0.029831903 0.07920927 0.13218248 0.03383054 -0.0013452604 -0.07936485 -0.013254377 -0.046297118
-0.010511192 0.047169235 0.030049484 0.08482699 -0.07413346 0.04970913 0.042230226 -0.020764168
0.01986246 0.09718151 -0.024722103 -0.0512765 -0.08871084 0.07529413 0.08700594 -0.09278598
-0.022487197 0.01779969 0.005204346 -0.09307577 -0.027012927 -0.01560349 -0.09909764 -0.069756664
-0.05418451 0.10421285 0.0329004 0.087806135 0.085963614 0.09586941 -0.016794005 0.10261749
0.0905637 -0.054091096 0.06821096 -0.046272036 0.064887315 0.06702772 0.03650806 0.049309023
-0.07235245 -0.025635721 -0.05106302 -0.03483795 0.0071619083 -0.03180452 0.016957125 0.087364905
0.00038407877 -0.097942844 -0.065151505 0.016684616 0.10659757 0.06983836 0.12229397 0.056705803
-0.004095809 -0.060708217 -0.095666505 -0.10330272 -0.12519172 -0.09645099 0.016195096 -0.03816585
00000000: f02d 083c a764 7c3d c22b f23c 6599 a03d
00000010: 89a9 d13c 64d2 6fbd 6b4e cf3d 407c 993d
00000020: fe53 45bd 4d43 e3bd bce8 493c db36 adbd
00000030: 1dd7 79bd 7876 0abd f6fc ee3c 48d2 bdbd
00000040: 57cb 5c3d 01ac b53d 661a f8bb 36d0 993d
00000050: b04d c6bc 7ee5 573d 44b5 233d 0c22 c2bb
00000060: d2b3 13bd 04a4 aa3c a70f 42bd 32d9 cabd
00000070: 6d15 093d d790 503d d758 21bd b378 533d
00000080: 74b1 0abc aa06 9b3d 7fba bf3d c967 463d
00000090: fffd 9c3c 7d67 043d ed54 053d 0420 15bd
000000a0: 410d 92bd e118 65bc ede3 8fbc dd20 d9bc
000000b0: 18a1 9d3c 1c45 3e3c d730 5a3d e944 adbd
000000c0: 23c4 123d 49c0 9bba 790a cd3c b29f dfba
000000d0: 80c4 98bd 7acf d9bd 2b74 7ebc a72c 483d
000000e0: 9509 37bd f615 bbbd 04af 93bd e6ca 2fbd
000000f0: 150c 36bd edba 44bc 12ed 5b3c adc8 353d
00000100: 93a4 9c3d d491 7bbd 5a76 843d 227f a7bd
00000110: 610c 8ebd 1f3d 8e3d 5511 de3c 9e13 01bd
00000120: 0aa2 d5bc 440c 94bd 9978 003d a619 db3c
00000130: ca42 a73c 9dae d2bc d5a4 6bbd cc72 cebd
00000140: 265a 773c 2463 b13d 680b bd3d e477 033d
00000150: 6c1d 9f3d 9fc3 9e3d fd46 463c 102f b8bb
00000160: bc4d dd3d 85b1 023e b5d1 8bba 78e7 093d
00000170: de04 5bbc 3778 683b fe2b 333c d484 6c3d
00000180: bab4 b23c 7d32 a43d 9d42 1abd bec8 1ebd
00000190: 3a86 65bd c2f9 a13d 9f83 7f3c fe93 dbbd
000001a0: ed20 49bd 253e c6bc 34f5 683c e364 113d
000001b0: 550c bf3d ba70 f33c 6ce0 b53d 91c0 863d
000001c0: ad30 a53d 7547 403d 2920 8fbd 773d c0bc
000001d0: 349e 723d 8e48 393d e9a5 023d 7242 40bd
000001e0: 6ce9 83bd fa6c 843d 27fb 59bd fb7f 26bc
000001f0: f10e 3f3c b0ca 12bd 2b64 ebbd bedb a4bc
00000200: 36d1 8dbd ad4e b7bd e21d bbbc 0803 283d
00000210: 9a28 843b 9c82 6a3d 012c 0fbd 6bec a73c
00000220: 8b11 b3bc c868 173d be04 503c b9ed babc
00000230: 18a9 553d 1c4a 733d 49a2 023e a003 bcbd
00000240: 8cd3 59bd 5a16 9b3d 2500 083d 7ccc 8cbd
00000250: 4ae8 ae3c e07f 183d 8165 083e 6b8c 813d
00000260: d1b5 ddbd 3e36 72bd a221 5b3d c580 9f3d
00000270: 7607 9e3b e77c dc3c 6249 12bd 2637 d63d
00000280: f873 1cbd 43b6 923c a559 3bbd 18bf 3d3b
00000290: 1a9c f0bd 83f9 86bd a22c 41bd 5b78 863d
000002a0: ae63 aabd b9c6 aabd f0ef 8abc b6f8 c9bc
000002b0: 8259 7fbd 24ef 533c d5bc 513d de41 3abd
000002c0: 19d9 f53c bb8e 2abd 1d79 b43d c09b b9bd
000002d0: e881 8e3d 49cb d3bc eb21 e23d 8749 963d
000002e0: 0962 f4bc 7838 a23d d85a 073e e491 0a3d
000002f0: 7353 b0ba 0a8a a2bd e328 59bc 0ca2 3dbd
00000300: 2237 2cbc 8734 413d 562a f63c c6b9 ad3d
00000310: 49d3 97bd cd9b 4b3d 9af9 2c3d 9e19 aabc
00000320: 99b6 a23c 1907 c73d 0286 cabc 4f07 52bd
00000330: 07ae b5bd cf33 9a3d 2c30 b23d 9306 bebd
00000340: 1237 b8bc a8d0 913c 3889 aa3b 829e bebd
00000350: 374a ddbc c8a5 7fbc b4f3 cabd 95dc 8ebd
00000360: 94f0 5dbd 8c6d d53d 92c2 063d b4d3 b33d
00000370: b10d b03d 2e57 c43d 9593 89bc 1e29 d23d
00000380: 7679 b93d a08e 5dbd 30b2 8b3d bf87 3dbd
00000390: a4e3 843d d445 893d 7a89 153d 42f8 493d
000003a0: 852d 94bd 0102 d2bc 7527 51bd 3db2 0ebd
000003b0: 71ae ea3b 7545 02bd abe9 8a3c 5fec b23d
000003c0: 2e5e c939 4296 c8bd 276e 85bd 2dae 883c
000003d0: d44f da3d 6a07 8f3d 4375 fa3d 5844 683d
000003e0: 2336 86bb 2ea9 78bd cdec c3bd 6090 d3bd
000003f0: 4232 00be 1988 c5bd 94ab 843c cb53 1cbd

res1a.conv1.bias f4 [16]
0.039790094 0.033583067 -0.02886719 0.03476541 0.08364362 -0.024539383 0.06302034 0.07853426
0.036515955 -0.08057864 -0.0084374305 -0.094667785 -0.018948864 -0.040950023 0.031077754 0.03099543
00000000: f0fa 223d 668e 093d e37a ecbc 2d66 0e3d
00000010: 594d ab3d d106 c9bc cf10 813d 92d6 a03d
00000020: c191 153d 6a06 a5bd 263d 0abc 2fe1 c1bd
00000030: a63a 9bbc 36bb 27bd c696 fe3c 21ea fd3c

res1a.conv2.weight f4 [16, 16, 3, 3]
0.06881853 0.03233721 -0.016836312 -0.074198924 -0.09045694 -0.026491283 0.053607248 -0.11690669
-0.09458438 0.048342288 -0.026331255 -0.12009622 0.072961345 0.0015582831 -0.008715341 -0.10172878
0.01008531 -0.022062894 0.037552226 -0.0905388 0.045046322 -0.056935664 -0.052315895 0.10774416
0.050166108 -0.06329598 0.10650273 -0.07884148 0.06331347 0.024264926 0.07594289 0.056185596
0.057457272 0.05258194 -0.06949148 -0.015826482 0.057333827 0.007963464 -0.047370218 -0.015271162
-0.07033309 0.10524206 0.067257896 -0.06458096 0.117902085 0.029460529 -0.06455552 -0.03254983
-0.0795274 0.02996213 -0.03815854 -0.08525789 0.0048741684 -0.0030355908 0.0924737 -0.016914435
0.091705635 0.047600534 0.029037049 0.055092588 0.050309956 -0.038719054 -0.0021857154 0.0055072107
0.02702055 0.0072729266 -0.07347308 0.0017937106 0.05873297 -0.07814153 0.0078301905 -0.008487177
-0.050141044 0.04477134 -0.07862515 7.378396e-06 0.035261814 0.052331466 0.063248076 -0.028727863
0.0757997 -0.01855196 -0.019281313 -0.04190172 -0.03333469 0.09028931 -0.006438657 0.0227209
0.016871188 0.045642488 -0.0682349 0.040630486 0.06885787 -0.076659635 0.082877785 -0.0059359823
0.019334776 -0.005477198 0.09983037 -0.096478075 -0.09750512 0.06686142 0.108636975 0.095359534
0.0927412 0.088923 0.02174108 0.0367774 0.0123179285 0.00599727 -0.08990922 -0.04529284
-0.02665984 0.062403332 0.08058688 0.011546024 -0.00896615 -0.046521246 -0.052448668 0.065569304
0.021584013 -0.0826588 -0.088362716 0.022457952 -0.064811304 -0.034910668 0.065350786 0.03844051
-0.030316379 -0.052643873 -0.08568899 0.059647497 0.0183237 0.0062314 0.083067946 -0.0403653
0.11223481 0.04361918 -0.032955624 0.088065766 0.04731986 -0.05988746 -0.06851669 0.037022617
0.0229239 -0.036707878 0.0846963 0.0055585015 -0.05865625 0.04309104 0.070818804 -0.09719014
-0.03047369 -0.0030676606 -0.07497986 -0.13770379 0.08618844 0.008704647 -0.026025074 -0.02892483
-0.009898963 -0.06315203 -0.07383378 0.08529534 0.07290546 -0.0016936301 0.0676063 0.08861132
0.033018768 -0.04938168 0.090038694 0.026983086 -0.0044038272 0.012310551 0.063028075 0.06856088
-0.013751847 0.016264742 -0.06319441 0.035633482 -0.020406555 0.035265878 -0.02785647 -0.025698185
0.015623325 0.077685036 0.0042169834 0.06613092 0.067579225 0.005790048 -0.010222092 0.0461553
0.014216764 -0.046997245 0.11063051 -0.072671376 0.03988321 0.08029855 0.0013834925 -0.053624157
-0.0025963916 -0.051051106 0.0877776 0.035860337 0.05738876 -0.0017147403 0.06575407 0.04556119
-0.029588278 0.0060572457 -0.056121223 0.039969098 0.098780446 -0.0244024 -0.043259032 0.013380602
-0.052872736 0.051928323 0.017683249 0.0074768355 0.030822802 0.08401673 0.07564371 0.06019755
0.12471813 -0.040726967 -0.021792365 0.023189196 -0.0014841901 -0.027495345 0.086323276 -0.10289327
0.06134742 0.033686273 -0.010924211 -0.04789397 0.10329523 0.058533795 0.0040143533 0.14829941
0.044963688 0.07774808 0.1053115 -0.061414734 0.003415332 -0.060908984 0.07517064 0.0783552
0.060768094 -0.03170249 0.03310278 -0.0097566275 0.0080686575 0.01697113 -0.058654122 -0.054261394
00000000: bbf0 8c3d 0674 043d 4eec 89bc 9bf5 97bd
00000010: 7d41 b9bd 3f04 d9bc 4693 5b3d c66c efbd
00000020: 75b5 c1bd 9002 463d a5b4 d7bc 02f5 f5bd
00000030: c26c 953d 4e3f cc3a caca 0ebc 2e57 d0bd
00000040: db3c 253c 3ebd b4bc 5dd0 193d 686c b9bd
00000050: 7e82 383d 5f35 69bd 3149 56bd f8a8 dc3d
00000060: fa7a 4d3d 53a1 81bd 1a1e da3d a477 a1bd
00000070: 7eaa 813d 3dc7 c63c f287 9b3d de22 663d
00000080: 5158 6b3d 2960 573d 8d51 8ebd 8aa6 81bc
00000090: e0d6 6a3d 3079 023c 4607 42bd e533 7abc
000000a0: cc0a 90bd 2689 d73d 82be 893d 0643 84bd
000000b0: a676 f13d 3557 f13c af35 84bd f852 05bd
000000c0: 43df a2bd 2473 f53c 214c 1cbd b09b aebd
000000d0: 7db7 9f3b c3f0 46bb da62 bd3d 2490 8abc
000000e0: 2ad0 bb3d c7f8 423d 1bdf ed3c c4a8 613d
000000f0: d011 4e3d df97 1ebd 383e 0fbb d575 b43b
00000100: 335a dd3c bb51 ee3b 0e79 96bd f11a eb3a
00000110: fc91 703d ab08 a0bd 334a 003c cd0d 0bbc
00000120: b260 4dbd 2762 373d 3906 a1bd f093 f736
00000130: b16e 103d 8559 563d 3588 813d b256 ebbc
00000140: e03c 9b3d 48fa 97bc d8f3 9dbc 23a1 2bbd
00000150: f589 08bd 9ae9 b83d 5ffb d2bb 2e21 ba3c
00000160: 7235 8a3c 9ef3 3a3d bdbe 8bbd 276c 263d
00000170: 5b05 8d3d baff 9cbd d4bb a93d a182 c2bb
00000180: f763 9e3c 117a b3bb dd73 cc3d 4c96 c5bd
00000190: c4b0 c7bd a4ee 883d 107d de3d dc4b c33d
000001a0: 19ef bd3d 431d b63d 591a b23c e6a3 163d
000001b0: 23d1 493c bf84 c43b 5322 b8bd fc84 39bd
000001c0: bd65 dabc a39a 7f3d bc0a a53d 892b 3d3c
000001d0: c2e6 12bc 108d 3ebd 6ad4 56bd 3349 863d
000001e0: f5d0 b03c 0449 a9bd 83f7 b4bd bdf9 b73c
000001f0: cabb 84bd 7dfe 0ebd a2d6 853d cc73 1d3d
00000200: 0e5a f8bc 1aa1 57bd b67d afbd ef50 743d
00000210: 961b 963c c630 cc3b 871f aa3d 1656 25bd
00000220: 5ddb e53d 06aa 323d 7afc 06bd d35b b43d
00000230: 78d2 413d 8e4c 75bd 7a52 8cbd 07a5 173d
00000240: e7ca bb3c 005b 16bd 4175 ad3d 1724 b63b
00000250: 8941 70bd 3b80 303d 7309 913d a00b c7bd
00000260: f6a3 f9bc ce0a 49bb 0a8f 99bd 3902 0dbe
00000270: 9183 b03d f09d 0e3c 8932 d5bc c4f3 ecbc
00000280: 432f 22bc da55 81bd 2a36 97bd 53af ae3d
00000290: 754f 953d ccfc ddba 2c75 8a3d da79 b53d
000002a0: b03e 073d 7244 4abd 3566 b83d a20b dd3c
000002b0: fb4d 90bb 31b2 493c dd14 813d a669 8c3d
000002c0: 6d4f 61bc a33d 853c 126c 81bd 6af4 113d
000002d0: a62b a7bc f472 103d 4033 e4bc 0085 d2bc
000002e0: f9f8 7f3c 5519 9f3d 9f2e 8a3b a66f 873d
000002f0: fa66 8a3d 71ba bd3b 907a 27bc 570d 3d3d
00000300: 6eed 683c 2f80 40bd 4092 e23d bbd4 94bd
00000310: 945c 233d 9173 a43d 4e56 b53a 01a5 5bbd
00000320: 3928 2abb f71a 51bd bec4 b33d 4ae2 123d
00000330: 7a10 6b3d 23c1 e0ba 12aa 863d 5f9e 3a3d
00000340: 1e63 f2bc dc7b c63b 5edf 65bd a3b6 233d
00000350: 674d ca3d 8be7 c7bc 6230 31bd 503a 5b3c
00000360: 1591 58bd cbb2 543d 76dc 903c 3e00 f53b
00000370: 1a80 fc3c f710 ac3d 17eb 9a3d b591 763d
00000380: 386c ff3d 52d1 26bd e785 b2bc 45f7 bd3c
00000390: 2889 c2ba eb3d e1bc 42ca b03d b5b9 d2bd
000003a0: 6f47 7b3d 9efa 093d 76fb 32bc 782c 44bd
000003b0: 738c d33d 22c1 6f3d d68a 833b cddb 173e
000003c0: d82b 383d 633a 9f3d 8ead d73d 048e 7bbd
000003d0: c3d3 5f3b b37b 79bd 11f3 993d b178 a03d
000003e0: f7e7 783d 78da 01bd c896 073d 43da 1fbc
000003f0: 6732 043c 0a07 8b3c 4e3f 70bd 3241 5ebd

res1a.conv2.bias f4 [16]
0.039624605 0.014054019 -0.043957684 -0.042405836 -0.05029714 -0.023629867 -0.061144244 0.028678348
0.008486784 -0.04572996 0.056652017 -0.04697091 -0.08055431 -0.025320234 0.058487527 0.00971665
00000000: 694d 223d d442 663c f90c 34bd beb1 2dbd
00000010: 6004 4ebd 6c93 c1bc 6372 7abd dbee ea3c
00000020: 270c 0b3c 574f 3bbd f20b 683d 9264 40bd
00000030: a8f9 a4bd 616c cfbc 9e90 6f3d 9532 1f3c

res1b.conv1.weight f4 [16, 16, 3, 3]
0.09806948 0.008121697 -0.030145412 0.06498532 -0.06467454 0.07837978 -0.0074532786 0.0013525386
-0.036376443 0.0934578 0.08167958 -0.04255345 0.035793047 -0.037021067 0.101815425 0.06849394
-0.020623656 -0.014246387 0.093149126 -0.07836602 -0.009525763 -0.15972376 -0.05791365 -0.010462119
-0.032416914 -0.05554384 -0.037250936 -0.02748589 -0.0041231215 0.002654085 -0.03150963 0.099627435
0.015468173 0.046572525 -0.025057105 -0.031719882 0.068586506 -0.074033044 0.055755995 0.04682322
-0.030479155 0.017270595 0.057779845 -0.06935416 -0.15620202 -0.052660644 -0.08852546 -0.01753311
-0.02383746 -0.08301863 0.008538909 0.09396156 0.013760831 -0.0046887803 -0.047246225 0.070737
0.017279603 0.03998712 0.10807288 0.043739304 0.045716017 0.049976893 -0.018053448 0.057068888
0.042610746 0.025528606 0.012654285 -0.04932997 0.039523646 0.026853971 -0.10733029 -0.061164144
-0.11430472 -0.14401256 -0.019376574 0.04895497 0.11916498 -0.05823955 -0.07104375 -0.025838489
0.044328105 -0.047751218 -0.03862737 0.020923592 0.029641744 0.038906995 -0.043370783 0.0497195
-0.02358385 0.011986175 0.026371306 -0.036890347 -0.018789284 -0.03466112 0.060889523 -0.008862726
0.04015212 0.0096525615 0.14262748 0.044536654 0.07020245 -0.03319079 0.039191004 0.08944954
-0.0012579908 0.013960755 -0.003956119 -0.03622364 0.089163795 0.10494355 -0.058003575 -0.06881768
-0.1658637 -0.18949343 -0.040595938 0.021572055 -0.016748656 -0.011573156 -0.07261624 -0.004045358
0.17363012 0.083988674 -0.12993921 0.15266567 0.02237324 0.018584395 0.1182346 0.08122701
0.060640156 -0.048737943 -0.0053603533 -0.009158496 -0.034966383 -0.06631453 0.03329152 -0.17583503
-0.0063485065 0.05474768 -0.119305834 -0.13185912 0.06886536 0.009899633 -0.021104956 -0.026391216
-0.07875379 0.049046025 0.05735665 -0.09770241 -0.056937546 -0.08085979 -0.08374568 -0.0832181
-0.0065152943 0.02344615 -0.04445314 0.044866778 -0.0936122 0.018199014 0.04100819 0.030150011
0.03933105 0.007272045 -0.05625534 0.008660617 0.03907771 -0.0069535244 0.021513565 -0.027096286
-0.02088504 -0.03379291 0.009431377 -0.08327697 -0.05942139 -0.06687489 0.07848542 0.06898213
0.06707446 0.0065752473 0.06314538 -0.056598518 0.05565744 0.07326022 0.019797003 -0.065383255
-0.00840363 0.007143487 -0.044600178 -0.064204656 -0.086544104 0.017959077 0.07350317 -0.02059628
0.031498175 -0.059500147 -0.057000667 -0.048054777 -0.078807 -0.08762961 0.050429307 -0.0144299185
0.052014165 0.042548563 -0.043232374 -0.015517391 0.04911915 -0.0620573 0.02699382 -0.057907928
-0.06734633 0.014544574 -0.002772926 0.05701705 -0.02956309 -0.027518393 0.046037547 -0.0016816183
-0.010129824 0.066825695 -0.0766143 0.07759142 0.00213553 -0.047784876 -0.016632445 -0.06822114
-0.07037441 -0.055440847 -0.02881676 -0.061132293 -0.051341895 -0.06812696 -0.0644017 -0.08383471
-0.018579809 -0.002124412 -0.094174415 -0.045610152 -0.08400724 -0.012753193 0.005001119 -0.075370826
0.00079145015 -0.04597188 -0.06766971 -0.069225684 0.07602434 -0.02123355 -0.07628393 -0.0848566
-0.066931605 0.053574115 -0.04209408 -0.025923822 -0.045928944 0.049428355 0.042259604 -0.02891953
00000000: a7d8 c83d de10 053c 83f3 f6bc 0617 853d
00000010: 1674 84bd 9485 a03d a23a f4bb aa47 b13a
00000020: 77ff 14bd ce66 bf3d a047 a73d 874c 2ebd
00000030: bb9b 123d 67a3 17bd 9b84 d03d 8d46 8c3d
00000040: f1f2 a8bc ae69 69bc f8c4 be3d 5d7e a0bd
00000050: f211 1cbc a08e 23be dd36 6dbd 4f69 2bbc
00000060: 99c7 04bd f081 63bd 7094 18bd 172a e1bc
00000070: 401b 87bb 28f0 2d3b 3e10 01bd 7809 cc3d
00000080: 386e 7d3c d5c2 3e3d 8f44 cdbc b5ec 01bd
00000090: 1577 8c3d a39e 97bd 6660 643d b4c9 3f3d
000000a0: 6caf f9bc 107b 8d3c 8faa 6c3d 8e09 8ebd
000000b0: 6cf3 1fbe b0b2 57bd d64c b5bd 99a1 8fbc
000000c0: c746 c3bc ac05 aabd c8e6 0b3c eb6e c03d
000000d0: 1c75 613c 57a4 99bb 4285 41bd 8fde 903d
000000e0: f48d 8d3c 89c9 233d 5055 dd3d fc27 333d
000000f0: b840 3b3d 92b4 4c3d d3e4 93bc 11c1 693d
00000100: 9b88 2e3d 5e21 d13c eb53 4f3c 390e 4abd
00000110: 8ce3 213d dcfc db3c fccf dbbd 4187 7abd
00000120: 9818 eabd 0778 13be 9fbb 9ebc 0285 483d
00000130: c50c f43d 988c 6ebd 637f 91bd 3dab d3bc
00000140: 6391 353d c896 43bd bc37 1ebd f467 ab3c
00000150: 3ed3 f23c f15c 1f3d 90a5 31bd ada6 4b3d
00000160: eb32 c1bc a961 443c a308 d83c 551a 17bd
00000170: fceb 99bc d2f8 0dbd 4b67 793d f834 11bc
00000180: 8d76 243d c725 1e3c f00c 123e 116c 363d
00000190: 4dc6 8f3d 11f3 07bd bf86 203d 5231 b73d
000001a0: 2be3 a4ba a7bb 643c 55a2 81bb 3d5f 14bd
000001b0: 829b b63d a5ec d63d 2895 6dbd 49f0 8cbd
000001c0: 2cd8 29be 910a 42be ed47 26bd e1b7 b03c
000001d0: 7a34 89bc 569d 3dbc d3b7 94bd ec8e 84bb
000001e0: 18cc 313e 4102 ac3d c90e 05be 6454 1c3e
000001f0: 1648 b73c 4d3e 983c fb24 f23d 595a a63d
00000200: d061 783d 70a1 47bd e7a5 afbb 840d 16bc
00000210: e938 0fbd eacf 87bd b05c 083d 190e 34be
00000220: 2207 d0bb 1a3f 603d 9e56 f4bd 1406 07be
00000230: 4809 8d3d 1232 223c 4de4 acbc 6432 d8bc
00000240: ab49 a1bd 7ce4 483d ceee 6a3d 3318 c8bd
00000250: 5837 69bd d199 a5bd db82 abbd 406e aabd
00000260: 407e d5bb 2412 c03c 7f14 36bd 3ac6 373d
00000270: c1b7 bfbd 1916 953c 34f8 273d 28fd f63c
00000280: 9819 213d 564a ee3b 006c 66bd 43e5 0d3c
00000290: f30f 203d 64da e3bb 373d b03c 08f9 ddbc
000002a0: 1a17 abbc 6f6a 0abd 1086 1a3c 1e8d aabd
000002b0: d863 73bd b4f5 88bd f7bc a03d 8146 8d3d
000002c0: 565e 893d 2c75 d73b 5d52 813d d9d3 67bd
000002d0: 0ef9 633d 7409 963d 532d a23c a8e7 85bd
000002e0: 61af 09bc ea13 ea3b adae 36bd bb7d 83bd
000002f0: 093e b1bd ea1e 933c d488 963d 88b9 a8bc
00000300: 3b04 013d 6db6 73bd 8879 69bd 16d5 44bd
00000310: 9065 a1bd 2777 b3bd f68e 4e3d 776b 6cbc
00000320: ce0c 553d 6747 2e3d 6e14 31bd a83c 7ebc
00000330: 2931 493d cc2f 7ebd 2522 dd3c dd30 6dbd
00000340: dfec 89bd 5d4c 6e3c fab9 35bb b68a 693d
00000350: 4b2e f2bc 416e e1bc de91 3c3d bf69 dcba
00000360: 90f7 25bc e9db 883d f5e7 9cbd 40e8 9e3d
00000370: 40f4 0b3b 13ba 43bd c440 88bc 86b7 8bbd
00000380: 7520 90bd f115 63bd 2011 ecbc db65 7abd
00000390: e14b 52bd 2686 8bbd 0ae5 83bd 88b1 abbd
000003a0: af34 98bc b839 0bbb 84de c0bd b6d1 3abd
000003b0: fd0b acbd c5f2 50bc 6de0 a33b 055c 9abd
000003c0: 5279 4f3a 034d 3cbd 6b96 8abd 32c6 8dbd
000003d0: a6b2 9b3d fbf1 adbc c03a 9cbd 4cc9 adbd
000003e0: 7013 89bd 8870 5b3d d86a 2cbd 325e d4bc
000003f0: fd1f 3cbd 6375 4a3d 6818 2d3d a6e8 ecbc

res1b.conv1.bias f4 [16]
-0.01941158 -0.039222613 0.052902624 0.049851716 -0.08017119 -0.033352125 -0.021181757 -0.012323537
-0.031397972 -0.07282035 0.00042888595 -0.012480795 0.06607132 0.08040083 0.034963474 0.07625566
00000000: 0905 9fbc e4a7 20bd 6cb0 583d 5031 4c3d
00000010: cb30 a4bd 3d9c 08bd 5d85 adbc a9e8 49bc
00000020: 299b 00bd d622 95bd 19dc e039 407c 4cbc
00000030: 6650 873d 31a9 a43d dc35 0f3d ed2b 9c3d

res1b.conv2.weight f4 [16, 16, 3, 3]
-0.081152074 0.031209797 -0.06873226 -0.07334203 0.044983357 0.08586086 -0.016924735 -0.09495369
0.009094104 0.0715156 -0.07792945 0.07402688 -0.05193477 0.025396671 -0.030577775 -0.06554255
-0.019349 -0.013809127 -0.04349076 0.07771896 -0.10446516 -0.043589346 0.010711365 0.044495475
0.04142521 -0.038380057 0.017156463 -0.045343213 -0.09155744 0.012432644 -0.07540975 -0.07691423
0.06849199 0.06277064 0.046663187 0.07801657 0.006443498 0.00365989 -0.008173366 0.040318254
-0.046749827 -0.044833377 0.014616611 0.068816185 0.015269666 0.06819445 -0.061699603 -0.037252475
0.01971047 0.033138976 0.095020175 -0.03225732 -0.030717857 0.010139874 0.06399613 0.038460016
0.03902596 -0.07186024 0.0025415162 -0.03520942 0.01578266 -0.05776631 -0.088719346 0.018928304
0.012851933 -0.038888406 0.02458568 -0.10326482 0.009986706 0.05286461 0.038539544 -0.12575041
-0.038791664 -0.094528 -0.06687227 -0.036001965 -0.010804185 0.06591692 -0.0069510285 0.017362686
0.048021294 -0.08046283 -0.104956746 -0.03584189 -0.010285282 0.08892706 -0.017374009 -0.08403463
0.05101489 0.05613085 0.03955239 -0.014933234 0.036113385 -0.067772694 0.060686026 -0.03623525
0.06324854 0.04823604 0.041334048 0.013255109 -0.07000582 0.02179779 0.011026367 -0.04700022
-0.040319912 0.07146974 -0.045604754 0.023389328 0.027548779 -0.087747104 0.023951551 -0.049065057
-0.054272808 0.016237814 0.026738644 -0.03140076 -0.03263874 -0.06552548 0.0032630973 0.018404467
-0.06730538 0.019505069 -0.024965283 -0.06266909 -0.10208682 -0.03751822 -0.017238427 -0.058416754
0.014785181 0.0017849734 -0.021589397 -0.109536365 0.05244328 -0.09068727 -0.06900651 0.03707764
-0.03913036 0.012817699 -0.005044065 -0.062444422 0.047316607 0.07531341 0.05755058 -0.04853851
0.02514972 0.052199196 -0.028910374 0.060061283 0.07869993 -0.07106168 -0.06918569 -0.05941962
0.06441756 0.046486475 -0.021736749 0.083404996 -0.04135766 0.09160146 0.020141967 -0.0141070355
0.009442772 -0.006820643 0.041510276 -0.054936834 0.060267046 0.060902376 -0.0004885145 0.08210672
-0.032751407 -0.10095793 -0.06573972 -0.08759548 -0.08256755 -0.0070677483 -0.08689374 -0.057590865
0.051362686 -0.011885374 -0.022863358 0.06258754 -0.068086475 0.008200091 -0.00039225275 -0.011462127
-0.06143504 0.07699699 0.1019643 -0.058120567 0.009260042 0.082692556 -0.011340174 0.0514897
0.056167133 -0.081575856 0.021020215 0.046828855 -0.059544165 0.038356286 -0.037499104 -0.03761191
0.06942863 0.07656478 0.0029254947 -0.048859827 0.008851842 -0.0688277 0.112217456 -0.005911437
-0.0045943973 0.016017284 0.044120137 -0.001563397 0.07870631 0.027044991 -0.07133004 0.086012065
-0.044193316 0.052025266 0.0048826807 -0.054443568 -0.0097779725 0.046295267 -0.07469053 -0.0065230476
0.00075609115 -0.030645588 -0.05419244 0.08619629 0.060838714 0.004366304 0.08574754 0.08232891
-0.07484789 -0.021115461 0.069815956 0.0016635435 -0.086262256 -0.07203233 -0.04121679 0.057925344
0.056762394 0.11133358 0.00755209 0.0350657 0.013293549 0.035536453 -0.023855422 0.085828945
0.077393726 -0.06265888 -0.06703192 0.045756247 0.08327755 -0.03166534 0.01598894 -0.047543023
00000000: 0f33 a6bd b0ab ff3c 80c3 8cbd 5934 96bd
00000010: 7840 383d d2d7 af3d bea5 8abc 1577 c2bd
00000020: 70ff 143c c576 923d 7a99 9fbd 689b 973d
00000030: 8eb9 54bd ae0c d03c 3e7e fabc 2c3b 86bd
00000040: cb81 9ebc ad3f 62bc 5e23 32bd 1e2b 9f3d
00000050: d4f1 d5bd be8a 32bd b97e 2f3c e340 363d
00000060: 7bad 293d 6834 1dbd b68b 8c3c ceb9 39bd
00000070: 7882 bbbd 4ab2 4b3c 6d70 9abd 3585 9dbd
00000080: 8745 8c3d e58d 803d e621 3f3d 27c7 9f3d
00000090: fb23 d33b c4da 6f3b 95e9 05bc c124 253d
000000a0: bf7c 3fbd 34a3 37bd 837a 6f3c 80ef 8c3d
000000b0: 9f2d 7a3c 88a9 8b3d b9b8 7cbd 0d96 18bd
000000c0: da77 a13c bcbc 073d f099 c23d 4020 04bd
000000d0: 04a4 fbbc b721 263c 6710 833d 4088 1d3d
000000e0: afd9 1f3d 762b 93bd 918f 263b c137 10bd
000000f0: a34a 813c 5e9c 6cbd 7db2 b5bd 880f 9b3c
00000100: ea90 523c 7349 1fbd e867 c93c 827c d3bd
00000110: 489f 233c 9088 583d a4db 1d3d b7c4 00be
00000120: 02e4 1ebd e597 c1bd 54f4 88bd cc76 13bd
00000130: 0904 31bc 73ff 863d 74c5 e3bb 313c 8e3c
00000140: fab1 443d b2c9 a4bd 90f3 d6bd f2ce 12bd
00000150: 9983 28bc 641f b63d f053 8ebc 591a acbd
00000160: fdf4 503d 76e9 653d b001 223d 86aa 74bc
00000170: a1eb 133d 69cc 8abd e991 783d 6a6b 14bd
00000180: 7388 813d 2793 453d e44d 293d f52b 593c
00000190: 365f 8fbd 4791 b23c efa7 343c 4d83 40bd
000001a0: 7e26 25bd ba5e 923d 0dcc 3abd fa9a bf3c
000001b0: faad e13c c1b4 b3bd 0b36 c43c 71f8 48bd
000001c0: 2a4d 5ebd 2a05 853c 000b db3c 159e 00bd
000001d0: 33b0 05bd 3932 86bd b0d9 553b f7c4 963c
000001e0: 67d7 89bd 18c9 9f3c fe83 ccbc a758 80bd
000001f0: e512 d1bd b4ac 19bd 9a37 8dbc 6846 6fbd
00000200: 8b3d 723c c5f5 e93a 3fdc b0bc 9a54 e0bd
00000210: c4ce 563d 3fba b9bd 4953 8dbd b9de 173d
00000220: 2847 20bd 5401 523c af48 a5bb b9c5 7fbd
00000230: 0fcf 413d eb3d 9a3d 28ba 6b3d 51d0 46bd
00000240: c906 ce3c d3ce 553d 73d5 ecbc d202 763d
00000250: 6e2d a13d c988 91bd 3ab1 8dbd fd61 73bd
00000260: 5bed 833d 9a68 3e3d 4411 b2bc 3dd0 aa3d
00000270: a666 29bd 8c99 bb3d c400 a53c 3221 67bc
00000280: dbb5 1a3c b37f dfbb ae06 2a3d 7205 61bd
00000290: 94da 763d c574 793d a70f 00ba 9127 a83d
000002a0: 5726 06bd 08c3 cebd 8ca2 86bd 4265 b3bd
000002b0: 2d19 a9bd 9298 e7bb 58f5 b1bd 66e4 6bbd
000002c0: ae61 523d dfba 42bc f04b bbbc e52d 803d
000002d0: ec70 8bbd ad59 063c 46a7 cdb9 a5cb 3bbc
000002e0: 4fa3 7bbd 99b0 9d3d a9d2 d03d d50f 6ebd
000002f0: 6eb7 173c b75a a93d 23cc 39bc dde6 523d
00000300: 820f 663d 3e11 a7bd 9632 ac3c 9dcf 3f3d
00000310: 95e4 73bd 7b1b 1d3d a998 19bd f20e 1abd
00000320: 9930 8e3d ffcd 9c3d a8b9 3f3b 3e21 48bd
00000330: 5107 113c 8af5 8cbd 44d2 e53d bab4 c1bb
00000340: 998c 96bb ae36 833c 51b7 343d e6ea ccba
00000350: c630 a13d 758d dd3c 7c15 92bd 1827 b03d
00000360: 0d04 35bd 7218 553d e5fe 9f3b 3800 5fbd
00000370: ca33 20bc 1ba0 3d3d 59f7 98bd 4abf d5bb
00000380: 6b34 463a 750c fbbc e4f8 5dbd ae87 b03d
00000390: 0432 793d 3613 8f3b 689c af3d 0f9c a83d
000003a0: da49 99bd 55fa acbc abfb 8e3d 420b da3a
000003b0: 44aa b0bd b085 93bd f0d2 28bd 2043 6d3d
000003c0: af7f 683d dc02 e43d 8677 f73b 0da1 0f3d
000003d0: 30cd 593c ac8e 113d 726c c3bc 16c7 af3d
000003e0: 9a80 9e3d 4d53 80bd 0848 89bd e76a 3b3d
000003f0: 6c8d aa3d 84b3 01bd 3dfb 823c 79bc 42bd

res1b.conv2.bias f4 [16]
0.02554609 -0.032880053 -0.06931852 0.029764326 0.005369629 0.021421146 0.027049018 0.038411256
-0.05600042 0.020897707 -0.017136395 0.051341172 0.0051459214 -0.042685296 0.010899116 0.0045889523
00000000: 0946 d13c 3cad 06bd def6 8dbd 51d4 f33c
00000010: b6f3 af3b 667b af3c e795 dd3c 1f55 1d3d
00000020: b260 65bd ab31 ab3c a061 8cbc 1f4b 523d
00000030: 1e9f a83b c7d6 2ebd 3592 323c ec5e 963b

conv2.weight f4 [32, 16, 3, 3]
-0.022040177 -0.062894925 0.104988664 -0.04590439 -0.04856661 -0.031783663 -0.09337047 -0.07239211
-0.011815879 -0.08816476 -0.086287215 0.0021791689 -0.037083156 -0.109310314 -0.015861938 0.028474014
0.0013929196 0.037933577 0.13473989 0.06177455 -0.058733698 0.065992735 -0.03163562 -0.09455828
0.009443159 -0.013470349 0.08179659 0.037862442 0.02334676 -0.020642992 -0.050834417 -0.059360217
-0.044939756 -0.10547015 -0.032858133 -0.073171325 -0.0066349017 0.0126418015 -0.0150680775 0.024154725
-0.0653099 -0.0074149175 -0.085361354 -0.006895816 -0.088965155 -0.088354416 0.019409206 0.09949343
0.10382436 -0.021644639 0.033064738 -0.029583907 0.053985756 -0.071754314 -0.020338338 -0.13880736
0.019890511 0.03660635 -0.039443985 -0.0013570031 0.018001592 0.085779175 -0.0018610337 0.062329475
0.06173771 -0.101907805 0.0613607 -0.005474631 -0.09852859 0.020831645 0.051761758 0.0732658
0.012932899 -0.0066888556 0.072259866 -0.0023737473 -0.008676869 0.087822124 -0.011268303 -0.041985296
-0.09471708 -0.050789077 0.004757184 -0.07172591 0.015954532 0.03607291 -0.0045678667 -0.0888137
-0.06523248 0.011088871 0.032743398 -0.03891804 0.05736197 -0.012306589 -0.07577602 0.030397203
0.00016375254 -0.06828524 -0.033212315 -0.005574347 -0.07482019 0.07707679 0.08841474 -0.052876577
-0.048656903 -0.05779626 0.016315911 -0.11625484 0.082364656 -0.01921498 -0.06373731 0.07892133
-0.008029248 0.0017559287 -0.059086096 0.064033024 -0.008849635 0.020913118 0.05620445 -0.11494221
0.026517102 0.03008334 0.0050418945 -0.030751053 0.03167899 0.028357489 -0.0709789 0.004174541
0.06426136 -0.017976334 -0.012662394 -0.121319234 -0.078039646 0.0109649915 0.0236741 -0.028091853
-0.11316734 -0.118479714 -0.07601547 -0.023475656 -0.07646941 0.049777135 0.042261664 0.058730017
0.004695671 -0.03311719 0.062043454 -0.0803578 -0.07220851 -0.075620346 0.08615334 0.09453544
-0.0011467797 0.014743779 -0.018089345 -0.03675616 -0.014972574 0.005059725 0.0014518157 -0.03537621
0.037146516 0.0011041863 -0.0018915973 0.07825995 0.026277903 0.07529646 0.06825197 0.0014263398
0.11843807 -0.011819312 -0.07386153 -0.047893178 -0.008061392 0.07247133 -0.032161973 -0.009925331
-0.08544412 -0.016784348 0.04773883 0.010453765 -0.072839074 -0.084312625 -0.018009294 -0.03044092
-0.02389748 -0.014501209 -0.002417015 -0.041138176 0.091298744 -0.0082053635 -0.04421302 -0.059689563
0.024417322 0.004479409 0.0128712235 -0.034449622 0.034189235 -0.049916957 -0.008471553 -0.0430611
-0.006370914 -0.0731468 -0.0300447 -0.016283883 0.013942934 0.041645017 -0.015886366 -0.00066728826
-0.066624425 -0.07973718 -0.022152962 -0.059851006 -0.035553783 -0.06079851 0.03286065 -0.13196403
0.02820681 -0.054275353 -0.044595752 0.043458562 -0.0358392 -0.03708551 -0.0548533 0.024218714
-0.010335575 0.048896812 -0.06314078 -0.032139048 0.10113181 0.04198676 -0.023045301 -0.04800651
-0.04617104 0.05136753 0.04210108 -0.06255082 -0.05036366 0.027373048 0.04525916 -0.070655726
-0.03238619 -0.06143734 -0.03347388 -0.06343339 -0.077111445 0.068905026 0.010306059 -0.06481332
0.08230689 -0.06725845 0.047193844 0.08239688 0.05774227 0.07828671 0.051625654 -0.05025042
00000000: 9a8d b4bc 0ecf 80bd 4c04 d73d 3e06 3cbd
00000010: c8ed 46bd 962f 02bd 0439 bfbd 5142 94bd
00000020: 6397 41bc ba8f b4bd 5ab7 b0bd 63d0 0e3b
00000030: 82e4 17bd 16de dfbd e5f0 81bc 5642 e93c
00000040: a092 b63a 3d60 1b3d 41f9 093e 4f07 7d3d
00000050: bf92 70bd 3327 873d 5a94 01bd c6a7 c1bd
00000060: 7bb7 1a3c bdb2 5cbc f884 a73d a615 1b3d
00000070: b441 bf3c 7e1b a9bc c037 50bd b323 73bd
00000080: c012 38bd bc00 d8bd 4096 06bd d9da 95bd
00000090: 9769 d9bb 8f1f 4f3c 19e0 76bc 21e0 c53c
000000a0: 32c1 85bd d6f8 f2bb efd1 aebd 4cf6 e1bb
000000b0: 5d33 b6bd 29f3 b4bd 0e00 9f3c 36c3 cb3d
000000c0: dea1 d43d 1950 b1bc e46e 073d f359 f2bc
000000d0: 2b20 5d3d edf3 92bd 969c a6bc 8423 0ebe
000000e0: 6df1 a23c 8af0 153d 0490 21bd 78dd b1ba
000000f0: 1378 933c feac af3d eeed f3ba 314d 7f3d
00000100: aee0 7c3d 0ab5 d0bd 5b55 7b3d 8964 b3bb
00000110: 5bc9 c9bd 20a7 aa3c 2304 543d 610c 963d
00000120: 83e4 533c 302e dbbb fbfc 933d df90 1bbb
00000130: 6d29 0ebc 16dc b33d b09e 38bc c6f8 2bbd
00000140: 07fb c1bd 3508 50bd 27e2 9b3b 09e5 92bd
00000150: 14b3 823c 30c1 133d 0bae 95bb f5e3 b5bd
00000160: 9b98 85bd 19ae 353c f11d 063d 8668 1fbd
00000170: 63f4 6a3d 93a1 49bc 7530 9bbd 8e03 f93c
00000180: fdb4 2b39 22d9 8bbd a309 08bd 03a9 b6bb
00000190: 543b 99bd 70da 9d3d ca12 b53d 1c95 58bd
000001a0: 764c 47bd c5bb 6cbd f2a8 853c 0417 eebd
000001b0: cdae a83d bc68 9dbc b588 82bd 82a1 a13d
000001c0: 1b8d 03bc 3127 e63a 4304 72bd bf23 833d
000001d0: 0ffe 10bc fd51 ab3c a336 663d d266 ebbd
000001e0: 653a d93c 5671 f63c 7a36 a53b a2e9 fbbc
000001f0: d4c1 013d f74d e83c 635d 91bd 97ca 883b
00000200: 769b 833d 1b43 93bc ee75 4fbc 3876 f8bd
00000210: 40d3 9fbd 82a6 333c 30f0 c13c e320 e6bc
00000220: 47c4 e7bd 7ea5 f2bd 00ae 9bbd 0550 c0bc
00000230: fe9b 9cbd 1ce3 4b3d 911a 2d3d e38e 703d
00000240: 25de 993b e4a5 07bd 4721 7e3d a192 a4bd
00000250: 0ee2 93bd d7de 9abd 2a71 b03d cc9b c13d
00000260: 8b4f 96ba e48f 713c 1b30 94bc a18d 16bd
00000270: 874f 75bc 0dcc a53b da4a be3a a5e6 10bd
00000280: f226 183d 58ba 903a 79ef f7ba c146 a03d
00000290: c244 d73c 0835 9a3d b0c7 8b3d 06f4 ba3a
000002a0: a98f f23d caa5 41bc b744 97bd a32b 44bd
000002b0: ee13 04bc d96b 943d 46bc 03bd db9d 22bc
000002c0: 54fd aebd 547f 89bc cb89 433d 4546 2b3c
000002d0: a72c 95bd 19ac acbd 3a88 93bc 3c5f f9bc
000002e0: a6c4 c3bc 7b96 6dbc c866 1ebb 8180 28bd
000002f0: d6fa ba3d ca6f 06bc b618 35bd 0b7d 74bd
00000300: d606 c83c 02c8 923b d3e1 523c 0c1b 0dbd
00000310: 030a 0c3d b975 4cbd 45cc 0abc d660 30bd
00000320: 1ac3 d0bb fdcd 95bd 4d20 f6bc c765 85bc
00000330: e770 643c f793 2a3d 2024 82bc f5ec 2eba
00000340: 6372 88bd 3f4d a3bd 217a b5bc 5426 75bd
00000350: d8a0 11bd dc07 79bd e498 063d 9421 07be
00000360: f811 e73c d54f 5ebd 09aa 36bd 9b01 323d
00000370: 20cc 12bd fae6 17bd dbad 60bd 5366 c63c
00000380: 8b56 29bc 0648 483d f44f 81bd 3ca4 03bd
00000390: 321e cf3d 4ffa 2b3d 80c9 bcbc 79a2 44bd
000003a0: d81d 3dbd c266 523d 2f72 2c3d a51a 80bd
000003b0: 204a 4ebd 713d e03c ab61 393d f3b3 90bd
000003c0: 62a7 04bd b8a5 7bbd e81b 09bd 5de9 81bd
000003d0: 9bec 9dbd 141e 8d3d bfda 283c d9bc 84bd
000003e0: 8490 a83d ccbe 89bd 554e 413d b2bf a83d
000003f0: 2983 6c3d c854 a03d 6c75 533d 62d3 4dbd

conv2.bias f4 [32]
0.06705042 0.061284423 0.02689249 -0.062728226 -0.0012958843 -0.028830796 0.019958295 -0.019217812
-0.021287892 0.020253416 -0.0064120325 0.038049757 0.014324153 0.042718183 -0.049471978 -0.024917293
-0.016543899 0.028328761 0.04587028 0.041360747 -0.021865051 0.045347203 -0.07290612 0.022927364
-0.023912229 -0.029690702 -0.06029932 0.04989538 -0.049208004 -0.07732748 0.0012045878 0.007879426
00000000: bb51 893d 6005 7b3d a44d dc3c a877 80bd
00000010: a9da a9ba 902e ecbc 947f a33c ac6e 9dbc
00000020: f263 aebc 7eea a53c 071c d2bb 10da 1b3d
00000030: daaf 6a3c 43f9 2e3d 21a3 4abd 5a1f ccbc
00000040: 1287 87bc b811 e83c 7ae2 3b3d e369 293d
00000050: 561e b3bc fdbd 393d ce4f 95bd 2bd2 bb3c
00000060: 94e3 c3bc ea39 f3bc 6bfc 76bd 195f 4c3d
00000070: 558e 49bd df5d 9ebd 42e3 9d3a b518 013c

res2a.conv1.weight f4 [32, 32, 3, 3]
-0.0097643025 0.016555771 -0.015008124 -0.08442308 -0.0056279097 -0.012054321 -0.06802903 -0.04587799
0.05919106 -0.04677837 -0.06273324 0.08052191 -0.084554635 0.046412688 -0.033557903 -0.070560865
-0.020045178 0.029115135 -0.019055607 0.030236099 0.047524832 -0.0037942 0.003294103 -0.05298256
-0.013914075 -0.033984866 -0.054307733 -0.112541445 0.0024806114 -0.01528112 -0.027767768 0.01188984
-0.020003479 -0.014755092 -0.036622718 -0.0032470403 -0.12497589 -0.07678888 0.007828285 -0.043635532
-0.045992214 0.053583037 0.035465382 -0.015487657 -0.05643751 -0.12539369 -0.0089256745 0.018911414
-0.11373641 -0.048535727 0.071111515 -0.055856615 0.0033369113 0.014326461 0.030244097 0.005536508
-0.029858792 0.04031979 -0.07553301 -0.04875649 -0.014681277 -0.03233365 0.0017422849 -0.0495846
-0.06327291 0.1084155 -0.051355287 -0.05664304 0.047370706 -0.0065263556 -0.107129745 0.041949227
0.025852587 0.009231582 0.051642656 -0.11924063 0.022436291 0.030343065 -0.0313387 -0.010952247
0.027932176 -0.08020699 -0.020668289 0.084072486 0.00304787 0.044597622 0.0530294 -0.025853284
-0.07604607 -0.05697018 -0.065519355 -0.07070489 0.028392859 -0.10290204 0.023847952 0.03917014
-0.051593885 -0.033033293 -0.08612877 -0.038303103 0.0054273033 -0.066365585 -0.025409508 -0.014986723
-0.13608603 -0.045339394 -0.008407788 -0.063147455 -0.04385524 -0.027484726 0.035239857 0.0027156675
-0.023125455 0.010328315 -0.046491977 -0.030890191 0.0340009 -0.0053678323 0.03724749 0.012948598
-0.057136685 -0.0262805 -0.03261002 0.013355077 -0.071540296 -0.030618886 -0.101294234 0.040485878
-0.004268954 -0.070271954 -0.066016 -0.040775638 -0.047050897 0.025030894 0.055016074 -0.084501654
-0.046789847 0.01926978 -0.10770821 -0.058775622 0.008711989 0.004920855 -0.030236563 -0.061113693
-0.0083871335 -0.010665391 0.106161274 -0.051789194 -0.04985593 0.028518999 -0.03076573 -0.05647105
0.025125874 -0.03616776 -0.0526559 0.01904207 -0.021464817 -0.08123693 0.057261135 -0.023170171
-0.091268964 -0.04543894 -0.120036975 -0.024951754 -0.04319497 -0.015643885 0.008151087 0.048933286
-0.05737059 -0.05046993 -0.025826266 -0.007972225 -0.037446596 0.018990785 -0.028791722 -0.031396296
0.03969986 -0.014287079 0.009115071 0.04896755 -0.0017041902 -0.024563245 0.03264909 -0.012846495
-0.01354276 -0.04348801 0.0068441564 -0.05995531 0.0003884607 -0.05872793 -0.041453894 0.03555657
-0.12423485 -0.007303705 -0.05834472 -0.056738015 0.025522763 -0.07890043 -0.07373459 -0.13288324
-0.014043544 -0.045299288 -0.088027276 -0.10837938 -0.0026860775 -0.046249755 -0.0753998 -0.06155257
0.070581116 -0.005948932 -0.0909591 -0.081257276 0.018710438 -0.097034454 -0.054457735 0.004985426
-0.09264585 -0.045648873 0.04907889 -0.15382713 -0.068327494 0.08956472 -0.0029658547 -0.00079405535
0.09053429 -0.18621777 -0.028670724 -0.020962825 -0.087136485 -0.0670377 -0.010284164 -0.056728788
0.009489159 -0.0124556245 -0.11353437 -0.09500093 0.04749944 -0.03575214 -0.059414368 0.047037683
-0.06767182 -0.063092135 0.08078772 -0.05135891 -0.035584535 -0.01558904 -0.11548679 -0.044449653
0.065091334 -0.067827836 -0.03844939 0.028978353 0.009093088 -0.025236206 0.01357165 -0.08279728
00000000: 74fa 1fbc f89f 873c a2e4 75bc 02e6 acbd
00000010: 546a b8bb 7d7f 45bc ce52 8bbd 8fea 3bbd
00000020: 5372 723d ad9a 3fbd 497a 80bd ace8 a43d
00000030: fb2a adbd 3b1b 3e3d 0374 09bd 3782 90bd
00000040: c935 a4bc dd82 ee3c 811a 9cbc b2b1 f73c
00000050: 66a9 423d 1da8 78bb e1e1 573b 3e04 59bd
00000060: dcf7 63bc b733 0bbd c971 5ebd 217c e6bd
00000070: c191 223b aa5d 7abc 3b79 e3bc 9acd 423c
00000080: 56de a3bc 57bf 71bc b401 16bd 4ccc 54bb
00000090: 5cf3 ffbd 7d43 9dbd 3542 003c 2cbb 32bd
000000a0: 5562 3cbd e379 5b3d 2644 113d f1bf 7dbc
000000b0: 052b 67bd 3467 00be fe3c 12bc 1cec 9a3c
000000c0: a3ee e8bd 66cd 46bd eaa2 913d e8c9 64bd
000000d0: 15b0 5a3b 88b9 6a3c 78c2 f73c 986b b53b
000000e0: 6d9a f4bc 5d26 253d 0db1 9abd e3b4 47bd
000000f0: bd89 70bc 4a70 04bd 615d e43a 3919 4bbd
00000100: 3a95 81bd f208 de3d ec59 52bd 8802 68bd
00000110: c907 423d 0adb d5bb d766 dbbd f4d2 2b3d
00000120: cec8 d33c 1040 173c 4087 533d 6e34 f4bd
00000130: 50cc b73c 0592 f83c 025d 00bd 0e71 33bc
00000140: 05d2 e43c 9043 a4bd 8b50 a9bc 322e ac3d
00000150: c6be 473b ffab 363d 5b35 593d 44ca d3bc
00000160: 0bbe 9bbd 9059 69bd 032f 86bd bacd 90bd
00000170: 2498 e83c 4ebe d2bd c85c c33c de70 203d
00000180: 1c54 53bd eb4d 07bd 4864 b0bd b7e3 1cbd
00000190: 85d7 b13b aeea 87bd 9a27 d0bc df8a 75bc
000001a0: 235a 0bbe cdb5 39bd d2c0 09bc 7453 81bd
000001b0: 8da1 33bd a627 e1bc ab57 103d 57f9 313b
000001c0: 9871 bdbc 1838 293c 5f6e 3ebd 6d0d fdbc
000001d0: 8744 0b3d a4e4 afbb d390 183d 5b26 543c
000001e0: 2808 6abd 344a d7bc 1692 05bd 41cf 5a3c
000001f0: b883 92bd 75d4 fabc 5a73 cfbd 85d4 253d
00000200: 95e2 8bbb beea 8fbd 6633 87bd 5b04 27bd
00000210: 71b8 40bd 970d cd3c 8958 613d 340f adbd
00000220: b6a6 3fbd a8db 9d3c 1f96 dcbd b5be 70bd
00000230: bbbc 0e3c 203f a13b abb2 f7bc 5a52 7abd
00000240: 306a 09bc e4bd 2ebc 156b d93d e820 54bd
00000250: bb35 4cbd ada0 e93c 6a08 fcbc 304e 67bd
00000260: c7d4 cd3c a524 14bd b7ad 57bd 1dfe 9b3c
00000270: fcd6 afbc 8c5f a6bd a78a 6a3d 5fcf bdbc
00000280: 39eb babd 2f1e 3abd f2d5 f5bd 9f67 ccbc
00000290: 35ed 30bd 9b27 80bc 238c 053c 456e 483d
000002a0: 6cfd 6abd 8fb9 4ebd 9b91 d3bc ef9d 02bc
000002b0: 9a61 19bd 9092 9b3c 9edc ebbc 6799 00bd
000002c0: 529c 223d 5a14 6abc 6157 153c 3392 483d
000002d0: 225f dfba dc38 c9bc 0dbb 053d 1b7a 52bc
000002e0: 74e2 5dbc 7c20 32bd f244 e03b b393 75bd
000002f0: 50aa cb39 b38c 70bd 8fcb 29bd c4a3 113d
00000300: d76e febd eb53 efbb e0fa 6ebd 1f66 68bd
00000310: 1d15 d13c 8c96 a1bd 2902 97bd 8b12 08be
00000320: e516 66bc bf8b 39bd a547 b4bd 02f6 ddbd
00000330: e708 30bb 6270 3dbd 366b 9abd 8c1e 7cbd
00000340: d58c 903d 42ef c2bb c448 babd 376a a6bd
00000350: a246 993c 00ba c6bd 130f 5fbd c95c a33b
00000360: 1bbd bdbd 50fa 3abd f206 493d dc84 1dbe
00000370: 49ef 8bbd b56d b73d c95e 42bb 2728 50ba
00000380: 0b6a b93d dfaf 3ebe dede eabc 3bba abbc
00000390: 9d74 b2bd 104b 89bd e97e 28bc 725c 68bd
000003a0: 6b78 1b3c ad12 4cbc b584 e8bd d98f c2bd
000003b0: c68e 423d d670 12bd 7b5c 73bd 96aa 403d
000003c0: 8697 8abd 7336 81bd 0874 a53d b85d 52bd
000003d0: 17c1 11bd 2c69 7fbc 5784 ecbd d710 36bd
000003e0: 9b4e 853d 52e9 8abd 1c7d 1dbd 0364 ed3c
000003f0: 2dfb 143c 29bc cebc a05b 5e3c 9f91 a9bd

res2a.conv1.bias f4 [32]
-0.008752553 -0.022146437 -0.016135372 -0.018630262 0.046258874 0.018741447 0.029108472 0.083928846
0.044006675 0.07705633 0.05828096 0.044305384 -0.0046505467 -0.007871758 -0.017888311 0.03884089
-0.0010260583 -0.019319452 0.037437122 0.026858909 0.011226595 -0.030496584 0.017895436 0.0010442504
-0.0014485667 0.03884257 -0.016117401 -0.047714233 -0.027820544 -0.0048403395 -0.0381205 0.011309357
00000000: de66 0fbc 726c b5bc 542e 84bc 7e9e 98bc
00000010: f279 3d3d aa87 993c e474 ee3c e3e2 ab3d
00000020: 5840 343d b6cf 9d3d 04b8 6e3d 9079 353d
00000030: 9d63 98bb 8cf8 00bc 828a 92bc a017 1f3d
00000040: ce7c 86ba d443 9ebc ab57 193d 3707 dc3c
00000050: c1ef 373c f9d3 f9bc 7399 923c 3bdf 883a
00000060: d5dd bdba 6319 1f3d a408 84bc 0070 43bd
00000070: e9e7 e3bc b69b 9ebb 3e24 1cbd e24a 393c
