checkpoints/ppo_academy_empty_goal_close.pth (torch, 718950 bytes, 45 tensors)

conv1.weight f4 [16, 16, 3, 3]
0	0x3bf4d5ef	0.007471792
1	0xbd439f40	-0.047759295
2	0xbc629a5b	-0.0138307465
3	0x3d963bd1	0.07335628
4	0x3da84275	0.08215801
5	0x3d73e321	0.05954278
6	0x3da5d4c1	0.0809722
7	0xbd324622	-0.043523915
8	0xbb105266	-0.002202177
9	0xba877135	-0.0010333421
10	0x3bae09ab	0.005311211
11	0x3bb014e9	0.0053735864
12	0xbcbf4719	-0.023349332
13	0xbc253343	-0.0100830225
14	0x3d228ddc	0.03968607
15	0xbda9ad39	-0.08284993
16	0x3aec2e29	0.0018019128
17	0xbdac2ab5	-0.08406583
18	0x3cc66a97	0.024220748
19	0x3d76f637	0.060293403
20	0x3d81c063	0.06335523
21	0x3ad2c3ae	0.0016080046
22	0x3d8ee45c	0.0697715
23	0x3da3f378	0.08005422
24	0x3b1ae745	0.0023636383
25	0xbdc3e012	-0.095642224
26	0x3c5b9460	0.013402075
27	0x3d6038cc	0.054741666
28	0x3dd17220	0.10226846
29	0x3ddbc16a	0.1073025
30	0xbd2f3363	-0.042773616
31	0xbd22950d	-0.039692927
32	0xbb8bc7a0	-0.0042657405
33	0x3de5bebe	0.11218022
34	0x3d98fbb7	0.07469886
35	0x3c7672dd	0.015042034
36	0xbcde61e9	-0.027146297
37	0x3cc2c11c	0.023773722
38	0x3d31d9fa	0.04342077
39	0x3c24905a	0.010044182
40	0x3db82bb5	0.089927115
41	0x3a2aa45f	0.00065094786
42	0x3cde20de	0.027115282
43	0xbcff4ab6	-0.031163555
44	0xbc4d1fb6	-0.0125197675
45	0x3d7da2c7	0.061922815
46	0xbd897409	-0.06711585
47	0x3d32ce2b	0.04365365
48	0xbd10a1d8	-0.035310596
49	0xbb5da8a7	-0.0033822448
50	0xbd2455b2	-0.040120788
51	0xbbd88225	-0.0066073113
52	0xbc1df0d4	-0.009639937
53	0xbcf17b35	-0.029477695
54	0x3d02e485	0.031956214
55	0x3d252c05	0.040325183
56	0x3bbae4d2	0.005703547
57	0xbce30c27	-0.027715756
58	0x3dc18549	0.0944925
59	0x3bf9f2f0	0.0076278374
60	0xbbb9e9ee	-0.0056736385
61	0x3d9c0f08	0.076200545
62	0x3ce204b3	0.027590131
63	0x3d10dbc1	0.035365824
64	0x3e0a2e39	0.13494195
65	0xbda8ecdd	-0.08248303
66	0xbc8de6d9	-0.01732199
67	0x3d554b03	0.05207349
68	0xbd1aa0ef	-0.037751134
69	0xbcee299d	-0.029072577
70	0x3dcee16c	0.101015896
71	0xbe0e73b6	-0.13911328
72	0xbcd41e6b	-0.02589341
73	0x3d2d2798	0.042274088
74	0xbca9baa0	-0.020718873
75	0xbc06d4cf	-0.008229448
76	0xbc3d18a1	-0.0115415165
77	0xbd8c20ab	-0.068421684
78	0xbd25abe8	-0.040447146
79	0x3deb06c4	0.114759
80	0x3ce2d9f6	0.027691822
81	0x3d5b009b	0.053467374
82	0xbdbb5e23	-0.091488145
83	0x3dc78d4e	0.097437486
84	0x3d03a048	0.032135278
85	0xbe02d974	-0.12778264
86	0x3c751700	0.014959097
87	0xbca83c29	-0.0205365
88	0x3b9df243	0.0048201396
89	0x3c41a548	0.011819191
90	0xbd6cadc0	-0.05778289
91	0x3dfa47bc	0.122207135
92	0x3c6e7b27	0.014555729
93	0x3c49c4ba	0.01231497
94	0x3d8356b7	0.06413024
95	0x3dd79bce	0.10527764
96	0x3b9b7a05	0.0047447705
97	0xbd1ae1dd	-0.037813056
98	0x3d8c38b8	0.06846756
99	0x3d52ec8e	0.051495127
100	0x3df85be1	0.121268995
101	0xbcb0193c	-0.021496408
102	0xb9ac7c13	-0.0003289884
103	0x3dd3ecae	0.103478774
104	0xbd836ad1	-0.06416858
105	0xbdc70757	-0.09718197
106	0x3dcf8cb6	0.1013426
107	0x3db28e2c	0.087185234
108	0xbd540975	-0.05176683
109	0xbdc0d503	-0.09415629
110	0x3d5a0366	0.053225897
111	0x3d57409d	0.052551854
112	0x3d9de0e3	0.07708909
113	0x3d91c186	0.0711699
114	0x3d8e79d5	0.06956831
115	0xbd56c5d0	-0.052434742
116	0xbc11b9c7	-0.00889439
117	0xbdcb53c6	-0.09928088
118	0x3dd642ae	0.10461937
119	0x3c70238c	0.014656913
120	0xbdfd5926	-0.12370519
121	0x3ae5e457	0.0017539364
122	0xbcfda51d	-0.030962521
123	0xbc066ca1	-0.00820461
124	0xbd8334a9	-0.064065285
125	0x3d92b33c	0.071630925
126	0x3cba8578	0.022768721
127	0x3d9f833d	0.077887036
128	0x3bad408d	0.005287236
129	0x3d82dc5e	0.06389688
130	0xbcc02c9a	-0.023458768
131	0x3e15d08f	0.1463034
132	0x3d233e9c	0.03985463
133	0xbdc6a50d	-0.0969945
134	0x3ce465fd	0.027880663
135	0xbd4d82e0	-0.05017364
136	0xbcae187e	-0.021251913
137	0xbc805a06	-0.015667927
138	0x3d2e543e	0.04256081
139	0xba253609	-0.00063023024
140	0x3d94ea55	0.07271258
141	0xbda5286d	-0.08064351
142	0x3dab187b	0.08354279
143	0xbcd45776	-0.02592061
144	0x3d349d27	0.044095185
145	0xbd980568	-0.07422906
146	0x3dbe9de2	0.093074575
147	0x3d8af889	0.067856856
148	0xb9741515	-0.00023277507
149	0x3c54e131	0.012993143
150	0xbce57bac	-0.028013073
151	0x3ce57840	0.028011441
152	0xbd753a5c	-0.05987011
153	0xbd5be0f3	-0.053681325
154	0xbd9f9ad1	-0.07793201
155	0xbd2b3e6b	-0.041807573
156	0x3d041d99	0.03225479
157	0xbcf19f05	-0.029494772
158	0xbe0b516e	-0.13605282
159	0x3bfbabd5	0.007680396
160	0xbd6ebd2e	-0.058285885
161	0x3da6f142	0.08151485
162	0xbdff041b	-0.12451955
163	0xbdae2a58	-0.0850417
164	0x3d92116f	0.071322314
165	0xbde8d3da	-0.113685325
166	0xbd37c8a9	-0.0448691
167	0xbd59dbc7	-0.05318811
168	0x3cbc644e	0.022997048
169	0x3d8d5aff	0.06902122
170	0x3dbf08c7	0.09327846
171	0x3d731963	0.059350383
172	0xbdab2f44	-0.083586246
173	0xbbd0a209	-0.0063669723
174	0x3daffb4b	0.08592852
175	0x3d37f072	0.04490704
176	0x3d4f7281	0.05064631
177	0x3c941fb6	0.018081527
178	0xbc03f487	-0.008053905
179	0x3d18c268	0.037294775
180	0x3d12b691	0.03581864
181	0xbd428586	-0.04749062
182	0x3d942448	0.072334826
183	0xbc166cf5	-0.009181251
184	0x3de3a366	0.1111515
185	0xbd9fac05	-0.07796482
186	0xbdb01a41	-0.085987575
187	0x3d8738ff	0.06602668
188	0x3d59c9eb	0.05317108
189	0xbc2c119a	-0.010502243
190	0xbe15a104	-0.14612204
191	0xbdf3c4c2	-0.11902763
192	0x3d478bcc	0.048717305
193	0xbb7312e5	-0.003709012
194	0xbdf93b65	-0.12169532
195	0xbd2d315a	-0.042283393
196	0xbdadfbe0	-0.08495307
197	0x3d1dbb67	0.0385088
198	0xbe12ec2a	-0.14347902
199	0x3d6bd449	0.057575498
200	0x3c83d4b3	0.016092634
201	0xbd726567	-0.059178736
202	0xbe09aee6	-0.13445625
203	0xbe0b99ac	-0.1363284
204	0xbd7ccd6c	-0.061719343
205	0x3d2c5cb9	0.042080615
206	0xbd959b6c	-0.07305035
207	0xbd6280e5	-0.055298705
208	0xbde26d0f	-0.110559575
209	0xbbc948f4	-0.00614273
210	0x3d3560de	0.044281833
211	0xbcd1f108	-0.025627628
212	0xbda01d46	-0.078180835
213	0xbdb3523c	-0.08755919
214	0x3d0d7d14	0.034543112
215	0xbc861d41	-0.016371371
216	0x3ce4f444	0.027948506
217	0xbdd148f9	-0.102189966
218	0x3d4aa036	0.049469195
219	0xbd6e0d30	-0.058118045
220	0xbc07c699	-0.008287095
221	0xba9233be	-0.0011154336
222	0xbcfaceb6	-0.030616146
223	0xbe00df3c	-0.12585157
224	0x3cf3c227	0.029755665
225	0x3c7354c6	0.0148517545
226	0xbd36e165	-0.044648547
227	0xbe188bce	-0.14897081
228	0xbd2d0ecd	-0.042250443
229	0x3aa290d0	0.0012402777
230	0xbb124beb	-0.0022323083
231	0xbda48ac7	-0.08034282
232	0x3c08ead7	0.008356771
233	0x3d3f3b68	0.046687514
234	0x3d11dccd	0.035610963
235	0xbdf3329b	-0.118748866
236	0x3c583a77	0.013197533
237	0x3db96f6d	0.09054456
238	0xbdfec936	-0.12440722
239	0xbe17cd4b	-0.14824407
240	0x3b813b73	0.0039438545
241	0xbd96c724	-0.07362202
242	0x3c4ba908	0.012430437
243	0x3e043cd6	0.12913832
244	0xbd7712a3	-0.060320508
245	0xbda12418	-0.078682125
246	0x3d9b1c70	0.075737834
247	0x3d4cd1d1	0.050004784
248	0xbc07aebf	-0.008281409
249	0xbc83cbe4	-0.016088434
250	0xbdb340d9	-0.08752603
251	0xbd987f25	-0.07446126
252	0xbd4682bf	-0.048464533
253	0xbb83322c	-0.0040037837
254	0x3d1b0738	0.03784868
255	0xbce6ce6b	-0.0281746

conv1.bias f4 [16]
0	0x3d0b7eb2	0.034056373
1	0x3d5b26c8	0.05350378
2	0xbc8ee92a	-0.017445166
3	0xbdb56fb8	-0.08859199
4	0x3bb3a421	0.005482212
5	0x3d84ddb0	0.06487596
6	0x3d6af8e0	0.057366252
7	0x3d284d42	0.041089304
8	0x3d2e1db6	0.042508803
9	0xbced7f64	-0.028991409
10	0x3cc88bf3	0.024480795
11	0x3b2f5f31	0.002675962
12	0x3bb42f2d	0.005498788
13	0x3cee36c9	0.029078858
14	0x3d4a1a1e	0.049341314
15	0xbda5b634	-0.08091393

res1a.conv1.weight f4 [16, 16, 3, 3]
0	0x3c92963a	0.0178939
1	0x3d889930	0.06669843
2	0x3d03b170	0.03215164
3	0x3d8a606c	0.06756672
4	0x3cc7d906	0.024395477
5	0xbd457e3a	-0.048216082
6	0x3db6ee06	0.08932118
7	0x3d81aa16	0.063312694
8	0xbd3867c0	-0.04502082
9	0xbda0b57d	-0.07847116
10	0x3d0628dc	0.03275381
11	0xbda06b93	-0.07833018
12	0xbcd0a92b	-0.02547129
13	0xbc11d811	-0.008901612
14	0x3d0fe28f	0.035128172
15	0xbd7fed38	-0.06248209
16	0x3d71e959	0.05906043
17	0x3d8a1312	0.067419186
18	0xbd1d8a6b	-0.038462084
19	0x3c9b096a	0.018925387
20	0xbd6652ef	-0.056231435
21	0x3d1f2b0b	0.03885941
22	0x3d230998	0.03980407
23	0xbc9596cf	-0.018260388
24	0xbd367dfa	-0.044553734
25	0x3d37c910	0.044869483
26	0xbcd89c74	-0.02644179
27	0xbd852b21	-0.06502367
28	0x3c7303d8	0.014832459
29	0x3d536942	0.051614054
30	0xbd262236	-0.04055997
31	0x3cd06382	0.025438074
32	0xbc46252c	-0.012093823
33	0x3d57c058	0.052673668
34	0x3d837f97	0.0642082
35	0x3c9db10b	0.01924946
36	0x3bf46e3c	0.00745943
37	0x3cb12564	0.021624275
38	0x3d6122c5	0.0549648
39	0xbd109078	-0.035294026
40	0xbd8e769f	-0.06956219
41	0x3cd84550	0.026400238
42	0xbc3078dc	-0.010771003
43	0xbd17f4c5	-0.037098665
44	0x3cad7f1d	0.021178776
45	0xbc28f5a7	-0.010312474
46	0x3d17e9c0	0.037088156
47	0xbd9cac24	-0.07650021
48	0x3cf84091	0.030304225
49	0xbc5b08e7	-0.013368822
50	0x3cb8866c	0.022525035
51	0x3a3eef9e	0.00072836305
52	0xbd77ad4f	-0.060468014
53	0xbdc4752c	-0.09592661
54	0x3c144bef	0.009051307
55	0x3d54990b	0.051903766
56	0xbcf76f00	-0.030204296
57	0xbda86689	-0.08222682
58	0xbda3d9dd	-0.080005385
59	0xbd129c4f	-0.0357936
60	0xbd056531	-0.032567207
61	0x3b9ef6e0	0.004851207
62	0x3c895b3a	0.016767133
63	0x3cddc978	0.027073607
64	0x3d505faa	0.050872482
65	0xbd7a1c54	-0.061062172
66	0x3d83fede	0.064450964
67	0xbd8f57d2	-0.06999172
68	0xbd3e57a6	-0.046470307
69	0x3d5551dd	0.052080024
70	0x3cc8c578	0.024508223
71	0xbbe93abf	-0.007117599
72	0xbb623a0d	-0.0034519464
73	0xbd5e6b4c	-0.054301545
74	0x3d3130c7	0.04325941
75	0x3cf97201	0.03044987
76	0x3d03c55d	0.032170642
77	0x3b770225	0.0037690487
78	0xbd6f0e12	-0.058363028
79	0xbdb5ca65	-0.08876494
80	0x3d48b924	0.04900469
81	0x3d6bad9b	0.05753861
82	0x3d50c7a3	0.05097164
83	0x3b0c3ab7	0.0021397301
84	0x3d9cfd1f	0.076654665
85	0x3d7a0aaa	0.061045326
86	0x3b65b618	0.0035051163
87	0x391c1be3	0.00014887708
88	0x3dc952af	0.09830224
89	0x3d82e10f	0.06390583
90	0xb9f91c30	-0.00047513982
91	0xbb869e9d	-0.0041082636
92	0xbd461905	-0.048363704
93	0x3c5f58bd	0.013631997
94	0x3c89ddb6	0.016829353
95	0x3d256f3e	0.040389292
96	0x3c1fe1d6	0.009758433
97	0x3db0931c	0.08621809
98	0xbd25ac12	-0.040447302
99	0xbd3cf626	-0.046133183
100	0xbd6be373	-0.05758996
101	0x3d1540ce	0.036438756
102	0x3cf07840	0.029354215
103	0xbda0a0af	-0.07843148
104	0xbd15e2d5	-0.036593277
105	0xbc799347	-0.015232868
106	0x3c5850f1	0.013202892
107	0x3cfd7305	0.030938635
108	0x3dbd2495	0.09235493
109	0x3ca4807a	0.020080794
110	0x3d6391d5	0.055559
111	0x3d980040	0.07421923
112	0x3dada911	0.084795125
113	0x3cd22db6	0.025656562
114	0xbd34db30	-0.044154346
115	0xbc8a3b4d	-0.01687398
116	0x3d0b0410	0.03393942
117	0x3d7c205c	0.061554298
118	0x3d19f30b	0.0375853
119	0xbd508eb2	-0.050917335
120	0xbd8a471e	-0.06751846
121	0x3d984c74	0.07436457
122	0xbd21d264	-0.039507285
123	0xbd1de8d3	-0.038552117
124	0x3be0fa63	0.006865786
125	0xbcdf5d68	-0.02726622
126	0xbd9b3f98	-0.07580489
127	0x3c0baff3	0.008525836
128	0xbd7662f3	-0.06015296
129	0xbd996a84	-0.07491019
130	0xbb9ac716	-0.00472344
131	0x3d5a72ad	0.05333202
132	0xbc065257	-0.008198342
133	0x3d4a1d57	0.049344387
134	0xbcf34d36	-0.029699903
135	0x3d4dda87	0.050257232
136	0xbbdc74bb	-0.0067277825
137	0x3d34327d	0.043993462
138	0x3cf52f5d	0.029929811
139	0x3b27d87a	0.0025611208
140	0x3d96cf8a	0.07363804
141	0x3d047361	0.032336596
142	0x3e068673	0.13137226
143	0xbd8a8417	-0.067634754
144	0xbd4e52bd	-0.050371874
145	0x3d87aa1a	0.06624241
146	0x3c117c42	0.008879723
147	0xbd74f88d	-0.05980735
148	0x3cd0971f	0.025462685
149	0x3cf5e62a	0.030016977
150	0x3dc82a84	0.09773734
151	0x3d5f14b8	0.05446312
152	0xbdf320c9	-0.11871488
153	0xbd5a8841	-0.053352598
154	0x3cf11b4d	0.029431963
155	0x3d3b4779	0.04572246
156	0x3c79277c	0.015207168
157	0x3cadc9b8	0.021214351
158	0xbd6974a7	-0.056996014
159	0x3dc9348b	0.09824475
160	0xbd231f1b	-0.039824586
161	0x3caa8aa8	0.02081807
162	0xbd1234dd	-0.035694946
163	0x3c1424c7	0.0090419715
164	0xbd7165c5	-0.058934946
165	0xbdac374e	-0.08408986
166	0xbd35ab23	-0.04435266
167	0x3d960f4b	0.07327136
168	0xbd9b4029	-0.07580597
169	0xbd985fa3	-0.07440116
170	0xbc52478d	-0.012834442
171	0x3c1624f5	0.009164085
172	0xbd84a9d2	-0.06477703
173	0x3b1f9be9	0.0024354404
174	0x3d352ed7	0.044234123
175	0xbd3fa6a1	-0.04678977
176	0x3d0d17f9	0.03444669
177	0xbd7806fe	-0.060553543
178	0x3d896f80	0.0671072
179	0xbdb33ba9	-0.08751614
180	0x3d868dbe	0.06570004
181	0xbc9da28d	-0.01924255
182	0x3dbce5b3	0.09223499
183	0x3d88507e	0.06655978
184	0xbd063e59	-0.032774303
185	0x3d940805	0.07228092
186	0x3dbf84df	0.09351515
187	0x3c9b8843	0.018985873
188	0xbc5e82d9	-0.013581001
189	0xbdaf5c63	-0.08562543
190	0x3b5d2bb6	0.0033747978
191	0xbd33c5ec	-0.043889925
192	0xbc61313b	-0.013744648
193	0x3d3e5885	0.046471138
194	0x3d0fab8d	0.035075713
195	0x3d86110d	0.06546221
196	0xbdc0abf0	-0.094077945
197	0x3d3c363f	0.04595017
198	0x3d55df44	0.052214876
199	0xbcc64a33	-0.024205303
200	0x3c59a090	0.01328291
201	0x3d9a0a9b	0.07521554
202	0xbd343c20	-0.044002652
203	0xbd80e91e	-0.062944636
204	0xbdcd87c7	-0.10035663
205	0x3d1e5b83	0.03866149
206	0x3d18f1bf	0.037339922
207	0xbde53810	-0.11192334
208	0xbcb4b058	-0.022056744
209	0x3cb43245	0.021996627
210	0x3c7a821e	0.015289811
211	0xbd902a0d	-0.070392706
212	0xbbf9bfc4	-0.007621737
213	0xbcfaed42	-0.030630711
214	0xbda23ce6	-0.07921772
215	0xbd8293e8	-0.06375867
216	0xbcb24587	-0.021761669
217	0x3ddb6964	0.10713461
218	0x3c99a929	0.01875742
219	0x3db0d115	0.08633629
220	0x3da4d357	0.080481224
221	0x3dafcb04	0.08583644
222	0xbc86f135	-0.016472438
223	0x3dc0e096	0.09417836
224	0x3d7d84fe	0.06189441
225	0xbddc80ea	-0.10766776
226	0x3d1085ec	0.035283968
227	0xbd27259c	-0.04080735
228	0x3d54d8d8	0.05196461
229	0x3d56bed9	0.0524281
230	0x3bc7149a	0.006075454
231	0x3d1ea36d	0.038730074
232	0xbda83fe5	-0.08215312
233	0xbd0a1d19	-0.033719156
234	0xbd71cfd8	-0.059036106
235	0xbd54e1a6	-0.051973008
236	0x3c81ebbf	0.015859483
237	0xbd1fdd8e	-0.03902965
238	0x3bc34987	0.005959693
239	0x3db989fe	0.09059523
240	0x3c84e066	0.016220283
241	0xbdc01880	-0.09379673
242	0xbd0848b2	-0.033272453
243	0xbbe6952e	-0.0070368266
244	0x3d99fd7a	0.0751905
245	0x3d369868	0.04457894
246	0x3dd57ffd	0.104248025
247	0x3d124638	0.035711497
248	0xbd15cdbe	-0.036573164
249	0xbd200d59	-0.03907523
250	0xbd673ebd	-0.056456316
251	0xbd932bc1	-0.0718608
252	0xbdbd8cc0	-0.092553616
253	0xbdb96d2f	-0.09054028
254	0x3bc8202a	0.00610735
255	0xbd845414	-0.06461349

res1a.conv1.bias f4 [16]
0	0x3d1ac759	0.03778777
1	0x3ca240ed	0.01980635
2	0xbce0889d	-0.027408892
3	0x3d25f091	0.040512625
4	0x3d9b89f9	0.075946756
5	0xba4e08d4	-0.0007859592
6	0x3d949fe1	0.07257057
7	0x3d964218	0.07336825
8	0x3cb95d35	0.022627452
9	0xbda020e5	-0.07818774
10	0xbb9599ff	-0.004565477
11	0xbdad1d84	-0.08452895
12	0xbce9d0c1	-0.028541924
13	0xbce91e72	-0.0284569
14	0x3d5bb0ee	0.05363553
15	0x3d096e0d	0.03355222

res1a.conv2.weight f4 [16, 16, 3, 3]
0	0x3d1f04d8	0.03882298
1	0x3c9cc27f	0.019135712
2	0xbd42ea40	-0.04758668
3	0xbd92801d	-0.07153342
4	0xbd9ef767	-0.07762032
5	0xbd9773bc	-0.073951215
6	0x3d6c1eae	0.057646446
7	0xbdcdcaec	-0.1004847
8	0xbdd0525c	-0.10171959
9	0x3d0fec8c	0.035137698
10	0xbcd508a1	-0.026005091
11	0xbda6b299	-0.081395335
12	0x3db3a841	0.08772326
13	0x3ce4ae90	0.02791527
14	0x3cde8f74	0.027168013
15	0xbd9d7a23	-0.07689311
16	0x3d191be8	0.03738013
17	0xbd10fbd3	-0.03539641
18	0x3d592cbd	0.05302118
19	0xbd95e747	-0.07319503
20	0x3d5935b6	0.05302974
21	0xbd8cd11a	-0.068758205
22	0xbd45b3fb	-0.048267346
23	0x3d8a4f6f	0.06753432
24	0x3d524ac8	0.05134085
25	0xbd537f28	-0.051634938
26	0x3dcd427e	0.10022448
27	0xbd9c2ce1	-0.076257475
28	0x3d53437f	0.05157804
29	0x3ba6c9e2	0.0050899843
30	0x3da4b580	0.08042431
31	0x3d88c1f5	0.06677619
32	0x3d209aee	0.039210252
33	0x3d667045	0.056259412
34	0xbd4d5428	-0.050129086
35	0xbc3a6b3b	-0.011378105
36	0x3d56da09	0.05245403
37	0x3bf9a57b	0.0076186038
38	0xbd5dbd48	-0.05413559
39	0xbc86e227	-0.01646526
40	0xbd7dfeb3	-0.06201048
41	0x3d97380a	0.073837355
42	0x3db12d4d	0.086512186
43	0xbd055ccf	-0.032559212
44	0x3df24b0b	0.118307196
45	0x3cf53dfa	0.02993678
46	0xbd7cc584	-0.061711803
47	0xbcc51f49	-0.02406277
48	0xbda2dc88	-0.07952219
49	0x3d5d56f8	0.054038018
50	0xbd382498	-0.044956774
51	0xbda370b9	-0.079804845
52	0x3ccc0ff7	0.024909956
53	0x3c0b5c8e	0.0085059535
54	0x3dbcb7b7	0.09214728
55	0xbcba8bdb	-0.022771766
56	0x3d913283	0.070897125
57	0x3d355deb	0.04427902
58	0x3cfaad1a	0.03060012
59	0x3d376522	0.044774182
60	0x3d32e742	0.043677576
61	0xbcc7cd94	-0.02439002
62	0x3bd16dca	0.0063912617
63	0x3cfab5c2	0.030604247
64	0x3d29af87	0.04142716
65	0x3d0898d4	0.033348873
66	0xbd877165	-0.06613425
67	0x3cb8723e	0.022515412
68	0x3d7453d1	0.059650246
69	0xbd8f660c	-0.07001886
70	0x3c8025c7	0.015643014
71	0xbbdcfb3a	-0.0067438157
72	0xbd597aa5	-0.05309548
73	0x3d58cccf	0.052929696
74	0xbd93db56	-0.072195694
75	0xba7ed7ad	-0.0009721469
76	0x3d220d03	0.03956319
77	0x3d74c8eb	0.059761923
78	0x3d974a5a	0.07387228
79	0xbce5344a	-0.027979035
80	0x3d82055f	0.06348681
81	0xbc6f5d08	-0.014609583
82	0xbbec3589	-0.0072085303
83	0xbcd847d4	-0.026401438
84	0xbd1d3e96	-0.038389765
85	0x3da713e4	0.08158091
86	0xbd6ad2b0	-0.057329834
87	0x3ccca0d1	0.024979027
88	0x3cef0608	0.02917768
89	0x3d01eb89	0.031718764
90	0xbd207739	-0.0391762
91	0x3d44701b	0.047958475
92	0x3d913a74	0.07091227
93	0xbd9f2e92	-0.077725545
94	0x3dbb4914	0.09144798
95	0xbc801b97	-0.015638156
96	0x3cb786f9	0.022403227
97	0x3ae03c91	0.0017107894
98	0x3dd73836	0.10508768
99	0xbd919513	-0.07108512
100	0xbda20117	-0.07910364
101	0x3dc0cdb1	0.094142325
102	0x3dbf4855	0.09339968
103	0x3d9d9bac	0.07695708
104	0x3d52dc92	0.051479883
105	0x3db65dae	0.08904587
106	0x3cbba6fd	0.022906775
107	0x3c375d6c	0.011191707
108	0x3c1afd03	0.009459737
109	0x3b826222	0.0039789835
110	0xbd9acf6b	-0.07559093
111	0xbd30d779	-0.04317424
112	0xbd14c746	-0.036322854
113	0x3ced9414	0.029001273
114	0x3da63da1	0.081172235
115	0x3c0d621b	0.008629347
116	0xbd0fd147	-0.03511169
117	0xbd818618	-0.063244045
118	0xbd8058d9	-0.06266946
119	0x3d6a6b9f	0.05723154
120	0x3c893f02	0.016753677
121	0xbd86411e	-0.06555389
122	0xbdae8a32	-0.085224524
123	0x3ccdeaa7	0.025136305
124	0xbd56abda	-0.052409984
125	0xbcf62be7	-0.030050231
126	0x3d1fb425	0.03899016
127	0x3c49c978	0.0123161
128	0xbd4ff7e3	-0.050773513
129	0xbd11980e	-0.0355454
130	0xbd9f0228	-0.07764083
131	0x3d0e29bc	0.03470777
132	0x3ccd9024	0.025093146
133	0x3c27e11f	0.010246544
134	0x3d9490c3	0.072541736
135	0xbd8934dc	-0.06699535
136	0x3daae646	0.083447024
137	0xbb1dde30	-0.0024088733
138	0xbcb0def3	-0.021590685
139	0x3db0e404	0.086372405
140	0x3c0fdaf6	0.008780232
141	0xbd358869	-0.044319544
142	0xbd5d569d	-0.05403768
143	0x3d225529	0.039631996
144	0xb9ee9fee	-0.00045514054
145	0xbd211d4c	-0.03933458
146	0x3cfefb0c	0.031125568
147	0x3c344917	0.011003754
148	0xbd4906d7	-0.04907879
149	0xbb53c42d	-0.0032312975
150	0x3d99af70	0.07504165
151	0xbdb7b8bf	-0.089707844
152	0xbd17f94d	-0.037102986
153	0xbc4d8f61	-0.012546391
154	0xbd66ae78	-0.05631873
155	0xbd9a77f0	-0.075424075
156	0x3dbc9be1	0.09209419
157	0x3c928b9d	0.017888838
158	0x3b951e02	0.0045506964
159	0xbc8a088b	-0.016849777
160	0xbb7fa13c	-0.0039006015
161	0xbd8b65e2	-0.06806542
162	0xbd84587b	-0.06462189
163	0x3d95de27	0.07317763
164	0x3d68127e	0.05665826
165	0x3c3c086d	0.011476618
166	0x3d75dcf2	0.060025163
167	0x3d71e700	0.05905819
168	0x3d546edc	0.051863536
169	0xbd40ac99	-0.047039602
170	0x3db33edf	0.08752226
171	0x3cf24adc	0.029576711
172	0x3c505f8e	0.0127180945
173	0xb8bb49cf	-8.930603e-05
174	0x3d8d9233	0.06912651
175	0x3da3e67c	0.08002946
176	0xbc60f2a2	-0.013729723
177	0x3cff4561	0.031161012
178	0xbd46b0f6	-0.048508607
179	0x3d5722c4	0.05252339
180	0xbd1e73c0	-0.038684607
181	0x3d120b7e	0.03565549
182	0xbd5ea98b	-0.054360908
183	0xbcb3e777	-0.021960957
184	0x3ca42d9b	0.020041278
185	0x3cc1a878	0.023639902
186	0x3c693870	0.014234647
187	0x3d9a5b70	0.075369716
188	0x3d81429d	0.063115336
189	0x3bbbe0b4	0.005733574
190	0xbc7a795b	-0.015287722
191	0x3d5358e6	0.051598452
192	0x3cf4d6b1	0.02988753
193	0xbd3a2cde	-0.045452945
194	0x3dc5dcd4	0.0966126
195	0xbd76b74f	-0.06023341
196	0x3d553692	0.052053995
197	0x3db9e25d	0.090763785
198	0xbcdd9b05	-0.027051458
199	0xbd4d92fd	-0.050189007
200	0xbd3794d6	-0.044819675
201	0xbd799a21	-0.060938004
202	0x3db2dd80	0.08733654
203	0x3cad87f3	0.02118299
204	0x3d490ce3	0.049084555
205	0xbbb67862	-0.00556855
206	0x3d8f0b01	0.06984521
207	0x3d64d986	0.05587151
208	0xbd0e647d	-0.0347638
209	0xbc1db164	-0.009624813
210	0xbd3102f1	-0.043215696
211	0x3d371044	0.044693246
212	0x3db4c1b8	0.088260114
213	0xbc069e39	-0.008216434
214	0xbd215968	-0.039391905
215	0x3c224570	0.0099042505
216	0xbd24aa32	-0.040201373
217	0x3d4705c3	0.04858948
218	0xbaa115cf	-0.0012289825
219	0x3c1c0a85	0.009523992
220	0x3ce35829	0.027751999
221	0x3d88231f	0.06647324
222	0x3dab9d04	0.08379558
223	0x3d594689	0.053045783
224	0x3ddcb2fb	0.10776325
225	0xbcffd18f	-0.031227855
226	0xbbfe9a8b	-0.007769888
227	0x3cce0fd8	0.02515404
228	0x3cb0b1ab	0.021569094
229	0xbd1a4612	-0.03766448
230	0x3d0258ef	0.031823095
231	0xbdb110bf	-0.08645772
232	0x3d8385a6	0.06421976
233	0x3c787436	0.015164426
234	0x3925f787	0.00015827837
235	0xbd790a19	-0.060800646
236	0x3d94de87	0.07269006
237	0x3d8d9fe4	0.06915262
238	0xbbf28068	-0.007400561
239	0x3dec86e8	0.11549169
240	0x3d705204	0.058671966
241	0x3da42085	0.08014015
242	0x3dd72282	0.10504629
243	0xbd4ad411	-0.04951865
244	0x3cf717d2	0.030162726
245	0xbd8c9265	-0.0686386
246	0x3da0f5c1	0.07859374
247	0x3d8c633d	0.06854866
248	0x3ca084a2	0.019594494
249	0xbc87ebcf	-0.016591934
250	0x3cb6917d	0.022286171
251	0xbccccb26	-0.024999212
252	0xba8f8200	-0.0010948777
253	0x3c83a0b5	0.016067842
254	0xbd820719	-0.0634901
255	0xbcc7812f	-0.024353592

res1a.conv2.bias f4 [16]
0	0x3d52e364	0.051486388
1	0x3b4513eb	0.0030071686
2	0xbcded09f	-0.027199088
3	0xbd3472b3	-0.0440547
4	0xbd36a37b	-0.0445895
5	0xbd031272	-0.032000013
6	0xbd7649ca	-0.060128964
7	0x3cdf5334	0.027261354
8	0x3c91a44e	0.017778542
9	0xbd5826f6	-0.05277153
10	0x3d482597	0.048863973
11	0xbd8392ab	-0.06424459
12	0xbd8ffed1	-0.07031024
13	0xbc699e37	-0.014258913
14	0x3d78d53f	0.060750242
15	0xba196de6	-0.0005852863

res1b.conv1.weight f4 [16, 16, 3, 3]
0	0x3da4a460	0.080391645
1	0x3ba35cda	0.004985434
2	0xbcd31a0b	-0.025769254
3	0x3da3a181	0.07989789
4	0xbd4f48be	-0.05060648
5	0x3d82f164	0.06393698
6	0x3c22120a	0.009891996
7	0x3d2656ae	0.040610008
8	0xbc12ca80	-0.008959413
9	0x3dafe450	0.08588469
10	0x3da36739	0.079786725
11	0xbd102284	-0.035189167
12	0x3d0b7f1c	0.034056768
13	0xbcf5fda4	-0.030028172
14	0x3ddebe36	0.108761236
15	0x3d6ab3f2	0.057300515
16	0xbcabdb59	-0.020978617
17	0xb8aa7cef	-8.1295024e-05
18	0x3d3f4da5	0.046704907
19	0xbd6a0a88	-0.05713895
20	0x3d205959	0.03914771
21	0xbda6282d	-0.08113132
22	0x3ce4aa6d	0.027913297
23	0x3d7c8e36	0.06165906
24	0xbb41e0a3	-0.0029583357
25	0x3bd0cb0a	0.0063718604
26	0x3cd232a8	0.02565892
27	0xbd05e351	-0.03268749
28	0xbcc2d430	-0.02378282
29	0xbc98fda2	-0.018675629
30	0xbd3b6582	-0.045751102
31	0x3dabd9fc	0.083911866
32	0xbc553e75	-0.013015379
33	0x3d4460a1	0.047943715
34	0xbd4ca7be	-0.04996466
35	0xbd3237b4	-0.043510154
36	0x3dc7a621	0.097484834
37	0xbdb494ac	-0.088174194
38	0x3d004675	0.031317193
39	0x3d849816	0.064743206
40	0xbd32f12c	-0.04368703
41	0x3c11e73b	0.008905227
42	0x3d652953	0.055947613
43	0xbd951a67	-0.072804265
44	0xbdc1ca7f	-0.09462451
45	0xbd8e47c9	-0.06947286
46	0xbdb585cf	-0.088634126
47	0xbc902552	-0.01759592
48	0xbd05fe8c	-0.032713458
49	0xbd9a33d0	-0.07529414
50	0x3c80f1c4	0.015740283
51	0x3da366f4	0.07978621
52	0x3d07b795	0.03313406
53	0x3d50dab7	0.050989833
54	0xbd3114f3	-0.04323287
55	0x3da25be6	0.079276845
56	0x3bed0e8a	0.007234399
57	0x3c23859f	0.009980588
58	0x3dad12ac	0.08450827
59	0x3d3688e1	0.04456413
60	0x3d3234aa	0.043507256
61	0x3ce51a39	0.027966605
62	0xbcd1df7c	-0.025619261
63	0x3d8323a5	0.06403283
64	0x3d635c7f	0.055508133
65	0xbb6ff9de	-0.0036617438
66	0x3b6cd4df	0.0036137623
67	0xbd2c193b	-0.04201625
68	0x3d326d5d	0.04356133
69	0x3c24360e	0.010022653
70	0xbdd143df	-0.102180235
71	0xbd70bdb5	-0.05877467
72	0xbdb71058	-0.08938664
73	0xbdf72f13	-0.120695256
74	0x3c209e91	0.00980343
75	0x3d540c19	0.05176935
76	0x3ddfcbe2	0.109275594
77	0xbd55afb0	-0.0521695
78	0xbd415b1d	-0.047206033
79	0xbd641fc7	-0.055694368
80	0x3b3e771b	0.0029062692
81	0xbd576ae4	-0.052592173
82	0xbd18c30d	-0.03729539
83	0x3c73e4fc	0.014886137
84	0x3d21ebe6	0.03953161
85	0x3d8e99dd	0.06962941
86	0xbd4f33bd	-0.05058645
87	0x3d4b9c06	0.049709342
88	0xbc39b10b	-0.011333714
89	0xbb910fb7	-0.004426922
90	0x3cc7638e	0.024339464
91	0xbd03a505	-0.032139797
92	0xbcd682db	-0.026185444
93	0xbc84a916	-0.016193908
94	0x3da5ade0	0.08089805
95	0xbcbca52c	-0.023027979
96	0x3d97705b	0.07394477
97	0x3cc56d2e	0.024099912
98	0x3dee5c36	0.116386816
99	0x3d633ca0	0.05547774
100	0x3dac8ef7	0.08425706
101	0xbd12c922	-0.035836346
102	0x3d34922a	0.044084705
103	0x3dce11cc	0.10061988
104	0x3cebe67c	0.028796427
105	0x3c5f1413	0.013615626
106	0xbcbedeea	-0.023299653
107	0xbd15d02d	-0.036575485
108	0x3d79607b	0.060883027
109	0x3db47ebc	0.08813235
110	0xbbc6bc45	-0.006064924
111	0xbc938ab9	-0.018010484
112	0xbd915110	-0.070955396
113	0xbe162a78	-0.14664638
114	0xbcf6ca7d	-0.03012585
115	0x3db0c2ef	0.08630931
116	0x3caef25b	0.021355798
117	0xbcb2ff7f	-0.021850346
118	0xbd89a57f	-0.06721019
119	0x3b5a6d89	0.0033329448
120	0x3e118998	0.14212644
121	0x3d4712cd	0.048601914
122	0xbe0c4108	-0.13696682
123	0x3e013cbb	0.12620823
124	0x3b137a76	0.0022503412
125	0x3d1ca23c	0.038240656
126	0x3daff176	0.08590977
127	0x3d68d65f	0.056845065
128	0x3d08c536	0.0333912
129	0xbd52fd78	-0.051511258
130	0xba0c321f	-0.0005348045
131	0xbcc033be	-0.023462173
132	0xbd17f743	-0.03710104
133	0xbd0dae70	-0.034590185
134	0x3d544f12	0.05183322
135	0xbe21d6bb	-0.1580457
136	0xbc959c2a	-0.018262941
137	0x3d4d80f6	0.050171815
138	0xbdba7c4d	-0.0910574
139	0xbe1882f1	-0.148937
140	0x3d974014	0.07385269
141	0x3bc99328	0.0061515756
142	0xbd6f4676	-0.058416806
143	0xbc314471	-0.01081954
144	0xbd964fd9	-0.073394485
145	0x3d6a1d7e	0.057157032
146	0x3d6aeece	0.05735665
147	0xbd99b107	-0.075044684
148	0xbd66ad83	-0.056317817
149	0xbda599d1	-0.08085979
150	0xbd7ba9fa	-0.0614414
151	0xbda888a6	-0.082291886
152	0xbbd57e40	-0.0065152943
153	0x3ce9c492	0.028536115
154	0xbd265f62	-0.040618308
155	0x3d37c63a	0.044866778
156	0xbda15d83	-0.07879164
157	0x3c75b8d7	0.0149976825
158	0x3d27f834	0.04100819
159	0x3d155aa2	0.036463387
160	0x3d45adcd	0.048261452
161	0x3bee4a56	0.007272045
162	0xbd662787	-0.05619004
163	0x3c0e26a0	0.008676201
164	0x3d200ff3	0.03907771
165	0xbc382690	-0.011239663
166	0x3cb07ab6	0.021542888
167	0xbcddf908	-0.027096286
168	0xbc78dc24	-0.015189204
169	0xbd51fab0	-0.051264465
170	0x3c1a8610	0.009431377
171	0xbdaa8d1e	-0.08327697
172	0xbd7363d8	-0.05942139
173	0xbd88f5b4	-0.06687489
174	0x3da0bcf7	0.07848542
175	0x3d8d4681	0.06898213
176	0x3d895e56	0.06707446
177	0x3bd7752c	0.0065752473
178	0x3d81525d	0.06314538
179	0xbd67d3d9	-0.056598518
180	0x3d63f90e	0.05565744
181	0x3d961b27	0.07329398
182	0x3ca22d53	0.019797003
183	0xbd71761c	-0.05895053
184	0xbcb62011	-0.022232087
185	0x3bea13ea	0.007143487
186	0xbd0b6223	-0.034029137
187	0xbd7c881c	-0.06165324
188	0xbdb13e09	-0.086544104
189	0x3cc8c3de	0.02450746
190	0x3d9688d4	0.07350317
191	0xbca8b988	-0.02059628
192	0x3d340033	0.043945502
193	0xbd73b66d	-0.059500147
194	0xbd697988	-0.057000667
195	0xbd28b4da	-0.0411881
196	0xbd7cb648	-0.061697274
197	0xbdb37727	-0.08762961
198	0x3d222bcd	0.039592553
199	0xbc555669	-0.01302109
200	0x3d550cce	0.052014165
201	0x3d4988aa	0.0492026
202	0xbd0f59a5	-0.0349976
203	0xbc7e3ca8	-0.015517391
204	0x3d151574	0.036397412
205	0xbd9500f2	-0.07275571
206	0x3cdd2225	0.02699382
207	0xbd4fe885	-0.050758857
208	0xbd88f448	-0.06687218
209	0x3c6e4c5d	0.014544574
210	0x3c4e33f4	0.012585629
211	0x3d7df485	0.06200077
212	0xbcf22e4b	-0.02956309
213	0xbcccf21c	-0.02501779
214	0x3d41ab94	0.04728277
215	0xbadc69bf	-0.0016816183
216	0xbb47864a	-0.0030445033
217	0x3da54b41	0.08070994
218	0xbd9ce7f5	-0.0766143
219	0x3d99e30e	0.0751401
220	0xbb65b711	-0.0035051743
221	0xbd43ba13	-0.047784876
222	0xbc97e879	-0.018543469
223	0xbd9ca684	-0.07648948
224	0xbd902075	-0.07037441
225	0xbd8220b6	-0.06353895
226	0xbcec1120	-0.02881676
227	0xbd7a65db	-0.061132293
228	0xbd524631	-0.05133647
229	0xbd8806b8	-0.066419065
230	0xbd83e50a	-0.0644017
231	0xbda197a2	-0.0789025
232	0xbc01956b	-0.007909159
233	0xbb0b39b8	-0.002124412
234	0xbda90c82	-0.08254339
235	0xbd20d7d8	-0.039268345
236	0xbdac0bfd	-0.08400724
237	0xbc668887	-0.014070637
238	0x3c874c2d	0.016515816
239	0xbd9a5c05	-0.075370826
240	0x3a55b30b	0.00081519847
241	0xbce942d9	-0.028474258
242	0xbd8a966b	-0.06766971
243	0xbd91ece0	-0.071252584
244	0x3d9f4ef4	0.07778731
245	0xbcadf1fb	-0.02123355
246	0xbd699b09	-0.05703262
247	0xbd9ac335	-0.07556764
248	0xbd891370	-0.066931605
249	0x3d3a334a	0.04545907
250	0xbd2e9ca4	-0.042629853
251	0xbcd45e32	-0.025923822
252	0xbd3c1ffd	-0.045928944
253	0x3d4a7563	0.049428355
254	0x3d2d1868	0.042259604
255	0xbcece8a6	-0.02891953

res1b.conv1.bias f4 [16]
0	0xbd079fe8	-0.033111483
1	0xbcfa773f	-0.03057444
2	0x3d59bc93	0.053158354
3	0x3d1677fd	0.036735523
4	0xbd93447b	-0.07190796
5	0xbd33bd2a	-0.043881573
6	0xbd188947	-0.037240293
7	0x3c1efa39	0.009703212
8	0xbcf92d50	-0.030417114
9	0xbd84acf5	-0.064783014
10	0xbcaacfa1	-0.020850958
11	0xbc13dda2	-0.009025009
12	0x3da075f1	0.078349955
13	0x3d970f80	0.07376003
14	0x3cad8b04	0.021184452
15	0x3da0200a	0.07818611

res1b.conv2.weight f4 [16, 16, 3, 3]
0	0xbd69d8a5	-0.057091374
1	0x3d27a490	0.040928423
2	0xbd625f96	-0.05526694
3	0xbd2e99bc	-0.04262708
4	0x3d56aa7e	0.052408688
5	0x3d8bf7c3	0.06834366
6	0xbc77660a	-0.015100012
7	0xbd934e31	-0.07192648
8	0x3d0a668f	0.033789214
9	0x3da0900c	0.07839975
10	0xbd89ce1d	-0.06728766
11	0x3dbaf98b	0.09129628
12	0xbd797c16	-0.060909353
13	0x3cdbd01b	0.02683263
14	0xbcd23edf	-0.025664745
15	0xbd951fb9	-0.07281441
16	0xbc89adef	-0.01680657
17	0x3bd8aeea	0.0066126483
18	0xbd18c121	-0.037293557
19	0x3dbc3cc9	0.09191281
20	0xbd887df9	-0.066646524
21	0xbd337218	-0.04380998
22	0x3bbb672c	0.005719086
23	0x3cc5a9eb	0.024128875
24	0x3d1f9d25	0.038968224
25	0xbc83b492	-0.016077314
26	0x3ca5daeb	0.02024599
27	0xbd3c22e3	-0.045931708
28	0xbdb04404	-0.08606723
29	0x3cd523d9	0.02601807
30	0xbd895db4	-0.067073256
31	0xbd977fa0	-0.073973894
32	0x3d99ac7f	0.07503604
33	0x3d8a1829	0.067428894
34	0x3d6728b4	0.056435302
35	0x3d899dbf	0.06719541
36	0x3c826012	0.01591495
37	0xbb254e29	-0.002522359
38	0xbcc86a43	-0.024464732
39	0x3d0eea7d	0.034891594
40	0xbd3df403	-0.046375286
41	0xbd54f002	-0.0519867
42	0x3cc5e4b0	0.024156898
43	0x3d88b7c3	0.06675675
44	0xbb3e1670	-0.0029005073
45	0x3d8cc502	0.06873514
46	0xbd386878	-0.045021504
47	0xbca4d310	-0.020120174
48	0x3c09e0b2	0.008415388
49	0x3d304fa9	0.04304472
50	0x3dbfa7f0	0.093582034
51	0xbd4c6f75	-0.04991098
52	0x3abe614e	0.0014524849
53	0x3d2c9613	0.04213531
54	0x3d77b1f7	0.060472455
55	0x3d22567d	0.039633263
56	0x3d19c2e3	0.037539374
57	0xbd70e615	-0.058813173
58	0x3b428fef	0.0029687842
59	0xbce98469	-0.02850552
60	0x3d2b8bba	0.0418813
61	0xbd321ac6	-0.043482564
62	0xbd9e1034	-0.07717934
63	0x3cbd9ba0	0.023145497
64	0x3c98ae6c	0.018637858
65	0xbd59b466	-0.053150557
66	0x3ce1a18d	0.027542854
67	0xbd816fc8	-0.06320149
68	0x3c77656c	0.015099864
69	0x3d5fff6b	0.054686945
70	0x3d29a7f7	0.04141995
71	0xbdf5c8f0	-0.120012164
72	0xbd2dec60	-0.042461753
73	0xbdb899f9	-0.09013743
74	0xbce4cb5d	-0.027929002
75	0xbcf814a4	-0.03028328
76	0xbc684422	-0.0141764
77	0x3d591062	0.05299414
78	0xbca9e232	-0.020737741
79	0x3be07e8c	0.006851023
80	0x3b6ccdde	0.0036133449
81	0xbd391fbd	-0.045196284
82	0xbd939c06	-0.072074935
83	0x3c388621	0.011262448
84	0xbb725731	-0.003697824
85	0x3dc3f879	0.09568877
86	0xbc16ee9d	-0.009212163
87	0xbd9d2265	-0.07672576
88	0x3d424f86	0.04743912
89	0x3d21f670	0.03954166
90	0x3d72758c	0.059194133
91	0xbc07c82d	-0.008287472
92	0x3d04b189	0.032395873
93	0xbd1bd47e	-0.038044445
94	0x3d6a2e95	0.05717333
95	0xbd3bb29f	-0.045824643
96	0x3dade0c7	0.084901385
97	0x3d57bf61	0.052672748
98	0x3cf42f43	0.029807692
99	0x3d082cb9	0.033245776
100	0xbd4db1b2	-0.05021829
101	0x3d1eac1e	0.038738362
102	0x3b990362	0.0046695927
103	0xbd677c97	-0.056515303
104	0xbc8e8ba9	-0.01740058
105	0x3d692cd2	0.05692751
106	0xbd5ae8a3	-0.053444516
107	0x3ce5f7d8	0.028072283
108	0x3d06ec15	0.03293999
109	0xbdafe727	-0.08589011
110	0x3d4cfb4f	0.050044354
111	0xbd61684e	-0.055031113
112	0xbd26069d	-0.04053365
113	0x3d0bc7ad	0.034125973
114	0x3ba9c143	0.0051805093
115	0xbc8d8019	-0.017272996
116	0x3a8b022d	0.0010605507
117	0xbd8751c8	-0.066073954
118	0x3c4779c0	0.012175024
119	0x3d36cdaf	0.04462975
120	0xbd73f79a	-0.059562303
121	0x3cbc94ac	0.023020111
122	0xbc0bf89f	-0.008543163
123	0xbd29335e	-0.041308753
124	0xbdaf8665	-0.085705556
125	0xbcccc3a3	-0.02499563
126	0xbc15c5ca	-0.009141395
127	0xbd827cff	-0.06371497
128	0x3c50a0d9	0.012733662
129	0x3cb602aa	0.022218067
130	0x3c7c94f7	0.015416375
131	0xbd9467e3	-0.07246377
132	0x3d475e2f	0.048673805
133	0xbd8ccbed	-0.06874833
134	0xbd207c32	-0.039180942
135	0x3c8406d9	0.016116546
136	0xbda50478	-0.08057493
137	0xbc7cacdc	-0.015422072
138	0xbcad6ee0	-0.021171033
139	0xbdae732c	-0.08518061
140	0x3d3fc108	0.04681495
141	0x3d2e56eb	0.04256336
142	0x3d0a5680	0.0337739
143	0xbd17b900	-0.037041664
144	0x3c3cbc66	0.011519527
145	0x3cef328a	0.029198904
146	0xbcaade8b	-0.02085807
147	0x3d8baae7	0.068197064
148	0x3d94af57	0.07260006
149	0xbd8f9ccc	-0.070123285
150	0xbd2cd335	-0.04219361
151	0xbd1e019e	-0.03857576
152	0x3d875b3a	0.06609197
153	0x3d17af3c	0.03703235
154	0xbd5ef2c5	-0.05443074
155	0x3da392eb	0.07987007
156	0xbd411bae	-0.047145538
157	0x3db5e976	0.0888242
158	0x3ce61349	0.028085368
159	0xbc791c38	-0.015204482
160	0x3c59c403	0.013291362
161	0x3c0928d4	0.008371551
162	0x3d825ac5	0.06364969
163	0xbcb2c974	-0.021824576
164	0x3d625702	0.05525876
165	0x3d2f5c5f	0.0428127
166	0x37f4ab48	2.9166826e-05
167	0x3db6a53f	0.08918237
168	0xbd64c6eb	-0.055853765
169	0xbdc245f1	-0.094859965
170	0xbc514038	-0.012771659
171	0xbda6c9a2	-0.08143927
172	0xbd62c107	-0.055359866
173	0x3c6d657d	0.014489529
174	0xbdad966c	-0.08475956
175	0xbd5d0821	-0.05396283
176	0x3d7044d7	0.0586594
177	0x3aa7bc7d	0.0012797263
178	0xbc70e96e	-0.0147040915
179	0x3d98b500	0.07456398
180	0xbd8770e4	-0.06613329
181	0x3bfdfe1f	0.007751241
182	0x3d16229c	0.0366541
183	0xbc0a7e12	-0.008452909
184	0xbd8cfa63	-0.06883695
185	0x3dacd700	0.084394455
186	0x3da1c015	0.07897965
187	0xbdc4e1af	-0.09613358
188	0xbc6e365f	-0.01453933
189	0x3d403acc	0.046931073
190	0xbcf8eb8d	-0.030385757
191	0x3d6976a4	0.05699791
192	0x3d559890	0.052147448
193	0xbd85cddc	-0.06533405
194	0x3d57b9a5	0.05266728
195	0x3d6665e4	0.056249514
196	0xbd2bdd4c	-0.041959092
197	0x3d5f3d39	0.054501746
198	0xbcfb6b8b	-0.030690929
199	0xbd01b70a	-0.0316687
200	0x3d71f577	0.059071984
201	0x3d94c38a	0.072638586
202	0x3b9e556e	0.0048319614
203	0xbd647cbb	-0.055783015
204	0x3c59191e	0.013250617
205	0xbda081b9	-0.07837243
206	0x3db9c71a	0.09071179
207	0xbc0ea19a	-0.008705521
208	0xbc326e7c	-0.010890599
209	0xbb97b9d3	-0.0046303063
210	0x3d3bd75b	0.045859676
211	0x3c89bb5b	0.01681297
212	0x3da2e83b	0.07954451
213	0x3d344ee5	0.044020552
214	0xbd1cd282	-0.038286693
215	0x3d7f4c48	0.062328607
216	0xbd5ca956	-0.05387243
217	0x3d8a9294	0.06766239
218	0x3c9a0f24	0.018806048
219	0xbd959b39	-0.07304997
220	0xbcb43101	-0.021996023
221	0x3d246ff5	0.040145833
222	0xbdac25e7	-0.08405667
223	0x3b66d75b	0.0035223577
224	0x3c8b30e5	0.016991088
225	0xbcb4e863	-0.022083467
226	0xbd52bc0f	-0.051448878
227	0x3d8ebbe6	0.069694325
228	0x3d42ef4a	0.047591485
229	0xbc5b3f7b	-0.013381834
230	0x3d2cc549	0.042180333
231	0x3d9e4fba	0.077300504
232	0xbd33123b	-0.043718558
233	0x3bfc071f	0.0076912786
234	0x3dacfea2	0.08447005
235	0x3b8d0823	0.0043039485
236	0xbda82fa2	-0.0821221
237	0xbd802a27	-0.0625804
238	0xbd441234	-0.047868922
239	0x3d1f4d50	0.03889209
240	0x3d43ddf8	0.047819108
241	0x3da5000e	0.08056651
242	0xbc8731b2	-0.016503189
243	0x3d35127e	0.04420709
244	0x3cd0b25e	0.025475677
245	0x3cc8776c	0.024471007
246	0xbd2b0066	-0.041748427
247	0x3dab52a1	0.083653696
248	0x3d7c8a79	0.061655495
249	0xbda66452	-0.08124603
250	0xbd93b418	-0.072120845
251	0x3d37c9d6	0.04487022
252	0x3db4d016	0.08828752
253	0xbc9110e6	-0.017708253
254	0x3c8a1413	0.016855275
255	0xbca8ce17	-0.020606084

res1b.conv2.bias f4 [16]
0	0x3d1ce6f8	0.038306206
1	0xbcf15eba	-0.029464114
2	0xbd8e2c71	-0.0694207
3	0x3ccf03ff	0.02527046
4	0x3c5dafdc	0.013530698
5	0x3cf34d32	0.029699896
6	0x3d16d3ed	0.036823202
7	0x3d124357	0.03570875
8	0xbd741f72	-0.0596003
9	0x3c78733d	0.015164194
10	0xbccb8be4	-0.024846978
11	0x3d5aca23	0.05341543
12	0xb9d749c4	-0.00041062955
13	0xbd828cfd	-0.06374548
14	0x3d050bad	0.032481838
15	0x3b465172	0.0030260948

conv2.weight f4 [32, 16, 3, 3]
0	0xbd941e7c	-0.07232377
1	0xbd76be8a	-0.060240306
2	0x3d9baf8b	0.076018415
3	0xbca1a272	-0.01973078
4	0xbc1a3f21	-0.009414465
5	0xbad0c01a	-0.0015926391
6	0xbd6bcad1	-0.057566468
7	0xbd35e7da	-0.044410564
8	0x3d03032c	0.031985447
9	0xbdba64a2	-0.091012254
10	0xbd911226	-0.0708354
11	0x3c85bfd9	0.016326832
12	0x3ccae05e	0.02476519
13	0xbd825aa1	-0.06364942
14	0xbba6d342	-0.005091102
15	0x3d1014fb	0.03517626
16	0x3baef85f	0.0053396667
17	0x3ca5f60f	0.020258931
18	0x3e005ac2	0.12534621
19	0x3d3fee33	0.046858024
20	0xbd45536d	-0.048175264
21	0x3cf3a222	0.029740397
22	0xbd75c1fa	-0.059999444
23	0xbdcfa5c3	-0.101390384
24	0x3b103bd6	0.0022008321
25	0xbc6b8e5a	-0.014377201
26	0x3db0214c	0.08600101
27	0x3d430e26	0.047620915
28	0x3c9612d8	0.018319532
29	0xbc86f8b8	-0.01647602
30	0xbd2bedf9	-0.041974995
31	0xbd9b5a38	-0.07585567
32	0xbd5c1a1b	-0.053735834
33	0xbdaad1df	-0.08340811
34	0xbcda3694	-0.026637353
35	0xbd761a15	-0.060083468
36	0x3cd3704a	0.02581038
37	0x3d1cbc2c	0.038265392
38	0xbc9235c4	-0.017847903
39	0x3d13a846	0.03604915
40	0xbd13dc2a	-0.036098637
41	0xbb962b37	-0.0045827883
42	0xbdaea6bf	-0.08527898
43	0xbbc47f9a	-0.0059966566
44	0xbd874b52	-0.06606163
45	0xbd8aa96e	-0.067705974
46	0x3cd8f923	0.026485985
47	0x3dc8bc3d	0.098015286
48	0x3da06155	0.078310646
49	0xbd70efe1	-0.058822516
50	0x3d0fda9a	0.035120584
51	0xbd486c94	-0.048931673
52	0x3d232681	0.039831642
53	0xbd8f25a4	-0.06989601
54	0x3961f19c	0.00021547679
55	0xbddec540	-0.10877466
56	0x3ca67ef5	0.02032421
57	0x3cd0ccd8	0.025488302
58	0xbd1b323b	-0.0378897
59	0x3bffc077	0.007804926
60	0xbcab2ca9	-0.020895319
61	0x3d658912	0.056038924
62	0xbcdccc54	-0.0269529
63	0x3db770d0	0.08957064
64	0x3d8b680d	0.068069555
65	0xbd93f4c2	-0.07224418
66	0x3da7e2ac	0.08197531
67	0xbc86b7eb	-0.01644512
68	0xbdbeaaeb	-0.09309944
69	0x3d51d880	0.05123186
70	0x3d650ee2	0.055922396
71	0x3dae5712	0.08512701
72	0x3cab1774	0.020885207
73	0x3cd9ca4d	0.026585722
74	0x3d737c33	0.059444617
75	0xbae049c3	-0.0017111826
76	0x3c83e2f6	0.016099434
77	0x3dbdad6d	0.09261594
78	0xbd41ff15	-0.047362406
79	0xbd8955f3	-0.06705847
80	0xbdff5021	-0.12466455
81	0xbd99157a	-0.074747995
82	0xbc5444b6	-0.012955835
83	0xbdc08ea1	-0.09402204
84	0xbb63f6de	-0.0034784595
85	0x3d17596a	0.036950506
86	0xbcb88ec3	-0.022529012
87	0xbc0f2c01	-0.008738519
88	0xbd247752	-0.040152855
89	0x3c815e99	0.015792178
90	0x3d968b06	0.07350735
91	0xbd174c57	-0.036938038
92	0x3d985248	0.07437569
93	0x3b93ca5b	0.0045102066
94	0xbd5e7eac	-0.054320022
95	0x3d0d2d2e	0.034466915
96	0x3d3326b6	0.04373809
97	0xbd399393	-0.045306753
98	0xbd2fef0c	-0.042952582
99	0x3c1659d1	0.009176687
100	0xbd80c28c	-0.06287107
101	0x3d962f82	0.0733328
102	0x3dbf77c7	0.093490176
103	0xbd37d025	-0.044876236
104	0xbc64565c	-0.013936605
105	0xbdabe812	-0.08393873
106	0xbbe797a1	-0.007067636
107	0xbdd88734	-0.10572663
108	0x3d98e0ac	0.07464728
109	0xbd0846ee	-0.03327077
110	0xbd74f380	-0.059802532
111	0x3d5a82c6	0.05334737
112	0xbcf72141	-0.030167224
113	0xbd0b7cb9	-0.03405449
114	0xba962e32	-0.0011457859
115	0x3dc09ce7	0.09404927
116	0xbc9a8d1a	-0.01886611
117	0xb9ce6fe7	-0.00039374756
118	0x3d22dbe6	0.039760493
119	0xbdcdbafd	-0.10045431
120	0x3d3653b7	0.04451343
121	0x3d1e3fd8	0.038635105
122	0x3ccefcbb	0.025266996
123	0x3c276a1c	0.01021817
124	0x3d948f9f	0.07253956
125	0x3d84b0ca	0.06479032
126	0xbd54efe4	-0.05198659
127	0x3cebfad4	0.028806128
128	0x3dbbc141	0.0916772
129	0xbaaeec62	-0.0013345594
130	0x3c062c7c	0.008189317
131	0xbdb04030	-0.08605993
132	0xbd92843b	-0.07154127
133	0xbc62dd80	-0.013846755
134	0x3cdadcac	0.026716553
135	0xbc394582	-0.011308076
136	0xbdc9e757	-0.09858578
137	0xbd8f1f60	-0.06988406
138	0xbda23c0a	-0.07921608
139	0xbd3b069b	-0.045660596
140	0xbd98fadc	-0.07469723
141	0x3ce3135e	0.027719196
142	0x3ca8abd3	0.020589745
143	0x3d09dd19	0.03365812
144	0xbc8b2872	-0.01698706
145	0xbd513da2	-0.05108417
146	0x3d45e0fe	0.048310272
147	0xbdd6b032	-0.10482825
148	0xbdb2c79a	-0.08729477
149	0xbd9eb897	-0.077500515
150	0x3d8d36b0	0.068951964
151	0x3db45004	0.08804324
152	0xb6902c90	-4.296722e-06
153	0x3c9a6b88	0.018850103
154	0xbcf69f74	-0.03010533
155	0xbc9896a2	-0.018626515
156	0xbcc1a18c	-0.023636602
157	0xbb314787	-0.002705069
158	0x3c0d88c2	0.008638563
159	0x3a844a74	0.001009299
160	0x3d5edac7	0.05440786
161	0x3cb4b0bf	0.022056935
162	0xbb9e5dfb	-0.0048329807
163	0x3da4da25	0.0804942
164	0x3cb3343e	0.021875497
165	0x3d96b540	0.073587894
166	0x3d955cc7	0.072930865
167	0x3b18f08e	0.002333674
168	0x3dbb336c	0.09140667
169	0xbd1323ee	-0.035922937
170	0xbdba6eff	-0.09103202
171	0xbd1c4fdd	-0.0381621
172	0x3c45bb3e	0.012068568
173	0x3da55c2d	0.08074222
174	0xbc643e22	-0.013930829
175	0x3bb88c7d	0.005631982
176	0xbd8bfc14	-0.068351895
177	0xbcceb1e5	-0.025231311
178	0x3d550ffd	0.0520172
179	0x3abeff74	0.001457198
180	0xbdab3a45	-0.083607234
181	0xbd8a8eb3	-0.06765499
182	0x3ca9a150	0.020706803
183	0xbd1d0ea5	-0.038344044
184	0xbc33beae	-0.010970755
185	0xbc1c9248	-0.009556361
186	0xbc9744da	-0.018465448
187	0xbd08b24f	-0.033373173
188	0x3daf572a	0.08561547
189	0xbc22e241	-0.009941638
190	0xbd1144eb	-0.035466116
191	0xbd877be6	-0.066154286
192	0x3d0bca7d	0.034128655
193	0x3c0d970b	0.0086419685
194	0x3b81e054	0.0039635096
195	0xbd17214a	-0.03689698
196	0x3c74fa9e	0.01495233
197	0xbd7cba66	-0.0617012
198	0xbcbef13f	-0.023308394
199	0xbd3dad48	-0.046307832
200	0xba752f56	-0.0009353062
201	0xbd21d0e9	-0.039505873
202	0xbd1efc40	-0.038814783
203	0xbc851419	-0.016244935
204	0x3cf294eb	0.029612025
205	0x3d231ffa	0.039825417
206	0xbc1d6ebe	-0.0096089225
207	0x3bdadf49	0.0066794497
208	0xbd3ed1c2	-0.04658676
209	0xbd8ea3aa	-0.0696481
210	0xbc7a9eac	-0.015296619
211	0xbd2b3509	-0.041798625
212	0xbcba3dfc	-0.022734635
213	0xbd43a9d8	-0.047769397
214	0x3d830329	0.06397087
215	0xbdebb67c	-0.115094155
216	0x3cc1bbd1	0.023649128
217	0xbd7a914d	-0.061173726
218	0xbd8e53ae	-0.069495544
219	0x3d1efa71	0.03881306
220	0xbd30913a	-0.04310725
221	0xbd485923	-0.048913132
222	0xbc9d32b0	-0.019189209
223	0x3d011b78	0.031520337
224	0xbc2da1a9	-0.010597625
225	0x3d69ce31	0.057081405
226	0xbd6ed9a3	-0.058313023
227	0xbc80ec06	-0.015737545
228	0x3da8dad3	0.082448624
229	0x3d26d279	0.040728066
230	0xbd06463f	-0.032781836
231	0xbdc02de9	-0.09383757
232	0xbda05638	-0.07828945
233	0x3d065b9c	0.03280221
234	0x3d228507	0.039677646
235	0xbd631d8d	-0.055448104
236	0xbd1efc06	-0.038814567
237	0x3cb7a112	0.022415671
238	0x3d37ce28	0.04487434
239	0xbd92660a	-0.07148369
240	0xbd48258b	-0.04886393
241	0xbd899808	-0.06718451
242	0xbd2112f7	-0.039324727
243	0xbd8b76b0	-0.06809747
244	0xbdae17c6	-0.08500628
245	0x3d7b4863	0.06134833
246	0x3c800f28	0.015632227
247	0xbd94ef57	-0.07272213
248	0x3da217ff	0.07914733
249	0xbcc253aa	-0.023721535
250	0x3d7defef	0.061996397
251	0x3db3cc3e	0.087791905
252	0x3d8e4f0e	0.06948672
253	0x3db1aa01	0.08675004
254	0x3d9477b0	0.07249391
255	0xbd32e8ad	-0.04367893

conv2.bias f4 [32]
0	0x3d8d5661	0.06901241
1	0x3d82f31c	0.06394026
2	0x3d3d56ad	0.04622524
3	0xbd632e5f	-0.055464145
4	0xba66676b	-0.0008789214
5	0xbcfdd325	-0.03098447
6	0x3d5f1c1e	0.054470174
7	0x3bd5856d	0.0065161497
8	0xbbbf28ec	-0.0058337357
9	0x3d1bbc69	0.03802148
10	0xbc3f012c	-0.011657994
11	0x3d3b67a3	0.045753133
12	0x3c469c3b	0.012122209
13	0x3cfbd841	0.030742766
14	0xbd57eff6	-0.05271908
15	0xbcd9ae4e	-0.026572373
16	0xbc7e642c	-0.0155268125
17	0x3d084ca5	0.03327622
18	0x3d4e2b07	0.050334003
19	0x3d300412	0.04297263
20	0xbc3cfce4	-0.011534903
21	0x3d849e45	0.064755
22	0xbda7761d	-0.08176825
23	0x3d090405	0.0334511
24	0xbd137b50	-0.03600627
25	0xbd1f7e6e	-0.038938932
26	0xbd97ee50	-0.074185014
27	0x3d5138d8	0.0510796
28	0xbd6616b7	-0.056174006
29	0xbdc13812	-0.09434523
30	0xbb473f96	-0.003040289
31	0x3cde1c57	0.027113123
