checkpoints/ppo_academy_counterattack_easy.pth (torch, 718571 bytes, 45 tensors)

conv1.weight f4 [16, 16, 3, 3]
0	0xbd612ffb	-0.0549774
1	0xbd64da04	-0.05587198
2	0xbcd12074	-0.02552817
3	0x3d242929	0.040078316
4	0x3cc1b708	0.023646846
5	0x3dd6801e	0.10473655
6	0xbc77e024	-0.015129123
7	0xbd9d3bfb	-0.07677456
8	0x3c05fece	0.008178426
9	0xbe92f7f3	-0.28704795
10	0xbe8e2ea4	-0.2776996
11	0xbe15d1fd	-0.14630885
12	0xbd852d62	-0.06502797
13	0xbdb7e9ab	-0.089801155
14	0x3cf32450	0.029680401
15	0x3da99bc8	0.08281666
16	0x3d656594	0.056005076
17	0x3d38d49e	0.045124643
18	0x3db5254b	0.08845004
19	0x3d9e9ad8	0.07744378
20	0x3e996561	0.29960158
21	0x3da3a5a2	0.07990576
22	0x3d7801a1	0.06054843
23	0x3e499e8d	0.19689389
24	0xbd91a249	-0.071110316
25	0x3d253c4b	0.040340703
26	0x3e4bc07e	0.19897649
27	0xbde259d0	-0.110522866
28	0x3b2c3caf	0.0026281287
29	0xbda4cbfd	-0.0804672
30	0xbdc60ba2	-0.096701875
31	0x3d5958ce	0.053063206
32	0x3dce80e0	0.10083175
33	0x3d7df123	0.061997544
34	0x3dece03a	0.11566205
35	0x3e3a8fc8	0.1821891
36	0xbe1e0fe4	-0.1543575
37	0x3c96bcfe	0.018400665
38	0x3df9220f	0.12164699
39	0xbcccd8d6	-0.02500574
40	0x3d0132a8	0.03154245
41	0xbd2951df	-0.041337844
42	0x3c6fd537	0.014638237
43	0xbdf4dd6b	-0.119562946
44	0xbbeb563e	-0.0071819117
45	0xbe570973	-0.20999698
46	0xbe9a433f	-0.3012943
47	0xbd809187	-0.06277757
48	0xbd2c7758	-0.042106003
49	0x3ccbe31c	0.024888568
50	0xbea70616	-0.3262183
51	0xbdb87758	-0.09007138
52	0x3e01a2f8	0.12659824
53	0xbe8393d7	-0.2569873
54	0x3d554281	0.052065376
55	0x3d15bb80	0.036555767
56	0x3d0db1be	0.034593336
57	0x3e008a5d	0.12552781
58	0xbd3ac5c2	-0.045598753
59	0x3d249411	0.04018027
60	0x3df25a04	0.11833575
61	0x3e1a35cf	0.15059589
62	0xbdbeb627	-0.093120866
63	0x3e3c90c7	0.18414603
64	0x3dbbc9bb	0.091693364
65	0x3c025b3b	0.007956321
66	0x3ca2e8b0	0.019886345
67	0x3db33c95	0.087517895
68	0x3d940d34	0.07229081
69	0x3e2036a7	0.15645848
70	0x3d82d4a2	0.06388213
71	0xbd99255a	-0.07477827
72	0xbe1ee8b5	-0.15518458
73	0x3adb6d86	0.0016741015
74	0xbd38f2d3	-0.04515345
75	0xbc9c9c91	-0.019117625
76	0xbd99df09	-0.07513244
77	0x3d8a21ae	0.06744705
78	0xbde99ef9	-0.11407275
79	0x3c52d03f	0.012867033
80	0xbdab83c4	-0.08374742
81	0xbd8fb89c	-0.07017633
82	0xbdcffdbf	-0.1015582
83	0x3d9d9a85	0.07695488
84	0x3d59f210	0.053209364
85	0x3c06e9ab	0.008234422
86	0xbe874957	-0.2642314
87	0xbe35f13a	-0.17767802
88	0xbd8de807	-0.06929021
89	0x3c6504b7	0.013978175
90	0x3e3b05a8	0.18263876
91	0x3c9880c6	0.018616091
92	0xbdd6c8ed	-0.10487542
93	0x3bea5b12	0.0071519697
94	0x3e9a9fd4	0.30200064
95	0x3e0fb410	0.14033532
96	0x3e6c44d5	0.23073132
97	0x3dfc0d72	0.12307252
98	0x3dc5caaf	0.096577995
99	0x3e04714a	0.12933841
100	0xbcc505e4	-0.02405066
101	0xbc3a2e65	-0.0113636
102	0x3e510f07	0.20415889
103	0xbc8cfead	-0.017211283
104	0x3d8cf810	0.06883252
105	0x3db0d931	0.08635176
106	0xbd49fa4d	-0.04931097
107	0xbc147bcb	-0.009062718
108	0xbd9d1344	-0.0766969
109	0xbe750a37	-0.23929678
110	0x3e197e5c	0.14989609
111	0x3dcfbd14	0.10143486
112	0xbe2df7ac	-0.1698901
113	0xbd52797c	-0.051385388
114	0xbd66e4a8	-0.056370407
115	0x3d6505be	0.05591368
116	0x3ce1037a	0.027467478
117	0xbc41ef1b	-0.011836792
118	0x3e10f537	0.14156042
119	0xbcf514e2	-0.029917184
120	0xbe550dcc	-0.20806044
121	0x3e014a20	0.12625933
122	0xbd485a2a	-0.048914112
123	0xbe39d07b	-0.18145935
124	0x3d8c0e4a	0.06838663
125	0xbd9f5008	-0.077789366
126	0x3eea83e8	0.4580376
127	0xbe0c48ba	-0.13699618
128	0x3d617ef0	0.055052698
129	0x3acfd997	0.0015857694
130	0x3de04e06	0.10952382
131	0xbe0e8fe1	-0.13922073
132	0x3d54b998	0.05193481
133	0xbe0f15d7	-0.13973175
134	0x3cacc005	0.021087656
135	0xbd6958f4	-0.056969598
136	0xbd7d5271	-0.0618462
137	0xbdb9da43	-0.09074833
138	0x3dc0b4a1	0.09409452
139	0x3d911e5c	0.07085869
140	0xbc8f1e8a	-0.017470617
141	0xbdfa330f	-0.1221677
142	0x3e8a2af2	0.2698589
143	0x3da40e7d	0.08010576
144	0xbc8c0e1a	-0.017096568
145	0x3d649c5f	0.05581319
146	0x3d16c097	0.03680476
147	0xbe1f9dcc	-0.15587538
148	0x3e0ee018	0.13952672
149	0xbd6264c6	-0.055271886
150	0x3e09ec83	0.13469128
151	0x3e2e46e8	0.17019236
152	0xbeac511f	-0.3365564
153	0xbe8734b3	-0.26407394
154	0x3d3581b0	0.044313133
155	0x3d8b7811	0.0681001
156	0x3dfe5679	0.12418837
157	0xbe0e9d20	-0.13927126
158	0xbe9dad82	-0.30796438
159	0x3e31e348	0.17371857
160	0x3c89ebe4	0.016836114
161	0x3dbb1764	0.09135321
162	0xbe8c4fd8	-0.27404666
163	0xbe7823c0	-0.24232388
164	0x3c93643b	0.01799213
165	0xbe6881ec	-0.22705811
166	0xbd4e4028	-0.050354153
167	0xbd8bdc0c	-0.0682908
168	0xbd249dd9	-0.040189598
169	0x3da3fc36	0.0800709
170	0xbda4b037	-0.08041423
171	0xbd0c079a	-0.034186937
172	0xbce4842b	-0.027895054
173	0x3dac01f2	0.083988085
174	0x3c0692e8	0.008213736
175	0x3e472099	0.19446029
176	0x3d942010	0.07232678
177	0x3e349a47	0.17636977
178	0x3defc908	0.117082655
179	0xbde72733	-0.112867735
180	0xbe3b4660	-0.18288565
181	0xbd79323a	-0.060838915
182	0xbc8501e7	-0.016236259
183	0x3ddadd46	0.10686736
184	0x3dd400fe	0.10351752
185	0x3cd7e8e6	0.026356172
186	0xbe59f99c	-0.21286625
187	0x3dd39b17	0.103323154
188	0xbd83c24d	-0.06433544
189	0x3d24d706	0.040244125
190	0xbdce1fb7	-0.10064643
191	0xbe88489a	-0.2661789
192	0xbd9a18d8	-0.0752427
193	0x3d0082e0	0.031374812
194	0x3e480b2c	0.19535512
195	0xbb6f3c3f	-0.0036504415
196	0xbe1f068a	-0.15529838
197	0xbae4c4a4	-0.0017453623
198	0xbe668c75	-0.22514518
199	0xbc9be704	-0.019031055
200	0xbe36418f	-0.17798446
201	0xbe826f1f	-0.25475404
202	0xbe02bc88	-0.12767231
203	0xbe550ba7	-0.20805226
204	0xbd22e73c	-0.039771304
205	0xbe7484d4	-0.23878795
206	0xbe6a835c	-0.22901672
207	0xbe510e53	-0.2041562
208	0xbd1aebb8	-0.037822455
209	0x3e3b93f1	0.18318154
210	0xbdd8b07d	-0.105805375
211	0x3e4a3b39	0.19749154
212	0x3dacf0ee	0.08444391
213	0xbea90f53	-0.33019504
214	0x3e3bdd21	0.18346073
215	0xbe9e7ce4	-0.3095466
216	0xbc3a7876	-0.011381259
217	0xbdf8310c	-0.1211873
218	0xbcbf63a4	-0.023362942
219	0x3c9c3e88	0.019072786
220	0x3c8cd6b4	0.017192222
221	0xbad84b36	-0.0016501907
222	0xbdc28cc4	-0.09499505
223	0xbe6ab34c	-0.22919959
224	0x3d1153a0	0.03548014
225	0xbd66c097	-0.05633601
226	0xbc9d933f	-0.019235251
227	0xbea25225	-0.31703296
228	0x3d53731f	0.05162346
229	0x3e4b9be0	0.1988368
230	0x3d58a331	0.052890006
231	0xbcbdca8e	-0.023167875
232	0x3d901ece	0.070371255
233	0xbc5372d3	-0.012905794
234	0xbdb4c7d0	-0.08827174
235	0xbe33dc21	-0.17564441
236	0xbd62a9fa	-0.055337884
237	0x3e7f213e	0.24915025
238	0xbe28056e	-0.16408321
239	0xbeb8fdc7	-0.36131117
240	0xbe219d13	-0.15782575
241	0xbd735373	-0.059405755
242	0xbb06c31a	-0.0020563067
243	0x3db92e9a	0.09042092
244	0x3b73651d	0.0037139126
245	0xbae527e1	-0.0017483198
246	0x3d28c439	0.041202758
247	0x3cc22587	0.023699535
248	0x3dc99141	0.09842158
249	0xbd6f8282	-0.05847407
250	0x3cd7af5a	0.026328731
251	0xbe87a0e5	-0.2648994
252	0xbda8b185	-0.08236984
253	0xbcd557f3	-0.026042914
254	0xbdb10a46	-0.08644538
255	0xbe3cd762	-0.18441537

conv1.bias f4 [16]
0	0xbbb0694c	-0.005383646
1	0xbc180738	-0.009279065
2	0xbd08daac	-0.033411667
3	0xbdc6d1fd	-0.09708021
4	0xbd81a84f	-0.063309304
5	0xbc95c39e	-0.018281754
6	0xbd052a4d	-0.032511044
7	0xbd7bf310	-0.0615111
8	0xbdae1ee7	-0.08501988
9	0xbd020e87	-0.031752136
10	0xbad88e7b	-0.0016521955
11	0xbc22bdbe	-0.009932933
12	0xbbadb7dd	-0.005301459
13	0xbcc48eb3	-0.023993826
14	0x3bb165b0	0.0054137334
15	0xbd923d62	-0.07140614

res1a.conv1.weight f4 [16, 16, 3, 3]
0	0xbd95ef79	-0.073210664
1	0x3dec9130	0.1155113
2	0x3d8047af	0.062636726
3	0xbdd1756c	-0.102274746
4	0x3c3191b4	0.010837961
5	0xbe18f654	-0.14937717
6	0x3dfcd02c	0.12344393
7	0x3ae23cc9	0.0017260547
8	0xbd266a0f	-0.04062849
9	0xbe5d2401	-0.21595766
10	0xbd16e26f	-0.036837038
11	0xbd27aaca	-0.04093436
12	0xbe2bbe6c	-0.16771859
13	0xbc3dbe2e	-0.011580987
14	0x3dc71c0b	0.09722146
15	0xbe13ef23	-0.14446692
16	0x3cebc7a1	0.028781714
17	0x3e254e09	0.1614305
18	0xbd23e16a	-0.040009893
19	0x3dd55603	0.10416796
20	0xbd6722f3	-0.056429815
21	0xbdc2fc79	-0.095208116
22	0xbc34c4d9	-0.01103326
23	0xbdf1909d	-0.11795161
24	0xbdb4bfe5	-0.088256635
25	0xbdd4cb8b	-0.10390385
26	0xbde1ef16	-0.1103193
27	0xbe79acb9	-0.24382295
28	0xbb9ef814	-0.0048513506
29	0x3e311f24	0.17297035
30	0xbe272ad8	-0.16324937
31	0x3da7ec8f	0.08199417
32	0xbd5a605e	-0.05331456
33	0x3e5454e2	0.20735505
34	0x3de3dd91	0.11126245
35	0x3e079759	0.13241328
36	0xbcfaa944	-0.03059829
37	0x3d5d9ba6	0.054103516
38	0x3da5c81b	0.08094808
39	0xbdfa9604	-0.122356445
40	0xbe3608f4	-0.17776853
41	0xbd74c9d5	-0.059762795
42	0x3d220bbf	0.039561983
43	0xbe001f0a	-0.1251184
44	0xbbad0452	-0.005280056
45	0x3ce1e3c6	0.027574431
46	0x3d937cb7	0.07201522
47	0xbe4efa27	-0.20212613
48	0xbdf37ac2	-0.118886486
49	0xbe42f3ba	-0.19038287
50	0xbcd9abde	-0.02657121
51	0xbd465d14	-0.04842861
52	0xbe3c8ff8	-0.18414295
53	0xbc206d49	-0.009791681
54	0x3c13b2b4	0.009014774
55	0x3d109533	0.035298537
56	0x3d5e6d0a	0.054303207
57	0xbe08fdc4	-0.13378054
58	0xbe34b0d3	-0.17645578
59	0x3c56768a	0.013089785
60	0xbdce0fae	-0.100615844
61	0xbce1923f	-0.027535556
62	0x3dc9212c	0.0982078
63	0x3dfaa0f9	0.12237734
64	0xbcb5e0be	-0.022201892
65	0xbe347e8e	-0.17626402
66	0xbd28fcb1	-0.04125661
67	0xbe536c06	-0.20646676
68	0xbe0d45a5	-0.13796099
69	0x3c9289fe	0.017888065
70	0x3d9b902d	0.07595859
71	0x3dca6408	0.09882361
72	0xbe279512	-0.1636546
73	0xbe096330	-0.13416743
74	0x3ddff3e7	0.109351926
75	0xbe45fe8f	-0.19335388
76	0xbe06a360	-0.1314826
77	0x3b154a29	0.0022779799
78	0xbd9e389b	-0.077256404
79	0xbd34edda	-0.044172145
80	0x3e376367	0.17909013
81	0xbcff4da4	-0.031164952
82	0x3d6308c5	0.055428285
83	0xbc12aa86	-0.008951789
84	0xbd9528e1	-0.07283188
85	0x3c8838d2	0.016628657
86	0xbdd29246	-0.10281806
87	0xbe16997b	-0.14706986
88	0x3a8f1a31	0.001091784
89	0x3dad4f0b	0.08462342
90	0xbd935f1f	-0.07195877
91	0x3ddbe7d4	0.10737577
92	0xbcbad80c	-0.022808097
93	0xbdec8e9c	-0.11550638
94	0xbdb440a7	-0.08801394
95	0xbc97bb44	-0.018521912
96	0x3d7fc034	0.06243916
97	0x3b03df70	0.0020122193
98	0xbdbe73b7	-0.092994146
99	0xbd3a1d3b	-0.045438033
100	0xbd68d3b5	-0.056842525
101	0x3d201e03	0.03909112
102	0xbe3f8ac9	-0.18705286
103	0xbe448b4d	-0.19193764
104	0xbdf7d4ab	-0.1210111
105	0x3c9fd9b1	0.019512983
106	0x3d6dca98	0.058054537
107	0x3d76671a	0.06015692
108	0xbc24d288	-0.01005996
109	0x3b84f3b7	0.0040573734
110	0x3d4dd200	0.0502491
111	0xbd7e269e	-0.062048547
112	0x3d959fc7	0.07305866
113	0x3b085781	0.002080411
114	0xbce1de97	-0.02757196
115	0xbcdf6f48	-0.027274743
116	0x3e110b7a	0.14164534
117	0x3d1322eb	0.035921972
118	0xbb0eec84	-0.0021808455
119	0xbd532f58	-0.051558822
120	0xbdab75a4	-0.083720475
121	0xbd43d594	-0.047811106
122	0xbde37f7f	-0.11108302
123	0x3bf567b6	0.00748917
124	0xbaa97c9f	-0.0012930817
125	0x3dbaeacb	0.091268145
126	0xbe56f170	-0.20990539
127	0x3d208f4c	0.03919916
128	0xbdd44745	-0.10365156
129	0xbe86cc1b	-0.26327595
130	0x3c6c1b66	0.014410829
131	0x3d948f68	0.07253915
132	0xbce04853	-0.027378237
133	0x3d37350f	0.044728335
134	0x3cf25a1b	0.029583981
135	0xbbaafc48	-0.0052180625
136	0xbd833e3e	-0.06408356
137	0x3b91bc12	0.0044474686
138	0x3bf0eca4	0.0073524285
139	0xbdc1ad47	-0.09456878
140	0x3da75f22	0.08172442
141	0x3de89575	0.11356632
142	0xbd0f9cad	-0.035061527
143	0xbdc6b48d	-0.09702406
144	0x3cc6cc05	0.024267206
145	0x3dda5b42	0.10661937
146	0x3d626517	0.055272188
147	0xbda80526	-0.08204107
148	0x3d3d86b0	0.046271026
149	0x3cc59fc1	0.024124028
150	0x3e088b80	0.13334465
151	0x3df04c27	0.11733275
152	0xbd8a4859	-0.067520805
153	0xbdbf156d	-0.093302585
154	0xbce068f2	-0.027393792
155	0x3d2cdf1b	0.042204957
156	0xbc06ecfe	-0.008235214
157	0xbdd97096	-0.10617177
158	0xbdc5eac9	-0.09663922
159	0x3c1abe18	0.009444736
160	0xbe6b4303	-0.22974782
161	0xbd604bfd	-0.054759968
162	0x3dcfb2a0	0.10141492
163	0x3b0cfe9f	0.002151407
164	0xbe460daf	-0.19341157
165	0xbd1a2fea	-0.03764335
166	0x3d8d64b3	0.069039725
167	0x3d34a37d	0.044101227
168	0x3cf0d88d	0.029400134
169	0xbd81e38d	-0.0634223
170	0xbb3f6d23	-0.0029209338
171	0x3d119c3e	0.035549395
172	0x3dddfbe0	0.10839057
173	0xbca712c8	-0.020394698
174	0x3dbd9df8	0.09258646
175	0x3c0b9796	0.008520028
176	0xbca3ff1c	-0.020019107
177	0xbe5fcc31	-0.21855237
178	0x3e056f95	0.13030846
179	0xbe93b815	-0.2885138
180	0x3e7590f6	0.2398108
181	0x3bbc9cb6	0.005755986
182	0x3cacd748	0.021098748
183	0x3e9115d7	0.28336975
184	0x3dbcb90e	0.09214984
185	0x3cf2172a	0.029552061
186	0x3e6d79db	0.23191015
187	0x3ddd29bc	0.10798976
188	0x3d3ead99	0.046552274
189	0xbdcae7f0	-0.0990752
190	0xbd94e9a9	-0.0727113
191	0xbe2eef79	-0.17083539
192	0xbb9142bb	-0.0044330037
193	0x3ce17419	0.02752118
194	0xbcaf334d	-0.021386767
195	0x3dd998d1	0.106248505
196	0xbbd13d89	-0.0063855094
197	0xbc088561	-0.008332581
198	0x3b1ddfd8	0.002408972
199	0xbcdc63c6	-0.026903044
200	0xbde9ffb8	-0.114257276
201	0x3e27b9f0	0.16379523
202	0x3d630374	0.055423215
203	0xbe89d967	-0.26923677
204	0xbcbe2ebc	-0.023215644
205	0x3ded872c	0.115980476
206	0xbde512fd	-0.11185262
207	0xbe345e5e	-0.17614123
208	0xbba1eef2	-0.0049418146
209	0xbd00023e	-0.03125214
210	0xbdaf00ce	-0.08545075
211	0xbe0612c2	-0.13093093
212	0xbd9c89f1	-0.07643498
213	0xbdba3844	-0.09092763
214	0xbe445248	-0.19172013
215	0xbe0e8234	-0.13916856
216	0xbe1ad470	-0.15120101
217	0x3e03ab93	0.12858419
218	0xbe899084	-0.2686807
219	0x3d949534	0.07255021
220	0x3e0da74d	0.13833351
221	0x3dc6152f	0.09672009
222	0xbcd600ca	-0.026123423
223	0x3e11007a	0.14160338
224	0x3d80fa23	0.0629771
225	0xbd8e0d91	-0.06936181
226	0x3dbc7fc9	0.092040606
227	0x3b1cf7f2	0.0023951498
228	0x3d8be1f5	0.06830207
229	0x3ce58436	0.028017145
230	0x3d096382	0.033542164
231	0x3ded4b50	0.1158663
232	0xbe4225d6	-0.18959746
233	0x3c20f3df	0.009823768
234	0xbcfd038f	-0.030885486
235	0xbcb0b09d	-0.02156859
236	0x3c923ae9	0.017850356
237	0xbd766780	-0.0601573
238	0x3e0b1e9f	0.135859
239	0x3dd6d3fd	0.10489652
240	0x3c70dd17	0.014701149
241	0x3c1ada70	0.009451494
242	0x3d0be413	0.034153055
243	0xbc0b4f59	-0.008502805
244	0x3e626b55	0.22111256
245	0x3e6998da	0.22812214
246	0x3db2d6d0	0.087323785
247	0x3e3eca74	0.18631917
248	0x3cc5a054	0.024124302
249	0xbd9addcc	-0.07561836
250	0xbd557520	-0.052113652
251	0xbdf2479e	-0.11830066
252	0xbe3f184a	-0.1866161
253	0xbd6e193c	-0.058129534
254	0x3d264854	0.04059632
255	0xbd4a73f7	-0.049427

res1a.conv1.bias f4 [16]
0	0xbd6ff29d	-0.058580983
1	0xbd6b143c	-0.057392344
2	0xbdceaa76	-0.100911066
3	0x3d9e4aba	0.07729097
4	0x3db13228	0.08652145
5	0xbe4ea3d8	-0.20179689
6	0x3a445e0f	0.00074908225
7	0x3d2a541d	0.041584123
8	0x3dda46b3	0.10658016
9	0xbd205e6a	-0.03915254
10	0xbc6eeb26	-0.014582431
11	0xbddebe5c	-0.10876152
12	0xbdf09d60	-0.11748767
13	0xbd0c3025	-0.0342256
14	0x3c1f4bf5	0.009722699
15	0x3da4b4e3	0.08042314

res1a.conv2.weight f4 [16, 16, 3, 3]
0	0x3d55a93e	0.052163355
1	0xbc65aeb6	-0.014018705
2	0xbd8917b3	-0.066939734
3	0xbdc1a313	-0.09454932
4	0xbe3631b4	-0.17792398
5	0xbe23d92e	-0.16000816
6	0x3e05b0bf	0.13055705
7	0xbd99a614	-0.0750238
8	0xbe0b619b	-0.13611452
9	0x3da79bf4	0.081840426
10	0xbc03cfbf	-0.008045136
11	0xbdade3b9	-0.084907
12	0xbd4f5b3c	-0.050624117
13	0xbc51b8a9	-0.012800374
14	0xbbcb5f22	-0.006206409
15	0xbd6a27b8	-0.057166785
16	0x3d25d358	0.040484756
17	0x3be47e28	0.006973047
18	0x3e19e812	0.15029934
19	0xbe4fe1ae	-0.20300934
20	0x3c8fa36b	0.017533978
21	0xbdfd2561	-0.12360645
22	0xbe3fca58	-0.18729532
23	0x3decb934	0.11558762
24	0x3d8af01c	0.067840785
25	0xbd8dc544	-0.06922391
26	0x3d9447c1	0.072402485
27	0xbe21d4f7	-0.15803896
28	0x3d185317	0.037188616
29	0x3df43c05	0.1192551
30	0x3d8a058d	0.0673934
31	0x3d2e8da1	0.042615537
32	0x3e2f8e64	0.17144161
33	0xbd97a8f6	-0.074052736
34	0xbe1b213f	-0.15149401
35	0x3d08159f	0.033223744
36	0xbccb2d00	-0.024801731
37	0xbd81d13d	-0.06338737
38	0xbdcc94a5	-0.09989289
39	0x3cfa8181	0.03057933
40	0xbdd28cb7	-0.102807455
41	0x3e046edf	0.12932919
42	0x3e24117d	0.16022296
43	0xbdc84966	-0.09779625
44	0x3e47161f	0.19442032
45	0xbaffb969	-0.0019510213
46	0xbd7b3441	-0.06132913
47	0xbbe901d7	-0.007110815
48	0x3cd595ad	0.026072348
49	0x3d9d717d	0.07687662
50	0xbdc111e0	-0.094272375
51	0xbc0a002e	-0.008422894
52	0x3ccae8a6	0.024769139
53	0x3ce67917	0.028133912
54	0x3c2e1461	0.010624976
55	0xbdc567e7	-0.096389584
56	0x3d2658e5	0.04061212
57	0x3d80d239	0.06290097
58	0x3df1e134	0.11810532
59	0x3dbf868b	0.09351834
60	0x3de3283e	0.1109166
61	0xbdb7ca15	-0.08974091
62	0xbcf20335	-0.029542545
63	0xbb238746	-0.0024952455
64	0x3d551fb8	0.052032202
65	0x3d215c9c	0.03939496
66	0xbd3a2981	-0.045449737
67	0x3bc50fd8	0.0060138516
68	0x3e1dc3ff	0.15406798
69	0xbbde4246	-0.0067828028
70	0x3d6fa88f	0.05851036
71	0x3cec5933	0.028851127
72	0xbd18da77	-0.03731772
73	0x3d36e9ab	0.044656437
74	0xbdfd8db8	-0.12380546
75	0x3c9c6fc4	0.019096263
76	0x3d21ddcf	0.039518174
77	0xbd40dd62	-0.047086127
78	0x3d8e9678	0.069622934
79	0xbb200555	-0.002441724
80	0x3db9d703	0.09074213
81	0xbd4fcac6	-0.05073049
82	0xbc19b9f5	-0.0093827145
83	0xbe10e788	-0.14150822
84	0xbd2c05cd	-0.04199772
85	0x3d900d45	0.07033781
86	0x3cfe548c	0.031046174
87	0x3daedb8c	0.08537969
88	0xbd4bd1ff	-0.049760815
89	0x3ca57686	0.020198118
90	0xbd4f0d31	-0.05054969
91	0x3d9885e8	0.074474156
92	0x3e258583	0.16164212
93	0xbe05abb4	-0.13053781
94	0x3c17ff5d	0.009277192
95	0x3d394cdb	0.04523931
96	0xbc4e4cc9	-0.012591549
97	0xbdb26f8f	-0.08712684
98	0x3dbef1bf	0.09323453
99	0xbc858ab1	-0.016301485
100	0xbd9c8b67	-0.076437764
101	0x3cedadc7	0.029013528
102	0x3e7f9a17	0.24961124
103	0x3e1a2ae8	0.1505543
104	0x3e2ed7aa	0.17074457
105	0x3e10da05	0.14145668
106	0xbc659bcc	-0.014014196
107	0x3d9d1684	0.0767031
108	0x3cedd0e6	0.029030275
109	0xbc6ab773	-0.014325964
110	0xbd0622e3	-0.032748114
111	0xbcbab2c1	-0.022790315
112	0xbdba678c	-0.09101781
113	0x3dade24e	0.0849043
114	0x3db8ebe2	0.09029366
115	0x3ceb82b6	0.028748851
116	0x3d3a14d0	0.045430005
117	0xbd5bcb9d	-0.053660978
118	0xbde81c1f	-0.11333489
119	0xbce20b48	-0.02759327
120	0x3c9f8af0	0.01947543
121	0xbe110ac9	-0.1416427
122	0xbe821f21	-0.25414374
123	0x3ce12696	0.02748422
124	0xbd969336	-0.07352297
125	0xbdb0e8ae	-0.0863813
126	0x3d0edc84	0.03487827
127	0x3de36741	0.111036785
128	0xbd8447ea	-0.06459029
129	0xbdc6f61e	-0.09714912
130	0xbc57aa08	-0.013163097
131	0x3ddd86d8	0.10816735
132	0x3d1b3862	0.037895568
133	0x3ce729d9	0.028218197
134	0x3e005d74	0.1253565
135	0xbdeba54a	-0.11506136
136	0x3e1654e3	0.14680819
137	0x3d1dce05	0.038526554
138	0xbe05f7d7	-0.13082825
139	0x3e271062	0.16314843
140	0x3dd7fb06	0.10545926
141	0xbdc6cfda	-0.09707613
142	0xbda6a26d	-0.08136449
143	0xbd9543e4	-0.0728834
144	0x3daa077e	0.0830221
145	0xbde674ab	-0.112527214
146	0x3e2f0230	0.17090678
147	0x3d8c8ff5	0.06863395
148	0xbd154766	-0.036445044
149	0x3da6aec0	0.081388
150	0xbbf1ffb8	-0.0073852204
151	0xbddc6104	-0.10760692
152	0xbd991771	-0.07475174
153	0xbcbec23a	-0.023285974
154	0x3c8de70a	0.017322082
155	0xbe5406ee	-0.20705768
156	0x3c38bd3f	0.011275589
157	0xbd0a0b94	-0.033702448
158	0xbe05e742	-0.13076499
159	0xbcc002ff	-0.023438929
160	0xbcbd8f82	-0.023139719
161	0xbd40816b	-0.046998423
162	0xbda440f7	-0.080202036
163	0x3d37c16b	0.044862192
164	0x3e0c9ce9	0.13731731
165	0x3beb16eb	0.007174363
166	0x3d8f5a5d	0.06999657
167	0x3dc8e5a7	0.09809428
168	0xbd13b381	-0.03605986
169	0xbe4a7b78	-0.19773662
170	0x3d98bb44	0.07457593
171	0x3d86f73e	0.065901265
172	0x3dad5f3f	0.084654324
173	0xbd2696d0	-0.04067117
174	0x3e1ac3a0	0.15113688
175	0x3d9f7a2c	0.07786974
176	0xbd064165	-0.03277721
177	0x3de3050d	0.11084948
178	0x3d05e166	0.03268566
179	0x3d3b4084	0.045715824
180	0xbe51d11a	-0.20489922
181	0xbe12fd38	-0.14354408
182	0x3cdcca01	0.026951792
183	0xbdb7668c	-0.08955106
184	0xbdee870f	-0.11646854
185	0x3e18ebfb	0.1493377
186	0x3da2ae7a	0.07943435
187	0x3ca605d6	0.020266455
188	0x3e0261f7	0.12732683
189	0x3c1cac2e	0.009562535
190	0xbc626e36	-0.013820222
191	0x3e051267	0.12995301
192	0x3bcbb51f	0.0062166597
193	0xbdee157f	-0.11625194
194	0x3e262e0d	0.16228504
195	0xbe03ff67	-0.12890397
196	0xbe1265a4	-0.14296585
197	0x3d587cc3	0.052853357
198	0x3d098e05	0.033582706
199	0xbc77d629	-0.015126743
200	0xbb2e51e1	-0.0026599097
201	0xbd03070c	-0.031989142
202	0x3cb64ee3	0.022254413
203	0x3da799b0	0.081836104
204	0x3e4eee27	0.20208035
205	0xbe0ec64e	-0.13942835
206	0x3d92c883	0.07167151
207	0x3cd63d0e	0.02615216
208	0xbcd30b24	-0.025762148
209	0x3cfef520	0.031122744
210	0xbb4e2e37	-0.0031460652
211	0x3c969ff8	0.018386826
212	0x3df5bd6f	0.11999022
213	0xbc919fb8	-0.017776355
214	0xbde4664d	-0.11152325
215	0x3c2c67c5	0.010522787
216	0xbbec05cb	-0.007202839
217	0x3d44c2d7	0.048037376
218	0xbcae45f8	-0.021273598
219	0x3ceab68a	0.028651495
220	0x3cf271b5	0.029595235
221	0x3dcc9240	0.099888325
222	0x3d5bb86c	0.053642675
223	0xbd3c6f52	-0.0460046
224	0x3e2fe1c7	0.17175971
225	0xbbf49261	-0.007463739
226	0xbdb49a9d	-0.08818553
227	0x3becb532	0.0072237486
228	0xbab39b80	-0.0013702959
229	0xbd773f7a	-0.06036327
230	0x3d84d255	0.0648543
231	0xbd1a6cce	-0.03770142
232	0xbd6e0132	-0.05810661
233	0x3c811ba7	0.015760256
234	0xbd2ec75d	-0.042670596
235	0xbbfbe8bc	-0.007687656
236	0x3dd9cfce	0.10635339
237	0xbd2cee29	-0.042219315
238	0x3c923cd1	0.017851265
239	0x3e1765ae	0.14784881
240	0xbd29b0bb	-0.04142831
241	0x3da88c42	0.08229877
242	0x3e3b0b77	0.18266092
243	0xbe04f24c	-0.12983054
244	0x3d035249	0.032060895
245	0x3d5a7bc6	0.053340696
246	0xbc807a02	-0.015683178
247	0x3d5fa062	0.054596312
248	0x3dacb731	0.084333785
249	0xbe04bae6	-0.12961921
250	0x3dffbbd2	0.12486996
251	0xbd45786c	-0.048210546
252	0x3d5ac9a3	0.053414952
253	0xbd8e0982	-0.06935407
254	0xbd450cf0	-0.04810804
255	0xbd8dd96a	-0.06926234

res1a.conv2.bias f4 [16]
0	0x3bdd1533	0.006746912
1	0xbc218800	-0.009859085
2	0xbda20dc6	-0.07912783
3	0xbd7a366d	-0.06108706
4	0xbd07e4a3	-0.03317703
5	0xbc819de7	-0.015822364
6	0xb9f05651	-0.00045840678
7	0xbbf2258f	-0.0073897312
8	0xbc8e519c	-0.017372899
9	0xbca607f9	-0.020267474
10	0xbaa1d623	-0.0012347143
11	0xbc973aab	-0.018460592
12	0xbda5d5d3	-0.08097424
13	0xbd8e69f1	-0.069538005
14	0xbc605991	-0.013693229
15	0xbd386fe5	-0.045028586

res1b.conv1.weight f4 [16, 16, 3, 3]
0	0x3e018d49	0.12651552
1	0xbd7d1576	-0.061788045
2	0xbd8cec4f	-0.0688101
3	0xbdaf8658	-0.08570546
4	0xbe301ce4	-0.17198521
5	0x3c9cbc28	0.019132689
6	0xbe20683b	-0.15664761
7	0xbdf53a81	-0.11974049
8	0xbe58d644	-0.21175486
9	0x3e2fcd88	0.17168248
10	0x3e294341	0.16529562
11	0x3cb07dc8	0.021544352
12	0x3deea832	0.116531745
13	0xbce859c7	-0.028363122
14	0x3e36a7f4	0.17837507
15	0x39d43bbb	0.00040480294
16	0xbd2c696d	-0.04209273
17	0xbd8a3463	-0.06748273
18	0x3e23c9ee	0.15994999
19	0x3ca73739	0.020412074
20	0x3cec7d2f	0.028868286
21	0xbec0bf81	-0.37646106
22	0xbe25774e	-0.16158792
23	0x3c882a36	0.01662169
24	0xbdd98194	-0.10620418
25	0xbd02ae0e	-0.031904273
26	0x3d82d04e	0.06387387
27	0xbc625fa3	-0.013816747
28	0x3e28f42f	0.16499399
29	0x3e8a0bab	0.26962027
30	0xbd950fea	-0.07278426
31	0x3e470a73	0.1943758
32	0x3e89d89a	0.26923066
33	0xbc95e7c7	-0.018298997
34	0xbddf6b79	-0.10909171
35	0x3e3e696e	0.18594906
36	0xbe57cf3d	-0.21075149
37	0xbe50a844	-0.20376688
38	0xbc72f2f9	-0.014828437
39	0xbe59bcda	-0.21263447
40	0xbe8bbe36	-0.27293557
41	0xbe4f5f08	-0.20251095
42	0xbac9aac0	-0.001538597
43	0xbe1b39f8	-0.15158832
44	0xbe38eaa9	-0.18058266
45	0xbc4243a8	-0.011856951
46	0xbccced4a	-0.025015492
47	0x3d8d5b71	0.06902207
48	0x3d0f54de	0.034993045
49	0xbd83d0c0	-0.064363
50	0x3d46ff44	0.048583284
51	0x3e2efec1	0.17089368
52	0x3da93d2b	0.0826362
53	0xbc87c0ef	-0.01657149
54	0xbe5daf85	-0.21648987
55	0x3cc8a0e9	0.02449079
56	0x3db92431	0.09040106
57	0x3de4d085	0.111725844
58	0x3e4a0836	0.19729695
59	0x3d44de73	0.048063707
60	0xbdf522ce	-0.11969529
61	0x3cd1d87c	0.025615923
62	0x3d808e56	0.062771484
63	0x3d07d4a2	0.033161767
64	0x3dace6fe	0.08442496
65	0x3b9628a0	0.0045824796
66	0x3d8d6833	0.0690464
67	0xbd4c3698	-0.049856752
68	0xbcda190f	-0.026623277
69	0x3d803977	0.062609605
70	0xbdf35a31	-0.11882437
71	0xbe05e9e4	-0.13077503
72	0xbd23451b	-0.039860826
73	0xbea69c46	-0.32541102
74	0xbd9c1c3b	-0.07622572
75	0xbe2eea6d	-0.17081614
76	0x3e29dcf2	0.1658819
77	0x3d22f323	0.039782654
78	0xbebec06a	-0.37256175
79	0xbdf53ff9	-0.119750924
80	0x3dd03ee9	0.10168249
81	0xbd2e509c	-0.042557344
82	0x3e17a217	0.14807926
83	0x3dc0e0f4	0.094179064
84	0xbce257e7	-0.027629806
85	0x3e2ca18a	0.16858497
86	0x3d93c452	0.072151795
87	0x3cd79d5e	0.026320156
88	0xbce89d12	-0.02839521
89	0x3d606d6f	0.054791864
90	0x3e0a172b	0.134854
91	0xb959f5e8	-0.0002078634
92	0xbc279f74	-0.010230888
93	0xbdea6aeb	-0.11446174
94	0xbaf84900	-0.0018942654
95	0xbe1a3ade	-0.15061519
96	0x3d3dd143	0.046342146
97	0xbd324705	-0.04352476
98	0x3d41fe99	0.047361944
99	0x3c929616	0.017893832
100	0x3d891785	0.06693939
101	0xbc87bbc5	-0.016569028
102	0x3c49bb50	0.012312725
103	0x3e61443e	0.21998689
104	0x3d28549b	0.04109631
105	0x3c881fa4	0.01661665
106	0x3df5ea2b	0.120075546
107	0x3d7d9eef	0.06191915
108	0xbcd9ec45	-0.02660192
109	0x3e6c6139	0.23083963
110	0xbcd7efb1	-0.026359411
111	0x3c7fe22e	0.01561789
112	0x3c92ed3f	0.017935393
113	0xbe5e46bb	-0.21706669
114	0xbd2b449a	-0.04181347
115	0xbc56ee7c	-0.013118383
116	0x3dca90e1	0.09890915
117	0x3cdda3de	0.027055677
118	0x3d60493a	0.054757334
119	0xbe3de896	-0.18545756
120	0x3e33b7c0	0.17550564
121	0x3d85d7c8	0.06535298
122	0xbd92f491	-0.071755536
123	0x3e0ff803	0.14059453
124	0x3c7bbe86	0.015365249
125	0x3e22bea2	0.15893033
126	0x3e5288ae	0.20559952
127	0x3d6475cd	0.055776406
128	0xbe369e9f	-0.17833947
129	0xbde2645d	-0.11054299
130	0xbe168d40	-0.1470232
131	0xbd609caf	-0.054836925
132	0xbe6d0e49	-0.2314998
133	0xbe28eb6b	-0.16496055
134	0x3e1ccb49	0.15311922
135	0xbe64caaa	-0.22342935
136	0x38db7eb8	0.00010466337
137	0x3e59a010	0.21252465
138	0xbd90c7d8	-0.07069367
139	0xbdd69158	-0.10476941
140	0x3dd686b3	0.104749106
141	0x3ca4f80c	0.02013781
142	0x3d982131	0.07428206
143	0xbc5bcd0a	-0.013415584
144	0xbdba06a4	-0.09083298
145	0x3ce2c6e1	0.027682723
146	0x3d595bfb	0.053066235
147	0xbdca520a	-0.09878929
148	0xbd6e80c8	-0.058228284
149	0xbda38115	-0.07983605
150	0xbdb1f25f	-0.08688807
151	0xbdac839f	-0.08423542
152	0xbc04a202	-0.008095266
153	0x3c3211a4	0.010868464
154	0xbd7c1809	-0.06154636
155	0x3d0e7906	0.034783386
156	0xbdd4a164	-0.10382345
157	0x3bd8b038	0.006612804
158	0x3d0a35e3	0.033742797
159	0x3cc2efea	0.02379604
160	0x3d1e5a34	0.038660243
161	0x3acadbc1	0.0015476869
162	0xbd6659bb	-0.056237917
163	0xbbed8fa7	-0.0072497907
164	0x3c983a97	0.018582625
165	0xbc250579	-0.010072106
166	0x3c818d78	0.015814528
167	0xbd0ed597	-0.034871664
168	0xbcfbfc5e	-0.030759986
169	0xbd131439	-0.035907958
170	0x3c1a8610	0.009431377
171	0xbdad5181	-0.08462811
172	0xbd813a7a	-0.06309982
173	0xbd88f5b4	-0.06687489
174	0x3d80177f	0.062544815
175	0x3d485099	0.04890499
176	0x3d6fe9c0	0.05857253
177	0xbc19c624	-0.009385619
178	0x3d2b6ee6	0.041853808
179	0xbd80f278	-0.06296247
180	0x3d18a474	0.03726621
181	0x3d6cee11	0.057844225
182	0x3c3064a5	0.010766183
183	0xbd88c0ed	-0.06677423
184	0xbc06ecaf	-0.008235141
185	0x3bc5de81	0.0060384874
186	0xbd2d19fb	-0.042261105
187	0xbd7a8752	-0.061164208
188	0xbdb20bf5	-0.08693687
189	0x3bdb9e52	0.006702223
190	0x3d552545	0.052037496
191	0xbd1750bb	-0.036942225
192	0x3c88c5cb	0.016695878
193	0xbd8834fd	-0.06650732
194	0xbd6b8f3c	-0.057509646
195	0xbd8276f1	-0.063703425
196	0xbda1fa43	-0.07909062
197	0xbdb2fffd	-0.08740232
198	0x3d37054f	0.044682797
199	0xbc7b3add	-0.015333858
200	0x3d511012	0.051040716
201	0x3d29340d	0.041309405
202	0xbd322234	-0.04348965
203	0xbc83722e	-0.016045656
204	0x3d4930f0	0.049118936
205	0xbd7e9fd8	-0.062164158
206	0x3cddcc44	0.02707494
207	0xbd6d30d3	-0.05790789
208	0xbd89ebec	-0.06734452
209	0x3ca5c5d8	0.02023594
210	0xbba09d19	-0.00490154
211	0x3d69b189	0.057054076
212	0xbcf2efcf	-0.029655365
213	0xbce94cd5	-0.02847902
214	0x3d388a8a	0.045053996
215	0xbae5737b	-0.0017505729
216	0xbc929850	-0.017894894
217	0x3d833fd2	0.06408657
218	0xbd990cfb	-0.07473179
219	0x3d745aa3	0.05965675
220	0xbc8cd589	-0.017191665
221	0xbd8125b7	-0.06306022
222	0xbccfe6a1	-0.025378527
223	0xbdab285e	-0.08357309
224	0xbdabe6f1	-0.08393658
225	0xbd83f751	-0.06443656
226	0xbcfa112d	-0.030525768
227	0xbd822578	-0.06354803
228	0xbd7432a6	-0.059618615
229	0xbd8d67a6	-0.06904535
230	0xbd8539bc	-0.065051526
231	0xbdb7ef66	-0.089812085
232	0xbc9818dc	-0.018566541
233	0xbb4e28f6	-0.003145752
234	0xbdc4ec5f	-0.09615397
235	0xbd5f4b9b	-0.054515462
236	0xbdb23838	-0.08702129
237	0xbc8496e2	-0.016185228
238	0xbbd59164	-0.006517576
239	0xbd9adfc5	-0.07562212
240	0xbb0ae1d6	-0.0021191738
241	0xbd50ddd6	-0.05099281
242	0xbd9174ba	-0.07102342
243	0xbdabd5cc	-0.08390388
244	0x3d6909f8	0.056894273
245	0xbcfe55cc	-0.03104677
246	0xbda7299f	-0.081622355
247	0xbdb85e49	-0.090023585
248	0xbd8ac85c	-0.06776497
249	0x3d05e318	0.032687277
250	0xbd68f23b	-0.056871634
251	0xbd1c7e52	-0.038206406
252	0xbd3c1f1b	-0.045928102
253	0x3d4a6320	0.04941094
254	0x3d2abbb8	0.04168293
255	0xbce07613	-0.027400052

res1b.conv1.bias f4 [16]
0	0xbd74c733	-0.059760284
1	0xbdaa75f1	-0.08323277
2	0x3e09a8bc	0.13443273
3	0x3dc198d3	0.09452977
4	0xbdd1bda3	-0.102412485
5	0xbde855e9	-0.11344511
6	0x3ccba795	0.024860183
7	0xbcbcc968	-0.023045257
8	0xbd3f7dec	-0.046750948
9	0xbe25632f	-0.16151117
10	0xbd9bfaef	-0.07616221
11	0xbe18cd58	-0.14922082
12	0x3dad2afb	0.084554635
13	0x3dc4f297	0.09616583
14	0xbdc1bdfe	-0.09460066
15	0x3c837843	0.016048556

res1b.conv2.weight f4 [16, 16, 3, 3]
0	0xbde51960	-0.111864805
1	0x3da2ea72	0.07954873
2	0xbcb4e126	-0.022080015
3	0xbd9d2035	-0.07672159
4	0xbcce814b	-0.025208136
5	0x3d6a3516	0.057179533
6	0x3da9488d	0.08265791
7	0xbd97eb48	-0.07417923
8	0xbd4c7bdc	-0.04992281
9	0x3da10f0c	0.07864198
10	0xbcfc96d8	-0.030833647
11	0x3b8af970	0.004241161
12	0xbd3c5753	-0.045981716
13	0x3e16114c	0.14655036
14	0xbd2ca911	-0.04215342
15	0xbd90c878	-0.070694864
16	0xbd43071c	-0.047614202
17	0x3af5beb4	0.001874885
18	0xbe0a8c1d	-0.13530011
19	0x3e0d4110	0.1379435
20	0xbe168101	-0.14697649
21	0xbdaa76c1	-0.08323432
22	0x3d8bbf42	0.06823589
23	0x3e2e7651	0.17037322
24	0xbd2c5631	-0.042074386
25	0xbc92cdcc	-0.017920397
26	0x3da8a0a7	0.08233767
27	0x3d95a484	0.073067695
28	0x3bd7e687	0.0065887603
29	0x3c441440	0.011967719
30	0xbd87f756	-0.066389725
31	0xbbf9122f	-0.0076010446
32	0x3d6cce72	0.05781407
33	0x3d005f94	0.03134115
34	0x3ddb9313	0.107214116
35	0x3d94745f	0.072487585
36	0xbda1c192	-0.07898249
37	0xbdcdf42a	-0.10056336
38	0x3a672188	0.0008816947
39	0xbd4f8164	-0.050660506
40	0x3c95aac5	0.018269906
41	0x3d10a6bd	0.035315264
42	0xbbca3b8e	-0.0061716503
43	0x3e0f65db	0.14003699
44	0xbc3e870b	-0.011628876
45	0x3d8040d6	0.062623665
46	0xbb305d7d	-0.0026911192
47	0x3c21d044	0.009876315
48	0xbbe23afe	-0.006904005
49	0x3c8c88d6	0.017155092
50	0x3e38e1b1	0.18054844
51	0xbc0afd22	-0.008483203
52	0xbdff5cfe	-0.12468909
53	0x3cca9308	0.024728313
54	0x3d2bf35f	0.041980144
55	0x3cd52fb3	0.026023721
56	0x3def2ead	0.116788246
57	0xbe05ce34	-0.13066941
58	0xbbdea553	-0.0067946105
59	0x3d8be449	0.06830651
60	0x3db67a98	0.08910102
61	0x3d1f52c3	0.038897287
62	0xbe58cba4	-0.21171433
63	0xbcb43392	-0.021997247
64	0x3d14ec37	0.036358085
65	0xbe44504b	-0.19171254
66	0x3d16eadf	0.036845084
67	0xbdbd640c	-0.09247598
68	0xbd14d399	-0.036334608
69	0x3cd21ad7	0.025647564
70	0xbd91e661	-0.071240194
71	0xbe21fc88	-0.1581899
72	0xbd8f7542	-0.07004787
73	0xbe179833	-0.14804153
74	0x3d2b4597	0.041814413
75	0xbdb48657	-0.08814686
76	0x3d32bc99	0.043636892
77	0x3e166148	0.14685547
78	0xbdda3989	-0.10655505
79	0x3d885f30	0.066587806
80	0x3d9d4352	0.07678856
81	0xbd142473	-0.036167573
82	0xbd02a93a	-0.03189967
83	0x3c45dc72	0.012076484
84	0xbda2515c	-0.07925674
85	0x3e3c7345	0.18403347
86	0xbc028e6c	-0.007968526
87	0xbe7c61ce	-0.24646685
88	0x3e03c33e	0.12867448
89	0x3ce294ac	0.027658783
90	0x3d0f3030	0.034958065
91	0x3cad6b97	0.021169467
92	0x3c0e9915	0.00870349
93	0xbd31c8c7	-0.043404367
94	0x3da934a0	0.082619905
95	0xbd4782a3	-0.04870857
96	0x3d960c94	0.07326618
97	0x3d946c49	0.07247216
98	0x3ce597dc	0.028026514
99	0x3e02ec20	0.12785387
100	0xbd894c1a	-0.06703968
101	0x3d2059cb	0.039148133
102	0x3d1dd3ec	0.038532183
103	0x3b1bfbc4	0.0023801187
104	0xbd2cd524	-0.042195454
105	0x3daa260a	0.083080366
106	0xbd0f998a	-0.035058536
107	0x3e0dc975	0.13846381
108	0xbb314195	-0.0027047147
109	0xbdd19fb2	-0.102355376
110	0x3d9a94e8	0.07547933
111	0xbdb5379b	-0.088484965
112	0x3d1507ea	0.0363845
113	0xbda6cea3	-0.081448816
114	0x3d71492f	0.058907684
115	0xbd25a2c1	-0.040438417
116	0xbdb4fb16	-0.08836953
117	0xbd52191f	-0.05129349
118	0x3d0909d8	0.033456653
119	0x3ddf4d4a	0.109034136
120	0xbc80f712	-0.015742812
121	0x3dcabfb0	0.09899843
122	0xbe1ad8f1	-0.15121819
123	0x3d6dee0b	0.058088344
124	0xbd045d7b	-0.032315712
125	0xbcddb77b	-0.02706503
126	0xbde63f26	-0.11242513
127	0xbdc92426	-0.09821348
128	0x3c8c693a	0.01714002
129	0x3c38d0d7	0.01128026
130	0x3da9de89	0.08294398
131	0xbe1ff282	-0.15619853
132	0xbbab4bb7	-0.005227532
133	0xbd65c206	-0.05609324
134	0xbde5fddf	-0.11230063
135	0x3d95ef2c	0.07321009
136	0xbe370444	-0.17872721
137	0xbb8bdd29	-0.0042683077
138	0xbd1d37d8	-0.038383335
139	0xbe0095a6	-0.12557086
140	0x3df2e04c	0.118591875
141	0xbb2556bc	-0.00252287
142	0x3e32d586	0.17464265
143	0x3d6c6611	0.057714526
144	0xbe0a7c98	-0.13524091
145	0x3d874e4c	0.06606731
146	0xbbfe6308	-0.0077632703
147	0x3ce39c30	0.027784437
148	0x3e42771c	0.18990749
149	0xbdbe5701	-0.092939384
150	0xbdae73a1	-0.08518148
151	0xbe32fc76	-0.17479119
152	0xbd191bff	-0.037380215
153	0x3da258d7	0.07927101
154	0xbda546d4	-0.0807015
155	0x3de1e91a	0.11030789
156	0xbdb64462	-0.08899762
157	0xbc675266	-0.014118766
158	0x3abf9c0b	0.0014618648
159	0xbddc8c86	-0.1076899
160	0xbd4cd866	-0.05001106
161	0xbd6b465c	-0.057440147
162	0x3db6b345	0.08920912
163	0xbd954e2c	-0.07290301
164	0xbc00f969	-0.007871964
165	0x3e2c49b9	0.16824998
166	0x3e0bde22	0.13658956
167	0x3e13bc41	0.14427282
168	0x3a4eda08	0.00078907656
169	0xbda4075f	-0.080092184
170	0xbd4abaf7	-0.04949471
171	0xbc81d60d	-0.015849138
172	0xbca3ccb0	-0.019995064
173	0x3d13e8aa	0.036110558
174	0xbd2f77dd	-0.04283892
175	0xbd9c1013	-0.076202534
176	0x3da4b060	0.08041453
177	0x3dcb0ab2	0.09914149
178	0xbd5abc90	-0.053402483
179	0x3cb34edc	0.021888189
180	0xbc4683c3	-0.012116375
181	0x3d637e3c	0.05554031
182	0xbdc4559c	-0.09586641
183	0x3d8cf078	0.06881803
184	0xbd5b815e	-0.05359017
185	0x3d773f3b	0.060363036
186	0x3d9f81c2	0.07788421
187	0xbddff067	-0.10934525
188	0x3e00425d	0.12525316
189	0x3ca684d0	0.020327002
190	0xbdb3bcf6	-0.08776276
191	0x3cf14752	0.029452953
192	0x3da19fc1	0.07891799
193	0xbd5c51f6	-0.0537891
194	0xbd45645c	-0.048191413
195	0x3ddaff7a	0.106932595
196	0xbde3dc73	-0.11126032
197	0xbc1f79ad	-0.0097336
198	0xbe01214e	-0.12610361
199	0x3cb15c40	0.021650434
200	0x3bb2591a	0.0054427506
201	0x3dc95bef	0.09831988
202	0x3d3b1b64	0.04568042
203	0xbe1d5d59	-0.1536764
204	0x3b87d266	0.0041449545
205	0xbe0e7e3a	-0.13915339
206	0x3e7d8c19	0.24760474
207	0xbda71e35	-0.081600584
208	0xbdaa7fa0	-0.08325124
209	0xbc98bdf6	-0.018645268
210	0x3e20f666	0.15718994
211	0x3ce77b95	0.02825717
212	0x3d8f9604	0.07011035
213	0x3e44fa41	0.1923609
214	0xbd92353d	-0.07139061
215	0x3d59595a	0.053063728
216	0xbe121826	-0.14267024
217	0x3cc72035	0.02430735
218	0xbe15713b	-0.14593975
219	0x3d041f5a	0.03225646
220	0x3cebd881	0.02878976
221	0x3d2d8c71	0.042370263
222	0xbc953175	-0.01821206
223	0xbd196c1e	-0.037456624
224	0x3d4840f5	0.048890073
225	0xbdb06497	-0.08612936
226	0xbe017d35	-0.12645419
227	0x3d8fc937	0.070208006
228	0x3d788d02	0.06068135
229	0x3c32cc42	0.010912957
230	0x3dec82e1	0.11548401
231	0x3ddef79f	0.10887074
232	0xbce20b45	-0.027593264
233	0xbd6f50d5	-0.058426697
234	0x3e4b6178	0.198614
235	0x3e4aedc7	0.19817267
236	0xbd19bd77	-0.037534203
237	0xbdf8ea0e	-0.121540174
238	0xbd6c707f	-0.057724472
239	0x3e1543c4	0.14576632
240	0xbde190e8	-0.11013967
241	0x3e079abd	0.13242622
242	0x3d4ed3fd	0.050495137
243	0xbdde5a53	-0.10857072
244	0xbda120e4	-0.078676015
245	0xb5dacd00	-1.6301929e-06
246	0xbcfc772c	-0.030818544
247	0x3db5f163	0.088839315
248	0xbd3c87b7	-0.046027865
249	0xbbcfa1d3	-0.0063364296
250	0xbdd7f102	-0.105440155
251	0xbd12ddd2	-0.035856076
252	0x3e83f945	0.25776115
253	0xbd3f30b9	-0.046677325
254	0x3d9a35d1	0.07529796
255	0x3dd1f924	0.10252598

res1b.conv2.bias f4 [16]
0	0x3d0a30e5	0.033738036
1	0x3c398cbf	0.01132506
2	0xbdc5781d	-0.096420504
3	0x3d3e44b7	0.04645225
4	0x3cde713c	0.027153604
5	0x3d117ac6	0.035517476
6	0x3d11bb4e	0.03557902
7	0x3d6b08da	0.05738149
8	0x3ba24f11	0.004953273
9	0x3d3507a4	0.04419674
10	0xbc17d10d	-0.00926615
11	0x3d879818	0.066208065
12	0xbc96facc	-0.018430136
13	0xbcc4d0f4	-0.024025418
14	0x3ccca90d	0.024982953
15	0x3d458fff	0.04823303

conv2.weight f4 [32, 16, 3, 3]
0	0x3d3ed976	0.046594106
1	0xbb448f01	-0.0029992464
2	0xbdfbe1aa	-0.122989014
3	0x3d36ea1d	0.04465686
4	0xbd740797	-0.05957755
5	0xbe29a4db	-0.16566794
6	0x3d8af3d3	0.06784787
7	0x3d0d312a	0.034470715
8	0x3dbb1dc3	0.09136536
9	0xbd823ff4	-0.06359854
10	0xbd656349	-0.05600289
11	0x3dab24d2	0.08356632
12	0x3b80f777	0.00393575
13	0xbe03ac06	-0.1285859
14	0xbdcc2c99	-0.09969444
15	0x3c2d9f95	0.010597129
16	0x3ab7a188	0.0014009932
17	0x3e0dcdaf	0.13847993
18	0x3e618069	0.22021641
19	0x3c9a842e	0.018861856
20	0xbdb3bc8f	-0.08776199
21	0x3d72bf20	0.059264302
22	0x3b92f4b8	0.004484739
23	0xbda643a2	-0.08118369
24	0xbc4cc60e	-0.012498392
25	0x3da606ad	0.08106742
26	0x3e753deb	0.23949401
27	0xbcd9c276	-0.026581984
28	0xbc2514fe	-0.010075806
29	0xbddbf31a	-0.10739727
30	0xbd9890ae	-0.074494705
31	0xbd2239f9	-0.03960607
32	0xbd894ad4	-0.067037255
33	0xbdf1283d	-0.11775253
34	0x3cdffdf1	0.027342768
35	0xbdc4dfdd	-0.09613011
36	0xbdf246f1	-0.11829937
37	0xbdd0369b	-0.10166665
38	0xbdba44af	-0.090951316
39	0x3d7a0fc7	0.061050203
40	0xbd063742	-0.03276754
41	0x3c9735f0	0.018458337
42	0xbd175311	-0.036944453
43	0x3d36ddc7	0.044645097
44	0xbd79a8a4	-0.060951844
45	0xbe3431e4	-0.17597157
46	0xbdab58b6	-0.0836653
47	0x3e3df4ce	0.18550417
48	0x3d02d0e2	0.031937487
49	0x3c13b148	0.009014435
50	0x3e286050	0.1644299
51	0x3ba143ab	0.0049213967
52	0x3df813a1	0.12113119
53	0xbe612223	-0.21985678
54	0x3dc8a005	0.09796146
55	0xbe91ad50	-0.2845254
56	0xbe034409	-0.12818922
57	0x3df5abbe	0.11995648
58	0xbd83fdba	-0.06444879
59	0xbca21a39	-0.019787895
60	0x3d4794b7	0.04872581
61	0x3e36e7f1	0.17861916
62	0x3cea127a	0.028573263
63	0x3d58f1c7	0.05296495
64	0x3e37340b	0.17890947
65	0xbcc9443e	-0.024568673
66	0xbd1e7db9	-0.038694117
67	0x3d053073	0.032516908
68	0xbdefb69e	-0.11704753
69	0xbe0620ae	-0.13098404
70	0xbd4243bc	-0.047427878
71	0x3dc31ba0	0.095267534
72	0xbddf755f	-0.10911059
73	0xbe537ee1	-0.20653869
74	0x3d43ecf7	0.04783341
75	0x3d656583	0.056005012
76	0x3c2898a3	0.010290298
77	0x3d8031b3	0.062594794
78	0xbd36a79b	-0.044593435
79	0x3d4efad0	0.050532162
80	0xbe18a74f	-0.14907573
81	0xbddeb2cc	-0.108739465
82	0x3c880d40	0.01660788
83	0x3ba7849b	0.0051122434
84	0xbc056e4c	-0.008143973
85	0xbc8c145b	-0.01709955
86	0x3d54695b	0.051858287
87	0xbe3bf32c	-0.18354481
88	0xbe768a4c	-0.24076194
89	0xbe17c8bd	-0.1482267
90	0x3cadf8b1	0.02123675
91	0x3d647c93	0.055782866
92	0x3d8205b5	0.06348745
93	0x3cb57f7d	0.022155518
94	0xbe1f10dd	-0.15533777
95	0x3b9b3145	0.004736098
96	0xbcea8608	-0.028628364
97	0xbe4e3454	-0.20137149
98	0xb8c69e7c	-9.470896e-05
99	0x3d60e7f3	0.054908704
100	0xbdcb84d9	-0.09937448
101	0x3d1e93ff	0.03871536
102	0x3c98588c	0.01859691
103	0x3c30b023	0.010784182
104	0xbca47ac4	-0.02007807
105	0xbc8787f8	-0.016544327
106	0x3e554157	0.20825706
107	0xbd3ac5cf	-0.0455988
108	0xbd1be9ef	-0.038064893
109	0xbe2196ab	-0.15780132
110	0xbe077b3f	-0.13230608
111	0xbc0d6561	-0.008630128
112	0x3cf0beeb	0.029387912
113	0xbbada54e	-0.005299247
114	0xbe0c0767	-0.13674699
115	0x3db528cc	0.08845672
116	0x3dda6506	0.106638
117	0xbcb68f1b	-0.022285035
118	0xbc53b548	-0.012921639
119	0xbde12595	-0.10993496
120	0x3d252de3	0.040326964
121	0xbd14ad6e	-0.036298208
122	0x3d01efc7	0.03172281
123	0x3c014c8e	0.007891787
124	0x3c392c4e	0.011302067
125	0x3e05fa0f	0.13083671
126	0xbd25373f	-0.04033589
127	0xb966f706	-0.00022026533
128	0x3c05c942	0.008165659
129	0xbaad6737	-0.0013229613
130	0x3d104939	0.03522608
131	0xbe8370ca	-0.2567199
132	0xbe0ab937	-0.13547216
133	0x3c7edf44	0.01555616
134	0xbe03cb1d	-0.1287045
135	0xbd8ae205	-0.06781391
136	0xbd59d3b4	-0.05318041
137	0xbd991212	-0.0747415
138	0xbe04e0a1	-0.12976314
139	0x3dd0deb2	0.10198726
140	0x3d087dea	0.033323206
141	0x3d916b7e	0.07100581
142	0x3dd3614c	0.10321292
143	0x3d5aeca8	0.05344835
144	0xbddc9173	-0.1076993
145	0xbd291326	-0.041278027
146	0x3e47fb08	0.19529355
147	0xbe234ccf	-0.15947269
148	0xbe071d43	-0.13194756
149	0xbd4219a0	-0.04738772
150	0x3d2e1f38	0.04251024
151	0x3e2612e6	0.16218147
152	0xbd3ef087	-0.046616104
153	0x3e16b973	0.14719181
154	0xbd8f587a	-0.069992974
155	0xbd075c9c	-0.033047304
156	0x3e071ce8	0.1319462
157	0x3cf9c0b9	0.030487405
158	0x3c8075ea	0.015681226
159	0xbdb887cf	-0.090102784
160	0xbd20ce28	-0.039259106
161	0x3cfd05e6	0.030886602
162	0x3da72374	0.08161059
163	0x3dc29759	0.095015235
164	0x3e1de5ea	0.15419737
165	0x3da0943f	0.07840776
166	0x3e02a085	0.12756546
167	0x3df36fda	0.11886568
168	0x3dbf4962	0.093401685
169	0x3d086691	0.03330094
170	0xbd43575e	-0.04769074
171	0xbdafbce5	-0.08580951
172	0x3d20e39b	0.03927956
173	0x3c602d11	0.01368262
174	0xbde9089f	-0.113785975
175	0xbcf4e58f	-0.029894618
176	0xbe520cf8	-0.2051276
177	0xbd172ab5	-0.036905963
178	0xbd531014	-0.051529005
179	0xbe47ea6f	-0.19523023
180	0xbe3f2c70	-0.18669295
181	0xbd373a24	-0.04473318
182	0xbcfe8c98	-0.0310729
183	0xbd212bae	-0.039348297
184	0xbcafad17	-0.02144484
185	0xbd6b1b5a	-0.05739913
186	0x3c4a86db	0.012361254
187	0xbcb1d173	-0.021706318
188	0x3d78af5a	0.060714103
189	0x3db00cb4	0.08596173
190	0x3d923b04	0.071401626
191	0x3cc29f74	0.023757674
192	0xbd2dcd7c	-0.042432293
193	0x3d138767	0.0360178
194	0xbbd6c15f	-0.0065538133
195	0xbe3a7c1d	-0.18211408
196	0xbbec58ab	-0.0072127185
197	0xbd871239	-0.065952726
198	0xbd1bc27a	-0.038027264
199	0xbde9930c	-0.11405
200	0x3d2990d8	0.0413979
201	0xbd51d1fb	-0.051225644
202	0xbe149593	-0.14510183
203	0x3ce8f07a	0.02843498
204	0x3daaa258	0.08331746
205	0x3d4ad7b6	0.049522124
206	0x3d986411	0.07440961
207	0xbde52bff	-0.11190032
208	0xbe1608d3	-0.14651804
209	0xbdf7f9fc	-0.121082276
210	0xbe70b3fa	-0.23506156
211	0xbdb7c2e8	-0.08972722
212	0xbe06a11f	-0.131474
213	0xbd805ea1	-0.06268049
214	0x3e080b84	0.13285643
215	0xbe4289e8	-0.1899792
216	0x3d810530	0.062998176
217	0xbd1ee140	-0.038789034
218	0xbc596214	-0.013268013
219	0x3e412c3d	0.18864532
220	0x3d3e2c1e	0.046428792
221	0xbc68b496	-0.014203211
222	0xbb9b40d5	-0.004737953
223	0x3d1e3ae1	0.03863037
224	0xbaf49756	-0.0018660824
225	0xbd6e577c	-0.0581889
226	0xbe0467ca	-0.12930217
227	0xbe3127f7	-0.17300402
228	0x3de04ed1	0.10952533
229	0xbbae2293	-0.00531418
230	0x39011890	0.00012311549
231	0xbd206bad	-0.039165188
232	0xbe2123b4	-0.15736276
233	0xbd204230	-0.03912562
234	0xbdbf29c2	-0.093341365
235	0xbc5cb34d	-0.013470483
236	0xbd368d00	-0.04456806
237	0x3cb4e9be	0.022084113
238	0x3de496bf	0.11161565
239	0xbd51242a	-0.05105988
240	0x3d1f1589	0.038838897
241	0xbd83ad2a	-0.06429513
242	0xbcb3944b	-0.021921298
243	0xbca48ef0	-0.02008769
244	0xbdc5e70f	-0.096632116
245	0x3de81705	0.113325156
246	0xbc78bef7	-0.015182248
247	0xbe1ab983	-0.1510983
248	0x3cfcf843	0.0308801
249	0xbde98fd8	-0.11404389
250	0x3e089cf8	0.13341129
251	0x3d739dab	0.059476536
252	0x3cd8a8be	0.02644765
253	0xbc321d9e	-0.010871319
254	0x3ca32d95	0.019919196
255	0x3e24f87d	0.16110416

conv2.bias f4 [32]
0	0xbd39f21b	-0.045396905
1	0xbbcbe020	-0.006221786
2	0x3c5c8e86	0.013461715
3	0xbd8edd26	-0.069757745
4	0xbd9837b0	-0.074324965
5	0xbd62dc49	-0.05538586
6	0xbd0b9615	-0.034078676
7	0xbd24640b	-0.04013447
8	0xbdd27ea9	-0.10278065
9	0xbd29842e	-0.041385822
10	0xbd325f12	-0.043547697
11	0xbc10e17a	-0.00884282
12	0xbc8943fc	-0.01675605
13	0xbda98c73	-0.08278742
14	0xbd0f1b56	-0.03493818
15	0xbda52fdb	-0.08065768
16	0xbd74b12f	-0.059739288
17	0xbd3de5ed	-0.046361852
18	0xbcbf976a	-0.02338763
19	0xbc31f98d	-0.01086272
20	0xbd731cca	-0.059353627
21	0xbcef2249	-0.029191153
22	0xbe0e06e8	-0.13869822
23	0xbd7c6646	-0.061620973
24	0xbda641d1	-0.08118022
25	0xbdb18745	-0.08668379
26	0xbdf0b555	-0.11753336
27	0xbda5135d	-0.08060334
28	0xbdde97bf	-0.10868787
29	0xbe05d0fb	-0.13068001
30	0xbcb4cc23	-0.022069996
31	0xbdb9b66c	-0.09067997
