checkpoints/ppo_academy_pass_and_shoot_with_keeper.pth (torch, 718955 bytes, 45 tensors)

conv1.weight f4 [16, 16, 3, 3]
000000 de 98 e8 bd d1 2d 2f 3b 06 db 05 be 3a 6a d4 3c
       -0.11357282 0.002673019 -0.13071832 0.025929559
000010 53 84 eb 3d 6c fa 06 3e 50 3b 35 3d b8 fe 82 bd
       0.11499848 0.13181466 0.044246018 -0.0639624
000020 b6 08 21 3d 2e a3 bb bd 54 90 4d bd c2 af bb bd
       0.039314948 -0.091619834 -0.05018647 -0.091643825
000030 28 0b 41 bd 76 fe b0 ba a1 66 2e 3d fc 57 20 3d
       -0.04712978 -0.001350357 0.042578343 0.03914641
000040 f2 65 db 3c 93 8c 85 bd de 9e 2f 3e bc e3 d7 3d
       0.02678201 -0.06520953 0.17150447 0.10541484
000050 ec fc 70 3e 3a 6f 1d 3e ea 2a 41 3e d2 43 3f 3d
       0.23533982 0.15374461 0.18864027 0.046695538
000060 b3 b4 09 3e 11 3e eb bc 56 30 33 bc 04 3a ed bc
       0.13447838 -0.028716119 -0.010936817 -0.028958328
000070 79 ff f2 3d f3 04 9c bc 67 e6 ee bd f9 5d 6e 3d
       0.11865134 -0.019045329 -0.116650395 0.058195088
000080 c3 9b 32 3d ed 13 44 bd 6f a2 95 3c a6 37 d3 3d
       0.043605577 -0.047870565 0.018265931 0.103133485
000090 7c 64 e3 bd 1f 48 53 bc 2a 29 bb 3d fa 9f 2d bc
       -0.1110315 -0.012895613 0.09138711 -0.010597223
0000a0 1d 63 22 3d db e0 8c 3c b4 80 7b 3d ee 56 17 bd
       0.039645303 0.017197063 0.061402038 -0.036948137
0000b0 0e e8 f6 3c 05 10 19 be 7f dd 1f be 58 fe 4f bd
       0.03013995 -0.14947517 -0.15611838 -0.05077967
0000c0 ae 0c 34 be ad 68 cd 3d 45 b2 d5 bd cd c5 87 be
       -0.17582962 0.10029731 -0.10434393 -0.26518098
0000d0 51 e9 3d 3d 2f 7f 36 bd 58 7e 86 3d 0b 90 af 3c
       0.046365086 -0.044554885 0.06567067 0.02143099
0000e0 6f 99 2d 3e 15 83 34 3e 70 ee 85 bc 7c 3c b8 3d
       0.16953062 0.17628129 -0.016349047 0.089959115
0000f0 89 dd 14 3d b3 fa d3 3d 14 fa 09 be f0 fb 90 3d
       0.036344085 0.103505515 -0.13474303 0.07079303
000100 24 d8 0f 3d e4 6f b1 bd a2 45 99 3c fe 12 72 3d
       0.035118237 -0.086639196 0.018709961 0.059100144
000110 fc a1 92 3d 07 72 1b 3d 96 17 85 3d 12 61 14 3d
       0.07159802 0.03795054 0.06498639 0.036225386
000120 1f d5 a6 bd d4 d2 66 3d 4b 42 d1 bd b9 29 11 bc
       -0.081461184 0.056353405 -0.102177225 -0.008860045
000130 20 eb f1 bc f4 11 f0 3c a8 47 ff bd c8 98 a0 3b
       -0.029531062 0.029305436 -0.12464839 0.0049010254
000140 49 5d 31 3c 22 96 71 bd 4f c6 99 bd d7 f1 b9 3d
       0.010825464 -0.05898107 -0.075085275 0.090793304
000150 21 5c b6 bd 04 b5 be 3b 16 b3 4f bd d3 82 3e be
       -0.08904291 0.0058199186 -0.0507079 -0.18604593
000160 af 5f 04 be e8 89 ab 3d 94 5d 49 3e 8e e1 a2 3c
       -0.12927125 0.08375913 0.19664603 0.019882943
000170 d4 ba 0d 3d 95 91 7b 3d d2 29 0e 3e 48 44 35 3e
       0.034602 0.061418135 0.1388314 0.17701828
000180 a2 4c 4e 3d dc 07 13 3e 95 c4 12 3d 52 71 9d 3d
       0.05036605 0.14358467 0.035832006 0.0768763
000190 79 cc b9 3d 68 91 8d bd 47 66 25 3e be 33 f6 3d
       0.09072203 -0.069125 0.16152297 0.12021588
0001a0 d5 a3 e6 3d 87 3a 85 3c f2 54 be 3c 3b 41 34 3e
       0.11261717 0.01626326 0.023233864 0.17603008
0001b0 4c 61 18 bd 81 f3 07 be a2 89 27 3d b5 ef 69 3d
       -0.037202165 -0.13276483 0.04090274 0.057113368
0001c0 4e b6 40 bd d0 6a 1b bd 63 5e 10 bd 89 2f 1f 3d
       -0.04704886 -0.03794366 -0.035246264 0.038863692
0001d0 6b 61 a8 3d bb 22 3c bb 37 c2 f0 3c e6 6a da 3c
       0.08221706 -0.0028707224 0.029389484 0.026662301
0001e0 b4 ea d1 bd ed b2 c9 3d 29 d2 86 bd 5f bd 49 be
       -0.10249844 0.098485805 -0.065830536 -0.19701146
0001f0 51 96 59 bd 0b 54 30 bd 34 bd 8b 3e 0d 09 31 3d
       -0.05312187 -0.0430489 0.27292788 0.043221522
000200 b0 6e d0 3d e1 d5 98 3c 86 48 f1 3d 66 5c c0 3d
       0.10177362 0.018656673 0.11781411 0.093926236
000210 5a 4f f5 3b 87 db 49 be a7 d0 43 3e d9 55 97 bb
       0.007486266 -0.1971265 0.19122563 -0.004618388
000220 03 df 77 bd e7 8f c6 bc aa c7 14 3e 9c 88 af 3d
       -0.060515415 -0.02423854 0.14529291 0.08570978
000230 ac 63 b6 ba cb 8d 18 be 55 23 8e 3e 03 84 fb 3d
       -0.0013915203 -0.1489784 0.2776133 0.122810386
000240 75 85 93 bb cc 39 ed 3d fe eb d8 3c 15 fc 2a bc
       -0.0045019933 0.115832895 0.026479717 -0.010436078
000250 93 c4 8d 3d 7f be ef 3b a7 71 19 3e c0 f8 4f 3e
       0.06922259 0.00731641 0.14984761 0.20309734
000260 ef 32 7a be ec 1e 26 be a3 dd b5 bd d9 3e 35 bc
       -0.24433492 -0.16222733 -0.088801645 -0.011062347
000270 28 de b1 3d 7a e4 ea bd c1 da 82 be 6c 00 f0 3d
       0.08684951 -0.1146936 -0.2555752 0.117188305
000280 39 d3 34 bd b6 61 27 3e 3f 0d 1b be 7e ae 72 be
       -0.04414675 0.16345868 -0.15141772 -0.23699376
000290 dc 3e d2 3c d9 fe ff bd c4 38 09 be d7 a6 95 bd
       0.02566474 -0.1249978 -0.1340056 -0.07307213
0002a0 94 02 ea 39 40 7f 9c 3d 14 14 a9 3b 47 48 f1 3c
       0.0004463388 0.076414585 0.005159864 0.02945341
0002b0 da 20 99 bc 63 de aa bc 78 c1 bc 3d e8 f8 c3 3d
       -0.018692423 -0.020857995 0.09216589 0.095689595
0002c0 b9 19 c9 3c e4 52 3c 3e 7a 90 14 3e 9d 57 48 be
       0.024548398 0.18390995 0.14508238 -0.19564672
0002d0 4d ec 35 be 09 0f 85 bc 8a 10 30 3c 61 a3 dd 3c
       -0.17765923 -0.01624252 0.010746131 0.027055444
0002e0 11 41 13 3e 52 26 22 3c e9 de 56 be 10 fd cd 3d
       0.1438029 0.009896832 -0.20983471 0.100580335
0002f0 13 27 1c bd 50 ab 83 bc cb 13 32 be 30 b1 24 be
       -0.0381232 -0.0160729 -0.17390363 -0.16083217
000300 3e 2a c5 bd 5b 94 22 bd cb 70 ea 3d e1 87 ae bd
       -0.09627198 -0.039692264 0.11447295 -0.085220106
000310 54 3a 73 be 6c 48 02 3e 88 77 9a be 0b c9 21 3e
       -0.23752719 0.12722939 -0.3016932 0.15799348
000320 ce 8b cc bd 4b b7 42 be 90 9e 43 bd 85 50 16 be
       -0.09987603 -0.19015233 -0.04775864 -0.14679153
000330 af 7b 49 bd 7e 75 40 be 35 28 8f be b4 7c c7 bd
       -0.04919022 -0.1879482 -0.27960363 -0.09740582
000340 6d 35 6c bd eb 46 88 3d bd dd 9f 3c 3a a6 42 3d
       -0.05766814 0.066541515 0.019514913 0.047521807
000350 0d 11 a7 3c 44 f3 b9 be 84 dd 35 3e a2 25 46 be
       0.020393873 -0.3631841 0.17760283 -0.19350293
000360 92 b6 b9 bc 41 8b ed bd 23 bf de 3c 9b 6c e9 bc
       -0.022670064 -0.11598826 0.02719075 -0.02849417
000370 31 68 ad bb d9 2b 05 3c 00 2d bf bb 78 a7 f5 bd
       -0.0052919616 0.00812813 -0.005834222 -0.11994833
000380 b6 9b b5 bd ec a5 fb bc ce e9 81 bc af 33 13 be
       -0.0886759 -0.030718766 -0.015858557 -0.14375184
000390 49 4c 25 3c 25 48 97 3d 57 d9 04 bd b4 6b ea bd
       0.010088989 0.07386807 -0.032433834 -0.11446324
0003a0 a4 e5 97 3c 9a 4d 51 3c 4e e9 8b bd 5d cf 30 be
       0.018542118 0.012774849 -0.06831609 -0.17266603
0003b0 aa 96 35 bd 11 45 30 3d 4f 22 a6 bd 9b d2 a3 be
       -0.044333138 0.043034617 -0.081120126 -0.31996617
0003c0 80 6b 4c be 58 14 c5 bc 6b 35 8b 3d ed ee c9 3c
       -0.19962883 -0.024057552 0.06797298 0.024650062
0003d0 c9 6b 9c bd cb 7a 73 bd 57 2a 03 3e d7 bf 97 bc
       -0.07637746 -0.059443276 0.1280912 -0.018524094
0003e0 29 77 49 3c b2 52 a7 3c b2 da cd bc 82 38 84 be
       0.012296476 0.020425174 -0.025128696 -0.25824362
0003f0 28 15 f9 bc 4f e3 04 3d 79 00 e5 bd 73 bb b9 bd
       -0.030405596 0.03244334 -0.11181731 -0.09068956

conv1.bias f4 [16]
000000 10 70 39 bc 2b 3c 53 3c 18 d8 c3 bc 50 d9 ce bd
       -0.011318222 0.012892763 -0.023906752 -0.10100043
000010 22 49 8d bd 98 3b fb 3b 8e ae 4b bc ca 45 0f bc
       -0.068987146 0.0076670162 -0.012431754 -0.008744666
000020 93 ee c7 bc 96 1b 8f bc 3a 25 a4 bb 38 9b 7d bc
       -0.024405753 -0.017469209 -0.0050093206 -0.015478902
000030 c7 54 c8 bc 1b 2e 41 bb 97 09 df 3c f5 e6 93 bd
       -0.024454487 -0.0029476944 0.027226252 -0.07221786

res1a.conv1.weight f4 [16, 16, 3, 3]
000000 11 bd 40 bd de 72 e7 3d 23 89 c5 3d 83 d9 e5 bc
       -0.047055308 0.11301206 0.096452974 -0.02805782
000010 ce 68 5c 3d 8f ec 3d bd 4e 41 5f 3d 28 1b 9f 3d
       0.053810887 -0.046368178 0.05450564 0.077688515
000020 97 fd 9e bc 9f 83 04 be e0 54 9b bb 0f f4 8f bd
       -0.01940803 -0.12940834 -0.0047403425 -0.07028972
000030 ee cf b8 bd 7d 40 f3 bd a0 5f d0 3c 9f c9 bc bd
       -0.090240344 -0.118775345 0.025436223 -0.09218144
000040 eb 69 57 bd b2 81 dc 3d 31 0c 87 bd ba 89 4a 3d
       -0.052591246 0.10766925 -0.06594122 0.049447753
000050 a5 0b 04 bd a0 0e ce bc 09 cb 2f 3d 68 58 5a 3c
       -0.032237668 -0.025153458 0.04291824 0.013326742
000060 c5 e8 fa bd dd 9e bc 3c 12 38 e0 bd ab 5d 62 be
       -0.122514285 0.02302497 -0.109481946 -0.22106044
000070 87 83 8a 3d f6 4f 25 3e 7c 94 84 bd 63 cc a1 3d
       0.06763368 0.16143784 -0.06473634 0.07900312
000080 a2 46 e6 bc 18 1e 10 3e 33 03 51 3d 05 a8 24 3d
       -0.028109852 0.1407398 0.05102844 0.0401993
000090 7f 87 83 3c 7e c2 78 3d 74 bd e7 3d 6d 7c b4 bb
       0.01605582 0.060732357 0.11315432 -0.005507997
0000a0 2d a7 d4 bc 42 97 75 3b 65 73 8b 3d a7 96 07 bd
       -0.025958622 0.003747419 0.06809119 -0.033102658
0000b0 94 16 68 3d ec 95 2d bd 5c 15 59 bc 42 9c 20 be
       0.056662157 -0.042379305 -0.013249721 -0.15684608
0000c0 ed 34 46 bd 21 75 13 be 6e f5 9f bc ee 64 6b bc
       -0.048390318 -0.1440015 -0.01952621 -0.014367325
0000d0 18 ae 28 be b3 8d 1a be 71 13 7b bd 7a 01 c7 3c
       -0.16472661 -0.15093116 -0.061297838 0.024292696
0000e0 e3 b8 20 3d 07 20 16 be c7 d6 e8 bd e3 b4 fa 3c
       0.03923882 -0.14660655 -0.113690905 0.030603832
0000f0 07 8d 08 bc 6c 33 31 3d d5 1a 24 3e af 8c 3c 3d
       -0.008334405 0.04326193 0.1602586 0.046032604
000100 4b 8d 64 3d f5 0c 65 bd ab c3 39 3b 91 32 0f be
       0.05579881 -0.05592056 0.0028345387 -0.13984133
000110 5b d4 14 be e3 dc 9c 3b 99 5d 7c bc 7f 4e dc ba
       -0.14534132 0.004787074 -0.015403175 -0.0016808062
000120 e8 01 fd bd cc 0f ed bd ee 8a f6 3c eb 39 bc bd
       -0.12353879 -0.11575279 0.030095544 -0.091907345
000130 c4 35 d3 bd b9 ce 4c bd 6c 5d 43 bd 3b 79 f5 bd
       -0.10312989 -0.050001834 -0.047696516 -0.119860135
000140 24 84 12 bc 89 30 97 3c d5 10 64 3d 18 8c 0b 3c
       -0.008942638 0.01845576 0.055680115 0.008517288
000150 bf d2 ad 3c b5 e6 b3 3c 7a e0 2b 3b cc 35 99 bd
       0.021218656 0.021960596 0.0026226328 -0.07480964
000160 c8 5b 49 3d 3a a0 82 3d d5 28 ef bc 4d d7 66 3d
       0.049159795 0.06378217 -0.029194275 0.05635767
000170 a9 6f ad bd 62 15 e7 bc dc a2 48 3c 8b cd a3 bc
       -0.08468563 -0.028208438 0.01224586 -0.019995471
000180 b5 be b9 39 7e b2 4e bd 1a b5 22 be 6f 3a ee bd
       0.00035428038 -0.050463192 -0.15889397 -0.11632239
000190 d4 52 d0 bd 01 8d e7 3c 5c 3b 2b bd 47 6c 58 be
       -0.10172048 0.028265478 -0.041804656 -0.21135055
0001a0 49 97 ce bd d0 43 11 3d 2a c8 8d 3b e0 e6 28 3c
       -0.10087449 0.03546506 0.00432684 0.010308951
0001b0 2d be 6f 3d d8 a8 a2 3b 94 55 87 3d 2b e0 c3 3c
       0.058530975 0.0049639754 0.066081196 0.023910603
0001c0 96 78 46 3d b6 25 52 3d da 02 9b bc e7 62 4d 3c
       0.048454843 0.051305495 -0.018922258 0.012535787
0001d0 80 3a 98 3d 18 83 63 3d a3 69 ea 3c 38 58 bb 3a
       0.07433033 0.055544943 0.028614825 0.0014293259
0001e0 df b3 a7 bd 4a 03 ae 3c 81 97 63 bd 36 a8 45 bd
       -0.081886046 0.021241803 -0.055564407 -0.04825612
0001f0 7c 0b ba 3c 8f 31 d5 bc a6 27 19 be 8f 70 81 3a
       0.022710554 -0.026024608 -0.14956531 0.0009875464
000200 23 ce 26 bd be cc 47 be 64 5f d3 bd 83 59 48 3d
       -0.04072393 -0.19511697 -0.10320929 0.04891349
000210 f9 f4 d1 3a 61 e1 ea 3b 88 fb 24 bd 6a 49 38 3d
       0.0016018442 0.0071679805 -0.04027894 0.044991888
000220 5d 8a ff b8 76 13 bd 3d 76 7a 0d 3d b5 70 af bd
       -0.0001218512 0.092322275 0.034540616 -0.08566419
000230 c9 d6 2c 3c 48 d1 a4 3d 8d ae 52 3d b2 c3 46 be
       0.010549256 0.0804773 0.051435996 -0.1941059
000240 1d 6f aa bc 69 8e bd 3d e5 a4 64 3d 5f e9 f0 bd
       -0.020804936 0.09255678 0.05582132 -0.11763262
000250 42 ba 46 3c 38 86 da 3c d9 34 c0 3d f0 6b 03 3d
       0.012129368 0.026675329 0.0938508 0.03208536
000260 df ae fa bd 67 31 86 bd 97 35 8e 3d 4e 19 d4 3d
       -0.12240385 -0.065523915 0.06943815 0.10356389
000270 91 42 9d bd a8 b4 c4 bd a4 4d f4 bd eb ea ea 3b
       -0.07678712 -0.0960477 -0.11928871 0.0071691177
000280 58 34 1f be ae 69 8c bd c7 d8 9d 3c 27 a0 7a bc
       -0.15547311 -0.06856094 0.019268407 -0.015296972
000290 0e 0d 25 be a6 d4 90 bd b5 0e 08 bd a6 b5 1b 3d
       -0.16118261 -0.070718095 -0.03321715 0.03801503
0002a0 0c f4 00 be b4 1f 25 be df 41 e4 bc ed 2a 85 3d
       -0.12593096 -0.16125375 -0.027863441 0.06502328
0002b0 d6 49 8e 3d 8f 00 35 3d 36 0b 3f 3d fe 59 95 bd
       0.06947677 0.044189986 0.04664155 -0.07292555
0002c0 e2 f9 9b 3c 5f 74 fa bd 10 06 e8 3d 43 37 31 be
       0.019040052 -0.12229227 0.11329281 -0.17306237
0002d0 7a c8 cb 3d f8 a2 61 bd 76 39 ba 3d d7 b4 19 3e
       0.09950347 -0.05508706 0.09092991 0.15010391
0002e0 e4 ea d6 3c f7 8d c8 3d 11 89 08 3e e4 b1 eb 3d
       0.026235051 0.09792703 0.13333537 0.11508539
0002f0 86 93 bd 3d 21 88 ac bd f3 28 ee bc 3e 44 11 be
       0.092566535 -0.08424402 -0.02907226 -0.14186189
000300 16 04 66 bd 57 1d 2d bd c9 84 cd bc bd 83 39 3d
       -0.05615624 -0.04226431 -0.025087731 0.04529165
000310 c7 92 17 be aa 77 6f bc 70 a5 20 3d e7 b1 4e bd
       -0.14802085 -0.0146159325 0.039220273 -0.05046263
000320 c8 28 f5 3a ab 6d c7 3d c4 5d 93 bc fa b0 fe bd
       0.001870417 0.097377144 -0.017989047 -0.12436099
000330 1e 14 32 be 3b 0b c1 3b ab ee 05 3c 27 65 c5 bd
       -0.17390487 0.0058912314 0.008174579 -0.09638434
000340 3d 6e 66 bc 83 37 45 3c 13 a6 14 bd 3c d2 d2 bd
       -0.014064369 0.012037161 -0.036291193 -0.10294005
000350 a6 a3 55 bd 27 8a 0c be cc 2c 83 be ec af e3 bd
       -0.05215802 -0.13724576 -0.25620115 -0.11117539
000360 a0 2b eb bc 12 1b 14 3e 20 62 11 be 15 01 17 3d
       -0.028707325 0.14463452 -0.14197588 0.036866266
000370 04 ed 8f 3d 43 18 88 3d 60 6b fb bd 99 7a 41 3d
       0.07027629 0.066452526 -0.122763395 0.04723606
000380 32 fd 27 3d b1 22 ab 3c 11 18 ac 3d e5 0e 17 bd
       0.04101295 0.020890566 0.08403028 -0.03687944
000390 b5 9a 54 bb 84 f3 bd 3c 7d 32 91 3c 70 ba 0a bd
       -0.0032440845 0.023187406 0.01772427 -0.033869207
0003a0 06 33 2e be 97 41 85 bd 0f 87 4f bd 9a f9 b3 bc
       -0.17011651 -0.06506651 -0.05066591 -0.021969605
0003b0 86 77 41 3d f4 5b 06 be 43 5e 92 3c b6 43 8b 3d
       0.047233127 -0.13121015 0.017867213 0.06800024
0003c0 da 71 33 be 73 d7 12 be fd a5 2a 3c f9 27 17 3d
       -0.175239 -0.1434 0.010415551 0.036903355
0003d0 1b 96 49 3e c6 96 11 3e 49 37 53 3d 50 1d c4 3d
       0.19686167 0.14217672 0.051566396 0.095759034
0003e0 8e 3f 98 39 d9 97 1d be ad a7 bd bd 83 2b c9 bd
       0.0002903905 -0.15389957 -0.09260497 -0.09822752
0003f0 9c d4 9d bd b9 31 89 bd c8 7d 79 3d f4 f8 88 bd
       -0.07706568 -0.06698937 0.06091097 -0.06688109

res1a.conv1.bias f4 [16]
000000 e4 9c 8b bc 8f c6 70 bc a1 82 a5 bd 29 4d 99 3d
       -0.017042585 -0.014695778 -0.08081556 0.0748542
000010 a5 b3 a8 3d 37 d5 fd bd c7 a6 16 3d 1a 47 59 3d
       0.082373895 -0.12394183 0.036780145 0.053046323
000020 1f c9 4d 3d bb 95 68 bd 65 a7 0a bd 5c be de bd
       0.050240632 -0.05678342 -0.033851046 -0.10876152
000030 26 8f 9d bd 8b 4c f1 bc a7 2f 85 3b 2d 36 bf 3d
       -0.07693319 -0.029455444 0.0040645185 0.09336505

res1a.conv2.weight f4 [16, 16, 3, 3]
000000 70 33 43 3d 4c 14 ee 3c 0b d0 6e bd fa b9 1a be
       0.047656476 0.029062413 -0.058303874 -0.15110007
000010 2c c9 b0 bd 2a fc cc bd 51 16 49 3d f8 f1 87 bd
       -0.086321205 -0.10009034 0.04909355 -0.06637949
000020 bc 3a f7 bd 0d c2 00 3e 78 60 cf bc e3 dd 1d be
       -0.120717496 0.12574024 -0.025314555 -0.15416674
000030 55 34 37 3d 6f ab f1 3a aa 68 87 ba 30 a4 00 be
       0.044727642 0.0018437932 -0.0010330875 -0.12562633
000040 ce f1 d3 3c 45 6d 34 bb e1 09 92 3d 48 df 2b be
       0.025872137 -0.002753095 0.071307905 -0.16784394
000050 8f 2b 5b 3d 6e 93 09 be 19 1d 06 be fa d0 03 3e
       0.053508338 -0.13435146 -0.13097037 0.12872687
000060 74 09 24 3d 8a 2e 85 bd 22 02 d7 3d de 6a e9 bd
       0.040048078 -0.06503017 0.10498454 -0.113973364
000070 3f dc ab 3d 58 3e 21 3d c6 dd 32 3d 3f 69 45 3c
       0.08391618 0.039366096 0.04366853 0.012049018
000080 a9 ab af 3d 47 a9 e1 3c c7 28 09 be 81 09 5c bd
       0.085776635 0.027546538 -0.13394462 -0.05372
000090 f8 b6 ff 3c 19 ab 76 3c 5a e9 ac bd 3b 22 b9 3c
       0.031215176 0.015055441 -0.08442946 0.02259933
0000a0 45 26 ab bd c6 0a 04 3e 9f 4e 20 3d d7 6f d5 bd
       -0.08356909 0.12894735 0.03913748 -0.104217224
0000b0 bf 35 54 3e ac af ab 3c 41 c0 43 ba 6f 6e 17 bb
       0.20723628 0.02095779 -0.0007467308 -0.0023106595
0000c0 f9 ab 39 bd e4 2f 1b 3d 23 59 8b bd 3b 28 74 bd
       -0.04533002 0.03788747 -0.06804111 -0.05960868
0000d0 17 7b df 3c c2 6a 35 3d 08 05 e0 3d c0 d6 85 3c
       0.027280373 0.044291265 0.1093846 0.016337752
0000e0 0c b6 cd 3d cb 3e 33 3d e8 4a 8c 3d bf 8a 86 3c
       0.10044488 0.043761056 0.06850225 0.016423581
0000f0 77 00 4a 3d 08 e0 6d bd 14 d8 e1 3b 0b b6 4c 3d
       0.04931685 -0.05807498 0.0068922136 0.049978297
000100 88 3d 14 3d 5f 27 14 bd 6a f3 70 bd d2 19 f7 bc
       0.036191493 -0.03617036 -0.058825888 -0.03016368
000110 47 6f 4c 3d b3 47 9f bd da a6 b3 3c 5f e0 09 bd
       0.04991081 -0.077773474 0.021930147 -0.033661243
000120 c9 8c bc 3c d8 7d 91 3d 7c 67 19 be 37 b9 6c bc
       0.02301635 0.07104081 -0.14980882 -0.014448456
000130 0c 68 c4 3c 8b de fe 3c 17 99 30 3d 79 c2 d7 bc
       0.023975395 0.031111976 0.043114748 -0.026337849
000140 97 d4 f8 3d 3f 5d 7b bd 40 3a 41 3c 45 cf 11 bd
       0.12149923 -0.061368223 0.011793673 -0.03559806
000150 77 fc 9e bd 65 a9 8f 3d 65 b2 20 3d 29 b4 50 3d
       -0.077629976 0.07014731 0.03923263 0.050953064
000160 25 2b 99 3b 55 a5 93 3d 53 19 95 bd 25 14 22 3d
       0.0046743327 0.07209269 -0.07280221 0.039569993
000170 07 c8 97 3d 04 c5 0b be af 32 0c bc 6f 59 b8 3c
       0.07411199 -0.13649374 -0.008557006 0.022503583
000180 10 ac 49 3d 7c 80 1b bd 41 f8 e3 3d d3 45 6c bd
       0.049236357 -0.03796433 0.11131335 -0.057683777
000190 57 53 d0 bd 62 0e 65 3d 5d cf 5b 3e c0 a0 14 3e
       -0.10172146 0.05592192 0.21465822 0.14514446
0001a0 90 c5 14 3e fa b3 b9 3d c1 26 58 3d 66 4c ad 3c
       0.14528489 0.09067531 0.052771334 0.021154594
0001b0 91 76 95 3c 01 45 91 bc 06 d1 75 bd a9 9a ff bc
       0.018245013 -0.017733099 -0.060013793 -0.031201677
0001c0 84 c0 4f bd 35 26 8b 3d f8 72 6b 3d 90 a7 d4 3b
       -0.050720707 0.06794397 0.05748269 0.0064897016
0001d0 06 a3 43 3d cb 69 bb bc cd 5e b5 bd f3 03 28 3d
       0.047762893 -0.022877594 -0.088559724 0.04101939
0001e0 7f e6 de bc 71 77 00 be d1 f8 22 be e5 ae 26 bd
       -0.027209518 -0.12545563 -0.15915228 -0.040694136
0001f0 40 fc 89 bd 7c b3 18 bd be b3 c6 3d 3b 5e 6f 3d
       -0.06737566 -0.037280545 0.09702252 0.058439475
000200 8f 3a 98 bd 30 c1 56 bd a5 85 ab bd a2 94 00 3d
       -0.07433044 -0.05243033 -0.083751 0.031391747
000210 ea a7 a4 ba 66 f4 34 3d f8 bb 19 3e 69 d4 b7 bc
       -0.0012562249 0.04417839 0.1501311 -0.022440152
000220 ba f5 fc 3d 54 08 b5 bc 04 a7 04 be a7 49 03 3e
       0.12351556 -0.022098698 -0.12954336 0.12821065
000230 52 f8 b8 3c f7 69 5b bd f6 aa b6 bd 01 aa b5 bd
       0.022579346 -0.053567853 -0.08919327 -0.08870316
000240 48 f2 4d 3d 80 f0 8d bd 62 3b 0d 3e 1d f2 6e 3d
       0.050279886 -0.06930637 0.13792184 0.058336366
000250 ae 66 24 bd 4b 87 5c 3d 11 69 70 3d 1c 34 09 be
       -0.040136985 0.053839963 0.05869395 -0.13398784
000260 59 31 4b bd 5b 1f 07 bd e3 a6 b5 bc 71 62 47 be
       -0.04960761 -0.032988887 -0.022174304 -0.19471146
000270 b0 c2 6d 3d 2a a0 ce bb e3 82 bb bd a4 fb 39 bb
       0.058046997 -0.006305714 -0.09155824 -0.002837875
000280 3a 7e 8d bc 9e 21 7b bd ed 48 a7 bd 18 62 eb 3d
       -0.017272104 -0.061311357 -0.08168206 0.11493319
000290 d1 17 b5 3d 89 9a 65 bc 90 d3 a3 3d 93 c3 89 3d
       0.08842433 -0.014013895 0.07999337 0.06726756
0002a0 d0 73 51 3c c9 f5 b2 bd 42 ec 81 3d 8a 30 40 3d
       0.0127839595 -0.08738286 0.06343891 0.04692129
0002b0 20 48 b0 3d 79 f7 5f bb 21 f3 ed 3d 8a b0 73 3d
       0.08607507 -0.0034174605 0.11618639 0.059494533
0002c0 f4 b4 83 bd 13 48 a7 3d e0 e1 63 bc a8 15 5d 3d
       -0.064309984 0.08168044 -0.013908833 0.05397573
0002d0 dc 68 60 bd aa 2c ad bd 78 1e 36 bc 3e cf 87 bd
       -0.0547875 -0.084557846 -0.011115663 -0.06631325
0002e0 ed 74 fa bd cc 8c 1a 3d 9c cd 95 3c 3c be 83 bd
       -0.12229333 0.03773193 0.018286519 -0.06432769
0002f0 7b 75 1c 3d 75 84 ba bc 28 84 d1 3b 66 7f a5 3d
       0.038197976 -0.022768239 0.006393928 0.0808094
000300 f0 a7 e1 bc 9e ed 84 bd 06 f7 16 3e b7 ce 62 bd
       -0.0275459 -0.064906344 0.1474267 -0.05537292
000310 0b 41 cf bb a0 9e e1 3d e7 20 89 3d 22 13 96 bd
       -0.0063248924 0.110165834 0.06695729 -0.07327868
000320 85 f8 bc 3b 4a 9a 0e bb 27 cf 63 3d a2 be 68 3c
       0.0057669305 -0.0021759444 0.055617478 0.014205607
000330 09 c6 0b 3e f9 2e 4d bd b1 03 1a 3d 36 46 80 3c
       0.13649763 -0.050093625 0.037601177 0.01565848
000340 d3 ac 2a bd 5e 7f 9f 3c 94 ef bd bd 78 0f a3 bc
       -0.041668724 0.019469913 -0.092742115 -0.019904837
000350 95 a4 9a 3d b9 47 a1 bc 1c 57 91 bd d0 0f 1c 3c
       0.07550923 -0.01968752 -0.07096693 0.009525254
000360 67 57 02 3c 69 f9 44 3c 4b 8d c1 bd 97 89 c8 3c
       0.007955409 0.012022355 -0.094507776 0.02447967
000370 ac 69 cb bc c3 26 af 3b df eb 12 3e 52 bd 55 3c
       -0.024830662 0.005345197 0.1434779 0.013045626
000380 d1 07 d8 3d 9a 16 eb ba 76 2a e9 bc aa 0c 0c 3d
       0.10548366 -0.0017935813 -0.02846263 0.034191765
000390 8b 22 dc bc 9c cc f5 bc c4 6c 12 3e da 0c e2 bc
       -0.02687194 -0.030004792 0.14299303 -0.027594019
0003a0 ca e9 f1 3c e6 49 b9 3d b3 c1 cd bc 43 72 3c bd
       0.029530425 0.09047298 -0.025116777 -0.046007406
0003b0 2d e2 96 3d f8 0c 01 3d 6a a5 8e bc 7a 2a d2 3d
       0.07367358 0.03150651 -0.01741286 0.10262008
0003c0 a4 f1 40 3d 1a 8d 24 3d 9c 36 37 3d 96 e1 5e bd
       0.047105446 0.040173627 0.044729814 -0.054414354
0003d0 9a cb c2 3c a0 79 2b bd 8a 4f b4 bc a8 48 a0 3c
       0.023778725 -0.041864038 -0.022010583 0.019565895
0003e0 e4 64 f4 ba 29 f2 e2 bd 00 56 90 bb 02 70 dd bd
       -0.001864579 -0.11081345 -0.0044047832 -0.108123794
0003f0 cd f1 82 3d 44 cc d2 3b 33 dd 71 bd f7 74 b7 bd
       0.06393776 0.0064330418 -0.059048843 -0.08957856

res1a.conv2.bias f4 [16]
000000 83 18 fc 3c 78 ea 3b 3b c4 5b 3a bd d9 a0 55 bd
       0.030773407 0.002867369 -0.04549767 -0.05215535
000010 8f 99 c5 bc 0e 19 63 bc 94 c1 06 bd 5f bb 85 3c
       -0.024121074 -0.013860954 -0.032899454 0.016324697
000020 2a d3 b8 3a c7 28 24 bd 9f 30 36 3c 9b dc c6 bc
       0.0014101018 -0.04007795 0.011119991 -0.024275115
000030 2f 97 7b bd 4e da 5f bd 6a b1 26 3c 42 14 0d bd
       -0.061423477 -0.05465155 0.010174135 -0.034443147

res1b.conv1.weight f4 [16, 16, 3, 3]
000000 8e 35 e8 3d d3 91 0a bc 68 eb 77 bd e7 0a c9 bb
       0.1133834 -0.008457619 -0.060527235 -0.006135333
000010 f3 7e 26 bd 3b df 57 3d 96 e0 d3 bd 85 75 d5 bd
       -0.040648412 0.052703124 -0.10345571 -0.10422806
000020 3e 3a 28 be bc d6 06 3e 5f 0d c8 3d 6a 2c ad bc
       -0.16428468 0.13167852 0.09768175 -0.021139342
000030 c5 5a ac 3d 79 f2 33 bc fc 6f 29 3e 09 fb 1c 3e
       0.084157504 -0.010983103 0.16546625 0.15330137
000040 53 f6 44 3c 59 ad 9f 3b da 5a ee 3d 6c c2 b1 3c
       0.012021619 0.0048729596 0.11638422 0.021699153
000050 c6 e2 b4 3d 52 7a 79 be e1 a2 0a be bb d8 8e 3c
       0.08832316 -0.24363068 -0.13538696 0.01743733
000060 3e 38 34 3d fa 34 3d 3d 0f 03 b3 3d b4 1b a4 3c
       0.04399895 0.0461931 0.08740818 0.020032741
000070 ca 89 fe 3d fa 27 0d 3e 5e 40 22 bd a2 6e 2d 3e
       0.12428625 0.13784781 -0.039612167 0.16936734
000080 d8 9a 17 3e 61 07 b0 ba 0e bd d8 bc 9e 11 c2 3d
       0.14805162 -0.0013429933 -0.026457336 0.094760165
000090 3a 68 37 be 66 57 cc bd c6 9a 49 3d 8e a5 ea bd
       -0.17910853 -0.099776074 0.04921987 -0.11457358
0000a0 00 eb be bd 20 70 04 be d5 13 c0 3d 07 cb 0a be
       -0.093221664 -0.12933397 0.09378783 -0.13554011
0000b0 86 f4 88 be 80 76 8d bd 22 18 86 bd b1 4e fc 3c
       -0.26749057 -0.06907368 -0.06547572 0.030799242
0000c0 04 6f 5a 3d ee e0 7c bd f2 c6 98 3c c7 4c 26 3e
       0.05332853 -0.061737947 0.018649552 0.16240226
0000d0 07 c8 53 3d 73 6e 1b ba 26 5e 13 be 2b 31 d5 3c
       0.051704433 -0.0005929239 -0.14391384 0.026024422
0000e0 a6 52 79 3c 1a fe 15 3e 6f d8 05 3e 83 1e 99 3d
       0.015217459 0.14647713 0.13070844 0.07476523
0000f0 0b a0 5b bd 80 6f 53 3d 73 d5 1d 3d 99 2f eb 3c
       -0.053619426 0.051620007 0.03853364 0.02870922
000100 ba 13 2a 3d 66 b1 0d bb 87 fa be 3d 94 cf f1 bc
       0.04152272 -0.002162063 0.09325128 -0.029517926
000110 2d 08 7c 3c 12 b2 6d 3d 38 95 c0 bd 71 20 c5 bd
       0.015382809 0.05803115 -0.09403461 -0.09625328
000120 11 10 e1 bc 34 1c 9f be af 13 47 bd ce fe e5 bb
       -0.027473481 -0.31076205 -0.048602756 -0.0070189005
000130 39 08 39 3e b7 fd b7 3c b9 0c 75 be dc a6 89 bd
       0.18069543 0.022459848 -0.23930635 -0.06721279
000140 e5 d3 10 3e 80 00 92 3c fa 8f 96 3d bf 5e e1 3d
       0.14143331 0.017822504 0.0735168 0.110043995
000150 4a c7 f4 3b ba 4d e8 3d a6 26 0e 3d ea 20 26 3d
       0.007470046 0.1134295 0.034704827 0.040558733
000160 5b 28 98 3c 87 ab 71 3d 30 8e 8f 3d 69 b6 0b bd
       0.01857393 0.05900147 0.07009542 -0.034109507
000170 51 da 85 bd 0f 3e bd bd 80 ad 5e 3b dd e4 e4 bd
       -0.06535781 -0.09240352 0.0033977926 -0.11176465
000180 4a 79 5c 3d 90 27 15 3c 8c e9 ee 3d b3 fe 8e 3c
       0.053826608 0.009103671 0.11665639 0.017455434
000190 85 9f 0b 3d 1e a9 4b bd 00 96 5c 3c 6a 19 1f 3e
       0.034087677 -0.04972183 0.013463497 0.15537038
0001a0 de 1e aa bc 17 d5 29 bb ce 9a 5e 3d b3 98 d4 bb
       -0.020766672 -0.0025914365 0.054346852 -0.0064879297
0001b0 13 af 84 3e a0 ba 95 3e 67 78 f1 bb f6 cb 82 3b
       0.2591482 0.29243946 -0.0073690894 0.003991599
0001c0 7f d4 b2 3b dd 8a 70 be 7e c0 c6 bc 21 22 3d bd
       0.0054574604 -0.23490472 -0.02426171 -0.046175126
0001d0 8b 2c fe bc 51 66 10 bb 85 60 b0 bc 72 25 67 bd
       -0.0310271 -0.0022033642 -0.0215304 -0.056432195
0001e0 a9 a9 2e 3e 94 f4 cb 3d 57 d6 43 bd 5c 6b 20 3e
       0.17056908 0.09958759 -0.047811832 0.15665954
0001f0 09 6c d3 b9 c3 1a 56 3d 62 36 6e 3e 75 d6 25 3e
       -0.0004032555 0.052271616 0.23262933 0.1619509
000200 29 b6 8c 3c cb 77 32 3d 62 46 fe 3c 00 cf ea 3c
       0.017176704 0.043571275 0.03103942 0.028663158
000210 a0 3e 15 be 70 ba bc bd 7d b7 15 3e e0 0b 1f be
       -0.14574671 -0.09215248 0.14620776 -0.15531874
000220 a5 dc 43 3d b2 d6 9c 3d 5c c2 a5 bd 0d 36 d0 bd
       0.047817845 0.076581374 -0.08093712 -0.10166559
000230 a7 97 2a 3d 86 ee 8e bc 35 b2 11 3c d9 47 8f bd
       0.041648533 -0.017447721 0.0088925855 -0.06996126
000240 fc d5 b4 bd 4b 4c 10 3d fb 5b 59 3d 1e a0 c8 bd
       -0.08829877 0.03522901 0.053066235 -0.09796165
000250 ea bf 6d bd 15 81 a3 bd eb 13 ae bd c4 98 ab bd
       -0.05804435 -0.07983605 -0.08499893 -0.08378747
000260 02 a2 04 bc 89 d1 41 3c c9 6c 5b bd f7 25 2f 3d
       -0.008095266 0.011829742 -0.053570542 0.042760815
000270 d1 1f d2 bd 07 96 51 3c 40 60 23 3d ea ef c2 3c
       -0.10259975 0.012792117 0.039886713 0.02379604
000280 3b e7 1d 3d 20 61 d6 3b bb 59 66 bd b4 aa ad b8
       0.038550597 0.00654234 -0.056237917 -8.281079e-05
000290 c2 e4 db 3c 4a e7 01 bc 7b 7b a9 3c 97 d5 0e bd
       0.026842479 -0.007928679 0.020688763 -0.034871664
0002a0 5e fc fb bc d4 27 13 bd 10 86 1a 3c 81 51 ad bd
       -0.030759986 -0.035926655 0.009431377 -0.08462811
0002b0 96 c4 76 bd b4 f5 88 bd 5c 36 85 3d 21 fd 5e 3d
       -0.060246073 -0.06687489 0.06504509 0.05444062
0002c0 ae 54 84 3d 7d cc e0 bb db 67 46 3d 3b 1d 81 bd
       0.06461464 -0.0068603144 0.048438888 -0.063044034
0002d0 f1 5d 2f 3d 6f c4 7f 3d a5 64 30 3c 61 29 84 bd
       0.0428142 0.062443193 0.010766183 -0.06453205
0002e0 af ec 06 bc 81 de c5 3b fb 19 2d bd 52 87 7a bd
       -0.008235141 0.0060384874 -0.042261105 -0.061164208
0002f0 f5 0b b2 bd a0 1b 16 3c 62 27 80 3d 2c c0 e7 bc
       -0.08693687 0.00916186 0.06257512 -0.028289877
000300 a3 79 9d 3c 65 54 74 bd 3c 8f 6b bd 16 55 7a bd
       0.01922304 -0.059650797 -0.057509646 -0.0611163
000310 81 77 a1 bd fd ff b2 bd 3e 60 42 3d 96 fc 6b bc
       -0.07884122 -0.08740232 0.047455065 -0.014403483
000320 12 10 51 3d 63 81 2d 3d 34 22 32 bd 2e 72 83 bc
       0.051040716 0.04235972 -0.04348965 -0.016045656
000330 f0 30 49 3d d8 9f 7e bd 44 cc dd 3c d3 30 6d bd
       0.049118936 -0.062164158 0.02707494 -0.05790789
000340 ec eb 89 bd d8 c5 a5 3c 19 9d a0 bb 89 b1 69 3d
       -0.06734452 0.02023594 -0.00490154 0.057054076
000350 cf ef f2 bc d5 4c e9 bc 8a 8a 38 3d 7b 73 e5 ba
       -0.029655365 -0.02847902 0.045053996 -0.0017505729
000360 1e 07 88 bc 8a 97 92 3d fb 0c 99 bd 96 c8 86 3d
       -0.016604956 0.0715781 -0.07473179 0.065812275
000370 b0 48 4e bc b7 25 81 bd 48 41 b6 bc c6 a9 a6 bd
       -0.012590572 -0.06306022 -0.022247925 -0.081378505
000380 f1 e6 ab bd 51 f7 83 bd 2d 11 fa bc 23 34 7c bd
       -0.08393658 -0.06443656 -0.030525768 -0.06157316
000390 a6 32 74 bd a6 67 8d bd bc 39 85 bd df 07 b6 bd
       -0.059618615 -0.06904535 -0.065051526 -0.0888822
0003a0 dc 18 98 bc f6 28 4e bb 42 0d c2 bd 9b 4b 5f bd
       -0.018566541 -0.003145752 -0.09475185 -0.054515462
0003b0 38 38 b2 bd be 5d 6a bc fa 71 08 bb 81 05 9a bd
       -0.08702129 -0.014304576 -0.0020819888 -0.07520581
0003c0 ff 31 b1 ba ec 19 3f bd 8d 50 8f bd 79 74 a6 bd
       -0.0013518928 -0.04665558 -0.06997786 -0.08127684
0003d0 41 e6 72 3d cc 55 fe bc 63 c2 a5 bd 49 5e b8 bd
       0.05930162 -0.03104677 -0.08093717 -0.090023585
0003e0 5c c8 8a bd f3 ee 0f 3d 76 0e 65 bd 9f 8b 0d bd
       -0.06776497 0.03513999 -0.055921994 -0.03455698
0003f0 1b 1f 3c bd 20 63 4a 3d b8 bb 2a 3d 13 76 e0 bc
       -0.045928102 0.04941094 0.04168293 -0.027400052

res1b.conv1.bias f4 [16]
000000 b5 c0 11 bd 20 21 88 bd fc 37 a5 3d a1 0e a0 3d
       -0.03558417 -0.06646943 0.08067319 0.0781529
000010 7d d9 d0 bd 97 e1 a9 bd c3 66 b0 3c 2c cd 1c bd
       -0.101977326 -0.08294981 0.021533376 -0.038281605
000020 34 f5 b2 3b 06 56 df bd d8 44 3f bd 03 b9 59 bd
       0.0054613594 -0.109050795 -0.046696514 -0.053154957
000030 be 68 28 3d e5 42 29 3d b4 dc f7 bc c1 f3 5c 3d
       0.041115515 0.04132356 -0.030256607 0.0539434

res1b.conv2.weight f4 [16, 16, 3, 3]
000000 9a 3f b6 bd a2 57 4f 3d 0c d0 28 bd 0b 38 35 bd
       -0.0889885 0.050620683 -0.041214034 -0.0442429
000010 e3 f6 3f 3d 46 ce ca 3d 1a 9b c0 3c 82 2a 02 be
       0.04686631 0.09902625 0.023511458 -0.12711528
000020 07 0a 1b 3c 1e a4 ad 3d fe 35 b1 bd 50 0e 38 3d
       0.00946284 0.084785685 -0.08652876 0.044935524
000030 63 11 a0 bb 14 fc 16 3d d5 47 72 bd 7a 17 c4 bd
       -0.004884885 0.036861494 -0.059150536 -0.0957479
000040 00 63 44 bd 0e 01 8e 3c 94 b1 90 bd 3c a1 75 3d
       -0.047945976 0.017334487 -0.0706512 0.05996822
000050 40 00 d1 bd 17 be 5e bd 7f c1 8f 3c 30 5c 02 3e
       -0.10205126 -0.054380503 0.01754832 0.12730479
000060 83 63 3b 3d 73 20 29 bd 6e 74 9b 3d 95 ba 6a 3d
       0.0457492 -0.04129071 0.075905666 0.057306845
000070 cb 24 d1 bb 80 58 9f 3d 00 1f 8e bd e8 15 c9 3b
       -0.00638256 0.07780552 -0.069395065 0.0061366446
000080 11 06 f8 3c e4 f7 a5 3d c8 48 ab 3d 83 66 a4 3c
       0.03027633 0.08103922 0.08363491 0.020068413
000090 e2 d8 75 bd 4f 8e ba bc 08 e8 cf bc 10 e5 87 bc
       -0.06002129 -0.022772936 -0.025379196 -0.016588718
0000a0 8e 95 17 3c da 26 ac bd b4 1e 16 3d c4 1c 30 3e
       0.009251965 -0.08405848 0.036650375 0.17198473
0000b0 73 ac 9b 3c de 5a 87 3d a0 05 1a bd 80 98 d7 bc
       0.019003129 0.066091284 -0.03760302 -0.026317835
0000c0 e4 b1 09 3d 94 f4 cd 3c 72 29 46 3e b5 c6 59 bd
       0.033616915 0.025141038 0.19351748 -0.053168017
0000d0 7c 2a d5 bd 33 25 be 3d d2 db 04 3e b3 6b 69 3d
       -0.10408494 0.09284439 0.1297448 0.056987476
0000e0 8f a3 25 3e 62 ba 9b bd d7 47 80 3d 3b 5e c8 3d
       0.16175674 -0.07603909 0.06263702 0.09783598
0000f0 e6 98 f7 3c 60 1e e7 bc ac 38 bb bd 00 4f 22 bd
       0.030224275 -0.028212726 -0.09141669 -0.03962612
000100 5e a7 74 3d 2c 17 f3 bd 65 38 65 3d 8e e5 46 bd
       0.059729926 -0.11869654 0.055961985 -0.048558764
000110 0c 29 01 3c d6 b6 5e 3d 91 60 10 bc dc d3 11 be
       0.0078833215 0.054373585 -0.008812086 -0.14240974
000120 ed e7 64 bd 1d a7 0e be b4 ed f0 3a e8 20 38 bd
       -0.055885244 -0.13930936 0.0018381388 -0.044953257
000130 cb 2a 1e 3d 40 1e f3 3d 24 00 21 bd 69 16 23 3d
       0.03861503 0.11871004 -0.039306775 0.039816294
000140 21 52 cd 3c be 52 e0 bd 60 cb 50 bd 0d 31 2a bd
       0.025063576 -0.10953282 -0.050975204 -0.041550685
000150 53 b5 13 bd b2 ff 0e 3e 5a 19 1c bd 57 85 e8 bd
       -0.036061596 0.13964728 -0.038110115 -0.113535576
000160 14 a0 9a 3d 13 a0 4d 3b 6c d0 cb bc 4f 2a 05 bd
       0.07550064 0.003137593 -0.024879657 -0.03251105
000170 5d 14 ff 3b 07 24 e8 bd 20 d7 fd 3a 0e 9e 05 be
       0.00778441 -0.11334997 0.001936648 -0.13048574
000180 b9 8b c6 3d 72 be 98 3d 80 0d 82 3c 6a d3 0d 3e
       0.09694619 0.074581996 0.015875578 0.1385018
000190 98 b2 7b bd 24 fe 59 3d dc a8 67 3d 93 67 8d 3b
       -0.061449617 0.053220883 0.05655752 0.0043153255
0001a0 34 b6 63 bd 52 70 9b 3d 78 0a 60 bd 59 51 6d 3d
       -0.055593684 0.07589783 -0.054697484 0.057938907
0001b0 26 1c 18 3d 06 97 a2 bd e2 69 6a 3d 84 c6 bb bd
       0.03713622 -0.07938962 0.057229884 -0.09168723
0001c0 18 d1 a1 3c 5b 02 8d bc 96 19 5c bc 3a 9e 1a bd
       0.019753024 -0.017213037 -0.013433835 -0.037748553
0001d0 14 56 f9 3c 90 76 84 ba fd 64 5b 3d bb 3f d3 3d
       0.030436553 -0.0010106135 0.053563107 0.1031489
0001e0 62 b6 83 bd 2f 4b 40 3d fd c7 8f bd 46 4b 21 bd
       -0.06431271 0.0469467 -0.070205666 -0.039378427
0001f0 ea 05 17 bd 30 dd 5c bd 88 1f 84 bd 3c 4c 0d bd
       -0.036870874 -0.05392188 -0.064513266 -0.03449653
000200 89 a0 08 3d 80 ae 5b 3d 03 b3 44 3d c5 47 db bd
       0.033356223 0.053633213 0.04802228 -0.10707048
000210 34 fc 1d 3d 0a 57 84 bd 91 48 90 bd 41 84 1e 3d
       0.038570598 -0.06461914 -0.07045091 0.038700346
000220 d0 02 15 be 71 bb b1 3b f0 ad 44 bc a0 b0 92 bd
       -0.14551854 0.005423956 -0.012004361 -0.07162595
000230 f2 9b e9 3d c9 61 90 3d 4a 20 a9 3d 8d c2 b0 bb
       0.11406697 0.07049901 0.08258112 -0.005394286
000240 a3 cf 94 bd 5a 0e 41 3d ef 2b 43 bc e2 42 99 3d
       -0.07266166 0.047132827 -0.01191233 0.0748346
000250 62 4c 1b 3e 7d c6 8c bd 80 53 2f bd b3 b4 1b be
       0.15165856 -0.06873796 -0.04280424 -0.1520565
000260 df af f4 3c 30 a0 40 3d 6b f3 2d bd b2 31 96 3d
       0.029869018 0.047027767 -0.04246847 0.073336974
000270 18 e2 87 bd 56 c4 82 ba 2f 23 0b 3d d6 95 6e 3b
       -0.06634921 -0.0009976726 0.0339691 0.0036405227
000280 ea ba 3d bd c5 02 54 ba 4b 78 29 bc b6 d4 95 bd
       -0.046320833 -0.0008087571 -0.0103436215 -0.07315962
000290 33 84 d5 3d e2 e2 11 3d 1e 75 77 3b 45 e4 e6 3d
       0.104256056 0.035616763 0.0037759016 0.11274008
0002a0 e8 7e be bc e4 f0 16 be d0 7e 16 be fe 52 82 bd
       -0.023253873 -0.1474033 -0.14696813 -0.06363486
0002b0 f0 82 42 bd 16 62 86 bb 45 64 3f bd 86 39 59 bd
       -0.047488153 -0.004101048 -0.046726484 -0.053033374
0002c0 f4 b8 a8 3d 63 ad 0f 3d 07 d9 77 bc 3f 50 a9 3d
       0.08238402 0.035077464 -0.015127427 0.08267259
0002d0 b3 e1 86 bd 34 94 b4 39 56 4a 9f bd a7 0c 80 3d
       -0.065860175 0.00034442695 -0.0777785 0.06252413
0002e0 e1 74 5a bd 92 11 55 3d af 1a cb 3d b3 83 ed bd
       -0.05333412 0.05201871 0.09917199 -0.11597385
0002f0 82 36 6a 3c 4d 29 65 3d a2 4b ab bd a2 fb 2f bd
       0.014295222 0.05594759 -0.08364035 -0.042964585
000300 3f 01 f1 3d c8 86 b2 bd f5 d4 58 bd 41 ae 0d 3e
       0.11767816 -0.08717114 -0.052937467 0.13836004
000310 0c 12 90 bd 63 3e 7e 3b 89 61 64 bc 62 bc cf 3b
       -0.07034692 0.003879451 -0.01393927 0.0063395957
000320 c6 c0 8f 3c ea 31 f2 3d 65 f9 8f 3c 73 d2 05 be
       0.017547976 0.118259266 0.017574975 -0.13068561
000330 0c 16 bc bc ea 6d f8 bd 65 2c 4d 3e be 50 22 bd
       -0.022959732 -0.121303394 0.20036466 -0.039627783
000340 69 e5 7d bc 68 ef 10 bd 8e b3 88 3d 9a 5a ce bc
       -0.01549659 -0.035384566 0.06674872 -0.025189687
000350 6c 5a 43 3d a2 f8 96 3d ff fa da bd 65 37 d4 3d
       0.047693655 0.07371642 -0.10692405 0.10362128
000360 1c 0d 9b bd 39 5d a6 3d 14 16 41 bd 21 d0 60 bd
       -0.0757086 0.081232496 -0.047140196 -0.054885987
000370 d9 b1 bd 3b 24 4a 73 3d b9 6f da bd 95 aa 1e bd
       0.0057890234 0.059396878 -0.10665841 -0.0387369
000380 c3 73 7b 3d 9d c4 21 bc b1 29 df bd 35 94 84 3c
       0.061389696 -0.009873536 -0.10896624 0.016183952
000390 1b 03 11 3d 7a 53 62 bd b3 30 11 3d c0 fe 0d 3e
       0.035403352 -0.05525539 0.035446834 0.1386671
0003a0 ca 32 8f bd 25 79 84 bd d9 43 cd 3d e9 d7 9d 3d
       -0.06992109 -0.06468419 0.100227065 0.07707197
0003b0 85 1f 8f bd c6 af 30 be e8 f1 b6 bd 4b d2 f9 3d
       -0.06988434 -0.17254552 -0.08932859 0.12198313
0003c0 49 d3 a1 bd b0 f8 03 3e f2 78 80 3d f3 33 22 bd
       -0.079016276 0.12887836 0.062730685 -0.039600324
0003d0 97 8c fa bb e5 e9 3a 3d 3c fc b4 bd 60 6e b8 3d
       -0.007646154 0.045633215 -0.088371724 0.09005427
0003e0 91 4a 1f 3c c8 17 8b bd 47 e7 ef bd 8f 20 80 3b
       0.009722368 -0.06791645 -0.117140345 0.0039101313
0003f0 b7 9e 30 3e 46 75 8a bd 1b 6d b7 3c f5 68 a7 3c
       0.17248045 -0.067606494 0.022390893 0.02043579

res1b.conv2.bias f4 [16]
000000 1d 40 1c 3c 90 86 e2 3a 01 32 8f bd 3c ba 02 3d
       0.00953677 0.0017282534 -0.06991959 0.03191589
000010 8d 9e 95 b7 7c 81 0f 3d 78 56 e5 3c af 2e 48 3d
       -1.7836015e-05 0.035035595 0.027995333 0.048872646
000020 e0 3c 08 bd a4 58 e9 3c 97 4e 0b bc c7 7e 35 3d
       -0.03326118 0.02848465 -0.008502624 0.044310357
000030 74 b1 e3 3b 1c 86 f3 bc b2 11 85 3b de bb e8 3c
       0.0069486443 -0.029727034 0.0040609473 0.028409895

conv2.weight f4 [32, 16, 3, 3]
000000 39 64 8e 3d a3 d8 14 3c 71 94 82 bc 48 26 09 bd
       0.0695271 0.009084853 -0.015939923 -0.033483773
000010 14 f1 69 bd be 08 0f be a2 46 34 bd 0a 70 94 bd
       -0.057114676 -0.13968179 -0.044012673 -0.07247932
000020 0e f5 02 3c 62 48 a2 bd ff 57 d4 bc 0a f7 e0 3d
       0.007992996 -0.07923962 -0.025920866 0.10984619
000030 f7 85 1c 3c 95 e8 d1 bd bd f6 c8 bd a8 30 25 3d
       0.009553424 -0.102494396 -0.098126866 0.040329605
000040 9c ed 44 bd 41 6c 71 3d 26 ed 70 3e 62 98 b6 3d
       -0.048078164 0.05894113 0.23527965 0.089157835
000050 71 12 cf bd 44 a6 f6 3c 59 8b 9f bd 91 87 fd bd
       -0.10110939 0.030108579 -0.0779025 -0.12379373
000060 17 ad 3f 3d 59 65 a6 bc a6 b3 20 3e 19 11 17 bd
       0.04679593 -0.020311998 0.1569353 -0.03688154
000070 4b 00 90 bb d3 9f d2 bd ad f9 d1 bd c2 10 8b bd
       -0.004394566 -0.1028439 -0.102527 -0.06790306
000080 c8 3a 53 bd 63 83 57 be 58 e3 d0 bc 4e bc 6b bd
       -0.05156973 -0.21046214 -0.025499031 -0.05755263
000090 07 77 66 bd 28 49 d0 bd d1 bc 29 be aa a1 67 3c
       -0.056265857 -0.101702034 -0.16575934 0.014137665
0000a0 74 df cd bd 4f de ca b9 66 ea c6 bd 65 60 aa bc
       -0.10052386 -0.00038694075 -0.09712677 -0.020797918
0000b0 9e 80 79 bd ce 3b a1 bd e2 5a 4f bd 0e ac e0 3d
       -0.060913675 -0.07872735 -0.050623782 0.10970317
0000c0 51 38 72 3d 31 d7 55 bd 05 9f cf 3d 81 c2 3b bd
       0.05913574 -0.052207176 0.101377524 -0.04583979
0000d0 a3 e5 c7 3d f4 3b de bd 3a 72 9c 3c d7 66 76 be
       0.097605966 -0.10851279 0.019097436 -0.24062668
0000e0 5e ee ae bc ae 01 d0 3c 65 f1 97 bc d4 64 3a 3d
       -0.021353897 0.025391426 -0.018547723 0.045506313
0000f0 e3 30 fa 3c ce cb c2 3d 96 b5 14 bd af 7f db 3c
       0.03054089 0.09511529 -0.036305986 0.026794283
000100 89 c8 e8 3d 38 fb da bd 3e d9 1d bd 75 a0 ba bb
       0.11366374 -0.106924474 -0.038537256 -0.0056953975
000110 84 a5 19 be a1 c5 d5 bc 6e f7 4f 3d 74 ad e0 3d
       -0.15004545 -0.026095213 0.050773077 0.109705836
000120 9a 7a 1b 3b a2 71 31 be 48 23 69 bc bd 4b 1e 3d
       0.00237242 -0.17328504 -0.014229603 0.03864645
000130 a0 a2 91 3b ec 02 f1 3d 79 24 8d bd 24 70 15 bc
       0.0044444352 0.117681354 -0.06891722 -0.009120975
000140 fe 94 7e bd 23 13 05 be 63 3d 2a bc 57 b2 d4 3c
       -0.06215381 -0.12995581 -0.010390612 0.025963945
000150 cc ed bd bc cc 09 cb 3c 26 dc 98 3d 56 89 bc bd
       -0.02318468 0.024784945 0.07463865 -0.09205882
000160 d8 87 aa bd 1c e8 ae bd 25 6b 71 3c 23 75 3f bd
       -0.083266914 -0.08540365 0.014735018 -0.04674257
000170 b7 c0 0f 3d 90 ec 29 bc 18 67 02 be 7b e4 8a bc
       0.035095897 -0.010371342 -0.1273464 -0.016954651
000180 f7 26 40 bd 0e ab 2b be 5a c2 7e bc ef 38 09 bd
       -0.04691216 -0.16764471 -0.015549267 -0.03350156
000190 78 35 10 be 21 4f 09 3d 37 66 d2 bb 18 80 b7 bc
       -0.14082897 0.03352273 -0.0064208764 -0.022399947
0001a0 7c d3 29 3d 3e e8 63 3c f1 10 f6 3d 8b da 21 bd
       0.041461453 0.013910351 0.1201495 -0.03951506
0001b0 5f 94 83 3b e5 8e 30 bd 39 e3 b2 bd aa a4 6c 3d
       0.00401549 -0.043105025 -0.087347455 0.057774223
0001c0 e3 6e ee 3c ba 73 af 3c fa a2 f4 bd bf 05 11 3d
       0.02910561 0.021417487 -0.11945148 0.03540587
0001d0 6a 44 af bc 84 9e c1 bd 8c 5c 51 3c e3 96 00 be
       -0.021394927 -0.094540626 0.012778413 -0.12557559
0001e0 6f 9f e2 3c 8f 3f 37 3c 02 4b 91 3d a5 a9 83 bd
       0.027663914 0.011184587 0.07094385 -0.064288415
0001f0 17 76 ed bc 22 9f 7d 3c d0 ac 88 bd 0c aa bf bb
       -0.028986974 0.015479835 -0.06673586 -0.0058491286
000200 aa 10 1f 3d 76 42 24 bb cc 2c d8 bc 78 4b 2d be
       0.03883425 -0.0025064028 -0.026388548 -0.1692332
000210 d0 06 cc bd c6 a3 60 bd d4 6e 2e 3c f2 54 be bc
       -0.09962237 -0.054843687 0.010646541 -0.023233864
000220 df ed a1 bd 80 f4 aa bd 80 a5 03 be ac ec 47 3d
       -0.079066984 -0.08347416 -0.12856102 0.048809692
000230 8f 01 9a 3b ef 29 9e 3d 0f f7 b8 3d 7d 9a 9a bc
       0.004699893 0.07722842 0.09031498 -0.018872494
000240 cc dd dd bc bc 34 a2 3d c5 7d d6 3d 87 ce cc bd
       -0.0270833 0.079202145 0.104732074 -0.100003295
000250 ca 06 86 bd 1a bd 39 bc 76 f1 91 3d 2a d7 ea 3d
       -0.06544264 -0.011336589 0.07126133 0.114668205
000260 21 ec da 3c a2 19 99 3d 16 d3 a4 bd d4 aa b0 bc
       0.026723923 0.07475592 -0.08048074 -0.021565832
000270 ab 82 66 3d 89 35 77 3d 86 b0 a1 bc 15 43 84 bd
       0.05627696 0.06035379 -0.019737493 -0.064581074
000280 94 75 80 3b 57 5d 9b bc 58 75 75 3d 30 a4 9d 3d
       0.0039202664 -0.018965406 0.05992636 0.07697332
000290 df e9 a2 3d 1d 24 c6 3d c3 b2 0b 3d 19 dd 2e 3d
       0.079547636 0.09674857 0.034106027 0.042691324
0002a0 f6 8e 38 3e b8 1d 4c 3d 63 65 14 bd 1f 0e 0d be
       0.18023285 0.04983303 -0.036229502 -0.13774918
0002b0 58 f7 42 bd 60 09 61 3c be 00 a3 bd 72 ec 4c bd
       -0.047599167 0.013735145 -0.07959126 -0.05003018
0002c0 1b 04 20 be 3d 08 26 bd 3b be 09 3c c9 3e 79 bd
       -0.15626566 -0.0405352 0.008407171 -0.060850892
0002d0 30 78 0c be 3a 49 07 bd 4c a1 b3 3b bc 3d 24 3b
       -0.13717723 -0.03302882 0.0054818746 0.002506121
0002e0 45 3e ca bb 40 9b 36 bc f0 f8 2a 3d 8c 29 7a bd
       -0.006171974 -0.011145413 0.04174131 -0.06107478
0002f0 72 6e b3 3d 22 ee 26 3d 3e eb 85 bc 9f 06 68 bd
       0.087613 0.040754445 -0.016347524 -0.05664694
000300 ff 69 39 bd 28 d8 38 bd fa a7 a4 3c 45 00 1a be
       -0.0452671 -0.045128018 0.020099629 -0.15039165
000310 13 b9 35 3c 86 fa 74 3c 05 20 d2 3d 0d c3 0a bd
       0.011091488 0.014952308 0.102600135 -0.03387742
000320 47 e5 92 bd 9d c9 46 bd b1 1a a6 bd 2c 17 41 3c
       -0.071726374 -0.048532117 -0.0811056 0.01178531
000330 93 ec 54 bd f5 0c 19 ba fa 93 54 3d 58 f1 2f bd
       -0.051983427 -0.00058384176 0.051898934 -0.042954773
000340 69 30 73 bd 9b 45 47 bd 01 cf ce bd a3 67 0d bd
       -0.05937234 -0.048650365 -0.100980766 -0.034522664
000350 e0 6c e8 bd 3c 1b 4a bd ce 2c 17 3e be 54 56 be
       -0.11348891 -0.04934238 0.14763185 -0.20930764
000360 1a 2e 1e 3d 50 93 b1 bd bf 52 8e bd 81 bc f5 3d
       0.038618185 -0.08670676 -0.06949376 0.11998845
000370 c2 bf b7 bc 54 82 91 bc 1e 01 19 bd 9a 45 fd bb
       -0.022430304 -0.01776234 -0.03735458 -0.0077292444
000380 0d 9f 94 bc 65 9d cd 3c b7 1c 01 be da 44 10 be
       -0.018142248 0.025099466 -0.1260861 -0.14088765
000390 46 4f bc 3d 45 99 1a 3d 10 a9 20 3c 0b ee 98 bc
       0.09194808 0.037743825 0.009805933 -0.018668195
0003a0 b4 73 ad bd bb d4 64 3d d2 1e 25 3d c0 17 ac bc
       -0.08469334 0.055866938 0.040312596 -0.021007419
0003b0 2b 50 d5 bc 92 95 9b 3d e8 76 0a 3e 01 3b 91 bd
       -0.026039204 0.07596888 0.13521922 -0.07091332
0003c0 fc b2 8d 3c 74 99 8f bc 43 e4 b1 bd eb 91 e8 bd
       0.01729726 -0.017529227 -0.086861156 -0.11355957
0003d0 ef 39 b9 bd 2a d2 f5 3d 86 43 9e bd fb 1d 72 be
       -0.09044253 0.12002976 -0.07727723 -0.23644249
0003e0 3e 1d b0 3d 59 94 d5 bd 12 2f 2c 3c 75 c8 ce 3d
       0.085993275 -0.10428686 0.010509269 0.10096828
0003f0 f5 37 cd 3d 7d 77 50 3d fd c3 db 3c a5 5d c2 3d
       0.100204386 0.050895203 0.026826853 0.094905175

conv2.bias f4 [32]
000000 a3 56 29 3d 58 58 ec 3c 92 d4 1b bc fb 9f 83 bd
       0.04134239 0.02885072 -0.00951113 -0.06426998
000010 81 6e 52 bc f3 ff 67 bd 99 29 93 bc 6f 78 51 bd
       -0.012843729 -0.056640577 -0.017964171 -0.051140245
000020 5f a9 06 bd e7 43 92 bc 26 2e 1b bd 7b 1e c3 3b
       -0.03287637 -0.017854644 -0.037885807 0.0059545613
000030 9c 6f f0 bb 6c 6e 89 3c e3 50 56 bd 30 42 54 bd
       -0.0073375236 0.016776286 -0.052323233 -0.051820934
000040 e2 0e 71 bd be 6a 5c bb c1 f8 58 bc 17 cc 25 3c
       -0.058852084 -0.003363296 -0.013242901 0.01011946
000050 5b 6a 31 bd 10 57 52 bc 47 92 b6 bd 9a c7 1d bc
       -0.04331432 -0.01283814 -0.08914619 -0.009630108
000060 84 d3 3f bd 80 1e 67 bd 60 1c a9 bd b9 d2 a2 3b
       -0.046832576 -0.05642557 -0.08257365 0.0049689678
000070 8a 29 7e bd 6e 43 c5 bd 83 52 ef bc 4f f4 8a bd
       -0.062051333 -0.09632002 -0.02921415 -0.067848794
