checkpoints/ppo_academy_run_to_score.pth (torch, 718750 bytes, 45 tensors)

conv1.weight f4 [16, 16, 3, 3]
-0.059612587 0.022996577 -0.049885042 0.06377659 0.08656284 0.11849119 0.029822716 0.015201338
0.020908572 0.03767894 -0.011734887 0.076698124 -0.080490984 -0.059743524 0.022031542 -0.10920524
-0.0043303487 -0.064634286 0.13199969 0.06988567 0.15791233 0.018741643 0.10850977 0.12438532
0.057604376 0.019155875 0.094271086 0.025811912 0.11831069 0.027829567 -0.06295632 0.030158069
0.032695983 0.048997182 0.1793411 0.06161237 -0.028726546 -0.020947993 0.006019066 0.004914286
0.0896984 0.036408134 -0.016605133 -0.009754265 0.027419752 0.0050260318 -0.014444922 0.055700205
-0.04787938 -0.05112538 -0.08264913 -0.0066364175 -0.006437603 -0.028219042 0.06255 0.0815781
0.054442372 0.03581525 0.009324512 -0.029699165 0.022090219 0.086472236 -0.0007810824 0.092279494
0.09790312 -0.116310984 0.013603261 0.0531279 0.04458351 -0.043659534 0.11718988 0.0066185477
0.00065834983 0.07352802 -0.058059484 -0.022216955 -0.008094546 -0.062794134 -0.10249842 0.10166878
0.039085113 0.0075447336 -0.1337214 0.08440213 0.01657182 -0.09469299 -0.021734903 -0.036181904
0.046857983 -0.028368464 0.052084338 0.16787645 -0.00719553 -0.0070058503 0.01079052 0.06369857
0.021663206 0.0986803 0.030932132 0.13938154 0.16128404 -0.03755873 0.0022717055 0.11217847
0.009313041 -0.014494445 0.025844296 0.14515784 -0.069464944 -0.058166925 0.014239827 0.05037885
0.09073325 0.014004187 0.038771503 -0.014849928 0.0008066764 -0.14112058 0.06094561 0.009695804
-0.1659212 -0.020684969 0.022559758 -0.058826722 -0.059386034 0.07724284 0.058759406 0.14819488
0.07960767 -0.028263627 -0.012218881 0.121176705 0.048808116 -0.20798883 0.14813589 -0.104786165
-0.017681353 -0.025721418 0.045867413 0.10197421 -0.013858586 -0.06372088 0.17346893 0.025199993
-0.0034663181 0.029018909 0.10289741 0.042378593 0.06623269 -0.00575803 0.015061961 0.074491315
-0.055238817 -0.07636252 -0.05293581 -0.085912436 0.0319396 -0.06711546 -0.1216658 0.020386092
-0.07992497 0.099079795 -0.09443326 -0.20599625 0.019388003 -0.119180866 -0.07860117 -0.17947172
0.029666273 0.06676636 0.13422336 0.065239675 -0.18622334 0.039880037 0.054025903 0.090360396
0.017398197 0.06491575 0.01285978 -0.04739357 -0.027880566 -0.06977647 0.07872643 0.00665757
0.14255401 0.038929224 -0.1593719 0.08265339 -0.0152310645 0.031659197 -0.17244175 -0.12166756
0.04675101 0.0060927793 -0.13844517 -0.0032171512 -0.080596045 0.058193665 -0.25694272 0.1627991
-0.050780285 -0.12265311 -0.15904245 -0.17737599 -0.10711388 -0.06818135 -0.024195934 -0.072007895
-0.09734087 0.040080164 0.037394058 -0.020428807 0.033812795 -0.16469501 0.028011028 -0.11356679
-0.043921053 -0.045107566 0.040504437 -0.056728516 -0.02823562 0.067506425 0.0059521077 -0.15966998
-0.02524368 0.010256422 0.03843148 -0.19683884 -0.07967202 0.009937286 0.0047362214 -0.06774184
-0.08201026 0.08368927 -0.11597479 -0.2569296 0.030115128 0.16147071 -0.112752885 -0.20226152
-0.06683207 -0.11892306 0.07744467 0.108051315 -0.07728163 -0.08662222 0.068068795 -0.0014158097
0.04137734 -0.012299058 -0.101345465 -0.13777508 -0.09483107 0.03457039 0.030103859 -0.096605584
00000000: 542c 74bd 5163 bc3c 4254 4cbd 4d9d 823d
00000010: dc47 b13d 82ab f23d c54e f43c 080f 793c
00000020: 7448 ab3c 3b55 1a3d af43 40bc e813 9d3d
00000030: 75d8 a4bd a0b5 74bd 7e7b b43c ffa6 dfbd
00000040: 99e5 8dbb fb5e 84bd ed2a 073e 3820 8f3d
00000050: c5b3 213e 1388 993c 5f3a de3d bbbd fe3d
00000060: 91f2 6b3d c8ec 9c3c 3311 c13d 8173 d33c
00000070: e04c f23d d5fa e33c 3eef 80bd 0e0e f73c
00000080: 39ec 053d 45b1 483d 31a5 373e 415d 7c3d
00000090: ef53 ebbc 209b abbc 963b c53b 0508 a13b
000000a0: cbb3 b73d b220 153d 7d07 88bc 5ad0 1fbc
000000b0: 639f e03c 69b1 a43b 65aa 6cbc e625 643d
000000c0: 2b1d 44bd d968 51bd f243 a9bd 4e76 d9bb
000000d0: 87f2 d2bb 9f2b e7bc 371a 803d 6b12 a73d
000000e0: f7fe 5e3d 03b3 123d d7c5 183c aa4b f3bc
000000f0: 8cf6 b43c 5b18 b13d 8dc1 4cba 08fd bc3d
00000100: 6e81 c83d 7434 eebd 36e0 5e3c a49c 593d
00000110: 339d 363d 57d4 32bd 3f01 f03d 67e0 d83b
00000120: 1c95 2c3a dc95 963d c8cf 6dbd 5500 b6bc
00000130: fd9e 04bc 369a 80bd b1ea d1bd b937 d03d
00000140: b617 203d d039 f73b 43ee 08be 06db ac3d
00000150: a0c1 873c 66ee c1bd 650d b2bc 7a33 14bd
00000160: 28ee 3f3d fb64 e8bc 6356 553d cee7 2b3e
00000170: 7bc8 ebbb 5591 e5bb b9ca 303c 6574 823d
00000180: 0977 b13c e618 ca3d 6265 fd3c 09ba 0e3e
00000190: a527 253e 2fd7 19bd e5e0 143b d3bd e53d
000001a0: ba95 183c 1c7a 6dbc 6bb7 d33c 42a4 143e
000001b0: a343 8ebd 7140 6ebd 2a4e 693c 0e5a 4e3d
000001c0: 5bd2 b93d d171 653c dece 1e3d 1d4d 73bc
000001d0: 2377 533a ea81 10be 1ba2 793d 26db 1e3c
000001e0: 3fe7 29be 8673 a9bc 3ecf b83c 4af4 70bd
000001f0: c53e 73bd 7e31 9e3d b4ad 703d 66c0 173e
00000200: 5909 a33d 1f89 e7bc b431 48bc 7e2b f83d
00000210: 05eb 473d 06fb 54be efb0 173e 219a d6bd
00000220: 7cd8 90bc b9b5 d2bc 78df 3b3d dbd7 d03d
00000230: 1f0f 63bc 1880 82bd d7a1 313e 3770 ce3c
00000240: 2b2b 63bb 10b9 ed3c e1bb d23d 2d95 2d3d
00000250: 01a5 873d dbad bcbb 71c6 763c e78e 983d
00000260: 1942 62bd f463 9cbd 38d3 58bd dcf2 afbd
00000270: 19d3 023d d573 89bd eb2b f9bd bc00 a73c
00000280: b4af a3bd 59ea ca3d 3a66 c1bd aef0 52be
00000290: 97d3 9e3c 1915 f4bd a6f9 a0bd 6fc7 37be
000002a0: af06 f33c cdbc 883d d971 093e 619c 853d
000002b0: 55b1 3ebe 4059 233d 444a 5d3d df0e b93d
000002c0: aa86 8e3c 8cf2 843d d4b1 523c c31f 42bd
000002d0: c965 e4bc f7e6 8ebd 533b a13d bf27 da3b
000002e0: aef9 113e 4074 1f3d 6332 23be 2e46 a93d
000002f0: b78b 79bc 13ad 013d 9294 30be d72c f9bd
00000300: fd7d 3f3d f0a5 c73b 92c4 0dbe d7d6 52bb
00000310: 8a0f a5bd 7b5c 6e3d ff8d 83be cfb4 263e
00000320: fdfe 4fbd 8e31 fbbd 06dc 22be 0da2 35be
00000330: 865e dbbd aaa2 8bbd 8d36 c6bc e078 93bd
00000340: a65a c7bd 192b 243d 832a 193d 505a a7bc
00000350: 497f 0a3d cfa5 28be 6277 e53c b595 e8bd
00000360: 90e6 33bd b6c2 38bd fbe7 253d 295c 68bd
00000370: 634e e7bc cf40 8a3d e609 c33b 8780 23be
00000380: d6cb cebc 8d0a 283c 546a 1d3d 1f90 49be
00000390: 162b a3bd 00d0 223c 4e32 9b3b 3cbc 8abd
000003a0: fff4 a7bd 4865 ab3d 3184 edbd 478c 83be
000003b0: 00b4 f63c 9458 253e fcea e6bd a51d 4fbe
000003c0: 41df 88bd ef8d f3bd 509b 9e3d 024a dd3d
000003d0: d545 9ebd fe66 b1bd a767 8b3d b192 b9ba
000003e0: 497b 293d fd81 49bc 368e cfbd e914 0dbe
000003f0: cb36 c2bd ae99 0d3d 5e9c f63c 26d9 c5bd

conv1.bias f4 [16]
0.027800288 0.04563788 -0.018113654 -0.07972531 -0.005688625 0.0418012 0.03691584 0.023415921
0.025632963 -0.0069214604 0.013776977 -0.02708164 -0.012074334 0.013023957 0.047614366 -0.052907906
00000000: 6ebd e33c c9ee 3a3d 1663 94bc 0647 a3bd
00000010: a567 babb bc37 2b3d 1035 173d bfd2 bf3c
00000020: 38fc d13c 6bcd e2bb d4b8 613c 51da ddbc
00000030: 6dd3 45bc 6f62 553c 4807 433d f6b5 58bd

res1a.conv1.weight f4 [16, 16, 3, 3]
0.0012190157 0.06564882 0.031860024 0.06954385 0.021178016 -0.05864342 0.102859505 0.07175678
-0.05373351 -0.12278268 0.0049417904 -0.08602094 -0.071240544 -0.047838714 0.020178687 -0.10263897
0.04079351 0.0805025 -0.012352088 0.07488412 -0.018128991 0.050468363 0.034855437 -0.009297797
-0.02597522 0.017333992 -0.058682475 -0.10637567 0.045229375 0.06274681 -0.039748676 0.06057741
0.0019259367 0.07539296 0.093897626 0.0460543 0.015077819 0.033853218 0.02770046 -0.038367193
-0.068324186 -0.022277357 -0.021622563 -0.032515865 0.0027330318 0.012645702 0.058298595 -0.09083632
0.036232762 -0.0006700466 0.01712432 0.00033740466 -0.07554318 -0.12228586 -0.018915737 0.052592263
-0.03125374 -0.09101245 -0.071845256 -0.041284256 -0.03897721 -0.012926951 0.011568575 0.03743032
0.07710213 -0.055023532 0.05519579 -0.08900697 -0.077300824 0.07276438 0.023123132 -0.042426378
-0.039997455 -0.06970227 0.036158785 0.023529591 0.015474113 -0.030029261 -0.049500935 -0.10619719
0.003684226 0.09124457 0.10222374 0.021248747 0.08018494 0.08449372 -0.0003857362 0.0013261981
0.11140174 0.12954272 -0.006472403 0.035002034 -0.0025829421 0.00243036 0.0062513608 0.05318841
0.02705522 0.07434986 -0.045961346 -0.03531637 -0.048464198 0.08110551 0.017518567 -0.10670382
-0.05125998 -0.01960259 0.015201552 0.02789417 0.09137502 0.036447473 0.09228843 0.063933894
0.08229223 0.046655416 -0.06941421 -0.025238194 0.047088306 0.030038368 0.023346864 -0.04375931
-0.071408436 0.054148223 -0.06433038 -0.0051646545 0.008097358 -0.049071036 -0.13357157 -0.021766556
-0.06906157 -0.09954488 -0.028212322 0.040431906 0.0042915526 0.050303698 -0.040657748 0.016154086
-0.026477573 0.028739305 0.00023243176 -0.042401046 0.04032341 0.053515587 0.11114001 -0.11071084
-0.06451157 0.06209219 0.035789877 -0.0750403 0.007017234 0.02852695 0.12268754 0.04662935
-0.11629004 -0.068295516 0.0411553 0.07500756 0.0014412705 0.020562835 -0.03958706 0.09945539
-0.053883035 0.0016944967 -0.048471984 -0.008947535 -0.13285464 -0.06648041 -0.0444953 0.072409414
-0.078071594 -0.07707546 -0.012293921 -0.02124987 -0.065031186 0.013062939 0.058674052 -0.04539918
0.028003236 -0.030401189 0.09006769 -0.11673942 0.06463656 -0.03308297 0.108842425 0.083548754
-0.029836616 0.07740519 0.13172637 0.029083984 -0.004102402 -0.083825625 -0.030491078 -0.05394055
-0.00675338 0.04059616 0.02610428 0.07843435 -0.086203516 0.04395262 0.035550237 -0.034337968
0.017777737 0.097572155 -0.03727341 -0.055521417 -0.08477468 0.059916947 0.061379373 -0.09400354
-0.031610947 0.009939968 0.006685405 -0.09692837 -0.025316965 -0.021368008 -0.11628413 -0.07352227
-0.05443511 0.100161 0.03305909 0.09192341 0.08022606 0.08910077 -0.024889931 0.095952086
0.08006426 -0.06671261 0.056559738 -0.044523425 0.059274297 0.05912029 0.0403175 0.03980524
-0.0981191 -0.04123007 -0.060593694 -0.046562854 -0.0022472902 -0.03546736 0.017354842 0.08831351
-0.0037027777 -0.10357336 -0.064622775 0.019105108 0.10681362 0.07718383 0.124631755 0.063055545
0.0058103716 -0.075169496 -0.1082359 -0.10140836 -0.12510441 -0.10732609 0.010031776 -0.030492125
00000000: 61c7 9f3a e372 863d a87f 023d 026d 8e3d
00000010: 857d ad3c 1534 70bd 01a8 d23d 38f5 923d
00000020: ab17 5cbd 7c75 fbbd beee a13b bf2b b0bd
00000030: 90e6 91bd 87f2 43bd c64d a53c 6134 d2bd
00000040: 1817 273d 7fde a43d 6960 4abc d85c 993d
00000050: 4083 94bc eab7 4e3d 93c4 0e3d ca55 18bc
00000060: fcc9 d4bc 0400 8e3c 095d 70bd 7ddb d9bd
00000070: 7042 393d 6681 803d 82cf 22bd 0520 783d
00000080: b66f fc3a a067 9a3d 664d c03d 6fa3 3c3d
00000090: f508 773c aca9 0a3d 13ec e23c eb26 1dbd
000000a0: 8ded 8bbd 017f b6bc cd21 b1bc 5b2f 05bd
000000b0: aa1c 333b eb2f 4f3c 82ca 6e3d 6408 babd
000000c0: ce68 143d 11a6 2fba 4d48 8c3c b0e5 b039
000000d0: 62b6 9abd 0271 fabd 2df5 9abc fc6a 573d
000000e0: ec03 00bd bc64 babd 9b23 93bd ae19 29bd
000000f0: 91a6 1fbd 90cb 53bc 1f8a 3d3c 8950 193d
00000100: b9e7 9d3d 5b60 61bd fb14 623d 4949 b6bd
00000110: e54f 9ebd 7e05 953d b96c bd3c 48c7 2dbd
00000120: 5fd4 23bd 10c0 8ebd 3c1b 143d 21c1 c03c
00000130: 2287 7d3c edff f5bc 7ec1 4abd ea7d d9bd
00000140: 0e73 713b 6fde ba3d ae5a d13d da11 ae3c
00000150: 0038 a43d 0b0b ad3d a33c cab9 d3d3 ad3a
00000160: 9826 e43d d9a6 043e 7416 d4bb 4b5e 0f3d
00000170: 9446 29bb ad46 1f3b 37d8 cc3b 17dc 593d
00000180: e9a2 dd3c bd44 983d f741 3cbd e6a7 10bd
00000190: 6582 46bd a51a a63d 1983 8f3c 8887 dabd
000001a0: fcf5 51bd 9c95 a0bc ee0f 793c 5082 e43c
000001b0: d422 bb3d f249 153d b701 bd3d c6ef 823d
000001c0: d488 a83d c019 3f3d 0a29 8ebd 54c0 cebc
000001d0: abdf 403d 0613 f63c ec41 bf3c f63c 33bd
000001e0: 963e 92bd 87ca 5d3d a5bf 83bd 433c a9bb
000001f0: c8aa 043c b6fe 48bd fcc6 08be c74f b2bc
00000200: 2770 8dbd 30de cbbd 871d e7bc ed9b 253d
00000210: 27a0 8c3b 400b 4e3d bd88 26bd 9355 843c
00000220: 7fe7 d8bc b16e eb3c edb8 7339 b8ac 2dbd
00000230: 292a 253d 2933 5b3d 609d e33d 5dbc e2bd
00000240: a41e 84bd 6154 7e3d 6898 123d bbae 99bd
00000250: d3f0 e53b 5ab1 e93c 9b43 fb3d 6bfe 3e3d
00000260: 7929 eebd 85de 8bbd 7692 283d 909d 993d
00000270: 03e9 bc3a 6473 a83c 0b26 22bd 44af cb3d
00000280: 75b4 5cbd e019 de3a 8f8a 46bd af98 12bc
00000290: 0c0b 08be e226 88bd b440 36bd 634b 943d
000002a0: 00e4 9fbd bdd9 9dbd 716c 49bc 3514 aebc
000002b0: 122f 85bd f005 563c 3454 703d 7ef4 39bd
000002c0: 0b67 e53c ea0b f9bc 6975 b83d 1415 efbd
000002d0: 2c60 843d 0282 07bd c7e8 de3d 9c1b ab3d
000002e0: eb6b f4bc 9d86 9e3d 47e3 063e 8941 ee3c
000002f0: 716d 86bb c5ac abbd 6dc8 f9bc c4f0 5cbd
00000300: 754b ddbb 2948 263d a5d8 d53c 30a2 a03d
00000310: 788b b0bd aa07 343d 209d 113d f8a5 0cbd
00000320: 9ea2 913c e9d3 c73d 01ac 18bd 6d6a 63bd
00000330: 599e adbd 796b 753d f068 7b3d ee84 c0bd
00000340: 7b7a 01bd 3fdb 223c 3e11 db3b 6282 c6bd
00000350: 8665 cfbc f60b afbc 6026 eebd d892 96bd
00000360: 5af7 5ebd 3621 cd3d f868 073d 5742 bc3d
00000370: 8f4d a43d 777a b63d f8e5 cbbc 8782 c43d
00000380: bbf8 a33d 9fa0 88bd 2fab 673d 325e 36bd
00000390: 9bc9 723d 1e28 723d f623 253d d20a 233d
000003a0: abf2 c8bd dde0 28bd 1831 78bd b1b8 3ebd
000003b0: 4647 13bb 3946 11bd be2b 8e3c b7dd b43d
000003c0: 4daa 72bb 451e d4bd f258 84bd 5182 9c3c
000003d0: 19c1 da3d 8e12 9e3d ef3e ff3d 4423 813d
000003e0: ee64 be3b 77f2 99bd c9aa ddbd 30af cfbd
000003f0: 5f1b 00be c8cd dbbd 515c 243c 9fca f9bc

res1a.conv1.bias f4 [16]
0.0331601 0.0313439 -0.03336854 0.04167749 0.0811488 -0.035833254 0.06854791 0.07967318
0.0407776 -0.08073786 -0.004729334 -0.09830189 -0.021573994 -0.04710846 0.028008576 0.03557526
00000000: e3d2 073d 7662 003d 73ad 08bd 04b6 2a3d
00000010: 5831 a63d e4c5 12bd d962 8c3d b12b a33d
00000020: 6a06 273d e459 a5bd 87f8 9abb 8052 c9bd
00000030: f2bb b0bc cdf4 40bd 3e72 e53c 5db7 113d

res1a.conv2.weight f4 [16, 16, 3, 3]
0.061401334 0.037370738 -0.011123374 -0.07651294 -0.08907538 -0.02830346 0.052081425 -0.12031873
-0.09609269 0.052883893 -0.027331382 -0.1295919 0.07604407 0.0064102425 0.010068367 -0.105215594
0.0147392135 0.017616907 0.025737569 -0.10770716 0.049576975 -0.062471043 -0.061644025 0.112865694
0.045271948 -0.069059424 0.107747 -0.090466835 0.063655965 0.022747412 0.0747946 0.05198545
0.04742743 0.0566825 -0.07361058 -0.02289277 0.059012737 0.032642055 -0.035249606 -0.0069431574
-0.061022602 0.11788335 0.07611975 -0.058422826 0.12383651 0.014959363 -0.064604096 -0.013865956
-0.07802837 0.022286355 -0.034151066 -0.08073452 -0.0036883422 -0.008161336 0.08523276 -0.018199613
0.10066339 0.055160075 0.034351528 0.05974682 0.050389323 -0.041915897 0.0015618104 -0.001201584
0.014856174 -0.0040384973 -0.06288605 0.0016300868 0.0564484 -0.082546934 -0.0015939 -0.0070294593
-0.038844995 0.051971223 -0.08940503 0.021033518 0.047969177 0.055483032 0.06623816 -0.033244483
0.08954062 -0.02383817 -0.014056496 -0.043543182 -0.03515585 0.092398904 0.0069115306 0.024596931
0.0132744005 0.056743104 -0.06526504 0.03653298 0.06616612 -0.07225151 0.08189068 -0.009207245
0.016350556 -0.009891563 0.09833064 -0.11006671 -0.09950104 0.070293926 0.11341419 0.10659876
0.09281191 0.09193499 0.02723242 0.014496918 0.0013399945 0.01583337 -0.06668729 -0.042899482
-0.019872285 0.07067129 0.08416074 0.018841859 -0.0057346527 -0.05104089 -0.05538035 0.057714526
0.019755667 -0.08542611 -0.09594052 0.017162818 -0.07534627 -0.03432461 0.06676909 0.054523576
-0.03254948 -0.05844125 -0.09234886 0.045822907 0.018231763 0.0054483255 0.09060155 -0.040223274
0.12621644 0.051398955 -0.032336883 0.10072646 0.060024995 -0.058874644 -0.07091179 0.0442577
0.021557279 -0.035834346 0.08852249 0.009453454 -0.05856179 0.05044034 0.07415332 -0.100675546
-0.021441316 0.00030929473 -0.0794548 -0.14726235 0.08629545 0.0044121463 -0.0065821814 -0.028259994
-0.0025657706 -0.029981663 -0.07923107 0.08301445 0.06675631 -0.008611758 0.06350295 0.08189794
0.03026161 -0.053269666 0.088120684 0.03955082 0.005654451 0.010549257 0.066309385 0.07046589
-0.01384436 0.018390268 -0.06136941 0.03948914 -0.026758755 0.035412416 -0.028033596 -0.027061353
0.0058635 0.068715565 0.0040218583 0.06030717 0.063366875 -0.004074782 -0.014758543 0.044171657
0.009624394 -0.052014563 0.10637058 -0.07229134 0.036708154 0.078076765 0.0011474375 -0.061790053
-0.006644231 -0.04916785 0.07614735 0.03544241 0.05725839 -0.011032015 0.07047155 0.041118324
-0.0417072 -0.0036736699 -0.053734943 0.031812496 0.09206971 -0.023727285 -0.051175192 0.012178539
-0.04158847 0.049466923 0.013946929 0.020762634 0.029970154 0.08047573 0.07621131 0.06429063
0.13172798 -0.037720695 -0.020891532 0.022346653 0.0036404298 -0.009186044 0.09678497 -0.10444854
0.065991946 0.04672969 -0.012700377 -0.04917681 0.094268456 0.060090143 0.0010808327 0.13356467
0.043668903 0.07338529 0.096119955 -0.07153515 0.0002863044 -0.06550612 0.06920274 0.09189395
0.054264426 -0.037496276 0.03994526 -0.022485832 0.0056134574 0.02015091 -0.056931477 -0.051541388
00000000: f77f 7b3d 0f12 193d d03e 36bc d1b2 9cbd
00000010: 276d b6bd a8dc e7bc 5553 553d ab69 f6bd
00000020: 3fcc c4bd c89c 583d 10e6 dfbc bdb3 04be
00000030: febc 9b3d 030d d23b cbf5 243c 467b d7bd
00000040: be7c 713c 5551 903c 98d7 d23c 9295 dcbd
00000050: 3a11 4b3d a3e1 7fbd 727e 7cbd 2126 e73d
00000060: 146f 393d 076f 8dbd 76aa dc3d ad46 b9bd
00000070: 0f5e 823d c858 ba3c e92d 993d b2ee 543d
00000080: 4443 423d e92b 683d 25c1 96bd 9e89 bbbc
00000090: 57b7 713d adb3 053d e461 10bd 6d83 e3bb
000000a0: d6f2 79bd d36c f13d ace4 9b3d c64c 6fbd
000000b0: ff9d fd3d 1e18 753c 274f 84bd 092e 63bc
000000c0: 57cd 9fbd e091 b63c fde1 0bbd 2458 a5bd
000000d0: 1db8 71bb 20b7 05bc 838e ae3d 5b17 95bc
000000e0: 9b28 ce3d 88ef 613d 30b4 0c3d 15b9 743d
000000f0: 0965 4e3d 01b0 2bbd a9b5 cc3a 787e 9dba
00000100: 4f67 733c 5f55 84bb 67ca 80bd a3a8 d53a
00000110: 7036 673d 5e0e a9bd 69ea d0ba 6157 e6bb
00000120: ee1b 1fbd c7df 543d fc19 b7bd 7c4e ac3c
00000130: 547b 443d 2d42 633d dfa7 873d 5e2b 08bd
00000140: 1361 b73d 4448 c3bc 384d 66bc 565a 32bd
00000150: 95ff 0fbd a33b bd3d 1f7a e23b 817f c93c
00000160: df7c 593c 756b 683d ada9 85bd 9ba3 153d
00000170: 1a82 873d 9af8 93bd 4db6 a73d fcd9 16bc
00000180: 9af1 853c 3910 22bc 9361 c93d a86a e1bd
00000190: 34c7 cbbd 43f6 8f3d b345 e83d 7350 da3d
000001a0: 2c14 be3d 6948 bc3d 8616 df3c 7b84 6d3c
000001b0: c1a2 af3a fcb4 813c 5993 88bd 5eb7 2fbd
000001c0: 34cb a2bc 1cbc 903d 775c ac3d 3e5a 9a3c
000001d0: c1e9 bbbb 4110 51bd 82d6 62bd 1166 6c3d
000001e0: a3d6 a13c e2f3 aebd 777c c4bd 0a99 8c3c
000001f0: 254f 9abd f697 0cbd 3cbe 883d 1d54 5f3d
00000200: 9b52 05bd 1860 6fbd 6621 bdbd cdb0 3b3d
00000210: c75a 953c de87 b23b 4e8d b93d 29c1 24bd
00000220: e23e 013e b687 523d ae73 04bd ad49 ce3d
00000230: c5dc 753d 8a26 71bd 333a 91bd 9047 353d
00000240: e498 b03c 09c7 12bd 474b b53d a9e2 1a3c
00000250: 7dde 6fbd 889a 4e3d b2dd 973d fb2e cebd
00000260: b3a5 afbc d628 a239 33b9 a2bd f1cb 16be
00000270: abbb b03d c493 903b 57af d7bb 8181 e7bc
00000280: 7d26 28bb 1b9c f5bc e643 a2bd 7b03 aa3d
00000290: 88b7 883d 5518 0dbc d60d 823d 1bba a73d
000002a0: 32e7 f73c 4b31 5abd 9e78 b43d 0a00 223d
000002b0: f948 b93b cad6 2c3c 37cd 873d 6c50 903d
000002c0: 74d3 62bc 30a7 963c 7e5e 7bbd 5dbf 213d
000002d0: 2d35 dbbc 9c0c 113d b6a6 e5bc c5af ddbc
000002e0: 9a22 c03b bfba 8c3d cbc9 833b a704 773d
000002f0: 7ec6 813d c085 85bb d1cd 71bc 57ed 343d
00000300: a2af 1d3c 390d 55bd d2d8 d93d 7b0d 94bd
00000310: 4a5b 163d b6e6 9f3d 9d65 963a 9117 7dbd
00000320: d9b7 d9bb 3a64 49bd 24f3 9b3d 0f2c 113d
00000330: c687 6a3d a0bf 34bc 6353 903d b06b 283d
00000340: 2bd5 2abd f4c1 70bb 2c19 5cbd d24d 023d
00000350: 0b8f bc3d b95f c2bc 149d 51bd 7f88 473c
00000360: ac58 2abd d49d 4a3d a981 643c 6616 aa3c
00000370: f883 f53c 76d0 a43d ad14 9c3d ceaa 833d
00000380: b3e3 063e 0481 1abd b824 abbc 5410 b73c
00000390: 4794 6e3b 1081 16bc 3337 c63d 1ee9 d5bd
000003a0: c926 873d a267 3f3d 3e15 50bc 9f6d 49bd
000003b0: d20f c13d 1521 763d baaa 8d3a 2dc5 083e
000003c0: 2ade 323d 074b 963d 8ada c43d 0581 92bd
000003d0: 201b 9639 1328 86bd 2bba 8d3d e532 bc3d
000003e0: 6044 5e3d b295 19bd a49d 233d 3534 b8bc
000003f0: 18f1 b73b 8513 a53c fb30 69bd 101d 53bd

res1a.conv2.bias f4 [16]
0.047708187 0.0101143345 -0.044795506 -0.045721825 -0.0420199 -0.027231373 -0.056277562 0.02842964
0.008877998 -0.047055855 0.06265119 -0.042510353 -0.084463 -0.015488393 0.05836507 0.008121217
00000000: a969 433d 98b6 253c 7e7b 37bd cf46 3bbd
00000010: 0f1d 2cbd 5414 dfbc 4d83 66bd 47e5 e83c
00000020: 0675 113c a4bd 40bd 444f 803d 561f 2ebd
00000030: f0fa acbd 07c3 7dbc 3610 6f3d da0e 053c

res1b.conv1.weight f4 [16, 16, 3, 3]
0.10692731 0.030454159 -0.014496892 0.07040289 -0.045589976 0.09208819 -0.003327486 0.004081983
-0.037461337 0.09343659 0.086557 -0.036621943 0.038631793 -0.036294874 0.10156143 0.0678068
-0.028444607 -0.022132307 0.07823853 -0.095071405 0.0006528105 -0.1642839 -0.07707934 -0.013857417
-0.038409214 -0.06837237 -0.05711989 -0.03676444 -0.011202517 -0.014223268 -0.05177595 0.0826129
0.014356908 0.044564936 -0.029471593 -0.01119898 0.06885208 -0.113301456 -0.0016460593 0.05932068
-0.04309994 -0.006593631 0.0844197 -0.049285702 -0.14992487 -0.051744822 -0.088573635 -0.01841598
-0.020322755 -0.084415995 -0.0012015766 0.09404424 0.004733305 -0.019932896 -0.03135815 0.087892056
0.03586969 0.062761605 0.124529526 0.053482477 0.06786081 0.07106184 0.0007436563 0.06604381
0.053946305 0.035472304 0.016789243 -0.046898592 0.04169393 0.025606088 -0.10463434 -0.055879958
-0.10058779 -0.17403078 -0.05934008 0.056255322 0.11187663 -0.0748541 -0.059812423 -0.02714486
0.035501767 -0.06532453 -0.023093486 0.018722372 0.03234945 0.05210224 -0.0289737 0.05912401
-0.016765395 0.016761301 0.023937652 -0.036479305 -0.018172681 -0.031640332 0.06752436 -0.0038429387
0.053070888 0.021636121 0.15452112 0.025343731 0.04013737 -0.063561715 0.034434617 0.07181851
-0.027209276 0.01849123 -0.013558863 -0.051933423 0.12525533 0.10979709 -0.058960393 -0.044889383
-0.16862844 -0.20742007 -0.034061324 0.021625916 -0.019797094 -0.043565553 -0.10240499 -0.020376675
0.16739339 0.06004889 -0.14327735 0.1589582 0.021248352 0.022660619 0.122048795 0.09235483
0.06966587 -0.047753558 -0.0012273354 -0.0024789341 -0.031960275 -0.06388912 0.036067296 -0.15961891
-0.008394912 0.037081778 -0.11666758 -0.14192507 0.044050664 0.010983395 -0.025917811 -0.041862424
-0.07875379 0.049046025 0.05735665 -0.09770241 -0.056937546 -0.08085979 -0.08374568 -0.0832181
-0.0065152943 0.02344615 -0.04445314 0.044866778 -0.0936122 0.018199014 0.04100819 0.030150011
0.03933105 0.007272045 -0.05625534 0.008660617 0.03907771 -0.0069535244 0.021513565 -0.027096286
-0.02088504 -0.03379291 0.009431377 -0.08327697 -0.05942139 -0.06687489 0.07848542 0.06898213
0.06707446 0.0065752473 0.06314538 -0.056598518 0.05565744 0.07326022 0.019797003 -0.065383255
-0.00840363 0.007143487 -0.044600178 -0.064204656 -0.086544104 0.017959077 0.07350317 -0.02059628
0.031498175 -0.059500147 -0.057000667 -0.048054777 -0.078807 -0.08762961 0.050429307 -0.0144299185
0.052014165 0.042548563 -0.043232374 -0.015517391 0.04911915 -0.0620573 0.02699382 -0.057907928
-0.06734633 0.014544574 -0.002772926 0.05701705 -0.02956309 -0.027518393 0.046037547 -0.0016816183
-0.010129824 0.066825695 -0.0766143 0.07759142 0.00213553 -0.047784876 -0.016632445 -0.06822114
-0.07037441 -0.055440847 -0.02881676 -0.061132293 -0.051341895 -0.06812696 -0.0644017 -0.08383471
-0.018579809 -0.002124412 -0.094174415 -0.045610152 -0.08400724 -0.012753193 0.005001119 -0.075370826
0.00079145015 -0.04597188 -0.06766971 -0.069225684 0.07602434 -0.02123355 -0.07628393 -0.0848566
-0.066931605 0.053574115 -0.04209408 -0.025923822 -0.045928944 0.049428355 0.042259604 -0.02891953
00000000: b5fc da3d 007b f93c 5f84 6dbc 642f 903d
00000010: 8ebc 3abd bc98 bc3d f411 5abb 28c2 853b
00000020: 0f71 19bd af5b bf3d cc44 b13d e400 16bd
00000030: 5f3c 1e3d efa9 14bd 70ff cf3d 4bde 8a3d
00000040: aa04 e9bc d04e b5bc 863b a03d ccb4 c2bd
00000050: 5f21 2b3a 0a3a 28be c6db 9dbd 380a 63bc
00000060: fb52 1dbd d006 8cbd 8cf6 69bd 4f96 16bd
00000070: c38a 37bc b608 69bc 0513 54bd f430 a93d
00000080: 3d39 6b3c b989 363d 696e f1bc ed7b 37bc
00000090: 5202 8d3d 980a e8bd 96c0 d7ba 3efa 723d
000000a0: 9089 30bd 630f d8bb 3ce4 ac3d cedf 49bd
000000b0: e885 19be 61f2 53bd 1866 b5bd 1cdd 96bc
000000c0: e87b a6bc 4be2 acbd 387e 9dba 449a c03d
000000d0: d719 9b3b 504a a3bc 6771 00bd c000 b43d
000000e0: 19ec 123d 2889 803d 5609 ff3d 7110 5b3d
000000f0: 9cfa 8a3d df88 913d eef1 423a fa41 873d
00000100: cdf6 5c3d 684b 113d 9889 893c bd18 40bd
00000110: 41c7 2a3d dcc3 d13c 874a d6bd 62e2 64bd
00000120: f900 cebd 2035 32be 950e 73bd fb6b 663d
00000130: 931f e53d 1b4d 99bd dffd 74bd e65e debc
00000140: 4d6a 113d dec8 85bd 8d2e bdbc a95f 993c
00000150: db80 043d 2969 553d 415a edbc 052c 723d
00000160: 9557 89bc ff4e 893c e518 c43c 536b 15bd
00000170: e0de 94bc 4b99 01bd 364a 8a3d d0d9 7bbb
00000180: dc60 593d 3c3e b13c c93a 1e3e a89d cf3c
00000190: 1567 243d a52c 82bd 500b 0d3d 9515 933d
000001a0: fde5 debc ec7a 973c fe25 5ebc 24b8 54bd
000001b0: ef42 003e 4cdd e03d 7480 71bd eedd 37bd
000001c0: efac 2cbe ed65 54be e383 0bbd d528 b13c
000001d0: 842d a2bc cb71 32bd b5b9 d1bd fcec a6bc
000001e0: 2c69 2b3e d3f5 753d 4cb7 12be f0c5 223e
000001f0: 0611 ae3c c3a2 b93c b8f4 f93d 8724 bd3d
00000200: fbac 8e3d 3c99 43bd 8bde a0ba 9d75 22bb
00000210: c7e8 02bd 4dd8 82bd 4dbb 133d 2473 23be
00000220: d08a 09bc 10e3 173d 6aef eebd ce54 11be
00000230: 786e 343d b3f3 333c 9751 d4bc ef77 2bbd
00000240: ab49 a1bd 7ce4 483d ceee 6a3d 3318 c8bd
00000250: 5837 69bd d199 a5bd db82 abbd 406e aabd
00000260: 407e d5bb 2412 c03c 7f14 36bd 3ac6 373d
00000270: c1b7 bfbd 1916 953c 34f8 273d 28fd f63c
00000280: 9819 213d 564a ee3b 006c 66bd 43e5 0d3c
00000290: f30f 203d 64da e3bb 373d b03c 08f9 ddbc
000002a0: 1a17 abbc 6f6a 0abd 1086 1a3c 1e8d aabd
000002b0: d863 73bd b4f5 88bd f7bc a03d 8146 8d3d
000002c0: 565e 893d 2c75 d73b 5d52 813d d9d3 67bd
000002d0: 0ef9 633d 7409 963d 532d a23c a8e7 85bd
000002e0: 61af 09bc ea13 ea3b adae 36bd bb7d 83bd
000002f0: 093e b1bd ea1e 933c d488 963d 88b9 a8bc
00000300: 3b04 013d 6db6 73bd 8879 69bd 16d5 44bd
00000310: 9065 a1bd 2777 b3bd f68e 4e3d 776b 6cbc
00000320: ce0c 553d 6747 2e3d 6e14 31bd a83c 7ebc
00000330: 2931 493d cc2f 7ebd 2522 dd3c dd30 6dbd
00000340: dfec 89bd 5d4c 6e3c fab9 35bb b68a 693d
00000350: 4b2e f2bc 416e e1bc de91 3c3d bf69 dcba
00000360: 90f7 25bc e9db 883d f5e7 9cbd 40e8 9e3d
00000370: 40f4 0b3b 13ba 43bd c440 88bc 86b7 8bbd
00000380: 7520 90bd f115 63bd 2011 ecbc db65 7abd
00000390: e14b 52bd 2686 8bbd 0ae5 83bd 88b1 abbd
000003a0: af34 98bc b839 0bbb 84de c0bd b6d1 3abd
000003b0: fd0b acbd c5f2 50bc 6de0 a33b 055c 9abd
000003c0: 5279 4f3a 034d 3cbd 6b96 8abd 32c6 8dbd
000003d0: a6b2 9b3d fbf1 adbc c03a 9cbd 4cc9 adbd
000003e0: 7013 89bd 8870 5b3d d86a 2cbd 325e d4bc
000003f0: fd1f 3cbd 6375 4a3d 6818 2d3d a6e8 ecbc

res1b.conv1.bias f4 [16]
-0.017549343 -0.039222613 0.06054702 0.041708797 -0.072809815 -0.039740987 -0.012189722 -0.009212787
-0.03332419 -0.07513345 -0.004004558 -0.008399045 0.06175044 0.07862764 0.030933795 0.07787558
00000000: a4c3 8fbc e4a7 20bd 2700 783d d8d6 2a3d
00000010: 501d 95bd 72c7 22bd 66b7 47bc 3bf1 16bc
00000020: f27e 08bd 91df 99bd ab38 83bb 269c 09bc
00000030: 08ee 7c3d 8707 a13d df68 fd3c 3b7d 9f3d

res1b.conv2.weight f4 [16, 16, 3, 3]
-0.076742575 0.037272923 -0.056541324 -0.079989806 0.043189403 0.09758489 -0.025426619 -0.09737415
0.008947714 0.07054836 -0.07962518 0.06994059 -0.04882266 0.02377982 -0.037908614 -0.058678288
-0.024685627 -0.022696145 -0.04538426 0.08038556 -0.112658426 -0.036993846 0.017846776 0.02799368
0.05621095 -0.03829551 0.0040070503 -0.043279894 -0.087456495 0.01891032 -0.06999618 -0.06933859
0.07502775 0.060811665 0.05246151 0.08196088 0.013657494 0.014813075 -0.0002169097 0.02826232
-0.029144527 -0.02589229 0.017831607 0.08866652 0.03186167 0.06929095 -0.060674734 -0.043303058
0.02122521 0.032253593 0.09138524 -0.03728972 -0.039299395 0.009739418 0.06834856 0.03852024
0.046926584 -0.07539268 -0.0014978085 -0.035037465 0.017607855 -0.054713976 -0.088119216 0.012141413
0.004882047 -0.047684085 0.020225143 -0.10854842 0.0045873704 0.054335903 0.039407436 -0.12631668
-0.02657774 -0.095998734 -0.06816098 -0.022881217 -0.0077247377 0.06498827 -0.004238793 0.020580398
0.048759475 -0.10607533 -0.11457234 -0.03552779 -0.011768963 0.083903395 -0.027852027 -0.07906614
0.046861015 0.050117135 0.028350826 -0.016329803 0.05427305 -0.08051486 0.06237034 -0.026658582
0.06215944 0.05595955 0.04612967 0.037862618 -0.07371708 0.015264039 0.023394382 -0.04217144
-0.050407995 0.07398373 -0.03987409 0.018617257 0.02752585 -0.09599474 0.011527058 -0.04466725
-0.05531102 0.013191663 0.034728188 -0.025511984 -0.035113905 -0.06854583 0.0025160688 0.020840857
-0.065557174 0.022543058 -0.029366737 -0.056105383 -0.09756438 -0.044019543 -0.0194002 -0.07095126
0.0037029386 0.0020846408 -0.026554089 -0.115759574 0.057661213 -0.08953895 -0.07879106 0.030404544
-0.03215853 0.03085912 -0.0036083204 -0.052040555 0.05418995 0.08283776 0.07365857 -0.0420765
0.036342297 0.055607542 -0.034213785 0.06919645 0.07524086 -0.07155119 -0.05519648 -0.06408888
0.062220335 0.03800725 -0.027790979 0.07789134 -0.041117243 0.08925413 0.016355164 -0.011395934
0.011144854 -0.0064795716 0.036590837 -0.055354625 0.06903432 0.059165753 0.0010734658 0.08322461
-0.02566005 -0.092105374 -0.0688214 -0.08746306 -0.08614481 -0.00926651 -0.086880535 -0.059939366
0.049987618 -0.017567696 -0.029108234 0.05779919 -0.060541224 0.0050914483 -0.01465436 -0.013088692
-0.06715888 0.055721223 0.10135001 -0.055397723 0.001091872 0.07864168 -0.015089994 0.045869224
0.060616683 -0.07842494 0.02004437 0.050638296 -0.057777416 0.037381437 -0.030943928 -0.033749785
0.076531865 0.07426176 -0.0032630023 -0.043715626 0.0070059225 -0.074350305 0.11599985 -0.007018236
-0.00025851725 0.026636893 0.028458476 -0.0022317 0.0834601 0.020593693 -0.07152444 0.09175405
-0.047942262 0.044558395 0.0031050115 -0.05520084 -0.015151373 0.046727307 -0.07411162 -0.01606044
-0.0050157756 -0.03360487 -0.050910782 0.08293114 0.06042785 0.0006872673 0.082233734 0.091491185
-0.073520124 -0.021897938 0.07263535 -0.0014061902 -0.09302228 -0.073790535 -0.048723754 0.04820085
0.04803061 0.106207155 0.0043778955 0.018455194 -0.000786464 0.038389396 -0.032016426 0.0688908
0.0750519 -0.06612414 -0.0723978 0.05025026 0.07731603 -0.028419273 0.020713111 -0.05406289
00000000: 362b 9dbd 7eab 183d e097 67bd b2d1 a3bd
00000010: 5fe7 303d 96da c73d 7c4b d0bc 196c c7bd
00000020: 6f99 123c a97b 903d 8712 a3bd 033d 8f3d
00000030: 45fa 47bd e6cd c23c 1046 1bbd a558 70bd
00000040: 8339 cabc 44ed b9bc d9e4 39bd 2fa1 a43d
00000050: 76b9 e6bd dc86 17bd 6733 923c 0153 e53c
00000060: 743d 663d c1db 1cbd 934d 833b 4246 31bd
00000070: 641c b3bd d1e9 9a3c 285a 8fbd 6401 8ebd
00000080: 26a8 993d a715 793d e1e1 563d 1bdb a73d
00000090: afc3 5f3c 8ab2 723c 4172 63b9 6286 e73c
000000a0: 81c0 eebc 111c d4bc 9713 923c cb96 b53d
000000b0: 6281 023d 6ae8 8d3d 1286 78bd 8c5e 31bd
000000c0: 7ee0 ad3c 581c 043d 2f28 bb3d 1bbd 18bd
000000d0: 67f8 20bd 1492 1f3c 54fa 8b3d 66c7 1d3d
000000e0: 1736 403d 7a67 9abd 1d52 c4ba 7283 0fbd
000000f0: 593e 903c c31b 60bd d977 b4bd c7ec 463c
00000100: 94f9 9f3b 6350 43bd 33af a53c a24e debd
00000110: a751 963b 538f 5e3d b169 213d 2959 01be
00000120: 90b9 d9bc fc9a c4bd fc97 8bbd 6471 bbbc
00000130: cc1f fdbb 9218 853d 93e5 8abb 3998 a83c
00000140: 04b8 473d 063e d9bd e7a4 eabd 9785 11bd
00000150: 9cd2 40bc 8bd5 ab3d ef29 e4bc 6eed a1bd
00000160: 56f1 3f3d a047 4d3d fe3f e83c 14c6 85bc
00000170: 6b4d 5e3d fae4 a4bd 0b78 7f3d 1963 dabc
00000180: e69a 7e3d d735 653d 77f2 3c3d d515 1b3d
00000190: fbf8 96bd 0516 7a3c 93a5 bf3c f6bb 2cbd
000001a0: 9d78 4ebd c884 973d 0453 23bd 3883 983c
000001b0: e47d e13c e498 c4bd fcdb 3c3c 02f5 36bd
000001c0: cf8d 62bd d821 583c 253f 0e3d 82fe d0bc
000001d0: 99d3 0fbd c261 8cbd a1e4 243b 72ba aa3c
000001e0: d742 86bd 38ac b83c 8392 f0bc c2ce 65bd
000001f0: d5cf c7bd d64d 34bd 2bed 9ebc e54e 91bd
00000200: 00ad 723b 789e 083b f687 d9bc 5b13 edbd
00000210: 2a2e 6c3d 3260 b7bd 355d a1bd f312 f93c
00000220: aab8 03bd 44cc fc3c 9279 6cbb 7a28 55bd
00000230: 48f6 5d3d d8a6 a93d 4eda 963d 6858 2cbd
00000240: a9db 143d bcc4 633d c123 0cbd deb6 8d3d
00000250: e117 9a3d 6e89 92bd b415 62bd 0841 83bd
00000260: c0da 7e3d 7dad 1b3d e8a9 e3bc 7f85 9f3d
00000270: 8e6a 28bd dfca b63d 44fb 853c 03b6 3abc
00000280: e898 363c 9652 d4bb 46e0 153d 88bb 62bd
00000290: de61 8d3d ca57 723d 89b3 8c3a aa71 aa3d
000002a0: 0635 d2bc bea1 bcbd 3cf2 8cbd d51f b3bd
000002b0: b16c b0bd 8fd2 17bc 6cee b1bd fb82 75bd
000002c0: d1bf 4c3d 21ea 8fbc 6474 eebc d8be 6c3d
000002d0: 13fa 77bd 2ad6 a63b d718 70bc f471 56bc
000002e0: 988a 89bd f03b 643d 9890 cf3d b9e8 62bd
000002f0: 251d 8f3a e40e a13d 063c 77bc 5ee1 3b3d
00000300: 3349 783d 419d a0bd 1734 a43c 1a6a 4f3d
00000310: 03a8 6cbd 471d 193d 1f7e fdbc 373d 0abd
00000320: bdbc 9c3d 8d16 983d 18d8 55bb 280f 33bd
00000330: f091 e53b f944 98bd 5491 ed3d 3bf9 e5bb
00000340: 9989 87b9 9d35 da3c c021 e93c b741 12bb
00000350: 21ed aa3d 1bb4 a83c 687b 92bd 8ce9 bb3d
00000360: 1b5f 44bd dd82 363d 737d 4b3b 471a 62bd
00000370: 773d 78bc 2265 3f3d d5c7 97bd 2f91 83bc
00000380: 605b a4bb 43a5 09bd d387 50bd cdd7 a93d
00000390: 3183 773d ba29 343a 296a a83d bb5f bb3d
000003a0: b891 96bd 4e63 b3bc d8c1 943d ea4f b8ba
000003b0: 7782 bebd 7e1f 97bd 8f92 47bd 416e 453d
000003c0: bfbb 443d 2383 d93d 7374 8f3b 592f 973c
000003d0: b52a 4eba 333e 1d3d a823 03bd 9f16 8d3d
000003e0: d0b4 993d 186c 87bd 4c45 94bd 37d3 4d3d
000003f0: de57 9e3d 89cf e8bc 8bae a93c 0d71 5dbd

res1b.conv2.bias f4 [16]
0.027992418 -0.036547903 -0.0665301 0.02298638 0.0026421538 0.017765792 0.025902368 0.039180685
-0.05394177 0.017133161 -0.01976897 0.043760177 0.010557485 -0.039496064 0.0038588406 0.00492355
00000000: 5b50 e53c 41b3 15bd ef40 88bd ef4d bc3c
00000010: fc27 2d3b 9189 913c 3431 d43c ed7b 203d
00000020: 0cf2 5cbd d85a 8c3c 89f2 a1bc df3d 333d
00000030: 4df9 2c3c a0c6 21bd 9ae4 7c3b bb55 a13b

conv2.weight f4 [32, 16, 3, 3]
-0.015166112 -0.058726348 0.09547423 -0.035432067 -0.042821623 -0.03870143 -0.09143964 -0.08033288
-0.020946806 -0.07773198 -0.0829801 -0.0051624924 -0.022659983 -0.10797338 -0.018977784 0.026475776
0.004210853 0.040845357 0.13573207 0.07126053 -0.054882083 0.074217916 -0.027149389 -0.0944936
0.020083826 -0.010391061 0.07551485 0.025942704 0.016451923 -0.021111408 -0.061821442 -0.06536598
-0.04500217 -0.109765925 -0.03548731 -0.072326824 -0.008057303 0.014094767 -0.018696252 0.028155416
-0.05067307 -0.00368888 -0.08656936 0.00039400253 -0.08386184 -0.09003885 0.021888437 0.10439101
0.09982624 -0.011952062 0.047846798 -0.02656425 0.06347363 -0.06244612 -0.010976738 -0.12933882
0.02811955 0.031681515 -0.036556814 0.022400035 0.019944882 0.091711745 0.002476964 0.045096606
0.054557115 -0.095557705 0.053506386 -0.006232653 -0.09240118 0.014939213 0.051474072 0.077665694
0.029396905 0.0012793572 0.07104672 0.004038742 -0.004037936 0.08833208 -0.013912296 -0.037207242
-0.08871796 -0.061759025 -0.0013222952 -0.068950355 0.009525686 0.03109048 -0.006336479 -0.09972427
-0.07294942 0.008006808 0.021623107 -0.044933077 0.05537143 -0.025735518 -0.08255084 0.031457953
-0.012229988 -0.08022137 -0.035176978 0.005610531 -0.0663502 0.08280444 0.09636505 -0.037437905
-0.029913887 -0.05538457 0.024383688 -0.10734222 0.07666595 -0.03243421 -0.07932228 0.08137488
-0.019936794 -0.00745994 -0.06116589 0.055804837 -0.014866301 0.02520304 0.050724283 -0.11844308
0.0233542 0.020254167 -0.0032350982 -0.036806718 0.028444372 0.033228315 -0.06105502 0.01976037
0.07517752 -0.017234871 -0.0072647952 -0.10864326 -0.07821727 0.012448391 0.02682292 -0.011867207
-0.10070691 -0.10452039 -0.07620512 -0.02507088 -0.07366007 0.046465706 0.04384032 0.06547523
0.002563069 -0.04896614 0.05046532 -0.080839425 -0.083848335 -0.0781234 0.0911941 0.0963574
0.007171629 0.009796817 -0.029308243 -0.039220132 -0.023713598 -0.0019471472 0.015158608 -0.048160747
0.030604256 0.010754096 0.016730078 0.093404844 0.029958019 0.08466753 0.07270392 -0.0029840274
0.11715697 -0.005109629 -0.075306684 -0.056231096 -0.006422154 0.06941216 -0.037857488 -0.009754173
-0.084555134 -0.021612246 0.047963407 0.016150212 -0.07591885 -0.08463503 -0.015188541 -0.020878913
-0.013860596 -0.008664874 0.013566949 -0.025178319 0.09970165 0.0059263213 -0.020087138 -0.041374017
0.034457292 0.019575797 0.01738536 -0.030145984 0.039213676 -0.0500239 0.0011830565 -0.035238054
0.00012371833 -0.05160928 -0.021575674 -0.018423764 0.032973934 0.04387178 -0.021226434 -0.014551028
-0.06850469 -0.07582121 -0.03262165 -0.061881736 -0.0276615 -0.0756427 0.03160773 -0.12114559
0.038158685 -0.04712446 -0.02687012 0.04961075 -0.030618519 -0.026535647 -0.051263355 0.029109744
-0.0047127926 0.040049985 -0.06874882 -0.044207685 0.092331655 0.03689189 -0.021683734 -0.04725436
-0.042255133 0.06383557 0.025567945 -0.080327414 -0.054577667 0.018521229 0.0406729 -0.06714774
-0.035929646 -0.053445153 -0.017758626 -0.050146546 -0.057038575 0.081644826 0.01700885 -0.05618389
0.0798783 -0.059969027 0.049369812 0.07415428 0.04953038 0.061807513 0.04791486 -0.04815447
00000000: 497b 78bc 0a8b 70bd fe87 c33d 3721 11bd
00000010: ba65 2fbd 6485 1ebd b544 bbbd 9185 a4bd
00000020: a398 abbc f231 9fbd 78f1 a9bd 202a a9bb
00000030: 6ea1 b9bc 2621 ddbd 4c77 9bbc bae3 d83c
00000040: 32fb 893b 764d 273d 59fd 0a3e 0af1 913d
00000050: 09cc 60bd 90ff 973d 6568 debc dc85 c1bd
00000060: d686 a43c 453f 2abc 88a7 9a3d cb85 d43c
00000070: 2fc6 863c d5f1 acbc 7b38 7dbd 99de 85bd
00000080: 3254 38bd f5cc e0bd 245b 11bd 1620 94bd
00000090: c702 04bc bded 663c e228 99bc 30a6 e63c
000000a0: 918e 4fbd 23c1 71bb 474b b1bd 2092 ce39
000000b0: c2bf abbd 4a66 b8bd 614f b33c f4ca d53d
000000c0: b371 cc3d 95d2 43bc 01fb 433d 459d d9bc
000000d0: 76fe 813d 81c7 7fbd c7d7 33bc 6571 04be
000000e0: f85a e63c 7ac4 013d 99bc 15bd 4780 b73c
000000f0: 7363 a33c 5ed3 bb3d 8f54 223b 38b7 383d
00000100: 4877 5f3d c2b3 c3bd 8329 5b3d 483b ccbb
00000110: d43c bdbd 9ac3 743c 7ad6 523d 310f 9f3d
00000120: c7d1 f03c 1bb0 a73a f180 913d 6c57 843b
00000130: aa50 84bb 73e7 b43d 66f0 63bc 9f66 18bd
00000140: c3b1 b5bd 08f7 7cbd dd50 adba d835 8dbd
00000150: 9f11 1c3c 76b1 fe3c 3da2 cfbb 3d3c ccbd
00000160: 8166 95bd fd2e 033c f122 b13c bf0b 38bd
00000170: 27cd 623d 4bd3 d2bc 6a10 a9bd 0eda 003d
00000180: 4a60 48bc 1a4b a4bd bc15 10bd 8cd8 b73b
00000190: 9de2 87bd 6095 a93d 0a5b c53d 7d58 19bd
000001a0: f80d f5bc eeda 62bd 4dc0 c73c 3dd6 dbbd
000001b0: 0a03 9d3d bcd9 04bd b873 a2bd e0a7 a63d
000001c0: 7d52 a3bc 8372 f4bb 1689 7abd 9d93 643d
000001d0: c991 73bc 9b76 ce3c 44c4 4f3d 4992 f2bd
000001e0: 4f51 bf3c 11ec a53c f103 54bb a4c2 16bd
000001f0: 2c04 e93c 6a1a 083d d414 7abd 80e0 a13c
00000200: acf6 993d 2530 8dbc 850d eebb 5c80 debd
00000210: 6030 a0bd 56f4 4b3c bebb db3c ac6e 42bc
00000220: 6d3f cebd c90e d6bd 6e11 9cbd 7261 cdbc
00000230: 17db 96bd d352 3e3d e891 333d e117 863d
00000240: 2af9 273b b890 48bd b9b4 4e3d 248f a5bd
00000250: adb8 abbd 29ff 9fbd f9c3 ba3d 0757 c53d
00000260: fcff ea3b d482 203c d717 f0bc 4aa5 20bd
00000270: 0543 c2bc 6b37 ffba cf5b 783c 3444 45bd
00000280: c7b5 fa3c f331 303c 840d 893c 0a4b bf3d
00000290: 856a f53c 2c66 ad3d cbe5 943d ac8f 43bb
000002a0: feef ef3d ad6e a7bb 643a 9abd 9452 66bd
000002b0: ef70 d2bb f627 8e3d 7410 1bbd f8cf 1fbc
000002c0: 3e2b adbd 2a0c b1bc 4775 443d 734d 843c
000002d0: 587b 9bbd 2155 adbd 5cd9 78bc 410a abbc
000002e0: 8e17 63bc 1ef7 0dbc e947 5e3c c342 cebc
000002f0: 6130 cc3d 9631 c23b c88d a4bc cd77 29bd
00000300: 1723 0d3d 6c5d a03c be6b 8e3c b6f4 f6bc
00000310: 859e 203d dce5 4cbd ca10 9b3a c755 10bd
00000320: 63ba 0139 4164 53bd 78bf b0bc 6fed 96bc
00000330: ad0f 073d e5b2 333d 0fe3 adbc 6f67 6ebc
00000340: 304c 8cbd 2748 9bbd 479e 05bd b477 7dbd
00000350: 5f9a e2bc 8fea 9abd 1b77 013d 2e1b f8bd
00000360: 484c 1c3d 9405 41bd ba1e dcbc a434 4b3d
00000370: b0d3 fabc 4961 d9bc 86f9 51bd 8f77 ee3c
00000380: c56d 9abb 740b 243d 2ecc 8cbd 1e13 35bd
00000390: 6118 bd3d f31b 173d 16a2 b1bc ca8d 41bd
000003a0: b813 2dbd 39bc 823d de73 d13c b382 a4bd
000003b0: d58c 5fbd d5b9 973c a098 263d c184 89bd
000003c0: f72a 13bd 4ee9 5abd 8a7a 91bc 7766 4dbd
000003d0: 48a1 69bd 6735 a73d 2556 8b3c 1421 66bd
000003e0: 3c97 a33d 15a2 75bd 0038 4a3d 33de 973d
000003f0: 5ee0 4a3d e029 7d3d 5f42 443d 9f3d 45bd

conv2.bias f4 [32]
0.068602994 0.060213752 0.038939375 -0.062293645 -0.0016910709 -0.032390542 0.022900213 -0.024656616
-0.023670506 0.013547592 -0.0061713466 0.040708505 0.013155112 0.043344025 -0.058564547 -0.02854057
-0.016530044 0.029824724 0.04742871 0.045095317 -0.03546093 0.053251844 -0.07293716 0.021538548
-0.026235385 -0.031263474 -0.07162056 0.050107755 -0.04981359 -0.07305832 0.00023095714 0.0070259077
00000000: ba7f 8c3d b2a2 763d e57e 1f3d 9f27 7fbd
00000010: eca6 ddba f2ab 04bd 3a99 bb3c acfc c9bc
00000020: a6e8 c1bc b8f6 5d3c 0239 cabb f6bd 263d
00000030: 8a88 573c 8189 313d 61e1 6fbd eacd e9bc
00000040: 046a 87bc fb52 f43c 9b44 423d deb5 383d
00000050: 7b3f 11bd 9b1e 5a3d 1460 95bd 9c71 b03c
00000060: 97eb d6bc 210e 00bd cdad 92bd ca3d 4d3d
00000070: 5609 4cbd 9a9f 95bd 162d 7239 9639 e63b

res2a.conv1.weight f4 [32, 32, 3, 3]
-0.02039897 0.006945221 -0.02356222 -0.09183522 -0.010331007 -0.015394446 -0.07795023 -0.05380221
0.054765295 -0.04903582 -0.071550444 0.0697141 -0.089542165 0.039174076 -0.040591355 -0.078018494
-0.025805084 0.02432919 -0.025557734 0.022587031 0.039309908 -0.007291993 1.867395e-05 -0.05830022
-0.014871585 -0.03496793 -0.057623856 -0.12373302 0.010321032 -0.013099079 -0.011064619 0.019609695
-0.019399494 -0.014552859 -0.032312073 -0.0008306423 -0.12975289 -0.086769395 0.002269735 -0.04050641
-0.05360042 0.048100043 0.036841627 -0.017724233 -0.05776492 -0.1312678 -0.006632548 0.0187537
-0.11292774 -0.05432979 0.07066382 -0.05613722 0.00079070736 0.024149323 0.020488866 -0.014667292
-0.04935198 0.025520204 -0.088163346 -0.06140491 -0.0003093743 -0.03587819 0.002753084 -0.042361572
-0.06354789 0.10628047 -0.041020703 -0.057158004 0.049411014 0.0034462202 -0.10542333 0.04384469
0.024848456 0.0025364326 0.04672096 -0.11888649 0.021181384 0.031064702 -0.032964364 -0.022408538
0.03178993 -0.08534131 -0.033261348 0.07132402 0.004672957 0.03847927 0.049582127 -0.019081939
-0.08746367 -0.056320373 -0.08147573 -0.0889665 0.013720558 -0.11193023 0.010766701 0.028655373
-0.06858557 -0.04456399 -0.09602752 -0.050088838 -0.00937386 -0.08019714 -0.03189289 -0.029849218
-0.15594986 -0.046713244 -0.020552276 -0.07658978 -0.05439739 -0.039218497 0.029659424 0.025832247
-0.021354306 0.015502516 -0.0171352 -0.01741633 0.043154296 -0.011708362 0.028012713 -0.0017014043
-0.06413476 -0.034151807 -0.04413272 0.0107785445 -0.075439684 -0.0364793 -0.107425615 0.028759113
-0.012325845 -0.063715525 -0.06493241 -0.042782795 -0.048091665 0.018322842 0.056022823 -0.09174994
-0.058048435 0.0049618133 -0.11109518 -0.061438307 -0.0005366055 0.008362307 -0.033203937 -0.07103467
0.0019586303 -0.014572022 0.099552006 -0.041971218 -0.050463054 0.025688095 -0.019901289 -0.051575772
0.025804702 -0.037896443 -0.05749022 0.013817397 -0.02265757 -0.08800614 0.05254286 -0.035577215
-0.0973293 -0.04919621 -0.13575207 -0.032834828 -0.05218192 -0.01441642 0.0055792285 0.042414986
-0.055731926 -0.052844986 -0.030291947 -0.016642468 -0.04385633 0.011074352 -0.035984416 -0.03936275
0.02960924 -0.022092758 0.0020241982 0.042397838 -0.0036637639 -0.02668927 0.027155055 -0.009190855
-0.013777018 -0.04782778 0.012131051 -0.05775093 -0.002801748 -0.064050585 -0.048863832 0.025283406
-0.1181515 -0.009634165 -0.06120243 -0.03648768 0.03053071 -0.08083043 -0.08070493 -0.13627471
-0.013229296 -0.04225195 -0.077821046 -0.10402092 -0.0110482555 -0.043675646 -0.07683256 -0.061391193
0.061166894 -0.01398286 -0.07499367 -0.08478168 0.01457335 -0.09514444 -0.06001802 0.0024899442
-0.113080435 -0.047459736 0.041390393 -0.14834793 -0.07795579 0.072461605 -0.009016735 -0.0044488492
0.09420727 -0.19018844 -0.03986839 -0.029067708 -0.07723596 -0.063786276 -0.006907474 -0.03927926
0.018554483 -0.009324554 -0.11397138 -0.0937562 0.044131346 -0.026347652 -0.06003186 0.046594616
-0.061635382 -0.06339404 0.0800408 -0.05838581 -0.044753592 -0.025048168 -0.11688673 -0.04667499
0.06355671 -0.06612712 -0.039898094 0.028586667 0.01038667 -0.025055617 0.0029417216 -0.08014137
00000000: be1b a7bc bd94 e33b 8f05 c1bc 1b14 bcbd
00000010: 6243 29bc fd38 7cbc 5fa4 9fbd b55f 5cbd
00000020: 9351 603d c9d9 48bd 0a89 92bd 44c6 8e3d
00000030: e261 b7bd ff74 203d 1f43 26bd 29c8 9fbd
00000040: 2f65 d3bc 024e c73c 745e d1bc 7008 b93c
00000050: 6d03 213d acf1 eebb 01a6 9c37 36cc 6ebd
00000060: f3a7 73bc 883a 0fbd fe06 6cbd bd67 fdbd
00000070: 8c19 293c 859d 56bc 6048 35bc 83a4 a03c
00000080: b0eb 9ebc 1d6f 6ebc aa59 04bd 76bf 59ba
00000090: f1dd 04be 27b4 b1bd d6bf 143b 0dea 25bd
000000a0: 1d8c 5bbd 8d04 453d 3fe7 163d 6932 91bc
000000b0: e99a 6cbd 116b 06be d855 d9bb 5ca1 993c
000000c0: a946 e7bd ea88 5ebd 31b8 903d 24f0 65bd
000000d0: 7947 4f3a cdd4 c53c 44d8 a73c 154f 70bc
000000e0: 4d25 4abd bf0f d13c fc8e b4bd b783 7bbd
000000f0: 8433 a2b9 02f5 12bd 166d 343b 5483 2dbd
00000100: 6525 82bd 93a9 d93d 5305 28bd 831e 6abd
00000110: 3463 4a3d fbd9 613b 30e8 d7bd 7d96 333d
00000120: fd8e cb3c 473a 263b 7a5e 3f3d c37a f3bd
00000130: 9584 ad3c 677b fe3c a405 07bd 1c92 b7bc
00000140: 2836 023d 6dc7 aebd 0d3d 08bd 5412 923d
00000150: 9b1f 993b 709c 1d3d a116 4b3d ba51 9cbc
00000160: 2720 b3bd 31b0 66bd bfdc a6bd 1134 b6bd
00000170: 31cc 603c ad3b e5bd d166 303c acbe ea3c
00000180: 9776 8cbd bb88 36bd 14aa c4bd f429 4dbd
00000190: d294 19bc 663e a4bd 1ea2 02bd 5986 f4bc
000001a0: 52b1 1fbe 6356 3fbd 3f5d a8bc 1adb 9cbd
000001b0: cccf 5ebd 93a3 20bd 52f8 f23c 269e d33c
000001c0: 3aef aebc 44fe 7d3c 1e5f 8cbc b1ac 8ebc
000001d0: 8fc2 303d 6ed4 3fbc eb7a e53c a801 dfba
000001e0: 1659 83bd c4e2 0bbd 83c4 34bd 7e98 303c
000001f0: 1f80 9abd 526b 15bd f601 dcbd 3b98 eb3c
00000200: 57f2 49bc 497d 82bd 49fb 84bd 033d 2fbd
00000210: c4fb 44bd c919 963c 3078 653d 64e7 bbbd
00000220: 32c4 6dbd b596 a23b df85 e3bd bca6 7bbd
00000230: fcaa 0cba 0f02 093c da00 08bd a07a 91bd
00000240: 5d5c 003b 7dbf 6ebc ece1 cb3d 03ea 2bbd
00000250: 59b2 4ebd d76f d23c 0708 a3bc 1e41 53bd
00000260: 6264 d33c 4d39 1bbd dd7a 6bbd 5d62 623c
00000270: 5e9c b9bc 903c b4bd 2f37 573d 6ab9 11bd
00000280: 9654 c7bd f781 49bd 9702 0bbe d07d 06bd
00000290: b5bc 55bd d932 6cbc f6d1 b63b 56bb 2d3d
000002a0: 2947 64bd fc73 58bd d126 f8bc c955 88bc
000002b0: b2a2 33bd 3371 353c 6564 13bd d63a 21bd
000002c0: 148f f23c dffb b4bc 69a8 043b 5ba9 2d3d
000002d0: c21b 70bb 75a3 dabc 4774 de3c 3d95 16bc
000002e0: 00b9 61bc 10e7 43bd 51c1 463c 3d8c 6cbd
000002f0: 889d 37bb f42c 83bd 7125 48bd 251f cf3c
00000300: 6af9 f1bd 9ed8 1dbc 66af 7abd 1b74 15bd
00000310: 8a1b fa3c 6d8a a5bd a048 a5bd 998b 0bbe
00000320: b0bf 58bc 6110 2dbd a460 9fbd ec08 d5bd
00000330: be03 35bc 3ce5 32bd 645a 9dbd 5575 7bbd
00000340: 238a 7a3d 5e18 65bc 4896 99bd 04a2 adbd
00000350: 0fc5 6e3c 17db c2bd 75d5 75bd 552e 233b
00000360: b796 e7bd 2465 42bd f988 293d 85e8 17be
00000370: 49a7 9fbd c066 943d edba 13bc a7c7 91bb
00000380: beef c03d c2c0 42be 094d 23bd 671f eebc
00000390: e32d 9ebd 61a2 82bd 1758 e2bb 4ae3 20bd
000003a0: 92ff 973c 04c6 18bc d469 e9bd 4003 c0bd
000003b0: 12c3 343d 08d7 d7bc f8e3 75bd ffd9 3e3d
000003c0: 6275 7cbd bcd4 81bd 6eec a33d f625 6fbd
000003d0: 8b4f 37bd d131 cdbc 4f62 efbd 462e 3fbd
000003e0: 052a 823d a86d 87bd 2f6c 23bd 962e ea3c
000003f0: da2c 2a3c 7041 cdbc e6c9 403b 2921 a4bd

res2a.conv1.bias f4 [32]
-0.0138744125 -0.021439997 -0.03127405 -0.016968623 0.03923438 0.01511365 0.022588186 0.09664032
0.044398706 0.08598122 0.05804934 0.05130851 0.004731546 -0.00682279 -0.021259679 0.03587161
0.00037797817 -0.010764222 0.03373688 0.030310547 0.013095447 -0.032250628 0.012360384 -0.0043741427
-0.0063469494 0.03483856 -0.005089979 -0.049924422 -0.02866443 -0.0048180823 -0.04025865 0.003874381
00000000: 8151 63bc efa2 afbc 3819 00bd c801 8bbc
00000010: 3bb4 203d 3e9f 773c dc0a b93c 5ceb c53d
00000020: 6bdb 353d ec16 b03d 25c5 6d3d df28 523d
00000030: 160b 9b3b b691 dfbb c728 aebc 1cee 123d
00000040: 5f2b c639 6b5c 30bc af2f 0a3d d34d f83c
00000050: 498e 563c 3c19 04bd 3583 4a3c f854 8fbb
00000060: 12fa cfbb e1b2 0e3d d7c9 a6bb 8d7d 4cbd
00000070: abd1 eabc 01e1 9dbb 41e6 24bd 54e9 7d3b
