checkpoints/ppo_academy_run_to_score_with_keeper.pth (torch, 719350 bytes, 45 tensors)

conv1.weight f4 [16, 16, 3, 3]
00000000: 452e b63b 31cf 703d 8848 56bd b64d cc3d
00000010: 9656 ca3d abc1 363e 2ad1 6d3d 76ad dd3a
00000020: abca 193d 0e2b 16bc 2675 e13b 56db 113d
00000030: 31a3 55bd f5a8 053c 802f f73d 8900 cebd
00000040: 6c6b f2bc 16ea 20bd b3e3 313e 01fc 373e
00000050: a94b 4a3e 4988 453d 9051 253e 8731 263e
00000060: 8d8b 9a3d 0cb1 483d 8a21 dc3d eba0 cc3d
00000070: eef4 2a3e 4e85 4f3d a0fa 45bc 94be b93d
00000080: b5b0 ca3d a291 a63d 1965 223e 0d28 9c3d
00000090: beaa eebb 1797 77bb 84cc ad3d 08d7 583c
000000a0: 1cc9 ad3d 954e 043d b123 803d cbb6 c53b
000000b0: bdb1 5e3d 2a51 81bd cdc8 3bbb 7b12 27bc
000000c0: 7ef1 fcbd e277 623d a45e 99bc c029 86bd
000000d0: 1969 1b3d 867d 81bd 9e56 c83d bb76 f63d
000000e0: 7118 b13d cdce 313d c715 ba3d 84d4 4c3d
000000f0: 9f41 833d d729 c93d 09a0 a7bc ef6a fd3d
00000100: 1192 fc3d 95fd 03bd d220 1d3d 8a59 8e3d
00000110: 41eb 943d e5ca 893d 9da2 f73d 7af2 e23c
00000120: ff83 bc3b c1b1 563d 9604 51bd ba76 fc3b
00000130: e24c c1bc 2e86 aa3c 00fa 88bd c60b 933d
00000140: ba8a 8a3d a34f 6ebd 0e75 4a3c 5d8b 793b
00000150: 7488 a9bd aa7c 423d cda5 cabd 9e24 46bd
00000160: 29d8 463d 0b1c 273c 1774 7a3d c1b3 273e
00000170: 0208 9f3c 15ec 573c a6b5 d73d 509b ec3c
00000180: d9c9 7e3d e01a cb3d 626b 0c3d 81b0 133e
00000190: 260e 133e 573e 0dbd 047e 813d efaa f83d
000001a0: 8d66 0a3e 063b 633d 2b2b 6fbc 2ec2 2a3e
000001b0: a7d3 a0bc 3b14 46bd a808 8dbc 3620 f93c
000001c0: a3f2 633d d6b3 69bb 6418 da3c 28cb 313d
000001d0: 3e7f 863d bc95 0d3c 6c75 333d c6a2 243b
000001e0: 7b34 9bbd 2257 713d 29a6 29bd d467 2ebe
000001f0: 78f0 1ebc 61ba 253c 19b1 a13d aa8f 0d3e
00000200: 3481 4a3d ede7 3fbc cb0e b03d 04a3 b83d
00000210: 7c21 28bc 01f6 86be 5b78 183e 6aeb d9bd
00000220: 128c 6fbb 1a1a 29bc f078 483c 877d 993d
00000230: d80d 103d 9192 d8bd 9cce 6a3e 91ad 8c3d
00000240: 72d6 8e3c 2aca ca3d 6f25 9d3d 1543 983d
00000250: 472e 853d 7361 1fbd a68d 9c3d 4e3b 003e
00000260: 08b2 dabd c982 26bd d6c6 d1bd 634d 7abd
00000270: 12d2 ad3c 7643 2ebd 9755 1dbe 5caa 373d
00000280: 735d 80bd 9f74 923d 18db d8bd 8fd9 42be
00000290: 238b 9c3d 510e 0dbe eb77 ccbd b407 b4bd
000002a0: ce94 783d a893 8339 9259 d43d cf0b bf3d
000002b0: e38e 99bd e7b0 c63c b849 b33d 1357 cc3d
000002c0: dbe7 d6bc a9da ec3d 5f3a 673d b073 b8bd
000002d0: 18fe 0fbd 86b2 5f3d 7b25 a63d 7f3f 5cbc
000002e0: 2766 393e f32c 733d 4af0 8dbe 2ce6 e13d
000002f0: 2009 41bd c760 7f3b 5778 e7bd 51e7 07be
00000300: cd9c 9c3c f291 ed3c 4929 a1bc 222f fbbc
00000310: 6ee8 ffbd f73f 843c 507b a8be 76ea fe3d
00000320: f354 90bd 1e84 84be b8bd 04be a4c8 21be
00000330: 8589 84bc 5fc7 8fbe 3a4c c0bd 7770 8dbd
00000340: 00cc 3d3d 60fd 373d 0896 4d3d 8976 e23c
00000350: 4db4 653d ab85 98be afb7 803d 665e 1cbe
00000360: 8c4a a6ba 5c94 54bd 6b80 a43d 6242 8abc
00000370: 20bf 82bc 908e c93d 58aa ae3c 7872 2abe
00000380: 7cdc 50bd 25a6 55bc 75cc 44bb 47f8 33be
00000390: 7064 04bd 4897 2c3c d774 3db9 1888 cebd
000003a0: 6c47 edbc 3543 913c dbf0 18be 72f8 4fbe
000003b0: 229f 103d 9a98 273e 7102 c9bd c7ff 60be
000003c0: 3dea 5cbe 9230 a4bd 2918 123d 6b76 0a3e
000003d0: 9a20 6abd af96 5bbd 7a64 053e e93c d03c
000003e0: bd59 933d 37f1 e13a 95e5 ccbd 9fee 36be
000003f0: 20d6 40bd 5b42 873d f229 33bc dec3 cebc
0.005559715 0.058791343 -0.052315265 0.0997576 0.09879796 0.17847316 0.058060803 0.0016912657
0.037546795 -0.0091655385 0.0068804203 0.035609566 -0.052157585 0.008157958 0.12069607 -0.10058696
-0.029592238 -0.03928574 0.17372017 0.17967226 0.19755425 0.048225675 0.16144395 0.1622983
0.075461484 0.04899697 0.107485846 0.0999163 0.16694996 0.05066424 -0.012083679 0.09069553
0.098969854 0.08133246 0.15858878 0.076248266 -0.0072835376 -0.0037779266 0.08486274 0.013234861
0.08485624 0.032301504 0.062568076 0.0060337535 0.054368723 -0.06314309 -0.0028653622 -0.010197277
-0.123507485 0.05529011 -0.018721886 -0.06550932 0.037942026 -0.0632277 0.09782146 0.12034365
0.0864724 0.04341011 0.09086185 0.05000736 0.064090006 0.098224334 -0.020462053 0.123739116
0.123325475 -0.032224257 0.038361378 0.06950672 0.072714336 0.06728152 0.12091563 0.027703512
0.00575304 0.052415613 -0.051029764 0.007704583 -0.02359623 0.020815935 -0.06688309 0.0717998
0.06764741 -0.058181416 0.01235701 0.0038077452 -0.082779795 0.04748217 -0.09894905 -0.048374765
0.04854599 0.010199557 0.06114587 0.16377164 0.019412998 0.013178845 0.105326936 0.028882653
0.062204216 0.099172354 0.034282096 0.144228 0.14360866 -0.03448328 0.06322864 0.12141978
0.13515683 0.05547621 -0.014597694 0.16675636 -0.019632174 -0.048359137 -0.017216042 0.030410867
0.05565132 -0.003566017 0.026622958 0.043406636 0.06567238 0.0086416565 0.043813154 0.0025121435
-0.07578369 0.058920987 -0.04141823 -0.17031795 -0.009700887 0.010115237 0.07895107 0.13824335
0.049439624 -0.01171301 0.085965715 0.09015468 -0.01026189 -0.2635956 0.14889662 -0.10640605
-0.0036551994 -0.0103211645 0.012235865 0.074946456 0.035169452 -0.1057483 0.22930378 0.06869043
0.01743624 0.09901841 0.076731555 0.0743467 0.06502967 -0.038911294 0.07644205 0.12522623
-0.10678488 -0.04065207 -0.10243003 -0.061108958 0.021218333 -0.042544805 -0.15364681 0.0448402
-0.06267824 0.0715115 -0.10588664 -0.19028305 0.07643726 -0.13774993 -0.0998381 -0.08790532
0.060688786 0.0002509628 0.10368647 0.09328424 -0.074979566 0.024254275 0.08754295 0.099775456
-0.026233604 0.115651436 0.05645215 -0.09006441 -0.035154432 0.054613613 0.081126176 -0.013442873
0.18105374 0.05936904 -0.27722389 0.1103023 -0.047127843 0.0038967596 -0.1130225 -0.13271834
0.019117737 0.029000256 -0.019673007 -0.030662123 -0.12495504 0.016143782 -0.3290658 0.124470636
-0.07047453 -0.25882047 -0.12962997 -0.15799195 -0.016178856 -0.28081796 -0.09389539 -0.069062166
0.046337128 0.04491937 0.05019191 0.027644413 0.05608015 -0.2978948 0.06285035 -0.15270385
-0.0012687012 -0.0518993 0.08032306 -0.016877357 -0.015960276 0.09841645 0.02132146 -0.16645229
-0.05099152 -0.0130401 -0.0030029092 -0.17575179 -0.032322347 0.010534115 -0.00018067971 -0.100845516
-0.02896472 0.017732242 -0.14935629 -0.20309618 0.03530801 0.16366807 -0.09814919 -0.21972571
-0.2157373 -0.080170766 0.035667572 0.13521735 -0.057159998 -0.0536105 0.1302661 0.02541967
0.071948506 0.0017238025 -0.10004727 -0.17864464 -0.047079206 0.06604453 -0.0109352935 -0.025239881

conv1.bias f4 [16]
00000000: 6472 973b ab30 eb3c f8ef 62bc 1358 babd
00000010: 3363 fbbc 2240 0c3d c226 213c bd23 743c
00000020: 2d20 1ebc 6bc9 6abc d8a8 aeba 6685 9bbc
00000030: d055 6ebb 49a8 863b 0f9b 383d bc67 33bd
0.0046217907 0.02870973 -0.013851158 -0.0909883 -0.03068695 0.03424085 0.009835901 0.014901099
-0.009651226 -0.014330248 -0.0013325466 -0.018984508 -0.0036367066 0.0041094166 0.04506975 -0.0438001

res1a.conv1.weight f4 [16, 16, 3, 3]
00000000: b6de 6e3a 5e91 b23d 07c4 8e3d 8ae7 973d
00000010: 96c6 223d 219c 53bd c39d c93d 5383 b53d
00000020: a3f1 04bd 994b dfbd c5fc 913b 70fb 83bd
00000030: f926 53bd 05e0 c4bd 20b8 8fbc 7b96 a3bd
00000040: c720 183a 4f2e b83c 4ad6 5bbd f06e 0c3d
00000050: f925 a8bc 48a0 b23c 2bd3 ad3c 49ee c7bb
00000060: 483a 28bd 75c9 d0bc 53de 87bd eb1f f2bd
00000070: 7e54 8f3d 5d2e c93d 75f8 92bd c9c6 9c3d
00000080: 9cf3 093d d07c a33d 6830 d13d 2e08 983d
00000090: d8e3 273c 42d6 193d 2fb3 0c3d 8836 8fbd
000000a0: aff3 8dbd 1794 ccbc 7e68 0bbd 7c17 dcbc
000000b0: 7e02 e73c b3c0 163b 4164 db3c 559d ddbd
000000c0: 603e 033d 7d22 01bd 207d 92bb f557 91b9
000000d0: 9460 00be 068a 3dbe 45a4 4abc d1d3 2e3d
000000e0: da6f a0bc f552 b6bd c7af 82bd c886 513c
000000f0: 49c4 36bd 3f18 a0bc 6253 4a3d 77b5 733d
00000100: 1c3c bb3d 2c25 15bd 2d53 6c3d 3214 a6bd
00000110: 9854 aebd 0475 8d3d b1a4 ca3c 5720 c5bd
00000120: d51b fcbc 641d d3bd 94ec c23c be3e 203c
00000130: 794a 1fbc 250c 8dbd a3e9 e2bc 5949 c0bd
00000140: f6c7 9cbc ad78 813d f338 c73d b71d 383b
00000150: fd2f a13d 781e c23d 39b5 6cbc f256 143c
00000160: e13e 0d3e 8d3a 073e a179 afbc b732 013d
00000170: 89cb 9cbb ae49 9ebc f581 af3a e177 1a3d
00000180: 2279 d63c 19b7 8b3d c300 b7bd 3a31 40bd
00000190: f9d0 88bd 3da1 2a3d 2ed5 9a3c f183 09be
000001a0: c5d5 ecbd fb66 d3bb bce6 47bc d4e4 11bd
000001b0: cc4e ac3d 681d 023d 7291 703d 5496 923d
000001c0: ce38 953d 4f09 503c a7e6 56bd 5ec9 483b
000001d0: f3cd 393d 712b 213d 37a1 493d eed6 34bb
000001e0: 14e0 51bd e418 953d 6c79 54bd 75d3 493c
000001f0: 7c34 083d d665 76bd c93a 0abe a722 23bc
00000200: 39f8 8abd 11ca ccbd 0795 20bd 7f4d 9a3c
00000210: e8b5 ca3b 8330 4b3d f375 8dbd 7fcd dd3b
00000220: eee7 763c 3614 c13d 26b3 e8bc 2023 9eba
00000230: 7e80 683d 0c58 413d af61 143e 5710 10be
00000240: 86a3 b9bc 7814 873d f56d 453d e773 87bd
00000250: 666a 133c d3d2 f53c cabb 0e3e 56c4 7a3d
00000260: 20ce f5bd 8622 8ebd 53ea 243d b8a4 b83d
00000270: ef9a 0bbc 2dcb aebc d271 89bd 7acd 9e3d
00000280: f063 e7bd 0917 36bd d475 93bd 4c0a f6bc
00000290: f51e 10be a335 acbd cc34 2ebd b624 603d
000002a0: 5fa2 adbd d562 99bd 7264 80bc 378e ab3d
000002b0: 5384 89bc 9f81 6d3c a0d3 b63d a148 91bc
000002c0: b38a c6bb a957 21bd d153 1a3e fb63 07be
000002d0: fced fa3d 21af 9abc 38ba 0a3e ca1c 093e
000002e0: e835 b93c 85bb 033e 0499 4c3e 45fc de3d
000002f0: 718a 843d 1515 afbd d955 85bd 82b4 a1bd
00000300: 6af3 e1bc 8de4 8cbc 06e2 b8bc c4ee 913d
00000310: f9a6 aebd 3b31 3f3c 1804 913d d8c7 cabc
00000320: 666d bebb cb5c ba3d 48f6 3dbd 2405 d7bd
00000330: 8e59 9abd 5787 bc3d 6661 6d3d e5d0 e1bd
00000340: d23d 5dbd f6c5 7a3b ebdf d6bc 003c 02be
00000350: fa54 27bd 48ba 81bd 3ec6 37be e333 c8bd
00000360: e990 72bd 9b29 cd3d 1549 573d 89f9 973d
00000370: 53e8 803d 8a02 b03d c0ee e7bb 1c64 b33d
00000380: 7763 763d 4a05 d9bc d9ea 4c3d 9b46 2dbd
00000390: a6d1 9d3d 3090 733d 1429 933c 9ca1 8c3d
000003a0: c18a cbbd aecd b8bd db6d 08be 081d 2fbd
000003b0: a877 883c ab7d 10bd f133 bd3c 2a87 ad3d
000003c0: 39f1 e9bc e301 babd f3aa 48bd fdf8 ae3c
000003d0: 5a42 1b3e 917d 063e 6059 f73d 5749 bb3d
000003e0: 7f13 2c3d f4d1 9abd b98c 97bd 0c8e a0bd
000003f0: 5d7b f9bd 16ac 88bd be50 623d 2e72 a4bc
0.0009112166 0.08719133 0.06970983 0.074172094 0.039740168 -0.051662568 0.09844544 0.08862939
-0.032457005 -0.10903091 0.0044551813 -0.06444442 -0.05155084 -0.09613041 -0.017543852 -0.07987686
0.0005803224 0.02248302 -0.05367116 0.034285486 -0.02052592 0.021804944 0.021218857 -0.006101404
-0.041071206 -0.025486687 -0.06634202 -0.11822494 0.069985375 0.09823296 -0.07176296 0.07655103
0.03367959 0.079827905 0.10214311 0.07423435 0.010247193 0.037557848 0.03435057 -0.06992823
-0.069312446 -0.024972958 -0.0340352 -0.026866667 0.02819943 0.0023003041 0.026781203 -0.10821024
0.032041907 -0.03152703 -0.0044704825 -0.00027722088 -0.12536842 -0.18509683 -0.0123682665 0.042682473
-0.019584585 -0.089025415 -0.06381183 0.012788482 -0.044620786 -0.019542811 0.049395926 0.05949923
0.09142324 -0.036412403 0.05769651 -0.08109321 -0.08512229 0.069070846 0.024736734 -0.09625309
-0.03077499 -0.1030834 0.02379445 0.009780584 -0.0097223455 -0.06887082 -0.027699297 -0.0938899
-0.019138318 0.06321845 0.09727659 0.0028093883 0.07870481 0.09478468 -0.014447504 0.0090539325
0.13793518 0.13205929 -0.021420302 0.031542506 -0.0047850055 -0.019322243 0.0013390171 0.03771198
0.026180808 0.068220325 -0.08935692 -0.046921946 -0.06680483 0.041657675 0.01890048 -0.13429238
-0.11564211 -0.006451485 -0.012201007 -0.035618618 0.08413467 0.031766325 0.058732457 0.07157579
0.07286225 0.012697532 -0.05246606 0.0030637602 0.045362424 0.03934807 0.049226012 -0.0027593928
-0.05123909 0.07280138 -0.05187361 0.012318482 0.033253178 -0.060155712 -0.13498987 -0.009956992
-0.06785626 -0.099994786 -0.039204624 0.018835781 0.0061862357 0.04960681 -0.06907263 0.006768882
0.015069945 0.09427683 -0.028405737 -0.0012064911 0.056763165 0.04720311 0.14490388 -0.14068733
-0.022660982 0.06595701 0.048200566 -0.066139035 0.008997535 0.030007755 0.13938823 0.061222397
-0.12002206 -0.069401786 0.04026253 0.090157926 -0.008520826 -0.021337116 -0.067111626 0.07754035
-0.112983584 -0.04445556 -0.07200208 -0.030034207 -0.14074309 -0.08408668 -0.04253082 0.05472251
-0.084782355 -0.07489554 -0.015672896 0.08376735 -0.01678673 0.014496236 0.08927083 -0.017734827
-0.0060590147 -0.03939024 0.15071036 -0.13221733 0.12252423 -0.018882336 0.135476 0.13389888
0.022608712 0.12864502 0.19980246 0.1088796 0.06471718 -0.08548943 -0.06510515 -0.07895757
-0.02758189 -0.017198825 -0.022568714 0.07125619 -0.08527941 0.011669452 0.07080859 -0.024753496
-0.005811381 0.0909973 -0.04637745 -0.10499027 -0.075366125 0.092055015 0.057954215 -0.110261716
-0.054014035 0.0038264967 -0.02622982 -0.127182 -0.040852524 -0.063343585 -0.17946717 -0.097755216
-0.05922023 0.10017701 0.05255993 0.07420642 0.06294312 0.08594234 -0.0070780218 0.08759329
0.06015345 -0.02649178 0.050028656 -0.042303663 0.07706003 0.05946368 0.017963924 0.06866762
-0.099385746 -0.09023605 -0.13323157 -0.042752296 0.016658619 -0.035276096 0.023096057 0.08473046
-0.028557407 -0.09082391 -0.048991155 0.021358961 0.1516203 0.13133837 0.12077594 0.09144848
0.04201078 -0.07559577 -0.073998876 -0.07839593 -0.12181733 -0.06673448 0.055252783 -0.020073976

res1a.conv1.bias f4 [16]
00000000: 77ab 973c 0185 9c3c 4c59 3dbd 7c49 a53d
00000010: cf56 a63d 8c9d 7bbd 76e2 083d 5b3f 913d
00000020: bd6a c13c 7f65 95bd 9193 09bc 5cbe debd
00000030: 8790 1ebd f6fa e7bc 9937 803c d132 6d3d
0.018514378 0.01910639 -0.04622774 0.08070657 0.08122026 -0.061429545 0.033419095 0.07092162
0.023610467 -0.072947495 -0.008396999 -0.10876152 -0.03871205 -0.02831791 0.015651511 0.05790979

res1a.conv2.weight f4 [16, 16, 3, 3]
00000000: d5d2 843d ecdc 053d 5886 92bc 3ecd a5bd
00000010: 0dab d5bd 65b2 40bd 3cbf 703d 358e 00be
00000020: 361b eabd 172a ba3d 0fc7 3dbc e33f 07be
00000030: ca7e 8d3d 4988 ce3c 7c6d 29bc 9ac2 e1bd
00000040: 94c7 d33c be91 8f3c b83e 563d aa21 17be
00000050: 9719 523c 1e18 b6bd 6dcb c2bd dc15 cc3d
00000060: f56a 053d 6ac6 86bd 31e4 cc3d 2c12 e3bd
00000070: 5743 b53d a8e9 443d f9e4 ba3d 7d37 383d
00000080: a8dd 633d 63de 943d 6856 b0bd f2e3 40bd
00000090: 9a4e 363d fc2a 6f3c da03 6abd fb5e c2bc
000000a0: 64e4 babd f02f 093e 9229 b13d dfac 72bd
000000b0: 9c78 1d3e 1dc0 f33c f60c acbd e395 bbbc
000000c0: 0227 86bd 24fa 3a3c d598 77bd a581 79bd
000000d0: 0b89 e83c 8893 753c 20aa a83d d85f 00bd
000000e0: 6458 c93d 7bb3 203d 8c99 db3c 6cd2 473d
000000f0: ccd2 213d bb4e 24bd ab36 a8bb dc0e d1bc
00000100: a355 64bb d650 c4bc 3f4e 8abd 109a 12bb
00000110: 37fc 4b3d 782f b5bd 0c74 89bc 9129 30bd
00000120: e661 30bc 306f 8f3d 8f53 f9bd 7369 bd3c
00000130: ba11 2a3d 5100 b13d 5c26 983d 6b95 c8bc
00000140: 8357 0e3e 7d91 98bc eedb 883b c329 00bd
00000150: e14f 45bd 6b4f d23d 7381 203d 8cbe 243d
00000160: b662 e0ba 3fa8 503d 19d1 58bd eb16 fe3c
00000170: 2c41 413d e725 98bd b252 a03d b049 d0bb
00000180: 21dd 103d 152d 173c e5c8 e93d a39d 92bd
00000190: 144d e0bd fdb3 283d 0d16 f53d e5d3 fd3d
000001a0: 6df4 c73d 828f b03d 5019 4d3d 7e98 f43c
000001b0: 4b99 cf3c 3821 903c cc16 8fbd f7f6 8bbd
000001c0: 7c8c 08bd a3ac 903d acbb c93d 1fc5 053d
000001d0: 138d 5e3c d923 46bd 16a6 8fbd cbd1 a03d
000001e0: 6983 bbbb 397e d4bd 90d3 ecbd 42e1 a5bc
000001f0: bc5d bebd 6ada 89bd 77a8 9c3d de89 a73d
00000200: 995b 31bd 2c1a 7abd 90db d2bd 4e42 e83c
00000210: f52e 1e3d 9a56 c63c e2d9 a43d 6958 03bd
00000220: c2ae 253e e705 583c 7b84 7ebd de11 c33d
00000230: cc0d ea3c 90e2 e6bc f6e2 6dbd 70d7 4dbd
00000240: 619a c53c 8930 c1bc c023 f03d e681 efb9
00000250: fa6e 5dbd a60b 863d af5b 9b3d c9f0 eebd
00000260: 52fe 24bd 8132 3dbc 2deb 39bd baa8 29be
00000270: c57c 293d 64d0 9bbc 64fc 26bd 8a32 04bd
00000280: 6ba5 6bbc add5 77bd 65da 79bd cc6f b43d
00000290: 60ae 603d 4c6b b3bc f502 233d cafe 3b3d
000002a0: 61d9 513b cb22 a0bd 90de a93d c24f ce3c
000002b0: b84c 6c3b 4633 2d3d 3517 553d 4294 6f3d
000002c0: 802a cdbc 4e4a 4e3d ae9c 64bd 3bba 803c
000002d0: 076b 1cbd b4fe cabc ed88 40bb 329d 88bd
000002e0: 5fd8 07bd 0b8b b53d c019 57bc 42ed eb3c
000002f0: 467b a03d bd84 c2bc 22c0 06bb 8475 8a3d
00000300: bbd9 d23c bd4c 82bd 6837 ee3d 5f96 babc
00000310: 5afa 3e3d 45f2 c13d e9a1 843d 2bfe 50bd
00000320: 9e2f d53c c1e0 68bd 4430 803d a6c5 4a3c
00000330: 9c8c 763d e559 c0bb 6147 2a3d 5df3 083d
00000340: 3e62 4ebd 2050 61bc 6da1 afbd 9ea7 a43b
00000350: eae7 9f3d 6b4c ceba b4dc 98bc 84a2 043d
00000360: 9066 9ebb 76a7 7c3d 048d 793c 1496 af3c
00000370: ed79 ab3c 00a6 763d 135a 9f3d 42b5 3a3d
00000380: c2cf 173e 7f91 05bd 8ded 5cbc 1f44 5f3c
00000390: 7df7 6fbc 32f1 5a3b 7ab4 fb3d 52f1 cebd
000003a0: 3a7d 7b3d eae9 663d a932 9fbb e553 2bbd
000003b0: ab0a e13d 6cf7 dc3c 9f58 5abc 7af3 e93d
000003c0: 1c77 ff3c 016a 953d 5276 b33d 6140 6fbd
000003d0: ced0 36bc b45e 5cbd a5c0 373d a664 913d
000003e0: d226 1a3d 919c abbd 7ca3 123d a75f 23bd
000003f0: e1df 9e3c 5a03 a13b 0bde 9bbd 322a 98bd
0.064855255 0.03268139 -0.017886326 -0.080957875 -0.10433016 -0.04704513 0.058776125 -0.12554248
-0.11430971 0.09090059 -0.011583104 -0.13207965 0.06908949 0.02521147 -0.0103410445 -0.110234454
0.025852002 0.01752555 0.052305907 -0.14758936 0.012823484 -0.08891319 -0.09511457 0.09965107
0.032572705 -0.06580813 0.100044616 -0.110874504 0.08850735 0.048074394 0.09125704 0.044974793
0.05563131 0.072689794 -0.08610231 -0.047092386 0.044508554 0.014597651 -0.05713258 -0.02372693
-0.09125593 0.13397193 0.08650507 -0.059246894 0.1537804 0.029754693 -0.084009096 -0.02289862
-0.06550409 0.011412177 -0.060448486 -0.060914654 0.02838566 0.0149887875 0.08235574 -0.031341404
0.09831312 0.039233666 0.026806615 0.04878466 0.039507672 -0.040114146 -0.00513347 -0.02551978
-0.0034841083 -0.023964327 -0.067532055 -0.002236966 0.049801078 -0.088469446 -0.016778968 -0.04300839
-0.010765528 0.07003629 -0.12174141 0.023121571 0.04152081 0.086426385 0.074291915 -0.02448531
0.1390057 -0.018624062 0.0041766083 -0.031289827 -0.04817188 0.10269054 0.039185952 0.040220782
-0.0017119262 0.050941702 -0.052933786 0.031016788 0.047181293 -0.07429104 0.07828273 -0.0063564405
0.035367135 0.009227057 0.11415271 -0.07158973 -0.109522015 0.041187275 0.119670965 0.12393931
0.097634174 0.08621122 0.050072968 0.02985787 0.02534165 0.017593965 -0.0698677 -0.06834214
-0.0333371 0.07064178 0.09850249 0.032658692 0.013583439 -0.04837403 -0.070141 0.07852515
-0.0057224524 -0.103756376 -0.1156379 -0.020249013 -0.09295222 -0.06731112 0.076493196 0.08180593
-0.043300245 -0.061060116 -0.102957845 0.028351929 0.038619 0.024211217 0.0804937 -0.032066736
0.16179946 0.013185001 -0.062138062 0.09524892 0.028571032 -0.028184205 -0.058077775 -0.050254285
0.024121465 -0.023582714 0.11725569 -0.00045682414 -0.054060914 0.065451905 0.07585847 -0.1166702
-0.0402816 -0.011547686 -0.045390297 -0.1656827 0.041378755 -0.019020267 -0.040768042 -0.03227476
-0.0143827 -0.06050651 -0.060999293 0.08810386 0.054853797 -0.02190175 0.039797742 0.045897283
0.0032020437 -0.07819136 0.082944036 0.025184516 0.003605647 0.042285226 0.052024085 0.058491
-0.02504468 0.05036383 -0.055813484 0.015713802 -0.038188007 -0.024779655 -0.002937849 -0.066706076
-0.033165332 0.08864411 -0.013128698 0.028799657 0.078360125 -0.023744935 -0.0020561297 0.067606956
0.025738588 -0.06362293 0.11631662 -0.02277678 0.046625473 0.09470037 0.064761944 -0.051023643
0.026023682 -0.056854967 0.06259206 0.012376225 0.06019269 -0.0058700913 0.04157198 0.033435214
-0.05038666 -0.013752013 -0.085757114 0.0050248643 0.07807906 -0.0015739327 -0.018659927 0.03238155
-0.0048340037 0.06168314 0.015231375 0.021433868 0.020932162 0.060216904 0.07780852 0.045583017
0.14825347 -0.03260946 -0.013484371 0.013627081 -0.014646408 0.0033407924 0.122902825 -0.10104622
0.061398722 0.05637542 -0.004858334 -0.041828055 0.10988363 0.026973449 -0.013326793 0.114233926
0.031184725 0.07295609 0.08762802 -0.058411006 -0.011158181 -0.053801253 0.044861455 0.07099275
0.03763468 -0.08379472 0.035800442 -0.039886143 0.019393863 0.0049137296 -0.07610711 -0.07429923

res1a.conv2.bias f4 [16]
00000000: 8099 603d 6d82 a03a 3a58 3fbd 67d7 40bd
00000010: 4cea 0fbd 277a e5bc 5dbb 72bd fd4b 803c
00000020: fe65 79b9 5906 1dbd 6995 3a3d 14b6 edbc
00000030: 3eee b7bd bbb3 42bd 6fe3 5c3d 7882 3e3b
0.05483389 0.0012245901 -0.046715 -0.047080424 -0.035135552 -0.028012348 -0.059260715 0.015661234
-0.00023784486 -0.03833613 0.045552645 -0.029017486 -0.08980988 -0.047534686 0.053927835 0.0029069465

res1b.conv1.weight f4 [16, 16, 3, 3]
00000000: a5db 4a3e b2bd ad3d f935 2fbd 2f58 603d
00000010: 2e8c adbc 0ec3 a03d 9082 6ebd 654a 32bd
00000020: 3f71 c8bd 6d8d ee3d dd19 023e 8128 7d39
00000030: 9772 943d e0ab 463b d342 0e3e 1f45 c43d
00000040: 6efa 8839 9541 8539 5e41 903d 1ae1 3cbd
00000050: a3f7 003d ea7b 33be 24e9 bdbd cf29 f1bc
00000060: 3664 78bc 229f 8dbd 12da 97bc e447 b33c
00000070: b187 853d d591 b33d 7f75 21bd b7f7 ef3d
00000080: da5e 623d a9f7 9a3d df3d 5b3c 9996 8c3d
00000090: 3906 be3b 5d3b 97bd 5def 073c 8f2d bc3c
000000a0: d87b 6dbc bab9 5cbd 6378 eb3d 82b6 94bc
000000b0: 7961 dbbd adbd d8bc d4fc 28bd 65e2 913c
000000c0: 5b71 1cbc c61a 4cbd 2e53 093d 8745 c53d
000000d0: 1780 ee3b d235 8abc c722 cdbc 2a13 e13d
000000e0: 2dbc 9c3d 30b2 ab3d c99e 223e 1b33 a73d
000000f0: ec14 a83c fe30 5a3d b7d2 b33b 05f2 d43d
00000100: 0961 c03d 57a4 703d 7a19 093d ee87 f2bc
00000110: e5b2 823d 1138 5c3d 096a aabd c66d 94bd
00000120: b139 f4bd 5432 85be af45 e1bd dde4 163d
00000130: e4d7 fc3d 8285 5abd 9a01 7cbd 3274 afbc
00000140: eb72 b23d c5e1 0bbd 2655 1dbb 7747 9b3d
00000150: 3abd 2f3d 1893 a43d 7ed5 46ba 54d3 b53d
00000160: fc48 fe3c 9094 843d f2fa f73c e813 a2bd
00000170: de94 acbd 7318 1cbd 458b 1e3d 8616 93bd
00000180: 01e6 773d d44c f13c 0c28 123e 72c3 973c
00000190: cf73 4f3c 9fed b8bd 77ca b5bc 1a57 b63d
000001a0: 1ec7 21bd 96b6 b8bc f87b e23c ad5f 6cbc
000001b0: 9098 413e 64c4 7b3e 9f10 b9bd 28b5 62bd
000001c0: c2b3 73bd 74a1 2fbe 46c1 63bd 5fd2 b3bd
000001d0: b618 a3bd 6c7d 9fbc e819 97bd 9a40 02bd
000001e0: e09f e33d d24e 403d ea73 0ebe 37e5 183e
000001f0: 776f 88bc fe52 fb3c 85c7 603e a882 3a3e
00000200: 254f 823d ef1c 37ba c9cb 153d d200 4ebc
00000210: 8c15 e9bc a20d 99bd d792 a93d 0b8f 37be
00000220: 1d0f 2ebc 9f97 623d 2dfa f3bd c27a 27be
00000230: e2b6 2b3d 0783 9d3c cfca 28bd 8202 c1bd
00000240: ab49 a1bd 5c19 4b3d ceee 6a3d 3318 c8bd
00000250: ad48 68bd d199 a5bd db82 abbd 2261 aabd
00000260: 407e d5bb 2412 c03c 845a 30bd e5e4 3b3d
00000270: c1b7 bfbd 686b 9c3c aded 2a3d 28fd f63c
00000280: bac4 223d 92b1 fa3b 006c 66bd f1dc 193c
00000290: 27d9 233d 64da e3bb 9a31 b33c a4fc dbbc
000002a0: 1a17 abbc 7368 0abd 1086 1a3c 1e8d aabd
000002b0: de19 73bd b4f5 88bd f7bc a03d 1c44 8e3d
000002c0: 5479 893d 2c75 d73b 1cbf 813d 0d31 67bd
000002d0: 0ef9 633d 7409 963d 532d a23c a8e7 85bd
000002e0: e48c 09bc a8a7 f53b adae 36bd 613d 83bd
000002f0: 1d29 b1bd ea1e 933c 0156 993d bae1 9fbc
00000300: 3b04 013d 0ee8 71bd a5ae 68bd 16d5 44bd
00000310: 2b4f a1bd 2777 b3bd f68e 4e3d 776b 6cbc
00000320: ce0c 553d 6747 2e3d 6e14 31bd a83c 7ebc
00000330: 2931 493d cc2f 7ebd 2522 dd3c dd30 6dbd
00000340: 08ec 89bd 5d4c 6e3c fab9 35bb b68a 693d
00000350: 4b2e f2bc 416e e1bc de91 3c3d bf69 dcba
00000360: 90f7 25bc e9db 883d c6e7 9cbd 40e8 9e3d
00000370: 40f4 0b3b 70ad 43bd c440 88bc 86b7 8bbd
00000380: 7520 90bd f115 63bd fb5b e8bc e160 7abd
00000390: e14b 52bd 6980 8abd f6c2 83bd 88b1 abbd
000003a0: 264d 96bc b00a f9ba 84de c0bd b6d1 3abd
000003b0: fd0b acbd c5f2 50bc 9900 ae3b 055c 9abd
000003c0: 5279 4f3a 565a 3bbd 1955 8abd 32c6 8dbd
000003d0: f2f0 9b3d d977 acbc c03a 9cbd 4c9f adbd
000003e0: 63d6 88bd 8870 5b3d f967 2cbd b456 d4bc
000003f0: fd1f 3cbd 6375 4a3d 6818 2d3d a6e8 ecbc
0.1981035 0.08483447 -0.04277608 0.0547716 -0.021185007 0.07849704 -0.058229983 -0.04352798
-0.09787225 0.116480686 0.12705179 0.00024143049 0.07248419 0.0030314848 0.13892679 0.09583496
0.00026126526 0.000254166 0.07043718 -0.04611311 0.031486165 -0.17527738 -0.09272984 -0.029438881
-0.015160611 -0.06915118 -0.018536601 0.021884866 0.06520022 0.0876805 -0.039418694 0.1171717
0.05526624 0.07566769 0.01338145 0.06864662 0.0057990816 -0.073843695 0.008296815 0.022970943
-0.014494859 -0.05388806 0.11497571 -0.018153433 -0.10711951 -0.026457632 -0.04125674 0.017808149
-0.00954851 -0.04983022 0.033526592 0.09632402 0.007278453 -0.016871367 -0.025040997 0.109899834
0.07653079 0.08383596 0.15880884 0.081640445 0.020517789 0.05326938 0.0054877657 0.10397724
0.09393508 0.058750477 0.033471562 -0.029605832 0.06381778 0.053764407 -0.08321006 -0.072475
-0.11925066 -0.2601496 -0.10999619 0.036839355 0.12345865 -0.05334998 -0.061524965 -0.02141771
0.08713325 -0.034150857 -0.0024007051 0.0758199 0.04290507 0.080358684 -0.00075849134 0.08878198
0.031040661 0.064736485 0.030271027 -0.07913953 -0.08426832 -0.038109254 0.038707037 -0.071820304
0.060522083 0.02945558 0.14273089 0.018525813 0.012661888 -0.090296976 -0.02219127 0.08903332
-0.039496534 -0.022548001 0.027647004 -0.014427108 0.18905854 0.24586636 -0.09036373 -0.055348545
-0.059497602 -0.17151433 -0.05560424 -0.087803595 -0.079636976 -0.019468985 -0.07377988 -0.03179989
0.11114478 0.04695017 -0.13911405 0.14931189 -0.016654713 0.030679222 0.2195111 0.18213904
0.06362752 -0.00069852074 0.036571298 -0.012573438 -0.028452657 -0.074733034 0.082799606 -0.1792566
-0.0106237205 0.05532038 -0.119129516 -0.16355422 0.041922458 0.019227518 -0.04120904 -0.094243065
-0.07875379 0.04958473 0.05735665 -0.09770241 -0.056709934 -0.08085979 -0.08374568 -0.08319308
-0.0065152943 0.02344615 -0.043055072 0.045872588 -0.0936122 0.019094184 0.04173057 0.030150011
0.039738394 0.0076505626 -0.05625534 0.009391055 0.040002014 -0.0069535244 0.021874238 -0.026853867
-0.02088504 -0.033791017 0.009431377 -0.08327697 -0.05935084 -0.06687489 0.07848542 0.069465846
0.06712595 0.0065752473 0.06335279 -0.056443263 0.05565744 0.07326022 0.019797003 -0.065383255
-0.008395407 0.007496793 -0.044600178 -0.064081915 -0.0865042 0.017959077 0.07487107 -0.019516815
0.031498175 -0.059059195 -0.05680718 -0.048054777 -0.07876428 -0.08762961 0.050429307 -0.0144299185
0.052014165 0.042548563 -0.043232374 -0.015517391 0.04911915 -0.0620573 0.02699382 -0.057907928
-0.067344725 0.014544574 -0.002772926 0.05701705 -0.02956309 -0.027518393 0.046037547 -0.0016816183
-0.010129824 0.066825695 -0.07661395 0.07759142 0.00213553 -0.047772825 -0.016632445 -0.06822114
-0.07037441 -0.055440847 -0.028364172 -0.061127547 -0.051341895 -0.067627735 -0.0643367 -0.08383471
-0.018347334 -0.0019000378 -0.094174415 -0.045610152 -0.08400724 -0.012753193 0.00531013 -0.075370826
0.00079145015 -0.045740448 -0.06754512 -0.069225684 0.07614316 -0.021053242 -0.07628393 -0.08477649
-0.06681516 0.053574115 -0.042091344 -0.02592025 -0.045928944 0.049428355 0.042259604 -0.02891953

res1b.conv1.bias f4 [16]
00000000: d066 01bd 1d07 1bbd f087 503d 2d1b 6d3d
00000010: 43b8 a0bd aafd e0bc b11a 293b ee42 12bd
00000020: 506b 21bd bd38 76bd 949e 6fbc 1c23 65bd
00000030: c633 6b3d 8958 663d 7dfe cc3a 2dfe 8d3d
-0.03159219 -0.03784858 0.05091089 0.057887245 -0.07847645 -0.027464706 0.0025803263 -0.03570836
-0.03940898 -0.060112704 -0.01462521 -0.055941686 0.057422422 0.056236777 0.0015639808 0.06933246

res1b.conv2.weight f4 [16, 16, 3, 3]
00000000: 6ce5 9dbd c1db 1f3d 2ca8 93bd b3cc a2bd
00000010: 4507 003d 0b85 b63d 5cd5 c9bb afdc d7bd
00000020: 29b3 eb3b 0273 993d 43ea a3bd af36 743d
00000030: 73fa 0bbd 6cc9 073d 192e 01bd 3bf8 cbbd
00000040: c45c e3bb 75bb 3fbc f6e9 7cbd 8152 bd3d
00000050: 46bd 01be 013a 6ebc d35b 2e3d 7281 033d
00000060: 3933 773d a525 33bd f018 0e3b 4f14 0cbd
00000070: 05fb 86bd a59e fb3c 04cd 70bd 1af5 59bd
00000080: 15d9 963d b014 863d 7925 4e3d 8d46 a63d
00000090: c4b4 6f3c e65a bc3b 5d6b 4aba 3067 603d
000000a0: 7e93 213c a8e9 2bbd 7eba 7e3d 1b7e 0a3e
000000b0: 8434 793d ab54 813d eb4c 78bd 2539 3bbd
000000c0: 61cb 823c ea0e 073d b692 ce3d c990 90bd
000000d0: 7752 90bd 1a1b 1d3d 950f 9f3d cbf8 373d
000000e0: a600 383d 9f1b 8bbd 0ddd 8c3b f29f e7bc
000000f0: 96d2 0b3d 58c9 56bd c73a c1bd bab8 b9bc
00000100: 9fcf 94bc 3dd1 7cbd cc3e 9d3c 2d01 bdbd
00000110: ec4f 08bc b213 2e3d 0d0c 0a3d 4b8e 04be
00000120: 322c a9bc fec5 d4bd 5074 2dbd 6c89 813c
00000130: 485b 03bc 21f2 9b3d a5a2 d13c c713 34bc
00000140: d9d6 ad3c b7c9 f9bd 7595 00be cfd3 73bd
00000150: d8d2 02bd f989 6c3d 4aaa 85bc 37ab f2bd
00000160: fe44 293d 68cd 533d 3a88 863c 5d91 07bc
00000170: 468f 263d e633 adbd d135 173d 4520 c7bd
00000180: 4eb8 703d 8bde 593d 8b64 2a3d 4f6a 393d
00000190: 28f0 85bd ac6e 363c 0832 f73c 2a87 06bd
000001a0: 9e9f 78bd 87eb ae3d a3cb 59bd 73c8 f53c
000001b0: c5cf b93c 7b35 d4bd 14d4 1f3d 4503 25bd
000001c0: ca3a 28bd b853 c13c b6c0 2d3d c448 2cbb
000001d0: d90b e1ba 346d 99bd b109 463d 56f1 b83d
000001e0: ee42 a0bd b7f8 ec3c 6680 4fbc cc0e 9fbd
000001f0: 1ca5 ecbd 35e8 4ebd d41b 5dbd 69c0 71bd
00000200: 5648 3a3d dcf1 053d ad36 f03b b607 b5bd
00000210: 879a 543d ee8b c2bd ced7 90bd 2e4a cd3c
00000220: 503d 72bd 5f88 9c3c ff1c 3ebb 32c6 20bd
00000230: a36d a53d 9394 a43d 1a5e 7c3d 9252 5ebd
00000240: d573 88bc 110b 383d 973c 85bd 67d5 853d
00000250: 3498 c63d 419c 84bd 4a41 63bd 7b6c dabd
00000260: a4b8 9f3d 1d21 3b3d 8867 58bb b626 a93d
00000270: 0321 6abd bf69 983d 32a5 4c3b 25d8 90bc
00000280: bdd3 1fba b9c9 babb 3212 8b3c a784 cebd
00000290: bad4 933d 488f 743d 45b5 9cbb 1426 bf3d
000002a0: 850c a6bc 2ccd 24be 89ca 12be 2e4d 8abd
000002b0: 13be b0bd c523 fc3b 8f5d 81bd f7a3 6fbd
000002c0: cfd7 5e3d c6b4 cc3b 30ab a5bc 8389 083d
000002d0: ae07 bcbd fd09 87bc cc02 9fbd 7de6 2b3d
000002e0: 9353 90bd 363b 3c3d 3225 033e e55e 8cbd
000002f0: 1e2c 99bc c181 363d 1cd7 2fbd 5f4e 403c
00000300: dd92 693d 7da8 ddbd 2b71 c6bc 06aa 6a3d
00000310: 04fb aebd d415 853c 3aea 5ebd eb11 75bd
00000320: 9e7b 7d3d a51e 773d f2aa eebc 0b7e a7bd
00000330: a46d b4bb 8b1b 0abe 7a68 ce3d 656a 64bd
00000340: 7e2e b03b e6bf 493d d47a 203c 6e9b 88bc
00000350: 0dfe e53d 835a 17bc 2e9c 0abe 086a 883d
00000360: ca70 1ebd c449 233d 07d3 64bd 3308 ccbc
00000370: 4b82 21bd a02c 913c 46fc 44bd 9837 84bc
00000380: b245 1a3c 5d5c 3fbd 73df 9dbd 5fbe 8f3d
00000390: 2e48 133d 0e03 cdbb df72 523d 9f93 cf3d
000003a0: 9b98 25bd d86c adbd 531e b23d 1e3e 6c3b
000003b0: 97cb a3bd 9129 b7bd 8c80 86bd 8728 803d
000003c0: ffbd 46bb 5394 003e 7146 923c 7478 a13a
000003d0: 06e7 f3ba 350a 4d3d 3f72 7dbd ddee 793d
000003e0: 0307 ab3d 9dd5 9abd 098d ebbd c8fd 3e3d
000003f0: 74a8 b93d ee2f adbd 9cf6 503b e458 91bd
-0.077097744 0.039027933 -0.072098106 -0.079491995 0.031256933 0.08912095 -0.0061594676 -0.10540139
0.0071929884 0.07492639 -0.08003666 0.059622463 -0.034174394 0.033151075 -0.031538103 -0.099594556
-0.0069385488 -0.011702408 -0.06174656 0.09244252 -0.12669858 -0.014540196 0.04256804 0.03210587
0.060351584 -0.043737072 0.0021682344 -0.034199055 -0.06590847 0.030715296 -0.058789268 -0.053212263
0.07365624 0.065469146 0.050328705 0.08118925 0.0146305 0.0057481406 -0.0007721687 0.054785907
0.009861825 -0.04197088 0.06218957 0.13524668 0.0608411 0.06314977 -0.06062023 -0.045708794
0.01596612 0.032973208 0.10086577 -0.070588656 -0.07046979 0.038355924 0.07766644 0.044915
0.044922493 -0.06792378 0.0042988122 -0.02827451 0.034136377 -0.05243811 -0.09435039 -0.022671092
-0.018165408 -0.061722983 0.019194983 -0.0922874 -0.008319836 0.04249925 0.0337029 -0.12944905
-0.020650957 -0.103893265 -0.042347252 0.015812598 -0.008017369 0.07614542 0.02559025 -0.010991043
0.021220611 -0.12196677 -0.12557013 -0.05952817 -0.031939358 0.05774877 -0.016316552 -0.11849063
0.04132556 0.051709563 0.01642238 -0.008274403 0.04066398 -0.084571645 0.036916558 -0.09722952
0.058769517 0.05319075 0.04159979 0.0452674 -0.06539947 0.011134785 0.030175224 -0.032843746
-0.060699098 0.08541017 -0.05317272 0.030002808 0.02268208 -0.10361763 0.039020613 -0.04028632
-0.04107169 0.02359949 0.04242011 -0.002628849 -0.0017169669 -0.07491532 0.048349086 0.09030406
-0.07825266 0.02892719 -0.01266489 -0.07766494 -0.115549296 -0.05051442 -0.053981617 -0.059021387
0.04547914 0.03270136 0.0073307366 -0.08839361 0.05190518 -0.09499346 -0.070724115 0.025059786
-0.059140503 0.019107996 -0.0029008982 -0.039251514 0.08077552 0.08036151 0.06161318 -0.054277964
-0.016656796 0.04493243 -0.06505697 0.06534844 0.09696999 -0.064751156 -0.055482186 -0.10665222
0.07798889 0.045685876 -0.0033020694 0.08259337 -0.05716039 0.074420445 0.0031226394 -0.01768119
-0.000609692 -0.0057003167 0.01697645 -0.10083895 0.07218309 0.059706956 -0.004782351 0.09333435
-0.020269642 -0.16093892 -0.14335074 -0.06753002 -0.08630004 0.0076946937 -0.06316673 -0.05850598
0.05440503 0.006247136 -0.02022323 0.033334266 -0.09181152 -0.016484255 -0.07764205 0.041967858
-0.070471905 0.045954905 0.12807158 -0.06854037 -0.018697795 0.044557337 -0.042929754 0.011737435
0.057024825 -0.10823152 -0.024223885 0.057291053 -0.08543971 0.01624576 -0.054422595 -0.05983154
0.06188547 0.06033196 -0.029134247 -0.08178338 -0.0055062342 -0.1348707 0.10078521 -0.05576553
0.005376636 0.049255274 0.0097949095 -0.016675677 0.11230097 -0.009237888 -0.1353614 0.06660849
-0.038681783 0.03986527 -0.055865314 -0.024906253 -0.039430898 0.017721474 -0.04809215 -0.01613979
0.009416031 -0.046718944 -0.07708635 0.07018732 0.035957508 -0.0062564677 0.05137908 0.10135578
-0.04042874 -0.08468026 0.0869719 0.0036047767 -0.07997816 -0.08943475 -0.06567487 0.0625773
-0.003032565 0.12556581 0.017855855 0.0012319223 -0.0018608279 0.050058562 -0.06187653 0.061018813
0.08350947 -0.07560275 -0.1150151 0.046628743 0.09065333 -0.084564075 0.0031885272 -0.07097033

res1b.conv2.bias f4 [16]
00000000: 244b 883c 1af9 a3bc dff4 96bd f613 b53c
00000010: af4a 2f3c 16eb ea3c a998 033d 3b46 643d
00000020: a91a e3bc 2624 8d3c 869e 17bc 6079 303d
00000030: 6d31 503c c551 04bd 28a6 0b3c 56be a53c
0.016637392 -0.020016242 -0.07370924 0.022104245 0.010698958 0.02867655 0.03212801 0.05573104
-0.027722673 0.017229151 -0.0092541035 0.043084502 0.0127070965 -0.032304544 0.008523501 0.02023236

conv2.weight f4 [32, 16, 3, 3]
00000000: cbd3 bb3c d535 2ebd fc41 373d 5c24 5ebd
00000010: 91e9 b2bd 8d34 8fbd 48f4 debd bba3 9abd
00000020: 1d50 4f3c 3694 96bd a58b 2ebd 258f 973d
00000030: d8e2 0dbd 7aef 25be ff64 41bd d2d8 283d
00000040: 0cd3 a33b e256 d13d 66b7 2a3e 8fe6 783d
00000050: 7921 dbbc bda0 4b3d 3971 13bd 8181 c0bd
00000060: 02e9 1c3d 3caf 04bd 641c 8a3d a6c3 94bc
00000070: 2cad 863b e0ea 8cbc 3b6d a4bd 7f0a a9bd
00000080: c801 04bd fb10 0ebe 5e2c edbc 4f21 86bd
00000090: ff8a 86b9 9cbe 093c 494a 84bd 2bee 823b
000000a0: d665 5abd f3f7 acbc 199f b0bd 2c86 563a
000000b0: 9d55 b0bd 491a b4bd dc07 b13c 8fb9 003e
000000c0: 69d4 da3d ec02 a53c efd7 d03d ed8c dabc
000000d0: 6614 743d 199e 04be 0cb5 aabc a760 33be
000000e0: 84e7 e83c 5063 c23b 04ac 78bd 2e55 873c
000000f0: 18b0 c63c 9ad1 9f3d ba32 a0bd e5ac 343d
00000100: 3cea a83d 36d4 ddbd 7ccf 1f3d bf96 9abb
00000110: 16d5 cfbd 913c 8dbc 6f1e da3c 40c5 b03d
00000120: d9b2 b93c 3eb7 69bd a8b9 583c 6440 e33b
00000130: 8ff7 b0bc 5fea b53d fb18 93bc 9566 eabc
00000140: 5170 89bd 7b6c 92bd 06aa f93c e609 993c
00000150: db08 a53c f941 1e3d 066e 613c d5a8 05be
00000160: 91f6 debd 214a ebbc 5c8b bd3c ed7a 3fbc
00000170: 81c0 a23d 3afa 86bd af42 e8bd a0d9 cc3c
00000180: bd29 80bd 059e 07be 9027 01bd 827a 9fbc
00000190: 66f3 89bd c7b7 c33d f724 9a3d 8cdc 05bb
000001a0: 18fe 5dbc 09c6 b1bc 5dfc 4b3d 3e8c 00be
000001b0: 6952 a53d d949 90bc 8f19 a2bd 39a2 623d
000001c0: 9eb2 57bc a8bd b9bc ca23 acbd a519 223d
000001d0: c5c2 2cbd 2b0b 21bd 80f7 783c 4d27 07be
000001e0: 6b17 9abb b2b6 66bb 7f7b dcbc e6a0 6fbd
000001f0: e8d9 ad3c 6f92 403c 76b9 84bd 3a6d d73c
00000200: 4539 c13d 8c7f a9bc fb7b 7fbc 359d 07be
00000210: e58d a7bd dce4 163c afa1 113d 0e71 55bd
00000220: 1ce7 babd eef8 a4bd d174 bdbd b65f 4c3c
00000230: 50fb 45bd 9a84 4f3d 0e67 3a3d 701d e23c
00000240: 6eae 96bd 29c1 a4bc 1f06 ed3d e055 a8bd
00000250: 1786 dcbd 4a05 c4bc b664 ab3d 5d43 7f3d
00000260: 70da 97bb 9cac afba 2ed0 91bd 9408 b8bb
00000270: 192d 0f3d b5eb 853d 44d7 193d ee4a 71bd
00000280: 42ec 053d f2c5 99bb 016f 0bbc 389b 1c3d
00000290: ab61 583c 28b8 dc3d be96 983d 8fbd 32bc
000002a0: 8618 113e 45ab 5d3b 6de5 eabd bb22 d2bd
000002b0: d97a 23bc c010 993d c9f9 c0bd 7462 a8bd
000002c0: 59c2 11be 44a0 bbbb 6da7 823c ffc6 2fbd
000002d0: 976e aebd bb1b 90bc 8e4f 553c b19f 8dbd
000002e0: 547a e0bc e11e 033b 262d 583d dd5b 34bd
000002f0: cfe9 d53d eaf8 853d c643 a3bb d11f 4bbb
00000300: 4713 c43b 2b14 a43c 9b89 003d ecaf 99bd
00000310: 6684 c03c c27b afbc 6022 c43c 851c 89bd
00000320: 54d0 62bd 9606 78bd 4ae6 8fbd 1bd7 22bd
00000330: 548f 0a3d 7186 3e3d 937c 49bc 4788 cebc
00000340: cbb0 11bd 7440 86bd 081d bcbd 5dbc 64bc
00000350: 3905 5abd d25a a6bd 6419 9c3d f451 21be
00000360: 99a6 ec3c 33f3 d2bd 2b8c f0bc 8e3d 8b3d
00000370: 3d56 9dbd b7b9 06bd ffdf c13b e6e0 873d
00000380: 880e ac3c 06df bd3c 1d83 24bd 5a94 82bd
00000390: 7c4d 653d b2eb ad3b 3090 12bb ee1a 6cbd
000003a0: 4e57 3dbd bb27 a33d 7e35 55b8 2c65 d73a
000003b0: fce0 70bd 36b3 afba c302 a93d d56c c6bd
000003c0: 0d70 60bd 1b20 8abd 90c1 fabc 73b6 37bd
000003d0: ccc6 a6bd c62d cf3d 8dc0 8d3b fff6 fbbd
000003e0: 136a 973d 4660 9dbd 193e aa3c c3db 733d
000003f0: 089a 983d c97b 983d 8353 173d a1bf dcbc
0.02292814 -0.042531807 0.044740662 -0.054233894 -0.087359555 -0.06992445 -0.10886437 -0.0755076
0.012653378 -0.07352488 -0.042613644 0.074003495 -0.034640163 -0.16204634 -0.047215458 0.0412224
0.004999524 0.1022165 0.16671523 0.060766753 -0.02674936 0.04971384 -0.03599665 -0.09399701
0.03830815 -0.03239368 0.06743696 -0.018159699 0.004109999 -0.01720184 -0.080286466 -0.08253955
-0.03222826 -0.13873665 -0.02895182 -0.06549322 -0.00025662032 0.008407261 -0.06459481 0.003995677
-0.053319775 -0.021114325 -0.086240955 0.00081834453 -0.086100794 -0.08794076 0.021610193 0.12570785
0.10685045 0.020142995 0.10197436 -0.026678527 0.059589766 -0.12950934 -0.020838283 -0.17517339
0.028430708 0.005932249 -0.060710922 0.016520109 0.02425389 0.0780365 -0.07822175 0.044110198
0.08247802 -0.10831492 0.039016232 -0.0047176774 -0.10148065 -0.017240794 0.02662584 0.086313725
0.022668289 -0.05705952 0.013227858 0.006935166 -0.02160242 0.08882593 -0.017956248 -0.028613368
-0.06710876 -0.07149597 0.030476581 0.018681478 0.020145824 0.038637135 0.013759142 -0.13052686
-0.108868726 -0.02872187 0.02313774 -0.011687023 0.079468735 -0.06590696 -0.11340844 0.025006115
-0.06257961 -0.13243873 -0.03153187 -0.019467596 -0.06735878 0.09556537 0.07526582 -0.0020425646
-0.01354935 -0.021700876 0.04980122 -0.12553498 0.08072359 -0.017613338 -0.07915031 0.05533049
-0.013165144 -0.022673443 -0.08405264 0.039575238 -0.042177934 -0.03931729 0.015195727 -0.13198586
-0.0047024987 -0.003520411 -0.026914356 -0.058503054 0.02122207 0.0117536625 -0.06480686 0.0262972
0.094347514 -0.020690702 -0.015593524 -0.13243563 -0.08181361 0.009209838 0.035554584 -0.05210977
-0.09126112 -0.08055292 -0.092507966 0.012473991 -0.048335373 0.050663568 0.045508437 0.027601928
-0.073574886 -0.020111637 0.11573433 -0.08219504 -0.10767763 -0.023928303 0.083688185 0.062320102
-0.004634194 -0.0013402882 -0.07119785 -0.005616257 0.034955118 0.06539098 0.03755881 -0.05890935
0.032696016 -0.0046927864 -0.008510352 0.038233966 0.01320688 0.107773125 0.07450627 -0.010909452
0.14169511 0.0033824008 -0.11469541 -0.102605306 -0.00997802 0.07473898 -0.09422643 -0.082219034
-0.14234294 -0.0057258923 0.015948975 -0.042914387 -0.08517187 -0.017591348 0.013019456 -0.06915224
-0.02740208 0.002000742 0.052777432 -0.04403292 0.10444986 0.06541617 -0.0049824445 -0.0030994306
0.0059837434 0.020029148 0.03138123 -0.075042576 0.023500632 -0.021421317 0.023942173 -0.06694893
-0.05537446 -0.060553156 -0.07026346 -0.03975592 0.033828095 0.046514932 -0.012297767 -0.025211466
-0.035568994 -0.06555262 -0.09185225 -0.013960925 -0.053227637 -0.08122791 0.076220304 -0.15753919
0.028888034 -0.10300293 -0.029363712 0.0679885 -0.07682464 -0.032891955 0.005916595 0.06634693
0.021003023 0.023177635 -0.040164102 -0.06375952 0.055982098 0.005307638 -0.0022363774 -0.05764287
-0.04622584 0.07966562 -5.0832976e-05 0.001643335 -0.05880831 -0.001340485 0.0825248 -0.09688727
-0.05479436 -0.06744405 -0.030609876 -0.04485173 -0.08143386 0.101161525 0.0043259324 -0.1230297
0.07393279 -0.07684378 0.020781564 0.059535753 0.07451254 0.07445485 0.036944877 -0.026946845

conv2.bias f4 [32]
00000000: 6695 2f3d a7cd 223d d071 d73c 2a3f 5abd
00000010: a01a ca3c f67c 27bd ce95 7ebb f2d7 01bd
00000020: e5e7 1cbd f462 6abb c0e4 c5bc efb1 023d
00000030: bfc5 713c c1b8 7b3c 412f a1bd 2335 dabc
00000040: f940 3cbd 6e7e 053d 4f32 b73c f888 623d
00000050: 07f6 3cbd 52d3 913b f28b 6fbd fbf1 823c
00000060: c0d7 67bd d9f5 27bd f1ea aabd 93e5 1d3c
00000070: eba0 7dbd b65b c5bd 4d5c 41bc ad46 a0bc
0.042867087 0.039746907 0.026299387 -0.053282894 0.024670899 -0.040890656 -0.0038846615 -0.031700082
-0.03830709 -0.0035764547 -0.024156928 0.031907972 0.014756619 0.015363873 -0.07870341 -0.026636666
-0.0459604 0.032591276 0.022362856 0.055306405 -0.046133067 0.00445024 -0.05848307 0.015984526
-0.05660224 -0.041005943 -0.08345593 0.009637254 -0.06192104 -0.09636633 -0.011801791 -0.01956495

res2a.conv1.weight f4 [32, 32, 3, 3]
00000000: c5ff 55bc bd33 3b3c cd95 91bc 1424 93bd
00000010: 500d af3c fc0e 25bd 1b5d 84bd 4d1f 44bd
00000020: 33dd ca3c c9c7 d0bc 0367 51bd 75f9 a43d
00000030: 366e dbbd 5644 d23d b26e c63c 5427 f4bd
00000040: 9b20 9dbd b262 6f3d 5b03 9abd 3e77 1f3d
00000050: 0856 833d fd2d e7bb 4522 f73c b292 49bd
00000060: 42eb f13c c73d c23c 814f 3ebd 6f35 4cbe
00000070: f094 a1bb ab71 62bd bd04 a4bd a9c1 b2bc
00000080: 765e 0bbd 78d7 a8bc 7b65 fdbc 7d1a a23b
00000090: ada7 20be 8e3b fbbd 76ad 01bd 6543 183d
000000a0: d45a 76bd b2ca 163d 48a9 713d 059c 14bd
000000b0: 19aa c0bd 2618 a1be 46cd 1f3c 4993 4abc
000000c0: 8be2 38be 9221 0dbd fc6b 373d 27a3 cbbd
000000d0: 4488 b63d b437 103d 4331 c2bd d5fc 01be
000000e0: 628b 3bbe 8404 a13b 1ea7 efbc d88a a5bd
000000f0: 1ecb 42bd 8e6f 13bb b678 933c 9035 0bbd
00000100: 9bae 1bbd 96e1 d83d bca0 b0bd 2cde 08bc
00000110: 9c3a 243d c1ab 153d 8462 80bd 56a7 8d3c
00000120: 1c14 433d fa61 d8bb 7e23 9ebc a3c0 02be
00000130: f5de 2a3d ae9a 8d3b 84bc 20be 5901 17bd
00000140: 4aaf 8abc 24be 65be 909b a4bd 1112 ee3d
00000150: b558 c8bd e0ec 0c3c 91ba 003e 482f 45bd
00000160: 2fc6 d8bd fdfd 03bd bf77 aabd 94da fdbd
00000170: 0595 673d 1294 ebbd 2114 5b3d 61bd fc3d
00000180: 5a9f 03bd 845b 823c 357a 17bd 245a a53b
00000190: c9be 90bd 0ddd 91bd b7e2 03bd c0af 063d
000001a0: bbce 79be ab0b 0bbd f5d4 c93d b09e 4dbe
000001b0: 8b96 c1bd b8d3 19bd a748 733d 3c66 cf3b
000001c0: 398a f73b e361 773d 0154 cfbd acaf 803c
000001d0: f529 133d 2de6 59bd b95e 86bd efc1 df3c
000001e0: 53ed fabc 36e0 b0bd 481f d83c 89bd a83d
000001f0: ba0b 93bd f4f3 393d 1bfd ddbd b2e6 3e3c
00000200: 3783 69bc 618d 1e3d 06a8 ca3b 6722 c2bd
00000210: 7d3c 58bd 8693 b43a 5953 31bc 8bf8 3ebe
00000220: b266 9cbd 173b 4b3d 72a1 46be a6a4 83bd
00000230: c0c6 9b3d fb43 ce3c 187a 0f3d c9fe 5ebd
00000240: 9a86 fdbc 0ddd a4bc 4393 843d 9400 bdbd
00000250: dbbe c8bd 0afa 243d 6253 89bc 5fcf d7bd
00000260: 7416 983d ef04 f7bc 3c10 16bb 0865 a337
00000270: 48fc ebbc 55ec aebc 5615 a83d 2376 bd3c
00000280: 97bb 31be bde4 3cbd 9f5d 2cbe 09eb 65bc
00000290: 28d1 32bd f99e cebc 92fa 923c 15ed 383d
000002a0: 4800 e5bd 2efa 90bd 8078 63bd 87bd 60bb
000002b0: b48d 08bd dc1c 183d 80d6 d2bc 5a0f a3bc
000002c0: 3eb2 433d 58c8 9cbb 8c89 ac3c f666 6e3d
000002d0: c1a0 ecbd 06a1 bcbd a4a7 8d3d 7c91 02be
000002e0: 4601 79bd baf0 06bb 07c9 d5bc b18e 9a3c
000002f0: 4e94 603b f333 19be 81a1 fcbd d1cb 5e3c
00000300: 5639 62be e625 77bd ab1e bdbd 8795 23bd
00000310: b025 a7bc 95d8 2dbe 76a6 d1bd 8ea2 b8bd
00000320: f464 cdbc 1bee 6dbd d01f 17bd c0be 1cbd
00000330: 72f7 d8bd 1640 3fbb f0c6 caba b808 e0bd
00000340: 2d18 953d 8acb d73a 560e 7bbd bf22 c7bc
00000350: aa3f 9dba 9536 bcbd d398 88bd ee62 cfbc
00000360: c91b 4dbe 0129 04be 5e5a afbb 818c 14be
00000370: d30f 12be 0b34 c13d 229d d53c d152 24bd
00000380: 79d0 033e e119 d2be 526b bdbc f9ac 98bc
00000390: 305c 62be b7ef 93bd b4e9 ff3c 48a2 bcbc
000003a0: 1f5e e3bc 5edb c3bc 36db 26be 42c4 9abd
000003b0: 4fb3 8e3d 68b0 aebc 0253 5bbd 1e64 b33d
000003c0: f75b 2ebc cde7 5ebd e72c cd3d d226 c0bd
000003d0: f861 09bd 36c0 983a f3f6 22be ff4c 3ebd
000003e0: 28ce a13d cfd4 82bd 3ef0 19bc 8bf4 d03c
000003f0: 2435 9dbd 1d5a 74bd b409 893c 524b b2bd
-0.0130614685 0.01142591 -0.017771626 -0.07184616 0.021368653 -0.040297493 -0.06463071 -0.047881413
0.02476368 -0.02548589 -0.05112363 0.08055393 -0.107143804 0.1026694 0.024222706 -0.11921564
-0.076722346 0.058443733 -0.07520171 0.038932078 0.064128935 -0.007055043 0.030167708 -0.049212165
0.029531125 0.023711098 -0.04646254 -0.19942258 -0.004931085 -0.055284183 -0.08008716 -0.02182086
-0.03402563 -0.020610556 -0.030932179 0.0049470053 -0.15688963 -0.122672185 -0.031659566 0.037173647
-0.060145214 0.0368144 0.05899933 -0.036281604 -0.094074436 -0.31463736 0.009753531 -0.012364217
-0.1805517 -0.034455843 0.044780716 -0.09943228 0.08912709 0.035209373 -0.09482052 -0.12694104
-0.18314889 0.0049138684 -0.029254492 -0.08083123 -0.04755699 -0.0022496912 0.018001895 -0.033986628
-0.038008314 0.10589902 -0.08624408 -0.008353751 0.040094957 0.03654075 -0.0626879 0.017291706
0.0476266 -0.0066034766 -0.019304033 -0.12768798 0.041716535 0.004321418 -0.15696913 -0.03686652
-0.016929287 -0.22435814 -0.08037484 0.1162454 -0.097825445 0.008601397 0.1257117 -0.048140794
-0.105846755 -0.032224644 -0.08323621 -0.12395206 0.0565386 -0.115028515 0.053485993 0.12340809
-0.03213439 0.015912779 -0.03698178 0.005046146 -0.070676394 -0.0712224 -0.032198634 0.032882452
-0.24395268 -0.033946674 0.098550715 -0.20080066 -0.09452542 -0.037555426 0.05939546 0.006329326
0.007554319 0.060396086 -0.10123444 0.015708767 0.035928685 -0.05319803 -0.06561036 0.027314154
-0.030630743 -0.08636515 0.026382104 0.08239276 -0.07179971 0.045398667 -0.10839292 0.011651682
-0.014252475 0.03870905 0.0061845807 -0.09479218 -0.05279206 0.0013776876 -0.010823094 -0.18649499
-0.07636775 0.0496169 -0.19397524 -0.064278886 0.07606268 0.0251789 0.035028547 -0.0544422
-0.030947972 -0.020124936 0.064734004 -0.09228626 -0.09802028 0.04027752 -0.016763393 -0.105376
0.074261576 -0.03015372 -0.002289786 1.947816e-05 -0.02880682 -0.021352926 0.082071945 0.023127621
-0.17356716 -0.04611658 -0.16832589 -0.0140330875 -0.0436565 -0.025222288 0.017941747 0.045147974
-0.11181694 -0.07078968 -0.05553484 -0.0034292655 -0.033338264 0.037136897 -0.025737047 -0.019904781
0.047777407 -0.004784625 0.021061681 0.05820366 -0.11554099 -0.092104 0.069167405 -0.1275081
-0.06079223 -0.0020590262 -0.026096834 0.018866869 0.0034268084 -0.14961223 -0.12335492 0.013598398
-0.22092184 -0.060338877 -0.09234365 -0.039937522 -0.020403713 -0.1697715 -0.10236828 -0.0901538
-0.025072552 -0.058088403 -0.036895573 -0.03826785 -0.105940714 -0.0029182485 -0.0015470665 -0.10939163
0.07280002 0.0016463858 -0.06129297 -0.02430856 -0.0011997123 -0.09190098 -0.06669774 -0.025315728
-0.2003013 -0.12906267 -0.005351349 -0.14506723 -0.14263849 0.094337545 0.026075903 -0.040118042
0.12872495 -0.4103537 -0.023122463 -0.018637167 -0.22105479 -0.07223456 0.031239368 -0.0230266
-0.027754841 -0.023908313 -0.1629456 -0.075569645 0.06967794 -0.021324351 -0.05354596 0.0875933
-0.010642043 -0.05442028 0.1001833 -0.093824044 -0.033540696 0.0011653963 -0.15914516 -0.046460148
0.07900649 -0.06388246 -0.009395657 0.025507232 -0.076761514 -0.05965625 0.01672826 -0.087057725

res2a.conv1.bias f4 [32]
00000000: beb2 04ba 6d95 27bc 334e 28bd 8b1c af3a
00000010: 330b 703c d4d8 3f3c b0b7 3c3d 8c11 e73d
00000020: 7f61 943d 0998 8f3d d662 973d d09d 4a3d
00000030: 8b08 4a3c bf49 e1bb 7ab0 c43b b070 623d
00000040: ff89 c93c 6aeb 54bc c8eb 263d b5d0 ca3b
00000050: db55 4d3d b6c5 a7bc 65a8 e83c 84fb 80bc
00000060: 150a bebc 29bd 853d 9684 233d 8d6f 68bd
00000070: cf82 42bd 1f10 ed3b 553a 77bc ed29 3a3d
-0.0005062035 -0.010228497 -0.0410902 0.0013359947 0.014651108 0.011709411 0.046073616 0.11282644
0.072451584 0.0701142 0.07391898 0.049466908 0.012331138 -0.0068752463 0.006002483 0.05528325
0.024601934 -0.01299558 0.040752202 0.0061894306 0.050130706 -0.020480018 0.02840061 -0.015744932
-0.023198167 0.0653022 0.039921366 -0.056747008 -0.04748803 0.007234588 -0.015089591 0.04545014
