checkpoints/ppo_academy_corner.pth (torch, 717931 bytes, 45 tensors)

conv1.weight f4 [16, 16, 3, 3]
00000000: f6bd 07bd 7f07 adbd c2ec 02bd 7fb3 583d
00000010: edee 98bb cb6d b83d 8029 26bd 9aff 09be
00000020: 938f 563d f400 83be cd15 9cbe bf9a 1cbe
00000030: 9f74 9fbd 626c b2bd 5175 603d 8d60 c33d
00000040: 4e4e a43d ca42 b53d dd36 ea3d 06ed ff3d
00000050: 9ff5 a13e 062b 943d 20c5 cf3c 089b 393e
00000060: ec8f 50bd b2f1 773d b27c 373e 014b 19be
00000070: 82de 34bd efab 75bd dc1e ccbd 259e 2b3d
00000080: ed71 073e 5937 7c3d 7a00 5d3d c180 753e
00000090: a774 f6bd 3c9e 39bb d350 033e 6f64 1abd
000000a0: 7a63 113d d541 70bd cc7d ca3c 2a9b 0ebe
000000b0: a9ff d5bc 1b78 40be 656c a6be 45c4 bbbd
000000c0: 05ad 88bd 174c d33c 606d acbe 5873 b3bd
000000d0: 7078 143e dbc2 9cbe e340 e03a 9648 fa3d
000000e0: 0f16 543c ad65 e73d 9338 b4bd b872 6c3d
000000f0: 5fd8 ed3d 661a 313e 402f d9bd d6dd 533e
00000100: 96f3 4f3d bb4a 653c fc74 e1bc 18f5 053e
00000110: 53c7 7e3d 5aac 443e 0b97 2f3d 0d2f 9cbd
00000120: 78ce 13be c888 133b 4488 2abd 62e0 06bc
00000130: c5a3 dfbd 7380 353d bc17 c7bd 1e54 a33c
00000140: 2e8b a9bd 08dc 6bbd bbf5 0abe 5fbd 5f3d
00000150: 0844 623d 151c b83b c36a 7ebe 2ab5 34be
00000160: eeee 40bd 8e0d 50bc 2a9f 363e 1be5 083d
00000170: 5a2d dcbd 9e9d 1c3c c1ba 843e 8e06 463e
00000180: 47a1 6e3e 58b2 1a3e e54a 023e d77b 0e3e
00000190: 09e7 bfbc d2bf a1bc 52e5 373e 5e6b 73bc
000001a0: 6eaf 263d 1e04 c63d 3e39 8bbd 09e0 69bc
000001b0: b124 dcbd 61a0 4dbe 2214 0e3e c078 c03d
000001c0: 9647 2ebe f485 a5bd 478e 93bd 8e14 e53c
000001d0: 47da 403b 37ab b6bc 5016 0f3e 1d7c 21bd
000001e0: a9ab 52be eab6 013e 9c01 39bd 4c90 2bbe
000001f0: 5979 9c3d 708c 9ebd 8415 e23e 90a9 11be
00000200: 358d f63c a73a 59bd e3ba 183e 60c5 e3bd
00000210: 75b0 85bc 4a4b dabd cd56 2c3d 6285 b9bd
00000220: 515e e4bc 6584 b4bd bb4d d73d 72f7 a83d
00000230: d671 57bd d32a 14be ad3a 803e 56ef ab3d
00000240: 5fb0 193d 7f58 903d ab92 d23c f755 debd
00000250: 015f 163e 56d6 0cbd 12df e73d 09c8 0b3e
00000260: dfd8 adbe 0a6d 9fbe 3a4a 5fbd 7743 933d
00000270: b811 053e 82ca 36be 9ccc b5be b407 293e
00000280: 82f2 283c 3833 a93d 8bc1 93be f4aa 62be
00000290: ce29 4a3d 3def 48be db96 4dbd c950 8abd
000002a0: 1a96 92bd 8323 a03d ad33 5ebd 8129 b7bc
000002b0: cb21 2abc f96d 8e3d 1a52 dd3c e71d 683e
000002c0: 37ef aa3d 8011 3f3e 6cae 2e3e 5557 a9bd
000002d0: 4d7f 4bbe dbc1 fbb9 5348 0abd 9b5c d93d
000002e0: 8a4b b93d fcf8 733d 90d7 46be 73a0 a03d
000002f0: 42bb f8bd 892d e83d 19c6 f9bd 789f 9bbe
00000300: 6d17 b5bd 2716 143c 2c2e 253e a1dc 6bbc
00000310: f9ce f5bd 5ffe a8bb aab8 7abe 8781 4fbd
00000320: 7990 5ebe 4caa 7abe 555d 04be 012f 4cbe
00000330: 2405 30bd 8f62 78be 666c 7ebe f59f 4abe
00000340: 8446 1d3c 206f 583e 951c 8cbd dbee 653e
00000350: c3bb c43d fe1e adbe c10a 433e 3ebf a1be
00000360: 8c5e 9ebc dc20 f1bd 54ea 3dbc dd3e ff3c
00000370: 001f 6c3c c7d8 62bc 8b1a a2bd 4d4e 77be
00000380: 7822 063c 4e59 37bd e092 a93c d966 94be
00000390: 3b20 5e3d 676b 2d3e 7646 d83c 8ba7 32bd
000003a0: c1f4 b43d d185 2fbc ec59 00bd bcec 46be
000003b0: b204 dcbd 6869 863e a36b 28be f735 adbe
000003c0: 8e05 29be e188 3dbd d9ee 99bc 6a9e e83d
000003d0: 4024 30bd e017 583c 6d3a 3f3d 1938 1b3d
000003e0: 33e5 e33d 896e 94bd b4d3 7c3c f032 3ebe
000003f0: effb cbbd 791b 25bd d1ec ecbd 2110 66be
-0.033140145 -0.084486954 -0.03196407 0.052905556 -0.004667154 0.09005316 -0.04056692 -0.1347641
0.052383017 -0.25586665 -0.30485383 -0.15293406 -0.077859156 -0.08712079 0.05479938 0.095399
0.08022748 0.0885063 0.114362456 0.124963805 0.31632707 0.072347686 0.025362551 0.18125546
-0.050918505 0.060533233 0.17918661 -0.14970018 -0.044157512 -0.05997842 -0.099668235 0.041898865
0.13227053 0.06157622 0.053955533 0.23974897 -0.120339684 -0.0028323075 0.128238 -0.037693437
0.03549526 -0.058656532 0.024718188 -0.13926378 -0.026122885 -0.18795817 -0.32504573 -0.09168295
-0.06673626 0.025793118 -0.33677197 -0.087622344 0.14499068 -0.30617413 0.0017109181 0.12220876
0.012944712 0.1129869 -0.08799853 0.05772659 0.11613535 0.17295226 -0.10604715 0.20690092
0.05076941 0.013994868 -0.027521603 0.13081777 0.06220181 0.19206372 0.042868655 -0.07626162
-0.1443423 0.0022511948 -0.04163386 -0.008232208 -0.109199084 0.04431195 -0.09721324 0.019937571
-0.082784995 -0.057582885 -0.13570301 0.054623958 0.05524066 0.005618582 -0.24845414 -0.17647234
-0.04710286 -0.012698544 0.17834154 0.033421617 -0.107508376 0.009559063 0.25923732 0.19338438
0.2330371 0.15107095 0.12723882 0.13914429 -0.023425596 -0.019744787 0.17958573 -0.014857141
0.040694647 0.09668754 -0.067980275 -0.014274606 -0.10749186 -0.20080711 0.13874868 0.09398031
-0.17019495 -0.0808219 -0.072048716 0.027963903 0.0029426978 -0.022298438 0.13973355 -0.039425004
-0.20573296 0.12667432 -0.04516755 -0.16754264 0.07640333 -0.0774163 0.4415704 -0.14224839
0.03009663 -0.05303445 0.14915042 -0.11121631 -0.016319493 -0.106588915 0.042074967 -0.09058644
-0.027877005 -0.08814315 0.10512873 0.082503214 -0.052598797 -0.14469461 0.25044766 0.08395259
0.037521716 0.07048129 0.025704702 -0.1085624 0.14684679 -0.034384094 0.11321844 0.13650526
-0.33954522 -0.31137878 -0.054514147 0.07190602 0.1299504 -0.17850688 -0.35507667 0.16506845
0.010311725 0.08261722 -0.288586 -0.22135526 0.049356274 -0.19622512 -0.050192695 -0.0675369
-0.07157536 0.07819273 -0.0542485 -0.022358658 -0.010384033 0.06954569 0.027016688 0.22667657
0.08346408 0.1865902 0.17058724 -0.082686104 -0.1987278 -0.00048018884 -0.03376038 0.10613366
0.09047611 0.059563622 -0.19418168 0.07843103 -0.121450916 0.1133681 -0.12195987 -0.30395103
-0.08842359 0.009038485 0.16130894 -0.014395864 -0.120023675 -0.0051572765 -0.24484506 -0.050660636
-0.217348 -0.24479026 -0.12926228 -0.19939806 -0.042973652 -0.24256347 -0.24846038 -0.19787581
0.009599332 0.21136141 -0.06841389 0.22454397 0.09606125 -0.33812708 0.19047071 -0.3159122
-0.019332193 -0.117738456 -0.011591513 0.031157905 0.014411688 -0.013845629 -0.07915219 -0.24150963
0.008186929 -0.044762902 0.020699918 -0.28984717 0.054229956 0.16935502 0.026400786 -0.043616813
0.088357456 -0.010713057 -0.031335756 -0.19426244 -0.10743083 0.26252294 -0.1644731 -0.33830234
-0.16506025 -0.046273116 -0.01879065 0.1135834 -0.04300332 0.013189286 0.04668658 0.037895296
0.11127701 -0.072476454 0.015431333 -0.18574119 -0.09960162 -0.040309403 -0.11568607 -0.2246709

conv1.bias f4 [16]
00000000: bfa7 3fbc d6cd 9cbc 5252 f5bc 82ad b6bd
00000010: 64d2 8abd 489b 2ebc 7d1c 08bd 57f5 8fbd
00000020: 075a c4bd d4c7 06bd ef45 58bc a047 a2bc
00000030: 1c92 25bc ff36 f1bc ad62 4a3c b6b2 8bbd
-0.011697709 -0.019141119 -0.02994648 -0.08919813 -0.0677841 -0.010657139 -0.033230294 -0.07029217
-0.09587484 -0.032905415 -0.013200267 -0.019809544 -0.010105636 -0.02944517 0.012352628 -0.06821196

res1a.conv1.weight f4 [16, 16, 3, 3]
00000000: eae3 96bd 0cd7 fa3d f183 913d 10d7 7abd
00000010: 98a9 1c3d 30b8 d3bd 821a f43d 596c 77bb
00000020: 4a5a 44bd c05b 4ebe d4e7 1fbd 828e 9abc
00000030: 53f2 33be 7c62 0f3d 480e ee3d 0bc2 e9bd
00000040: e32c 553d 21c7 243e e343 84bd c241 003e
00000050: 7ca9 c0bc d084 03be 404c eb3b 2726 83bd
00000060: 14bb e7bd 7768 ecbd ad99 07be 6ee2 81be
00000070: ed8d e33b 8288 4d3e 1521 c8bd 259d af3d
00000080: 40b2 89bc 7786 533e a97d d43d 3939 093e
00000090: 4935 32bd fdf5 7b3d fbf1 c63d d294 0ebe
000000a0: 15d5 23be 6cf3 8cbc 2705 893d 863d 02be
000000b0: eb08 d53c 0883 d13c 439c 9e3d 81ab 27be
000000c0: 589e dbbd 08ed 37be f0c9 18ba b027 80bd
000000d0: 05fd 3fbe 3c1c 5bbc d3ab 1ebd 0d4d 133c
000000e0: 8fbd 403d e11b cfbd eee9 25be 2d29 ce3a
000000f0: a01f cfbd 0653 d2bc e9d6 d23d a7da e73d
00000100: aa8d dcbc 19e8 16be 458c bfbd 86af 74be
00000110: ebd4 f8bd 1a5e ae3b 2b1d 333d 5126 973d
00000120: ac65 46be 8c31 25be bdcf 043e 378b 0ebe
00000130: f191 37be 638f 263d b69d 46bd c83b 54bd
00000140: 31d2 403e ad25 ffbc 6f89 873d ff56 a33c
00000150: 803b cfbd 3012 bc3d ed8b b1bd 857d 22be
00000160: 2e7e c63c ef32 c13d c834 74bd defe 103e
00000170: 1dc7 1fbc 2ce4 9ebd a2b9 2dbd bd58 553c
00000180: d0d3 743d 4a94 80bb 7f85 f4bd 7d07 85bd
00000190: f79e 79bd 5c25 403d 638f 5bbe 25ed 48be
000001a0: ef21 cebd fc27 76bc 0c01 4c3d 18de 813d
000001b0: abdc 71bc 9aa6 213d 1739 a03d 5707 e2bd
000001c0: e4a5 e93d caad 173d 7e18 f5bc 26ce 57bd
000001d0: 5077 023e a6fc 3a3c 5188 bc3b f1b3 33bd
000001e0: 7b88 febd 14a7 a4bc 2eba 92bd dde0 4d3c
000001f0: df32 c33b 2af0 b43d af92 63be 1f27 553d
00000200: 8c2c b0bd bb35 88be 841a 483d a59a da3d
00000210: c490 5cbd 81ac ee3c cda5 193d d5a2 35bd
00000220: c381 b1bd e324 803c 5707 803b 0157 91bd
00000230: 4136 ed3d 2744 c33d 214b 3ebd 8717 96bd
00000240: 993d aa3b 822f e83d 092c 873d 6f21 d5bd
00000250: 9781 503d 2df5 fc3c a94b d83d d734 f23d
00000260: d286 d4bd 2a0a d7bd 4dfa 2cbd 38d4 4a3d
00000270: ae70 cfbc 29ed fdbd 58e1 c4bd eb72 12bd
00000280: dd51 5ebe dd1c 94bd 4b81 b93d dd73 a5bb
00000290: 2e84 40be 9016 01bd a095 993d d348 ac3d
000002a0: d30a 703c 5a58 9cbd 174f 47bc 4d5b 673d
000002b0: 0d3c c33d 066e 21bd b6fc bd3d 4d79 633c
000002c0: ef4a 13bd e8a2 77be db1f ef3d 9634 9dbe
000002d0: 18a5 833e 74a3 5ebc a6f1 823c e838 883e
000002e0: 47d4 953d dcdb 843d 0b77 473e 1620 9b3d
000002f0: 6b28 5d3d c1af f3bd 6d74 4dbd 78a6 31be
00000300: e728 01bd ff86 073d 42cf 37bc f66b a23d
00000310: fb26 d3bc 5e25 00bd 082b c6bc 136e 23bd
00000320: 3c76 f8bd 7f78 0d3e 5adf d93c b3c5 8bbe
00000330: 96bf 63bd 8951 b63d 8442 cfbd 286b 1fbe
00000340: 73b6 82bc db75 19bd 580c d2bd 7a3f 2abe
00000350: 01f1 acbd ab5b ccbd 5f51 77be 1529 0ebe
00000360: 65c6 0bbe aedc 033e 95e9 99be 5aaf 553d
00000370: a656 023e b546 fa3d 4a1c 3abd 26e4 103e
00000380: 5816 8f3d 5947 a4bd 5cdb c03d 433a 343c
00000390: 963c 363d cec2 093d 473f fa3c abe5 ac3d
000003a0: e2dc 4abe 56ca c0bc aa2f bcbc ccf0 c7bc
000003b0: 22fd 903c 8554 62bd 7147 fc3d 1991 dd3d
000003c0: 02a1 8d3b 5992 14bd e0f7 c03c 1125 4fbc
000003d0: ee8e 653e 8aea 683e 08c9 9b3d 4279 363e
000003e0: 7f53 cf3c d56d c3bd b5dc 98bd 956e f8bd
000003f0: d860 2ebe 048a 3bbd 9916 ea3c 8f36 55bd
-0.0736769 0.12248048 0.07105244 -0.061240256 0.038247675 -0.10337865 0.119191185 -0.003775379
-0.04793767 -0.20152187 -0.039039448 -0.018866781 -0.17572908 0.03500603 0.11623818 -0.11413964
0.05204476 0.16091587 -0.06458261 0.12525085 -0.023518316 -0.12843633 0.0071807206 -0.06403761
-0.11314979 -0.115433626 -0.13242216 -0.25368065 0.006944409 0.20071605 -0.09771935 0.08574895
-0.016808629 0.20656763 0.1037553 0.13400735 -0.043507848 0.06151389 0.09714123 -0.13923958
-0.15999253 -0.017205916 0.06690436 -0.12718782 0.026005229 0.025575176 0.07744648 -0.16374017
-0.10723561 -0.17961514 -0.0005828431 -0.0625757 -0.18748863 -0.013373431 -0.038738083 0.008990538
0.047055777 -0.10112739 -0.16202518 0.0015728824 -0.10113454 -0.025674354 0.10294897 0.113210015
-0.02692302 -0.14736976 -0.09352926 -0.23895082 -0.12149986 0.0053212764 0.04372899 0.07380355
-0.19374722 -0.16132182 0.12969871 -0.13920294 -0.17926766 0.040664088 -0.04849025 -0.051814824
0.18830182 -0.031145895 0.0661801 0.019938944 -0.101187706 0.091831565 -0.08669267 -0.15868194
0.024230089 0.09433543 -0.05962065 0.14159724 -0.009752062 -0.07758364 -0.04241336 0.013021645
0.059772313 -0.0039239274 -0.11939525 -0.06495569 -0.060942616 0.04691063 -0.21441416 -0.19621713
-0.10065066 -0.015024181 0.049805686 0.06341189 -0.014762084 0.039465524 0.07823389 -0.11036556
0.11408594 0.037030973 -0.029918905 -0.052686833 0.12740827 0.011412775 0.005753555 -0.043872777
-0.12428375 -0.0200992 -0.07164417 0.012565819 0.005956992 0.0883487 -0.22223924 0.052039262
-0.08602247 -0.26603493 0.048853412 0.10674027 -0.053848997 0.02913499 0.037511636 -0.04434474
-0.08667328 0.015642589 0.003907125 -0.07096673 0.11582614 0.095344834 -0.046458367 -0.07328706
0.0051953313 0.113371864 0.06600196 -0.104067676 0.050904837 0.030878628 0.10561306 0.11826485
-0.103772774 -0.104999855 -0.042230893 0.049518794 -0.025322285 -0.1239875 -0.096132934 -0.035754126
-0.21710916 -0.07232068 0.09057864 -0.0050492124 -0.18800423 -0.031515658 0.07499242 0.084123276
0.014651018 -0.07634039 -0.012164853 0.056483556 0.09532938 -0.039411567 0.092767164 0.013883901
-0.035960134 -0.24183238 0.11675998 -0.30704182 0.25711894 -0.013588775 0.015984368 0.26605916
0.07315879 0.06487247 0.19479005 0.07574479 0.053993624 -0.11898757 -0.05015986 -0.17348659
-0.03153315 0.033087727 -0.011218848 0.07930748 -0.025775423 -0.031285636 -0.02419044 -0.039899897
-0.121319264 0.13815497 0.02659576 -0.2729927 -0.055602632 0.0890227 -0.10120109 -0.1556822
-0.01595614 -0.03746591 -0.10256261 -0.16625777 -0.08444405 -0.09978422 -0.24152134 -0.13882859
-0.136499 0.12877151 -0.3006102 0.05216918 0.12728366 0.122205175 -0.045437135 0.14149532
0.069866836 -0.08021421 0.094168395 0.011000219 0.044491373 0.033633046 0.030547751 0.08442243
-0.19810823 -0.023533981 -0.022971947 -0.024406813 0.017698828 -0.055256385 0.12318314 0.10818691
0.004322172 -0.03627238 0.023555696 -0.012643115 0.22417805 0.2274572 0.07606703 0.17819694
0.025308369 -0.09542433 -0.074639715 -0.12130467 -0.1702913 -0.04578592 0.028575229 -0.052053984

res1a.conv1.bias f4 [16]
00000000: aa40 84bd 2f85 ccbd a134 9dbd 0896 923d
00000010: 208e 913d 5830 5ebe 55dc 7ebc 4ffd 373d
00000020: 521e d13d c823 0dbd b281 0cbd 5cbe debd
00000030: 2c86 01be b9a1 0bbd de89 7e3c df73 a03d
-0.06457646 -0.0998634 -0.07676054 0.071575224 0.07107186 -0.21698129 -0.015555461 0.04491931
0.10210861 -0.03445795 -0.034303375 -0.10876152 -0.12648839 -0.034089778 0.0155358 0.07834601

res1a.conv2.weight f4 [16, 16, 3, 3]
00000000: 3351 803d a7d0 dabc 356d acbd 585f c8bd
00000010: 71bb 2fbe 55a2 3fbe 7e68 f03d 540e 9fbd
00000020: 633e 22be 30e3 923d 2aaf 95bb 93e1 65bd
00000030: 67ef 1bbd 4a48 91bc 0bbc 32bb fd7b 45bd
00000040: 1247 043d 3b62 b4bc 1242 1f3e 90a0 5dbe
00000050: 99fd da3c 477a c3bd 0ebb 3ebe 996a e43d
00000060: cb66 813d 0fe2 c1bd a61f 8f3d d325 25be
00000070: f86e 5f3c bd70 1a3e bf04 a03c 3bfd 2b3d
00000080: 31f4 333e bf47 c5bd ed2d 0fbe cab4 343c
00000090: 8376 11bd bd4d acbd f5eb f7bd ebdf bb3c
000000a0: 347c d6bd cc7f da3d 12e7 2a3e d03f c1bd
000000b0: 914f 5f3e 3193 acbc 9839 87bd 9c36 86bc
000000c0: f99f 9a3c 0e06 453d e5ab d2bd 6a2e 7b3c
000000d0: 8ba8 0e3d ef6f 123d d006 733b 08ad b5bd
000000e0: 8f74 a83c 742f 783d 4ad5 e83d 4a10 c13d
000000f0: dd34 e53d 9942 b0bd 11db 0abd e049 35bc
00000100: a993 513d 478a af3c 1a77 26bd b929 153c
00000110: 8e5f 293e 21a3 73bb e68c 473d 7d31 fa3a
00000120: 0a61 4bbd ed7b 3d3c 343e 0dbe c459 613c
00000130: 3ff2 6f3d 799d 27bd b452 8c3d 93f3 93bc
00000140: 8d48 bb3d a942 72bd e92c 9ebc 2351 1cbe
00000150: 6872 13bd e9d7 633d 058b 223d 8728 b93d
00000160: b753 9bbd d1e4 ca3b 4ed9 15bd 47b2 923d
00000170: 6ee5 063e f426 d7bd 8e76 b83c dc32 1e3d
00000180: 2444 99bc 9100 d2bd 1fee a73d 2cbf 46bd
00000190: 592c b6bd 26f6 ff3c 71d4 883e 9e6b 143e
000001a0: 2063 2b3e a339 1e3e d8bf 0dbd 2dc2 883d
000001b0: 6315 4e3c 52fd caba 8733 3cbd e3ce dfba
000001c0: 2099 96bd e646 b13d 21f3 e13d 18b5 373c
000001d0: f6a0 503d 733a 84bd 553a fdbd 593d 36bd
000001e0: 781a 9a3c b723 02be 20e6 74be 5dd4 bf3c
000001f0: ad9f a2bd 8738 cdbd df4c 153d 2fb5 f83d
00000200: 237b a0bd f46e 00be 47b1 a3bb 32f8 083e
00000210: 799c 143d be20 823d 3945 0b3e c119 d0bd
00000220: 7b87 1a3e d543 013d 50e5 36be 259f 1e3e
00000230: 6652 d93d b40e bebd c961 8fbd 4bf0 7abd
00000240: a5a3 ae3d 0232 d7bd 30a2 443e c0a3 a03d
00000250: 0364 11bd 19b7 a43d c0ac 283c 2c4b d0bd
00000260: f302 9abd 57a7 3abd 1326 6b3b 37ba 63be
00000270: fe96 efb8 fa0f 00bd 7393 f1bd f807 05bd
00000280: 6263 aabb 9bcf c6bc 6991 cdbd 76be 273d
00000290: a4da 273e f869 c1bb 8638 5e3d 57e3 db3d
000002a0: 386c 45bd 5e06 5dbe fd41 9e3d 991e 643d
000002b0: 712a 573d d430 2cbd 61ca 2b3e 369c 753d
000002c0: 13a5 40bd c3f8 d03d da3c 653d 3641 743d
000002d0: 1388 32be fc50 01be 93a9 053c 24e7 8ebd
000002e0: 5dc0 e0bd 1b68 143e 5e8f 7f3d f31f 2e3d
000002f0: a211 173e 1ad4 e33c 19a7 e8bc ca42 1b3e
00000300: ced3 5a3c 4f66 1dbe 85dd 173e fa92 01be
00000310: 67c3 2abe 1883 fa3c 5758 803d 2cec 3bbb
00000320: 8519 193c a4aa f8bc 2f1b 223d ed8d b73d
00000330: 3dda 2d3e 1720 f8bd e0d0 9f3d 715b 353c
00000340: 73f9 36bd 5f01 373d 1956 d3ba 88b5 efbb
00000350: ded6 033e 61a9 14bd de37 05be c44a ba3c
00000360: 43a6 743c bea8 923d 4844 07bd 161a 0e3d
00000370: 27c2 473d d371 013e e0a2 393d 9801 44bd
00000380: b625 243e f620 21bd 71f8 c2bd 926f b037
00000390: 176d 073b 9eda 97bd 56ae a53d 0cd1 d3bc
000003a0: 2c76 b8bd 677a 0c3d a83e 92bd 39c4 f638
000003b0: bb31 f23d a0a1 5ebd f0cb 993c dda3 213e
000003c0: 89fc 59bd 45a7 483d c038 443e f5a0 20be
000003d0: 1e01 403c 425f 983d b631 8f3c 7e72 2b3d
000003e0: a8c8 b63d 77c2 c9bd 095d 023e 2888 44bd
000003f0: 2efb 673d 8ec5 71bd 2448 1dbd cb5f 84bd
0.062654875 -0.026710821 -0.08419267 -0.097838104 -0.17161347 -0.18714269 0.1173868 -0.07766405
-0.15844111 0.07172239 -0.0045680003 -0.056123327 -0.03807011 -0.017734665 -0.0027272727 -0.048213948
0.03229434 -0.022019496 0.15552548 -0.21643281 0.026732253 -0.09544807 -0.18626043 0.111531444
0.06318434 -0.094669454 0.06988458 -0.1612771 0.013637297 0.15082069 0.019533513 0.041989546
0.1757362 -0.09632825 -0.13982363 0.011029432 -0.035513412 -0.08413265 -0.12105552 0.02293392
-0.104729086 0.106689066 0.16689709 -0.094359994 0.21807696 -0.02106628 -0.06602782 -0.016383462
0.018875109 0.048101477 -0.102866925 0.01533089 0.034828704 0.03575128 0.0037082918 -0.08870894
0.020563392 0.06059213 0.11368807 0.09426935 0.111917235 -0.086064525 -0.033900324 -0.011064976
0.05116621 0.02142824 -0.040640928 0.009104186 0.16540357 -0.003717609 0.048718356 0.0019088235
-0.04965309 0.011565191 -0.1379326 0.013754312 0.058580633 -0.040921662 0.06851712 -0.018060481
0.09144697 -0.059145603 -0.019308524 -0.15265326 -0.03599778 0.05562583 0.03968336 0.09040933
-0.07584327 0.006191828 -0.03658419 0.0716291 0.13173458 -0.105054766 0.022517469 0.038622722
-0.01870925 -0.10254014 0.08199715 -0.04852216 -0.088951774 0.031245302 0.2672458 0.14494178
0.16737032 0.15451674 -0.034606785 0.06677661 0.012578341 -0.0015486872 -0.045947578 -0.0017075207
-0.07353425 0.08656101 0.11032701 0.01121261 0.050934754 -0.06456461 -0.123646416 -0.0444921
0.01881145 -0.12708937 -0.2391591 0.023416692 -0.07940612 -0.10020547 0.036450263 0.12143933
-0.078359865 -0.12542325 -0.0049954983 0.13375929 0.036282036 0.06353901 0.13600625 -0.10161162
0.15090744 0.03155883 -0.17860913 0.15490396 0.106114194 -0.09280148 -0.07001073 -0.061264317
0.085273065 -0.10507585 0.19202495 0.07843733 -0.03549577 0.080427356 0.010295093 -0.10170588
-0.07520094 -0.045569744 0.0035880848 -0.22239004 -0.000114245326 -0.031265236 -0.11795702 -0.032478303
-0.0051998356 -0.024268916 -0.100375004 0.040953122 0.16391999 -0.005902525 0.054253124 0.10736721
-0.04819891 -0.2158446 0.0772743 0.055693243 0.05253071 -0.042038754 0.1677642 0.059963427
-0.047032427 0.102036975 0.055966236 0.059632502 -0.1743472 -0.1262855 0.008158105 -0.0697768
-0.109741904 0.14492838 0.062392585 0.042510938 0.1475282 0.027811099 -0.02839999 0.15162197
0.013356162 -0.15371059 0.14830597 -0.12653723 -0.16676103 0.030580088 0.062668495 -0.0028674705
0.009344463 -0.030354805 0.039576706 0.08962617 0.16977783 -0.12115496 0.078035116 0.011069165
-0.044671487 0.044679042 -0.0016123682 -0.0073153414 0.12874934 -0.036294345 -0.13009593 0.02274073
0.014932218 0.07161091 -0.033024102 0.034692846 0.048769142 0.12641077 0.045321345 -0.047853082
0.1603001 -0.039338075 -0.09520043 2.1032789e-05 0.0020664388 -0.07414745 0.080898926 -0.025856517
-0.090069145 0.03429642 -0.07140857 0.000117667434 0.118258916 -0.054353356 0.018774003 0.15785165
-0.053219352 0.048987646 0.19162273 -0.156864 0.011719016 0.07440044 0.017479759 0.041857235
0.08924991 -0.09851544 0.12730803 -0.04798141 0.056636028 -0.059026293 -0.038398877 -0.064635836

res1a.conv2.bias f4 [16]
00000000: aa33 d83b dd67 81bb 1fff a7bd 0062 79bd
00000010: a24a 01bd 3928 c8bc 1718 13bc b502 c5bb
00000020: 0f0b 40bc 4314 61bc afe4 b53a f622 8ebc
00000030: f1e1 afbd 92fc a3bd 8df5 04bc acc5 2cbd
0.0065979557 -0.003949149 -0.08202957 -0.060884476 -0.031565316 -0.024433242 -0.008977911 -0.0060122856
-0.011721387 -0.013737741 0.0013877357 -0.017350655 -0.08588017 -0.08007158 -0.0081151845 -0.042180702

res1b.conv1.weight f4 [16, 16, 3, 3]
00000000: ce18 d53d 3790 4abd 94e4 a3bd 0b54 30be
00000010: 0a2e 5cbe a738 783a e9b5 3cbe 6c0d 26be
00000020: beba 4bbe 592c 3d3e 61af 413e 6cca b63b
00000030: 92df d03d f050 bebc 4943 193e a95c 15bd
00000040: 9b91 98bd a957 adbd 376f 393e 740c 793d
00000050: 707b 883d e313 c2be 227f 2dbe 397d a9bb
00000060: 805c 17be 8b66 92bd 2ddf a33c a3ee cfbc
00000070: b4d2 123e d0b8 8d3e f875 a5bd f371 5f3e
00000080: 8988 8e3e db49 0bbd f78b b0bd 18aa 2f3e
00000090: 5fd6 59be 6427 7fbe 6148 63bd a94b 54be
000000a0: c1d1 b5be ce17 81be 11b8 d0bc 9b60 41be
000000b0: 9838 2ebe 9883 193c a54b 8e3b 707b 453d
000000c0: 7e88 e33a 02e9 a7bd 3918 b83a 7a1c 003e
000000d0: ac30 3c3d 7a1d 42bd aa4d 76be 662e 40bd
000000e0: 7cf4 553d 39bc 843d a5d7 0d3e 5d48 723c
000000f0: 60a6 34be 1893 a13b d35f ca3d 2152 633c
00000100: 8ebb c93d b75f 8cbc bb03 5e3d d165 91bd
00000110: da0d 4cbd bf41 a73d 5e1d e1bd a399 2dbe
00000120: 60c3 aebd ccb1 babe a5f2 b0bd 13b1 2cbe
00000130: de24 353e 7a9f 843d 1b3f d5be aa8a ecbd
00000140: 662d c93d 5139 83bd 3be0 023e 398c 6a3d
00000150: e49e 20bd f20b 283e a783 b23d a9ce 03bd
00000160: a02a 9fb9 471f bd3d e06d a83d 471c 29bd
00000170: 6bbc 05bd 212c fabd b96d d83c 21c1 34be
00000180: 4684 9a3c d4d3 94bd 2ecf 9abb abd9 1bba
00000190: 3d5d 743d 33a1 5cbc c255 d1bb 5650 543e
000001a0: 4a3a 4e3d f428 f0bb 0b94 c13d ff42 583d
000001b0: 5941 ddbb d410 473e c49b d6b9 7ea7 abbc
000001c0: 0b49 25bc 16d0 37be ec1a dabc fc8f 2fbd
000001d0: 012b e63d 5876 81bc e958 fd3c 18bb 40be
000001e0: 04f4 f63d f900 1a3d 879f 89bd d5ef df3d
000001f0: d72b 953c 40b2 2c3e 5758 653e 69b7 5e3d
00000200: 2bd7 51be 3847 f2bd 721f 09be 2280 94bd
00000210: 01fa 7cbe 6c86 51be 8d52 fd3d 4e36 6ebe
00000220: 748d 753b 66c0 633e b684 9bbd 91d8 fdbd
00000230: 1349 963d 9c61 d5bb 6002 3a3d 62e4 81bd
00000240: a406 babd e1c6 e23c fb5b 593d 0a52 cabd
00000250: c880 6ebd 1581 a3bd 5ff2 b1bd 9f83 acbd
00000260: 02a2 04bc a411 323c 0918 7cbd 0679 0e3d
00000270: 64a1 d4bd 38b0 d83b e335 0a3d eaef c23c
00000280: 345a 1e3d c1db ca3a bb59 66bd a78f edbb
00000290: 973a 983c 7905 25bc 788d 813c 97d5 0ebd
000002a0: 5efc fbbc 3914 13bd 1086 1a3c 8151 adbd
000002b0: 7a3a 81bd b4f5 88bd 7f17 803d 9950 483d
000002c0: c0e9 6f3d 24c6 19bc e66e 2b3d 78f2 80bd
000002d0: 74a4 183d 11ee 6c3d a564 303c edc0 88bd
000002e0: afec 06bc 81de c53b fb19 2dbd 5287 7abd
000002f0: f50b b2bd 529e db3b 4525 553d bb50 17bd
00000300: cbc5 883c fd34 88bd 3c8f 6bbd f176 82bd
00000310: 43fa a1bd fdff b2bd 4f05 373d dd3a 7bbc
00000320: 1210 513d 0d34 293d 3422 32bd 2e72 83bc
00000330: f030 493d d89f 7ebd 44cc dd3c d330 6dbd
00000340: eceb 89bd d8c5 a53c 199d a0bb 89b1 693d
00000350: cfef f2bc d54c e9bc 8a8a 383d 7b73 e5ba
00000360: 5098 92bc d23f 833d fb0c 99bd a35a 743d
00000370: 89d5 8cbc b725 81bd a1e6 cfbc 5e28 abbd
00000380: f1e6 abbd 51f7 83bd 2d11 fabc 7825 82bd
00000390: a632 74bd a667 8dbd bc39 85bd 66ef b7bd
000003a0: dc18 98bc f628 4ebb 5fec c4bd 9b4b 5fbd
000003b0: 3838 b2bd e296 84bc 6491 d5bb c5df 9abd
000003c0: d6e1 0abb d6dd 50bd ba74 91bd ccd5 abbd
000003d0: f809 693d cc55 febc 9f29 a7bd 495e b8bd
000003e0: 5cc8 8abd 18e3 053d 3bf2 68bd 527e 1cbd
000003f0: 1b1f 3cbd 2063 4a3d b8bb 2a3d 1376 e0bc
0.10405122 -0.04945394 -0.08002582 -0.1721956 -0.21501938 0.0009468891 -0.18428768 -0.16216058
-0.19895455 0.18473949 0.18914558 0.00557833 0.10198893 -0.023231953 0.14967074 -0.03646532
-0.07449647 -0.084639855 0.18108831 0.06080289 0.06664169 -0.37905797 -0.16943029 -0.0051723984
-0.1478138 -0.07148465 0.02000388 -0.025382346 0.1433819 0.27680063 -0.080791414 0.21820812
0.27838543 -0.03400598 -0.08620446 0.1715473 -0.21273182 -0.2491737 -0.055488948 -0.20731987
-0.35511592 -0.25213474 -0.025478395 -0.18884508 -0.17013776 0.009369753 0.0043425136 0.048213422
0.0017359403 -0.081987396 0.0014045305 0.12510863 0.045944855 -0.047391392 -0.24053064 -0.04691925
0.05223511 0.06481213 0.13851793 0.014787761 -0.17641592 0.004930865 0.09881558 0.0138745615
0.09850226 -0.017135484 0.054202776 -0.07099498 -0.049817897 0.08166837 -0.109919295 -0.16953139
-0.085333586 -0.36463773 -0.08640031 -0.16864423 0.17689845 0.0647573 -0.41649708 -0.115498856
0.09823112 -0.064074166 0.1278085 0.057262633 -0.03921403 0.16410807 0.08716517 -0.03217951
-0.000303586 0.09234481 0.08224082 -0.041286733 -0.032650393 -0.12215448 0.026419507 -0.17651798
0.018861901 -0.072669655 -0.004724405 -0.0005945216 0.05965923 -0.013466167 -0.006388397 0.2073377
0.050348558 -0.0073291007 0.09452065 0.052798267 -0.006752175 0.19440013 -0.00040933315 -0.02095389
-0.010088216 -0.17950472 -0.026624165 -0.042861924 0.11238671 -0.015803501 0.030926185 -0.1882137
0.12058261 0.037598584 -0.067198806 0.10934416 0.018209381 0.16864872 0.2239698 0.054374132
-0.20492236 -0.1182999 -0.13390902 -0.07251002 -0.24704744 -0.20461434 0.12369261 -0.23262903
0.0037468346 0.22241363 -0.07593672 -0.123948224 0.073381566 -0.00651188 0.04541242 -0.06342389
-0.09083298 0.027682723 0.053066235 -0.09878929 -0.058228284 -0.07983605 -0.08688807 -0.08423542
-0.008095266 0.010868464 -0.06154636 0.034783386 -0.10382345 0.006612804 0.033742797 0.02379604
0.038660243 0.0015476869 -0.056237917 -0.0072497907 0.018582625 -0.010072106 0.015814528 -0.034871664
-0.030759986 -0.035907958 0.009431377 -0.08462811 -0.06309982 -0.06687489 0.062544815 0.04890499
0.05857253 -0.009385619 0.041853808 -0.06296247 0.03726621 0.057844225 0.010766183 -0.06677423
-0.008235141 0.0060384874 -0.042261105 -0.061164208 -0.08693687 0.006702223 0.052037496 -0.036942225
0.016695878 -0.06650732 -0.057509646 -0.063703425 -0.07909062 -0.08740232 0.044682797 -0.015333858
0.051040716 0.041309405 -0.04348965 -0.016045656 0.049118936 -0.062164158 0.02707494 -0.05790789
-0.06734452 0.02023594 -0.00490154 0.057054076 -0.029655365 -0.02847902 0.045053996 -0.0017505729
-0.017894894 0.06408657 -0.07473179 0.05965675 -0.017191665 -0.06306022 -0.025378527 -0.08357309
-0.08393658 -0.06443656 -0.030525768 -0.06354803 -0.059618615 -0.06904535 -0.065051526 -0.089812085
-0.018566541 -0.003145752 -0.09615397 -0.054515462 -0.08702129 -0.016185228 -0.006517576 -0.07562212
-0.0021191738 -0.05099281 -0.07102342 -0.08390388 0.056894273 -0.03104677 -0.081622355 -0.090023585
-0.06776497 0.032687277 -0.056871634 -0.038206406 -0.045928102 0.04941094 0.04168293 -0.027400052

res1b.conv1.bias f4 [16]
00000000: aba8 a1bd f175 aabd 0bb1 f73d c546 8a3d
00000010: c0e8 c3bd b128 dabd 47d6 e73c 30aa 9bbc
00000020: e616 14bd b423 27be 1005 94bd 132b 18be
00000030: 5df6 b93d 9c0b bc3d 2727 9cbd 4e59 8d3c
-0.07893499 -0.08323277 0.12094315 0.067517795 -0.09565878 -0.106522925 0.028300418 -0.01900205
-0.03615465 -0.16322213 -0.07227528 -0.14860182 0.09080193 0.09181902 -0.07624655 0.017254498

res1b.conv2.weight f4 [16, 16, 3, 3]
00000000: 119d bcbd 1124 6d3d 8120 0ebc ec2f b1bd
00000010: 4f90 39bd 7034 293d a57b c73d 7bf9 96bd
00000020: 6028 8cbd 072d ab3d 9dcb 12bd b306 243c
00000030: 601d 5cbd e4ad 193e 5188 c4bc 3b8e aabd
00000040: 65ed 8ebc 7736 91bc 816f 00be c636 293e
00000050: c6f9 23be 2f88 afbd 6d0a a73d 3bd1 153e
00000060: 76ef 6fbd 202d 95bb 47db ec3d 076c 933d
00000070: cd83 2f3d d7f2 8e3c fa00 bbbd cfc1 85bc
00000080: d97a ae3d 3ce0 c83b cb32 8c3d ca6b 3c3d
00000090: ceee a0bd c005 dbbd ea4c 743c fcc4 49bd
000000a0: d86d 303c 1fd5 383d 5df9 853b e251 0b3e
000000b0: d772 ef3a 3854 913d 588b afba 83da 0ebc
000000c0: 1810 21bb 767f 703c 19da 213e 537f 82bc
000000d0: b3a7 cfbd a548 ec3c 5550 753d df08 a43c
000000e0: 9830 df3d a2ae cdbd 5cb1 1f3c 3613 863d
000000f0: ba1d f23d 3e30 453d 8852 69be 8bac efbc
00000100: b221 c43c f364 42be a313 9f3d ecf2 85bd
00000110: 9a0e 4cbd e448 2f3d c66a 3bbd 7b9c 31be
00000120: 915b 9bbd dd07 bebd 10c9 733d 5625 dfbd
00000130: 2c97 273d 7f02 003e c19b 10be 768e 813d
00000140: 081b 073d d1c3 f1bc bebb babb 7104 e83b
00000150: 0ed1 aabd efa6 323e 6bfc 34bc 2d91 8bbe
00000160: d5e4 0d3e c666 083d 763f 9a3d d1be b63c
00000170: d04a 57bc 89e4 8abd 63b9 9d3d c98d 20bb
00000180: bf0e 8a3d 3f12 4d3d c6f4 343d 988f f23d
00000190: 4829 54bd 0931 243d 68b1 513d 706c f93a
000001a0: b292 4ebd ec42 b63d e92f 82bc 2eda 1d3e
000001b0: 37e3 c53b 265d cdbd 5f23 6e3d 062c 99bd
000001c0: 4d3c 123d a03a c7bd dc3f a03d af2e 5dbc
000001d0: 60fb 86bd e054 0fbc e3c7 6f3d fc47 cd3d
000001e0: 1f89 01bd aac5 c93d f7ab 0bbe b119 5a3d
000001f0: 35a5 4ebc fe17 22bd 6807 dabd 0f84 99bd
00000200: f5bc 4d3b 2683 c3bc ed65 ca3d dcdf 20be
00000210: 8c7a 873c fadd 23bd 6c56 04be 66eb 883d
00000220: b8ac 43be 7c55 3c39 8bf8 46bd d565 0ebe
00000230: 0faf 073e 1566 843b d467 2a3e bdf5 7a3d
00000240: a454 05be 8f6b 913d 12f0 903c d464 1d3d
00000250: eb37 4e3e cf85 e4bd 4312 77bd fa3d 44be
00000260: b12f 90bd 8ada bb3d cde7 8cbd 8570 bb3d
00000270: 7ddf 89bd 41e0 663b 30ab 6ebc 19aa dbbd
00000280: f02f 57bd 34d1 76bd 81bb fc3d 3cd4 a4bd
00000290: c603 853b 4354 443e be1d 103e 2d2b 143e
000002a0: c848 703c d747 2ebd a2b9 08bd f603 1cbc
000002b0: c0e8 4bbc 4b00 aa3d ba25 29bd ec0b a8bd
000002c0: 6edc c23d 1f01 fa3d 9ada 7ebd 88fd a9bb
000002d0: 6e0a abbb f9eb 923d a6cd f5bd 5240 a13d
000002e0: e0a5 10bd 41c2 143d 320d b73d 10ed bdbd
000002f0: 94ad fe3d 0808 4c3d 468e bbbd 231e 8d3c
00000300: f704 b53d 8632 25bd 6491 6abd 0fef d83d
00000310: 51ca debd 12c7 6dbc f3a6 09be b7e5 493d
00000320: ad8b 69ba a57d e63d 158a 903d 57f8 05be
00000330: fa54 4739 ae35 0bbe 9f12 923e 305f 8ebd
00000340: fab8 86bd d743 c8bc 531b 373e 6d03 833d
00000350: 43ca 873d 2ba4 4e3e 7d24 33bd c69e 943d
00000360: 76be 31be 9fe3 df3c 33a4 e5bd 6c1e 953c
00000370: 0189 273d f5c8 723d d789 943b 2c5a c4bc
00000380: 44ca 1d3d aaf2 edbd 0e35 11be eb74 dc3d
00000390: db4d 453d b6a8 383c b46e fc3d cae8 083e
000003a0: f294 34bc edd1 a9bd 6544 623e 4115 5f3e
000003b0: b962 b1bc b65d f5bd fc3b 8ebd 3819 163e
000003c0: 9b76 cebd 78d4 f73d e7e3 fa3c 0770 d4bd
000003d0: 7ca2 c8bd bbf1 ad3b 048e 02bd eac1 9b3d
000003e0: ff22 1bbd 4734 86bc cf02 efbd 4735 5ebd
000003f0: 67e1 803e a6d1 94bd b60b 723d 61ba 8d3d
-0.092096455 0.057895724 -0.008674742 -0.086517185 -0.04530364 0.041309774 0.0974038 -0.073718034
-0.068436384 0.08358198 -0.035838712 0.010011363 -0.05373895 0.1500774 -0.023990782 -0.083279096
-0.017447183 -0.017726166 -0.12542535 0.165248 -0.1601325 -0.08570897 0.081562854 0.14630596
-0.058577977 -0.0045524985 0.11565261 0.07198339 0.042850304 0.01744978 -0.09131046 -0.016327767
0.08519525 0.0061302464 0.068456255 0.046001233 -0.078580484 -0.10694456 0.014910916 -0.049260125
0.010768376 0.045125123 0.0040885643 0.13605455 0.0018268478 0.070961416 -0.0013392968 -0.008719089
-0.0024576243 0.014678827 0.15805854 -0.015929854 -0.10139408 0.028843233 0.059891064 0.020023761
0.108979404 -0.10043074 0.009746876 0.06546633 0.11822076 0.04814171 -0.2278539 -0.02925708
0.023941848 -0.18983822 0.07767417 -0.06540474 -0.049818613 0.042794123 -0.045756124 -0.17344849
-0.07585824 -0.092788436 0.05951792 -0.10895793 0.040915653 0.12500952 -0.14121915 0.063260004
0.032984763 -0.029512318 -0.00569865 0.0070806076 -0.08340655 0.17446493 -0.011046509 -0.27259198
0.13856824 0.033301137 0.075316355 0.022307785 -0.013140395 -0.06781871 0.07701375 -0.0024498573
0.06741094 0.05006623 0.044178747 0.118437946 -0.05179718 0.040085826 0.05119458 0.0019029509
-0.05043287 0.08899483 -0.015891986 0.1541526 0.006039049 -0.10027532 0.0581392 -0.074791
0.03570204 -0.09727979 0.0782468 -0.0134999 -0.06590915 -0.008748263 0.058540236 0.100234956
-0.03162491 0.098521546 -0.13639818 0.053247157 -0.012612631 -0.039573662 -0.10645944 -0.07495891
0.0031393145 -0.023866247 0.09882722 -0.15710396 0.016537927 -0.040006615 -0.12923592 0.06685524
-0.19108856 0.00017960923 -0.048576873 -0.13906033 0.13250373 0.0040404894 0.1664117 0.06126951
-0.13020569 0.07100593 0.0176926 0.038426235 0.20138519 -0.111583345 -0.06032015 -0.19164267
-0.070403464 0.091725424 -0.0688015 0.09152321 -0.0673208 0.003522888 -0.0145671815 -0.10725803
-0.05253595 -0.060258105 0.12340451 -0.08048293 0.0040592877 0.19172768 0.14073846 0.14469595
0.01466579 -0.04254898 -0.03338016 -0.009522429 -0.012445629 0.08300837 -0.041295744 -0.08205399
0.095147 0.12207245 -0.062220193 -0.005187694 -0.005219749 0.071739145 -0.12002115 0.07873596
-0.03531444 0.036318067 0.08938064 -0.09273732 0.12435451 0.049812347 -0.09157996 0.017226284
0.088388376 -0.040331386 -0.05726756 0.10592472 -0.108784325 -0.014512794 -0.13442592 0.04929134
-0.0008909058 0.112544335 0.07057587 -0.13083015 0.00019009775 -0.13594696 0.28529832 -0.06951749
-0.0657825 -0.024446411 0.17881517 0.06397138 0.06630375 0.20179813 -0.04373597 0.07256846
-0.17357811 0.027330218 -0.11212959 0.018202983 0.04090214 0.05927368 0.0045330334 -0.023968779
0.038522974 -0.1161855 -0.14180395 0.10764488 0.048169952 0.011270693 0.123258024 0.13370052
-0.011021839 -0.08291993 0.22096403 0.21785451 -0.02165352 -0.119807646 -0.06945035 0.14658058
-0.10081216 0.12101072 0.03062625 -0.1037293 -0.097966164 0.0053083575 -0.031873718 0.076053455
-0.03787517 -0.01638235 -0.116704576 -0.054250028 0.25171968 -0.0726655 0.0590932 0.069203146

res1b.conv2.bias f4 [16]
00000000: 7601 093d 9ea8 ea3b 29a6 bcbd 8166 353d
00000010: b339 d33c be87 cf3c 5f5e 083d 70b9 623d
00000020: 9e54 bc3b 9419 023d 262d 8fbb 2ecd 823d
00000030: a31f 76bc 7b07 73bc 01ea 553c f0e2 453d
0.03344866 0.007161214 -0.0921138 0.04428721 0.02578435 0.025333282 0.033293124 0.05535263
0.005747392 0.031762674 -0.004369396 0.06386791 -0.015022191 -0.014833326 0.013056279 0.048312128

conv2.weight f4 [32, 16, 3, 3]
00000000: 7c50 8a3d 9473 05bc 2cdd 1dbe 5acf 1a3d
00000010: 97d9 b5bd d932 59be 3eda a63d 0e61 123d
00000020: de74 8d3d f893 76bd 229e 31bd 5991 da3d
00000030: 440f 98bc c38a 24be 75cf f7bd 17bf 183d
00000040: 9cdf f73b 9bbf 033e 26cb 763e 9e81 ec3c
00000050: 3064 03be 70ed ed3c 1379 81bc 51c8 b9bd
00000060: 4033 073c 5732 a13d 7566 803e 8bc6 e4bc
00000070: 033a 893b 790d 11be 2b30 93bd 93df d7bc
00000080: 7108 a8bd e6ab f1bd 2203 393c e77a dbbd
00000090: 0514 01be 0917 cbbd 8e11 c5bd d31f 763d
000000a0: 7612 ebbc 3f36 b13c a87d fdbc adb5 1d3d
000000b0: 2187 97bd 6466 25be 2594 cfbd ea9d 503e
000000c0: 6548 083d ed75 193c a7a1 233e 8da8 ee3b
000000d0: e66b 0c3e dfaf 57be 7a16 133e f770 8ebe
000000e0: b055 0dbe 8162 ed3d d09e 00bd 2469 76b9
000000f0: d828 0cbc 3376 443e 44d7 473c 4dc1 2d3d
00000100: b05c 5e3e bd9c dcbc edd4 07bd 04d1 9f3d
00000110: 49c3 d3bd a6ce ccbd 1de9 4dbd 6fa4 b83d
00000120: f8f4 d4bd 61eb 5cbe 0b94 8b3d 15f5 823d
00000130: 8348 3d3c 2f44 873d 257d 37bd 911e 3f3d
00000140: 99fd 12be 4930 cdbd bae9 aebb cdb3 5cbc
00000150: 7b93 5b3c 4e77 a9bc 23b5 8b3d 4f1f 37be
00000160: 02ab 63be 6d01 02be d8cd 523c 19eb 433d
00000170: 65d6 433d 16f1 fc3c afc1 23be f7ce ac3b
00000180: 9009 08bd e554 4fbe 8845 8c3c ce95 703d
00000190: 6a99 a0bd e494 263d b061 a23c beb7 c73c
000001a0: 7bc0 59bc 7bd0 47bc 3bfa 6d3e a39c 30bd
000001b0: 02d5 b8bc fe26 1cbe dcbb 04be e890 8abb
000001c0: 9b13 2c3d 89e4 893c 9907 1ebe 5a24 9d3d
000001d0: a6a3 c63d bbd6 003c b06f 41bc 546a fbbd
000001e0: b036 5c3d 1792 32bd 13c9 633d d62d 1fbc
000001f0: c51f 26bc 0fea e83d 8a68 c9bc 8fcc ba3c
00000200: 1462 333b 5bf5 2aba 9bf7 563d dd18 86be
00000210: af1b 09be 3a74 1e3d be78 b3bd c5b2 c5bd
00000220: 5862 78bd 03ea b3bd 7ad7 03be 79d4 c83d
00000230: ef9d 863c 8730 6d3d 08fd e43d 80b9 743d
00000240: 6db4 02be 01db 46bc 0736 493e 3ad3 43be
00000250: 8aa8 07be 56ba 01bd 2fd1 573c 77ce 093e
00000260: 488a 2fbd 318d 233e f4c3 19bd 3938 edbb
00000270: 695e 0a3e 0842 453c 0c1c a33b 6438 96bd
00000280: f02e 3abd f404 3fbc 7370 da3c c052 c03d
00000290: e49c 243e 9f7f 403d e1cf f03d 09e0 0a3e
000002a0: 32c0 c03d dd9a 1b3d c9f1 88bd 2496 c2bd
000002b0: 753c 133d 5c78 003c c434 04be 3ad3 4cbd
000002c0: 8535 60be 1361 5abd db90 bebd 30cc 35be
000002d0: f184 5cbe 1cb4 79bd 5496 92bc f608 cebc
000002e0: 1305 4cbd aeef 4ebd db38 c03c a21e afbc
000002f0: da0b a03d ed63 943d 8ebf 7d3d 9eed 1dbb
00000300: fc8b e6bd aabb 9c3c 0ae3 a0bc 61f5 3abe
00000310: 1fdf 3d3b 3a70 7abd 1214 5bbd 2ed7 f5bd
00000320: a2aa bd3c 063c 4fbd 5d3c 0bbe 9158 413c
00000330: bb3f db3d fc41 793d dc4f 423d 0627 08be
00000340: 405f 22be 1598 fcbd 990a 63be 94b9 bcbd
00000350: dce5 adbd da6e 66bd 4d2d f23d d139 17be
00000360: b55a a43d 6e86 02bd f3fd 453c cfc3 513e
00000370: b9cb 9b3d 6a82 04bd 2d8b d93a c532 513d
00000380: 2e1f 3abc 9525 38bd 5e87 26be a3f6 18be
00000390: fd9c 133e 1b96 86bc fe18 a3bc f7fc 2abd
000003a0: d559 f1bd 5dc5 53bd 0f8a b2bd 82cf a1bc
000003b0: cebf 4fbd 16b5 783d 0563 043e db39 4bbd
000003c0: 4bf4 4e3d 48ab e2bc e25f fcba d5c8 25bd
000003d0: b486 a8bd 6f06 f83d 94d6 3abd 4ad2 28be
000003e0: 49a1 013d da13 d9bd 8786 043e 35ec 6a3d
000003f0: c835 0b3d 7ce5 d03b 7120 133d cbc6 463e
0.067536324 -0.008145232 -0.15416402 0.037795402 -0.088793926 -0.21210803 0.08147095 0.03573709
0.06907056 -0.060199708 -0.043363698 0.10672254 -0.018561967 -0.16068558 -0.12100116 0.037291612
0.007564498 0.1286606 0.24100932 0.0288704 -0.12831187 0.029043883 -0.015804803 -0.090714104
0.008251965 0.0787093 0.2507817 -0.027926704 0.0041878237 -0.14165296 -0.07186922 -0.026351726
-0.08204735 -0.11800365 0.011292251 -0.10716801 -0.12605293 -0.09916503 -0.09622489 0.060088944
-0.028695326 0.021632312 -0.030943707 0.038503338 -0.07398821 -0.1615234 -0.10135678 0.2037274
0.033272166 0.009366495 0.15979634 0.0072832764 0.13713035 -0.21063183 0.14364043 -0.2782056
-0.13802218 0.11591054 -0.031401455 -0.00023499556 -0.00855466 0.19185714 0.012197319 0.042420674
0.21715045 -0.026930207 -0.033162046 0.078035384 -0.10339982 -0.100003526 -0.050271142 0.09015738
-0.103982866 -0.21574165 0.06815346 0.06394402 0.011552933 0.06604802 -0.04479708 0.04666001
-0.14354552 -0.10018975 -0.005337921 -0.013470602 0.013401861 -0.020686772 0.068216585 -0.17883037
-0.22233203 -0.12695856 0.01286646 0.04783163 0.047811884 0.030876677 -0.15991853 0.0052736956
-0.033212245 -0.20247228 0.017122999 0.058736615 -0.078417614 0.040669337 0.019821972 0.024379607
-0.01329052 -0.012195702 0.23239987 -0.04311813 -0.022562508 -0.1524925 -0.12962288 -0.0042287
0.042010885 0.016832607 -0.15432586 0.07672949 0.09699182 0.007863696 -0.0118064135 -0.1227614
0.05376309 -0.043596353 0.05561168 -0.009715518 -0.01013941 0.11372768 -0.02458598 0.02280262
0.0027371692 -0.0006521546 0.05248223 -0.26190844 -0.13389467 0.03868506 -0.08763264 -0.09653238
-0.060640663 -0.087848686 -0.12875167 0.09806151 0.01643273 0.057907607 0.111810744 0.05974722
-0.1276414 -0.012137176 0.19649516 -0.19123545 -0.13247886 -0.031671844 0.013172432 0.13457666
-0.042856485 0.15971829 -0.03754039 -0.0072393683 0.13512577 0.012039669 0.0049777087 -0.073349744
-0.04545492 -0.011658896 0.026664948 0.09390783 0.16075474 0.04699671 0.117584 0.13562025
0.09411658 0.037989486 -0.06686742 -0.09501293 0.03594633 0.007841196 -0.12910753 -0.05000613
-0.21895416 -0.053315233 -0.09304973 -0.17753673 -0.21535088 -0.06096278 -0.017893948 -0.025150757
-0.049809527 -0.050521545 0.02346461 -0.021376912 0.078147605 0.07245622 0.06195026 -0.002409793
-0.11257169 0.019132454 -0.01963951 -0.18257667 0.0028972102 -0.061142184 -0.053485937 -0.12003933
0.023152653 -0.050594352 -0.13597246 0.011800901 0.10705515 0.060853943 0.04743944 -0.13296136
-0.15856647 -0.12333695 -0.22172011 -0.09215084 -0.08491108 -0.05625806 0.11825047 -0.14768149
0.080251135 -0.031866483 0.012084472 0.20484851 0.076072164 -0.032350935 0.0016597264 0.05107381
-0.011359973 -0.044957716 -0.16262576 -0.14937834 0.14415355 -0.016428998 -0.019909378 -0.041745152
-0.11784712 -0.051701892 -0.08717739 -0.019752268 -0.05072003 0.060719572 0.12928398 -0.049615722
0.050525945 -0.027669564 -0.001925465 -0.04047473 -0.082288176 0.12110602 -0.045614794 -0.16486469
0.031647954 -0.105994895 0.12941943 0.05735417 0.033986837 0.006375013 0.03591961 0.19411771

conv2.bias f4 [32]
00000000: cbd3 0abd a452 b53a 3ca4 813c 71ff 92bd
00000010: f3e0 96bd 69be 2dbd bb2a d6bc c82b 2cbd
00000020: 2d90 f1bd b757 0bbd 3a8a 74bd 2779 a1bc
00000030: 014c 11bc 2abc b6bd b357 15bd 4e70 9cbd
00000040: 076a 60bd e1f0 51bd 20b3 c1bc 9aa3 ffbb
00000050: fc4e 85bd 5ee5 9ebc 50ef 13be 0bac 89bd
00000060: d5cf 8ebd cc40 d9bd 117e ffbd 51c2 cabd
00000070: 696c d4bd e2bd 0ebe 4073 b8bc 6314 bfbd
-0.033893388 0.0013833833 0.015825383 -0.07177628 -0.073671244 -0.042417917 -0.026143422 -0.04203394
-0.117950775 -0.0340192 -0.059702136 -0.01971109 -0.008868218 -0.08922608 -0.03646059 -0.07638608
-0.054788616 -0.05125511 -0.023644984 -0.0078014852 -0.06509206 -0.01939648 -0.14446759 -0.06722268
-0.069732346 -0.10608062 -0.12475217 -0.09900344 -0.1037224 -0.13939622 -0.022515893 -0.0933006

res2a.conv1.weight f4 [32, 32, 3, 3]
00000000: 5211 353d 02f9 a3bc e3cf b7bc 7849 f63d
00000010: 6387 92bd 6c21 c2bd c18a d3bd a3d6 90bd
00000020: 16a6 ee3d 6b0d 323d 4cae e0bd 1ff2 9638
00000030: 9edd b63d d40d ca3b 050e a03c 1dc9 88be
00000040: 133b 42be e065 cc3b e745 483e 80de 0e3e
00000050: 2619 223e 37ac 463e 4712 d6bd 594b 5c3c
00000060: dba2 d0bd 0b96 49be b811 fb3d 83ae adbd
00000070: fa86 673d dfbe 923b cd4a 84bc 1c3d 663d
00000080: 09f4 81bd 3857 67be 3dd4 f43d c0e3 1d3b
00000090: 3611 883d 239d fdbb fbb8 cf3c 8358 8e3e
000000a0: 2a29 c2bd 7bba 843d cfcd c2bd 4d2b debd
000000b0: 39be d7bd 9453 70be a3c3 df3d c42d 7d3d
000000c0: bc1c 64be 465f b6bd e5e0 073c 1dbe 16be
000000d0: f4c3 123d 38b4 513d 03e4 0cbe 9230 163c
000000e0: bc84 5fbe d272 193e b7cd 433c 84db bbbd
000000f0: 79b1 b1bc 747f 373e da97 023e d3cc 99be
00000100: 0bee 243c 060c 3f3e fdbc a6bd 9992 e63d
00000110: eacf fd3d deb2 363d a4d0 a03b 1c36 623d
00000120: fa52 b73d b5fa 033d 2e43 42be 2cb4 cbbd
00000130: 6fd8 923d 41c9 cebd dc34 dfbd adc3 30be
00000140: 7f3e c3bd 6c2b 82bc 5db2 11be 5e70 df3d
00000150: 41fd fc3a 9b43 60be 0b2f 393e 0c5c fcbd
00000160: 18d3 d9bd 54ff f2bd 95b8 19bb 8579 323d
00000170: 08eb da3d b2d2 c1be a42e 333e 5177 983d
00000180: f411 24be 4790 dc3d 0c63 b03c c294 13bd
00000190: ab67 40bd 505c e2bd a2f4 aabb 4842 b5ba
000001a0: 1d46 83be acbc 5bbe 185c d23c 16a7 85be
000001b0: 35b8 44be 67d8 21be bc0e 5f3d 4de1 86be
000001c0: 398a bfbd d3d6 703d 2ccf 4ebe 35b5 a43d
000001d0: 9cd5 26bb c401 b6bd a1d2 ecbd 9da1 673b
000001e0: 4c69 16bd 0bf2 52be a287 19bc 3b9d 8dbd
000001f0: c166 3dbe 647f 1c3e 9823 32be bdd4 18bd
00000200: 05a2 813d f5a8 03bd ce9e c6bc 5056 253d
00000210: c5e8 5bbd a24f 1cbd 60b7 8b3d 4d87 e3bd
00000220: 4380 8ebd c634 e93d e242 f4bd 9906 aabc
00000230: 8535 313d d7fd 8dbd 1293 b73c 6221 1bbb
00000240: a79e 9ebd d759 553d 40bb 053e 98fa f9bd
00000250: a3b6 e13c df11 fb3d d437 0cbd b885 ddbd
00000260: 1591 a93d 447a 573d 80bd 013e a2a1 043e
00000270: 429d 7c3d 640f 073b 4186 da3d 4cf6 bd3d
00000280: 144f b9bd 0398 37bd be52 8ebd 17ac 8ebd
00000290: 2bee 43bd a199 d43c 0fde 84bd 88ef e53d
000002a0: d55a b2bd 9d24 7fbd 19f5 d9bd 831a 41bb
000002b0: 06db 8fbd 01c7 903c 5239 df3d 0d8d 8cbd
000002c0: f99b 8a3c 2ebe 0f3e 5fef a4bd ed9f bcbd
000002d0: fd0f 9abc fd9c c9bd 4cc8 5a3e 11c2 3ebe
000002e0: 4648 47be 5bfc 18bd cf67 f3bd e5cf 6c3e
000002f0: 9c8a 083e 9401 77bd 9330 31be 8e96 df3d
00000300: 66cf 063d 0cb3 b5bd dfdd 61be 0400 6bbe
00000310: 0a82 81bd 0d7c 05be 01a6 a93d 5649 eebc
00000320: 27eb afbc 944a ec3d 4dfd 2cbe b400 a83c
00000330: a8f6 b6bd 06cc 76bd 5534 43bd d726 bbbe
00000340: 65d6 b93d 396c df3d bb7e debd 1fc6 dd3d
00000350: cc5c eb3d cdef 393c 80f8 23bb 17ef 4b3d
00000360: e68c 9abe 3581 0bbe 7691 ba3c 2e80 79be
00000370: 5eba 90be 6e58 c93d e51d e7bd 5e89 45be
00000380: a62c ea3d 7caa 42be 5846 27bd 161b 153d
00000390: f319 c4be f66d d1bd 13c2 023e 5b9e 26be
000003a0: c289 263e fa9d bf3d 4f3d 10be 5acb 24bc
000003b0: e5fc ff3c d684 92bd 13cb c0bd f47a c93d
000003c0: ad0b 5c3d 3c4e bdbd 4917 9c3d f316 b33b
000003d0: 795c f6bd 1d85 36bd 888c afbd b8b7 bfbd
000003e0: 6591 aa3b 82e4 a4bd a295 eb3b a7df f63d
000003f0: 4a3c 06bd 9969 58bb 1b8f a93c 61e8 e2bd
0.04420597 -0.020016197 -0.022437995 0.12025732 -0.07154729 -0.09479031 -0.103291996 -0.07072189
0.11652772 0.043469828 -0.109707445 7.197656e-05 0.08928989 0.006166199 0.019537935 -0.26715937
-0.18967848 0.0062377304 0.19557916 0.13952065 0.15829906 0.19401632 -0.10452705 0.013445699
-0.10187312 -0.19686143 0.12259239 -0.08480551 0.056525208 0.00447832 -0.016148949 0.056210622
-0.06345374 -0.22591865 0.11954544 0.0024092048 0.06643908 -0.0077396794 0.02535676 0.27801904
-0.09480508 0.06480881 -0.09511911 -0.10848103 -0.10534329 -0.23469383 0.109259866 0.061811224
-0.22276586 -0.08904891 0.008293365 -0.1472096 0.035831407 0.05119726 -0.13758855 0.0091668535
-0.21827978 0.14985207 0.011950902 -0.09172729 -0.02169107 0.17919713 0.1275324 -0.3003908
0.0100665195 0.1865693 -0.081415154 0.1125843 0.12393172 0.044604175 0.0049076844 0.055227384
0.089513734 0.032221515 -0.1897094 -0.099464744 0.07170188 -0.1009698 -0.10898754 -0.17262144
-0.095334046 -0.015889846 -0.14228196 0.10910104 0.001930155 -0.2190079 0.18084352 -0.12322244
-0.10635966 -0.11865106 -0.0023455967 0.04357292 0.1068936 -0.3785606 0.1749826 0.07444633
-0.16022474 0.10769706 0.021531604 -0.03603054 -0.046973865 -0.110527635 -0.005217151 -0.0013828957
-0.2563943 -0.21458691 0.02567868 -0.2610404 -0.19210894 -0.15805207 0.05445741 -0.26343766
-0.09352536 0.058798622 -0.20196217 0.08042375 -0.002545691 -0.088870555 -0.11563612 0.0035344132
-0.036721513 -0.20600145 -0.009370716 -0.06914755 -0.18496229 0.1528297 -0.1739639 -0.037312258
0.06329731 -0.03214355 -0.024245646 0.040365517 -0.053688783 -0.03816188 0.068220854 -0.11109791
-0.06958058 0.11387019 -0.119268194 -0.0207551 0.04326393 -0.06933182 0.022408996 -0.002367102
-0.07745104 0.05208763 0.13059711 -0.12206 0.027552908 0.12259268 -0.03423293 -0.108165205
0.08279625 0.052606836 0.12669945 0.12952283 0.06167341 0.0020608539 0.10670138 0.09275493
-0.09048286 -0.044822704 -0.069493756 -0.06966417 -0.047834557 0.025952162 -0.06487667 0.112273276
-0.08708731 -0.062290777 -0.10642452 -0.0029465265 -0.07024197 0.017673017 0.10899605 -0.06862841
0.016920077 0.14037392 -0.08053469 -0.09210191 -0.018806452 -0.09844396 0.2136547 -0.18628718
-0.19461164 -0.03735004 -0.11885034 0.2312618 0.13334125 -0.06030424 -0.17303686 0.10917388
0.032912634 -0.08872041 -0.22057293 -0.22949225 -0.06323631 -0.13035603 0.08283616 -0.029087704
-0.021474434 0.11537662 -0.16893502 0.020508148 -0.08933765 -0.060253166 -0.04765733 -0.3655307
0.09074096 0.10909314 -0.10864016 0.10828804 0.11492309 0.011348677 -0.0025019944 0.04978856
-0.30185622 -0.13623507 0.02277444 -0.24365303 -0.28267187 0.0983132 -0.11284999 -0.19290683
0.11434297 -0.19010347 -0.04083857 0.036402784 -0.38301048 -0.102260515 0.12769346 -0.16271345
0.16263488 0.093563035 -0.14085887 -0.010058248 0.03124852 -0.07154243 -0.09413733 0.098379046
0.053722072 -0.09243438 0.07621629 0.0054653822 -0.120293565 -0.04456054 -0.08571726 -0.093612134
0.0052053207 -0.08051397 0.0071894685 0.12054377 -0.03277234 -0.0033021925 0.02069812 -0.11079479

res2a.conv1.bias f4 [32]
00000000: 7434 c83c 6708 0cbd e07e 57bc b9d6 183c
00000010: 060c 903d f48e 953c 633e b33d 8672 643e
00000020: 85fa 443d 2ede fd3d 6b6d f63d 5076 e93d
00000030: e24e 193d a3a6 ae3d 462d 04bc 74fb e93d
00000040: 61f5 dd3d 8580 973b fb90 903d f303 9d3b
00000050: 9b1e 623d e032 e3bd dcfe 3c3d 1c51 bfbd
00000060: 75e6 1b3c f7c4 2b3e 411b c4ba eb56 3bbd
00000070: 32fa 1dbd 62d6 94bc 3b22 00bd 1c85 d83d
0.024439074 -0.0341877 -0.013152808 0.009328538 0.07033543 0.018256642 0.08752134 0.22309312
0.048090477 0.12395893 0.120325886 0.113995194 0.037428744 0.08527877 -0.008067435 0.11424914
0.10837818 0.004623475 0.07058903 0.0047917305 0.05520497 -0.11093688 0.04614149 -0.09341642
0.009515394 0.16774355 -0.0014961736 -0.04573719 -0.038568683 -0.018168632 -0.031282645 0.105722636
