checkpoints/ppo_academy_counterattack_hard.pth (torch, 718571 bytes, 45 tensors)

conv1.weight f4 [16, 16, 3, 3]
-0.026003208 -0.078586474 -0.02691215 0.045882262 -6.163931e-05 0.091466345 -0.041472293 -0.11870009
0.055065263 -0.25630397 -0.31315926 -0.15686207 -0.0643437 -0.09431386 0.064207055 0.08655494
0.08417152 0.077560216 0.09316095 0.12648398 0.32080835 0.08352237 0.029172987 0.18174875
-0.06326987 0.059939142 0.17618303 -0.1541972 -0.046008036 -0.061946675 -0.10941162 0.05006402
0.13099226 0.040532038 0.06404496 0.2278551 -0.12633435 0.008428409 0.12754308 -0.03592157
0.033695802 -0.059493147 0.025061123 -0.13242617 -0.021973379 -0.19283447 -0.3196913 -0.09390977
-0.062511995 0.032866832 -0.3361315 -0.082988106 0.14757611 -0.31032404 0.009950292 0.11905948
0.016074076 0.09640757 -0.07915584 0.054067757 0.13002965 0.17573427 -0.10469794 0.19647078
0.052474715 0.005795626 -0.027174916 0.13255094 0.061887443 0.18118805 0.049336202 -0.090465575
-0.1456084 0.009538791 -0.03910896 -0.007962102 -0.11172425 0.042908996 -0.093231514 0.0160226
-0.09420111 -0.05442776 -0.1266671 0.04817838 0.047830094 0.014360977 -0.2495145 -0.1707061
-0.049907494 0.0003672759 0.17689195 0.03323613 -0.104831696 0.004004241 0.25780186 0.17846857
0.23889077 0.14700378 0.13423745 0.13499747 -0.038569108 -0.028897278 0.17372645 -0.019899797
0.049158175 0.095122635 -0.055179603 -0.034100797 -0.11798674 -0.205807 0.14508271 0.09666046
-0.17985827 -0.082215 -0.081016846 0.025927464 0.0114223985 -0.029223353 0.13974077 -0.045610156
-0.21855693 0.12693754 -0.04379825 -0.16798596 0.08233932 -0.06371453 0.41892877 -0.150627
0.0364488 -0.044835873 0.13381813 -0.11633716 -0.0077506886 -0.112734295 0.056913048 -0.09409755
-0.04099212 -0.095149375 0.09896685 0.08084432 -0.04634904 -0.15285973 0.25797507 0.06972605
0.033429578 0.0749234 0.02955936 -0.107634865 0.14191338 -0.02614316 0.116894394 0.14439204
-0.3580839 -0.30996576 -0.046141267 0.06669861 0.13109079 -0.17499234 -0.34358034 0.1651349
0.0030160032 0.082935296 -0.29149696 -0.23929092 0.041600432 -0.20244762 -0.052788537 -0.05882663
-0.07411867 0.0754225 -0.0664726 -0.022752889 -0.0069983075 0.06745094 0.018649058 0.22238225
0.09162311 0.1757904 0.17762311 -0.10849119 -0.20840558 0.0071795145 -0.03370301 0.09234257
0.09131206 0.057215903 -0.19698031 0.074495494 -0.10804962 0.10874759 -0.13124822 -0.29709542
-0.08711276 0.01143456 0.16798058 -0.011771515 -0.13920555 -0.0031778947 -0.25459906 -0.059258696
-0.21218245 -0.24845569 -0.1380976 -0.1939703 -0.03296534 -0.24422704 -0.23423894 -0.21280946
0.0066226553 0.21010311 -0.07472776 0.22513974 0.10155691 -0.32901144 0.19082229 -0.29658905
-0.034084123 -0.13007188 -0.0012272258 0.018115941 0.016213207 -0.017258279 -0.07495309 -0.25168127
0.017452702 -0.050269324 0.010111414 -0.29421592 0.05241242 0.17215581 0.035363037 -0.044578545
0.074866496 -0.0122167235 -0.03994049 -0.18000652 -0.10129041 0.26386952 -0.16066709 -0.3354962
-0.17202176 -0.050329138 -0.01552401 0.091742106 -0.03142031 0.028042613 0.037912358 0.05038009
0.10004909 -0.07102791 0.006804393 -0.19092812 -0.108354315 -0.041810494 -0.118540905 -0.22616982
00000000: ae04 d5bc f2f1 a0bd df76 dcbc 0aef 3b3d
00000010: 5a44 81b8 b552 bb3d dade 29bd 0819 f3bd
00000020: 1d8c 613d 463a 83be 6956 a0be 73a0 20be
00000030: a1c6 83bd a027 c1bd fd7e 833d b743 b13d
00000040: 1e62 ac3d e4d7 9e3d 2bcb be3d 0485 013e
00000050: fe40 a43e c70d ab3d 30fc ee3c 581c 3a3e
00000060: a293 81bd bf82 753d 5369 343e dfe5 1dbe
00000070: ec72 3cbd ccbb 7dbd 3313 e0bd ee0f 4d3d
00000080: d622 063e ec04 263d 012a 833d d952 693e
00000090: cb5d 01be 4f17 0a3c a79a 023e 7f22 13bd
000000a0: 9c04 0a3d 16af 73bd fc4c cd3c ba9a 07be
000000b0: 8401 b4bc 6676 45be 94ae a3be c453 c0bd
000000c0: 4a06 80bd 5f9f 063d 6e19 acbe abf5 a9bd
000000d0: 311e 173e cbe2 9ebe 8d06 233c 75d5 f33d
000000e0: c8ad 833c 5571 c53d 751c a2bd 2776 5d3d
000000f0: 7e26 053e aff3 333e e06b d6bd a32f 493e
00000100: baef 563d 3ce9 bd3b ee9d debc 6fbb 073e
00000110: b07d 7d3d 5c89 393e c214 4a3d 0446 b9bd
00000120: 5e1a 15be 9748 1c3c b830 20bd 7a73 02bc
00000130: afcf e4bd 58c1 2f3d 2af0 bebd d441 833c
00000140: 83ec c0bd a5ef 5ebd 05b5 01be b156 453d
00000150: 7de9 433d 4e4a 6b3c bb80 7fbe 94cd 2ebe
00000160: cd6b 4cbd f08e c039 2a23 353e 9c22 083d
00000170: 00b2 d6bd 0236 833b 9bfe 833e 77c0 363e
00000180: c89f 743e 2988 163e 8b75 093e c73c 0a3e
00000190: a4fa 1dbd fcb9 ecbc 59e5 313e e604 a3bc
000001a0: 155a 493d a8cf c23d 0204 62bd 47ad 0bbd
000001b0: 08a3 f1bd 12bf 52be 9090 143e ebf5 c53d
000001c0: c42c 38be 5760 a8bd 29ec a5bd d565 d43c
000001d0: 0325 3b3c d065 efbc 3418 0f3e b7d1 3abd
000001e0: 63cd 5fbe eafb 013e cb65 33bd 8304 2cbe
000001f0: 84a1 a83d c37c 82bd d57d d63e f73d 1abe
00000200: 564b 153d d2a5 37bd 9f07 093e 2d42 eebd
00000210: 7df9 fdbb 3de1 e6bd a81d 693d 37b6 c0bd
00000220: 5ae7 27bd addd c2bd 22af ca3d b591 a53d
00000230: 7ed8 3dbd 4387 1cbe 4f15 843e 88cc 8e3d
00000240: 74ed 083d 7171 993d 7926 f23c ab6f dcbd
00000250: be51 113e 2e2a d6bc 5466 ef3d 82db 133e
00000260: c656 b7be d5b3 9ebe a0fe 3cbd 4899 883d
00000270: aa3c 063e 3131 33be c3e9 afbe 2019 293e
00000280: 23a8 453b fbd9 a93d 173f 95be ae08 75be
00000290: 3765 2a3d 6e4e 4fbe cb38 58bd 31f4 70bd
000002a0: 87cb 97bd 1d77 9a3d c922 88bd 4464 babc
000002b0: 0f52 e5bb b823 8a3d e9c5 983c 2cb8 633e
000002c0: e6a4 bb3d 6602 343e d5e2 353e a130 debd
000002d0: 4668 55be 2242 eb3b 2b0c 0abd 1a1e bd3d
000002e0: d101 bb3d 395b 6a3d 35b5 49be 1891 983d
000002f0: 1f49 ddbd 0eb7 de3d ef65 06be e41c 98be
00000300: 2d68 b2bd 0558 3b3c 1a03 2c3e 50dd 40bc
00000310: e68b 0ebe 3a44 50bb cf5a 82be 3fb9 72bd
00000320: 5b46 59be 2b6b 7ebe 7569 0dbe 26a0 46be
00000330: aa06 07bd a716 7abe 55dc 6fbe b9ea 59be
00000340: dc02 d93b 4525 573e de0a 99bd 088b 663e
00000350: 12fd cf3d 3074 a8be eb66 433e 85da 97be
00000360: cb9b 0bbd 9031 05be ddda a0ba e267 943c
00000370: 8fd1 843c 3c61 8dbc 0181 99bd 5edc 80be
00000380: f8f8 8e3c 35e7 4dbd 58aa 253c 78a3 96be
00000390: 68ae 563d 9d49 303e d5d8 103d fe97 36bd
000003a0: 9b53 993d a728 48bc a498 23bd a153 38be
000003b0: 5971 cfbd e819 873e ea85 24be 28c6 abbe
000003c0: 7926 30be ed25 4ebd 6b58 7ebc 49e3 bb3d
000003d0: 95b2 00bd 9fb9 e53c fd49 1b3d 5a5b 4e3d
000003e0: 8ae6 cc3d 1577 91bd 63f7 de3b a982 43be
000003f0: dee8 ddbd 7b41 2bbd 93c5 f2bd 1099 67be

conv1.bias f4 [16]
-0.01476275 -0.019286996 -0.029024003 -0.09132617 -0.06597165 -0.007970411 -0.030872362 -0.0670606
-0.093460076 -0.030559627 -0.013409061 -0.017169792 -0.013934127 -0.030147528 0.008886859 -0.071099
00000000: 76df 71bc c3ff 9dbc bfc3 edbc 3709 bbbd
00000010: 251c 87bd 5496 02bc 09e8 fcbc 1157 89bd
00000020: ff67 bfbd 2f58 fabc aeb1 5bbc aaa7 8cbc
00000030: f74b 64bc f3f7 f6bc 309a 113c 5a9c 91bd

res1a.conv1.weight f4 [16, 16, 3, 3]
-0.0715678 0.12913454 0.07197822 -0.06357787 0.04041352 -0.10895802 0.11571595 -0.0013895109
-0.03856436 -0.20782895 -0.03231764 -0.020064212 -0.17535026 0.03726845 0.11162047 -0.11507938
0.04918395 0.1611213 -0.06910198 0.116707504 -0.024839604 -0.12639071 0.009890161 -0.060747504
-0.11836028 -0.11975784 -0.12839197 -0.23310958 0.010140753 0.20147702 -0.09705674 0.08471447
-0.023307988 0.21649954 0.09942897 0.12795736 -0.049807478 0.053418573 0.09376927 -0.15568893
-0.17165379 -0.028658148 0.060492102 -0.1354739 0.026017165 0.03670433 0.081373066 -0.16984136
-0.11176595 -0.18391971 -0.0038455552 -0.06061216 -0.18534411 -0.016419385 -0.03306107 0.019124404
0.060361896 -0.10364678 -0.16015254 -0.0016014051 -0.102219984 -0.036716823 0.09693629 0.11923214
-0.024427226 -0.14632712 -0.0914548 -0.23007064 -0.124149814 0.0026853592 0.043974385 0.06988463
-0.18901712 -0.14687453 0.13034287 -0.1460389 -0.17813694 0.037841916 -0.048419356 -0.05899352
0.18822654 -0.018631585 0.0707661 0.02221458 -0.1063909 0.09513204 -0.080775015 -0.1579002
0.02865294 0.091638446 -0.065343216 0.14187466 -0.0017559022 -0.07581304 -0.042962044 0.0052679344
0.05324393 -0.004969454 -0.11916717 -0.07194027 -0.065267 0.03598146 -0.21757795 -0.20216636
-0.09631026 -0.015917564 0.051944938 0.061507232 -0.0109313205 0.031067612 0.072877795 -0.107287414
0.11070583 0.03411269 -0.035310443 -0.04947609 0.12595934 0.01799474 0.007532892 -0.033391617
-0.12487518 -0.0151217785 -0.073041014 0.0039207893 0.0062764203 0.08649635 -0.22436659 0.053543728
-0.08933713 -0.26827466 0.045183666 0.10534172 -0.052414097 0.03418744 0.03485667 -0.05323984
-0.07855885 0.018469568 0.005095276 -0.07022138 0.11061242 0.099897236 -0.05009676 -0.07742383
0.023628825 0.11741706 0.06442533 -0.09334305 0.059881948 0.031148097 0.11472576 0.12288282
-0.09650964 -0.09688762 -0.032643255 0.047551807 -0.014238531 -0.122736335 -0.09925436 -0.023382565
-0.21655834 -0.066019304 0.099583104 0.0045968383 -0.19157133 -0.022460146 0.085504405 0.08435457
0.020218998 -0.07022835 -0.00069017796 0.07108267 0.10613015 -0.034378264 0.10639642 0.023716627
-0.030612448 -0.22538261 0.12458781 -0.31798035 0.26384446 0.0013479362 0.018179728 0.2820453
0.09052237 0.07284764 0.21300101 0.08336549 0.061084673 -0.11192324 -0.042121824 -0.1669665
-0.026375944 0.0433738 -0.0037590638 0.0832753 -0.017204516 -0.017722884 -0.012839192 -0.031194108
-0.11617901 0.1471988 0.035558335 -0.27357095 -0.048204392 0.09710048 -0.104080744 -0.14926736
-0.0064185755 -0.033184312 -0.09391153 -0.15563388 -0.0799419 -0.09082976 -0.24034636 -0.13565455
-0.12348076 0.1302061 -0.30142954 0.06374706 0.1290989 0.122172154 -0.028764201 0.14731157
0.06746071 -0.076508865 0.096259095 0.012957209 0.050102886 0.03717569 0.035924487 0.08776756
-0.19497095 -0.019280745 -0.011202088 -0.016161295 0.020197066 -0.047646258 0.1325075 0.11507959
0.011055938 -0.029608266 0.028071772 -0.0061553144 0.23348637 0.23774399 0.08382621 0.18913038
0.03701939 -0.08698434 -0.06681957 -0.11456136 -0.16169168 -0.039684 0.032459516 -0.04565891
00000000: 2492 92bd d83b 043e 5169 933d 1d35 82bd
00000010: a688 253d 6225 dfbd 7cfc ec3d 4020 b6ba
00000020: aaf5 1dbd 1dd1 54be 805f 04bd b45d a4bc
00000030: 058f 33be cda6 183d 4699 e43d bdae ebbd
00000040: 1c75 493d fbfc 243e 5785 8dbd 5804 ef3d
00000050: 6d7c cbbc 916c 01be 580a 223c 60d2 78bd
00000060: e066 f2bd 9943 f5bd 2f79 03be 47b4 6ebe
00000070: 6725 263c fe4f 4e3e afc5 c6bd c87e ad3d
00000080: 65f0 bebc 0eb2 5d3e 6aa1 cb3d 4107 033e
00000090: ed02 4cbd 6fcd 5a3d 1a0a c03d eb6c 1fbe
000000a0: 03c6 2fbe 7ec4 eabc 91c6 773d acb9 0abe
000000b0: f321 d53c 4857 163d eca6 a63d e5ea 2dbe
000000c0: 8ce5 e4bd 7355 3cbe b605 7cbb 7544 78bd
000000d0: d9ca 3dbe f281 86bc 0b6b 07bd c8aa 9c3c
000000e0: 093e 773d c344 d4bd 07ff 23be 3de6 d1ba
000000f0: b658 d1bd 6164 16bd 8986 c63d fb2f f43d
00000100: 9b1b c8bc c7d6 15be a74c bbbd a397 6bbe
00000110: 4242 febd dafc 2f3b 7c1e 343d ac1f 8f3d
00000120: b48d 41be 4766 16be 9a78 053e 398b 15be
00000130: 8869 36be 2000 1b3d 6053 46bd 30a3 71bd
00000140: 75be 403e 44a1 98bc d1ed 903d 5afb b53c
00000150: 79e3 d9bd 96d4 c23d 5f6d a5bd 97b0 21be
00000160: 92b9 ea3c f0ac bb3d aad2 85bd 9747 113e
00000170: 4d26 e6ba de43 9bbd f8f8 2fbd a39e ac3b
00000180: 4f16 5a3d cdd6 a2bb eb0d f4bd 6c55 93bd
00000190: b4aa 85bd 4c61 133d c1cc 5ebe b304 4fbe
000001a0: 503e c5bd 8d65 82bc 37c4 543d 02ef 7b3d
000001b0: 4819 33bc 8181 fe3c f440 953d 81b9 dbbd
000001c0: bdb9 e23d bfb9 0b3d afa1 10bd 71a7 4abd
000001d0: 7cfb 003e b469 933c 7ad6 f63b a6c5 08bd
000001e0: 8fbe ffbd 56c1 77bc 8796 95bd f779 803b
000001f0: 6eaa cd3b 0025 b13d 5bc0 65be ab50 5b3d
00000200: 63f6 b6bd 4c5b 89be 8212 393d 66bd d73d
00000210: 2ab0 56bd 2108 0c3d dec5 0e3d 0512 5abd
00000220: 76e3 a0bd 7e4d 973c 46f6 a63b 3ad0 8fbd
00000230: c488 e23d ec96 cc3d 4332 4dbd 6390 9ebd
00000240: 3d91 c13c 5b78 f03d 6df1 833d a42a bfbd
00000250: c646 753d 4b2a ff3c 57f5 ea3d fda9 fb3d
00000260: d9a6 c5bd 046d c6bd efb4 05bd afc5 423d
00000270: ba48 69bc 305d fbbd df45 cbbd cb8c bfbc
00000280: 78c1 5dbe 2135 87bd 3af2 cb3d 13a1 963b
00000290: 462b 44be 57fe b7bc ef1c af3d 17c2 ac3d
000002a0: 50a2 a53c e2d3 8fbd 0fed 34ba ca93 913d
000002b0: c45a d93d 39d0 0cbd 5ee6 d93d 5f49 c23c
000002c0: f5c6 fabc b3ca 66be e527 ff3d 52ce a2be
000002d0: 9f16 873e 3cad b03a a7ed 943c 3e68 903e
000002e0: cb63 b93d 2531 953d f01c 5a3e 87bb aa3d
000002f0: ec33 7a3d 0338 e5bd ef87 2cbd 44f9 2abe
00000300: 5d12 d8bc baa8 313d a05a 76bb 3e8c aa3d
00000310: 7cf0 8cbc 952f 91bc 795b 52bc c98a ffbc
00000320: 43ef edbd 48bb 163e 9ea5 113d 7e11 8cbe
00000330: f871 45bd 9edc c63d 4928 d5bd 8bd9 18be
00000340: ea52 d2bb 46ec 07bd b054 c0bd 7d5e 1fbe
00000350: 94b8 a3bd f404 babd 5b1d 76be 07e9 0abe
00000360: 7be3 fcbd bf54 053e f954 9abe d28d 823d
00000370: 8132 043e 6535 fa3d e7a2 ebbc d8d8 163e
00000380: d728 8a3d aeb0 9cbd 7d23 c53d 794a 543c
00000390: af38 4d3d 8945 183d 8e25 133d 7abf b33d
000003a0: 77a6 47be a7f2 9dbc f688 37bc b164 84bc
000003b0: 5174 a53c b928 43bd 0cb0 073e d9ae eb3d
000003c0: f723 353c 098d f2bc c6f6 e53c 85b2 c9bb
000003d0: 0d17 6f3e 2973 733e 13ad ab3d 65ab 413e
000003e0: a5a1 173d d824 b2bd b3d8 88bd 259f eabd
000003f0: 8192 25be b18b 22bd 45f4 043d d604 3bbd

res1a.conv1.bias f4 [16]
-0.06420807 -0.08984839 -0.07197558 0.07728577 0.0708719 -0.21087846 -0.019067455 0.04577039
0.10461195 -0.033652645 -0.028191118 -0.10876152 -0.13380429 -0.03241876 0.023101151 0.08046188
00000000: 857f 83bd 6f02 b8bd ef67 93bd 0048 9e3d
00000010: 4925 913d 86f0 57be 5a33 9cbc bc79 3b3d
00000020: ca3e d63d 5bd7 09bd 0ff1 e6bc 5cbe debd
00000030: fe03 09be 89c9 04bd a03e bd3c 33c9 a43d

res1a.conv2.weight f4 [16, 16, 3, 3]
0.07229167 -0.017740352 -0.08516303 -0.097238064 -0.16701788 -0.18262325 0.11746851 -0.07951904
-0.16363923 0.07711036 -0.004161871 -0.05158947 -0.04171811 -0.017753817 0.006894357 -0.052139252
0.030711863 -0.024345784 0.15818869 -0.20867506 0.02856832 -0.08869229 -0.18366049 0.11068427
0.06287844 -0.09545922 0.07104486 -0.15080342 0.024355253 0.14717254 0.019667078 0.043383162
0.17696549 -0.09478684 -0.1461177 0.00889227 -0.04092158 -0.076815285 -0.119854 0.035450067
-0.1038584 0.100191765 0.1707031 -0.094560474 0.20809914 -0.014952539 -0.061996408 -0.017056236
0.021606913 0.04251764 -0.110756405 0.009511506 0.03339181 0.030726822 0.0074715717 -0.08191846
0.019762719 0.068636455 0.12159088 0.08578637 0.11328991 -0.076680176 -0.039119218 -0.0016038514
0.061001938 0.032443665 -0.037687942 0.010354666 0.16344552 -0.0062650405 0.046163805 -0.0009481906
-0.05077528 0.016813952 -0.14010793 0.013444429 0.05630194 -0.037792843 0.072612286 -0.015243359
0.088475056 -0.054091375 -0.021049483 -0.15236296 -0.03633937 0.06458739 0.039253082 0.0903132
-0.06404357 0.0030759966 -0.029564878 0.07305456 0.13207163 -0.099887356 0.025992105 0.036435913
-0.014938459 -0.09504856 0.08331713 -0.04426749 -0.092648424 0.031320255 0.2698661 0.14906198
0.16140199 0.1544763 -0.033058617 0.0523402 0.0130281765 0.004821445 -0.04847269 0.0010310817
-0.068410955 0.07783681 0.10929192 0.023851953 0.045875277 -0.05919023 -0.115362495 -0.03757032
0.023273936 -0.12575229 -0.24379726 0.021444323 -0.07826386 -0.10219636 0.036723148 0.13163234
-0.0717301 -0.11599737 0.0029437623 0.13122539 0.041683264 0.06768949 0.13844444 -0.10880188
0.1557125 0.035402816 -0.16843238 0.16002817 0.108970635 -0.098356515 -0.07428433 -0.06512276
0.08542935 -0.10506762 0.19499664 0.07262217 -0.034192942 0.073051915 0.01126835 -0.10252342
-0.08770635 -0.039945215 0.003337399 -0.21940559 0.0050700647 -0.0309159 -0.11426085 -0.037711278
-0.009016072 -0.025081769 -0.094822705 0.03752017 0.1687093 -0.0046873954 0.05089347 0.10911878
-0.048559263 -0.21408987 0.08087337 0.052630626 0.060207654 -0.031519365 0.15569411 0.058336556
-0.04956254 0.09152685 0.046362795 0.044695757 -0.18011548 -0.12965018 0.0075490074 -0.066991284
-0.11377665 0.13582541 0.06171973 0.041706365 0.13463701 0.028511541 -0.03440574 0.14299929
0.017246697 -0.154712 0.14176245 -0.13281299 -0.17505358 0.036366384 0.06457518 -0.0038365505
0.008017191 -0.028235342 0.041304562 0.08627843 0.17198129 -0.122831464 0.07061055 0.016979806
-0.04575531 0.051499844 0.0021607298 8.01893e-05 0.13700002 -0.03696713 -0.12594093 0.025268672
0.015235816 0.06858676 -0.030419162 0.032956738 0.038164165 0.12052822 0.051405188 -0.056670215
0.15559787 -0.040412378 -0.09675844 4.3643668e-06 0.0021140971 -0.066029266 0.08077781 -0.029799065
-0.08603786 0.03622254 -0.06934331 0.0035791309 0.115925096 -0.049541634 0.020557506 0.15434408
-0.050194457 0.055636358 0.19370848 -0.1490056 0.012800568 0.06996493 0.017507391 0.0444612
0.08574961 -0.11055361 0.12037948 -0.0511031 0.0482882 -0.057972424 -0.03998378 -0.06289024
00000000: a80d 943d 3754 91bc f469 aebd c024 c7bd
00000010: bc06 2bbe 9701 3bbe 5593 f03d e1da a2bd
00000020: 0b91 27be 09ec 9d3d 4e60 88bb 7b4f 53bd
00000030: 9ce0 2abd 7470 91bc 0fea e13b f88f 55bd
00000040: 7297 fb3c cf70 c7bc 37fc 213e eaae 55be
00000050: 1c08 ea3c 4ea4 b5bd 7f11 3cbe 6fae e23d
00000060: 69c6 803d 2080 c3bd f87f 913d 366c 1abe
00000070: ab84 c73c 66b4 163e da1c a13c 8bb2 313d
00000080: 7136 353e 9a1f c2bd e19f 15be e2b0 113c
00000090: 639d 27bd 5551 9dbd 0476 f5bd 1734 113d
000000a0: b6b3 d4bd 5731 cd3d cbcc 2e3e eca8 c1bd
000000b0: f117 553e 7efb 74bc f2ef 7dbd 85b9 8bbc
000000c0: fb00 b13c fa26 2e3d 41d4 e2bd 26d6 1b3c
000000d0: dac5 083d d1b6 fb3c 16d4 f43b dec4 a7bd
000000e0: 6de5 a13c 4591 8c3d a404 f93d c4b0 af3d
000000f0: 8a04 e83d 7f0a 9dbd 793b 20bd 5338 d2ba
00000100: 2bdd 793d a6e3 043d ac5e 1abd 9ea6 293c
00000110: 435e 273e f84a cdbb 4216 3d3d fe8f 78ba
00000120: bdf9 4fbd 6abd 893c 7478 0fbe 0646 5c3c
00000130: dd9c 663d abcc 1abd c0b5 943d 48bf 79bc
00000140: 6932 b53d eb8e 5dbd f76f acbc 0905 1cbe
00000150: 97d8 14bd 6546 843d d7c7 203d 21f6 b83d
00000160: 4629 83bd a996 493b 0b32 f2bc a19d 953d
00000170: c93d 073e be91 ccbd 65ed d43c d33d 153d
00000180: 70c0 74bc d2a8 c2bd 2ca2 aa3d d451 35bd
00000190: 75be bdbd ab49 003d e42b 8a3e b4a3 183e
000001a0: 9046 253e 092f 1e3e 7968 07bd ad62 563d
000001b0: 2274 553c 36fd 9d3b 4d8b 46bd 5c25 873a
000001c0: 0b1b 8cbd e868 9f3d 71d4 df3d 2c65 c33c
000001d0: b7e7 3b3d 7471 72bd 2c43 ecbd 56e3 19bd
000001e0: fba8 be3c 35c5 00be fda5 79be 01ac af3c
000001f0: cd48 a0bd 534c d1bd 036b 163d a1ca 063e
00000200: 3be7 92bd 0790 edbd 23ec 403b f35f 063e
00000210: 12bc 2a3d caa0 8a3d 61c4 0d3e 85d3 debd
00000220: 1973 1f3e 8b02 113d 8a79 2cbe 6dde 233e
00000230: ff2b df3d 246f c9bd 6222 98bd 155f 85bd
00000240: 95f5 ae3d b12d d7bd 33ad 473e efba 943d
00000250: e60d 0cbd 3e9c 953d e39e 383c ccf7 d1bd
00000260: 639f b3bd 989d 23bd 44b8 5a3b dcab 60be
00000270: c922 a63b 5743 fdbc 9801 eabd 2477 1abd
00000280: 26b8 13bc 4878 cdbc 6832 c2bd c0ae 193d
00000290: 21c2 2c3e b998 99bb ac75 503d ab79 df3d
000002a0: 14e6 46bd 603a 5bbe f0a0 a53d 3693 573d
000002b0: 4d9c 763d 731a 01bd 476e 1f3e 50f2 6e3d
000002c0: 1702 4bbd 6e72 bb3d eae6 3d3d e612 373d
000002d0: 3170 38be 04c3 04be aa5d f73b ba32 89bd
000002e0: bb03 e9bd d115 0b3e d4cd 7c3d 4bd4 2a3d
000002f0: 49de 093e 0991 e93c 09ed 0cbd 686e 123e
00000300: f248 8d3c d36c 1ebe 2d2a 113e 2100 08be
00000310: 3f41 33be ebf4 143d fe3f 843d a36e 7bbb
00000320: 895a 033c ce4d e7bc f92e 293d bfb2 b03d
00000330: dd1b 303e 108f fbbd 449c 903d 3c19 8b3c
00000340: ec69 3bbd 80f1 523d 089b 0d3b 4d2b a838
00000350: bc49 0c3e d86a 17bd a9f6 00be 3f00 cf3c
00000360: a59f 793c 3777 8c3d 9b31 f9bc a5fd 063d
00000370: 0752 1c3d 80d7 f63d 3f8e 523d 071f 68bd
00000380: 0c55 1f3e 7387 25bd 4a29 c6bd a071 9236
00000390: aa8c 0a3b 5a3a 87bd d66e a53d 2b1d f4bc
000003a0: 9e34 b0bd 165e 143d de03 8ebd da8f 6a3b
000003b0: 236a ed3d 2bec 4abd 3768 a83c 600c 1e3e
000003c0: b498 4dbd f3e2 633d 845b 463e ed94 18be
000003d0: 79b9 513c c649 8f3d a96b 8f3c f21c 363d
000003e0: 7e9d af3d ee69 e2bd 8489 f63d 7c51 51bd
000003f0: d9c9 453d 7e74 6dbd 08c6 23bd 99cc 80bd

res1a.conv2.bias f4 [16]
0.008446324 -0.007525642 -0.08152722 -0.06398307 -0.03344461 -0.021172913 -0.007511008 -0.0043664137
-0.014221027 -0.014142493 0.00047634507 -0.018148053 -0.08705029 -0.0783879 -0.0067501757 -0.044247996
00000000: 7362 0a3c a999 f6bb bef7 a6bd 8e09 83bd
00000010: 37fd 08bd d172 adbc e71e f6bb 2214 8fbb
00000020: 4fff 68bc eab5 67bc f4bd f939 3aab 94bc
00000030: 6c47 b2bd d689 a0bd 9430 ddbb 633d 35bd

res1b.conv1.weight f4 [16, 16, 3, 3]
0.10415041 -0.037292 -0.07868111 -0.16798608 -0.21246971 -0.009068797 -0.17715327 -0.15797786
-0.19917518 0.18335089 0.19053736 0.009558317 0.103019126 -0.028884282 0.14993414 -0.025631057
-0.074887514 -0.08929124 0.17720191 0.06077083 0.06282148 -0.38009134 -0.17420258 -0.010419908
-0.1417248 -0.06777327 0.022050248 -0.028986441 0.13925055 0.27887487 -0.08820436 0.21980186
0.28114736 -0.033147275 -0.08329097 0.17087933 -0.21114993 -0.24991135 -0.058988452 -0.1950973
-0.3513095 -0.26206383 -0.010828521 -0.18545732 -0.17944191 0.0038417573 -0.0028920663 0.041878678
0.0058415756 -0.08634425 -0.002276646 0.13636594 0.046330925 -0.04734487 -0.2394557 -0.03860401
0.054461576 0.068890244 0.14207995 0.012377177 -0.1657847 0.009961297 0.093674146 0.0058737514
0.09066153 -0.017879874 0.052860063 -0.07042784 -0.046266407 0.08722604 -0.10681894 -0.16476375
-0.09061836 -0.35860842 -0.083379045 -0.17233658 0.17989857 0.07039014 -0.42278856 -0.12685977
0.09467765 -0.063601665 0.14363708 0.06650474 -0.039132044 0.16298336 0.08408603 -0.024378587
-0.0029111984 0.08520582 0.07950381 -0.04331533 -0.036593515 -0.12585768 0.029235426 -0.17266244
0.012824756 -0.06941948 0.0024066158 -0.002658814 0.059281982 -0.0111479275 -0.008855873 0.20227711
0.049014606 0.0022030424 0.097114325 0.053742077 -0.009332128 0.19599696 -0.008417314 -0.020246292
-0.009531412 -0.17680433 -0.03147674 -0.05338158 0.11740003 -0.017538773 0.034394532 -0.1926652
0.11750585 0.03956855 -0.06745848 0.110143185 0.016951215 0.16792683 0.22667032 0.054061607
-0.19685695 -0.11373946 -0.13688245 -0.07004835 -0.23991507 -0.20607862 0.1286811 -0.23383681
0.005306462 0.21419762 -0.07455806 -0.11718417 0.07770904 0.01047792 0.06236859 -0.048603207
-0.09083298 0.027682723 0.053066235 -0.09878929 -0.058228284 -0.07983605 -0.08688807 -0.08423542
-0.008095266 0.010868464 -0.06154636 0.034783386 -0.10382345 0.006612804 0.033742797 0.02379604
0.038660243 0.0015476869 -0.056237917 -0.0072497907 0.018582625 -0.010072106 0.015814528 -0.034871664
-0.030759986 -0.035907958 0.009431377 -0.08462811 -0.06309982 -0.06687489 0.062544815 0.04890499
0.05857253 -0.009385619 0.041853808 -0.06296247 0.03726621 0.057844225 0.010766183 -0.06677423
-0.008235141 0.0060384874 -0.042261105 -0.061164208 -0.08693687 0.006702223 0.052037496 -0.036942225
0.016695878 -0.06650732 -0.057509646 -0.063703425 -0.07909062 -0.08740232 0.044682797 -0.015333858
0.051040716 0.041309405 -0.04348965 -0.016045656 0.049118936 -0.062164158 0.02707494 -0.05790789
-0.06734452 0.02023594 -0.00490154 0.057054076 -0.029655365 -0.02847902 0.045053996 -0.0017505729
-0.017894894 0.06408657 -0.07473179 0.05965675 -0.017191665 -0.06306022 -0.025378527 -0.08357309
-0.08393658 -0.06443656 -0.030525768 -0.06354803 -0.059618615 -0.06904535 -0.065051526 -0.089812085
-0.018566541 -0.003145752 -0.09615397 -0.054515462 -0.08702129 -0.016185228 -0.006517576 -0.07562212
-0.0021191738 -0.05099281 -0.07102342 -0.08390388 0.056894273 -0.03104677 -0.081622355 -0.090023585
-0.06776497 0.032687277 -0.056871634 -0.038206406 -0.045928102 0.04941094 0.04168293 -0.027400052
00000000: cf4c d53d 7fbf 18bd 9023 a1bd 8b04 2cbe
00000010: a991 59be 4b95 14bc ab67 35be f3c4 21be
00000020: 94f4 4bbe 56c0 3b3e 3a1c 433e 7d9a 1c3c
00000030: b1fb d23d bb9e ecbc 5688 193e 39f8 d1bc
00000040: a05e 99bd 53de b6bd 6b74 353e d5ea 783d
00000050: 8ca8 803d 559b c2be 2962 32be 43b8 2abc
00000060: 4e20 11be b6cc 8abd b9a2 b43c f974 edbc
00000070: b297 0e3e b0c8 8e3e 7da4 b4bd bd13 613e
00000080: 8cf2 8f3e 70c5 07bd 7594 aabd fefa 2e3e
00000090: b037 58be c3e8 7fbe e09d 71bd 96c7 47be
000000a0: d7de b3be 3b2d 86be 1c6a 31bc 86e8 3dbe
000000b0: 9fbf 37be fec5 7b3b d288 3dbb fa88 2b3d
000000c0: b06a bf3b 41d5 b0bd c833 15bb 83a3 0b3e
000000d0: 7fc5 3d3d b2ec 41bd e033 75be 3d1f 1ebd
000000e0: 1a13 5f3d 5416 8d3d 687d 113e a5c9 4a3c
000000f0: 77c3 29be b534 233c 3bd8 bf3d 9978 c03b
00000100: c1ac b93d d078 92bc cb83 583d 793c 90bd
00000110: d881 3dbd 91a3 b23d e3c3 dabd d4b7 28be
00000120: 1e96 b9bd 869b b7be a2c2 aabd 0079 30be
00000130: 5537 383e b528 903d be77 d8be 87e7 01be
00000140: 5be6 c13d 9741 82bd 9915 133e a333 883d
00000150: ec48 20bd 1ce5 263e 4c35 ac3d 9ab5 c7bc
00000160: cec9 3ebb 6480 ae3d e5d2 a23d 6a6b 31bd
00000170: 15e3 15bd d6e0 00be 227f ef3c 6cce 30be
00000180: ed1e 523c cd2b 8ebd 50b8 1d3b 7f3f 2ebb
00000190: aad1 723d cca5 36bc 3918 11bc bb21 4f3e
000001a0: 8ac3 483d eb60 103b e0e3 c63d a720 5c3d
000001b0: c8e5 18bc 6db3 483e c6e8 09bc 8ddb a5bc
000001c0: a429 1cbc 320c 35be c1ed 00bd a5a6 5abd
000001d0: 6d6f f03d 79ad 8fbc 48e1 0c3d 074a 45be
000001e0: e8a6 f03d a212 223d ac27 8abd c092 e13d
000001f0: 46dd 8a3c 03f5 2b3e 441c 683e b46f 5d3d
00000200: de94 49be 3cf0 e8bd ea2a 0cbe 8275 8fbd
00000210: 4cac 75be 4606 53be fac4 033e eb72 6fbe
00000220: d4e1 ad3b 9f56 5b3e e5b1 98bd 41fe efbd
00000230: eb25 9f3d 95ab 2b3c 3576 7f3d 2814 47bd
00000240: a406 babd e1c6 e23c fb5b 593d 0a52 cabd
00000250: c880 6ebd 1581 a3bd 5ff2 b1bd 9f83 acbd
00000260: 02a2 04bc a411 323c 0918 7cbd 0679 0e3d
00000270: 64a1 d4bd 38b0 d83b e335 0a3d eaef c23c
00000280: 345a 1e3d c1db ca3a bb59 66bd a78f edbb
00000290: 973a 983c 7905 25bc 788d 813c 97d5 0ebd
000002a0: 5efc fbbc 3914 13bd 1086 1a3c 8151 adbd
000002b0: 7a3a 81bd b4f5 88bd 7f17 803d 9950 483d
000002c0: c0e9 6f3d 24c6 19bc e66e 2b3d 78f2 80bd
000002d0: 74a4 183d 11ee 6c3d a564 303c edc0 88bd
000002e0: afec 06bc 81de c53b fb19 2dbd 5287 7abd
000002f0: f50b b2bd 529e db3b 4525 553d bb50 17bd
00000300: cbc5 883c fd34 88bd 3c8f 6bbd f176 82bd
00000310: 43fa a1bd fdff b2bd 4f05 373d dd3a 7bbc
00000320: 1210 513d 0d34 293d 3422 32bd 2e72 83bc
00000330: f030 493d d89f 7ebd 44cc dd3c d330 6dbd
00000340: eceb 89bd d8c5 a53c 199d a0bb 89b1 693d
00000350: cfef f2bc d54c e9bc 8a8a 383d 7b73 e5ba
00000360: 5098 92bc d23f 833d fb0c 99bd a35a 743d
00000370: 89d5 8cbc b725 81bd a1e6 cfbc 5e28 abbd
00000380: f1e6 abbd 51f7 83bd 2d11 fabc 7825 82bd
00000390: a632 74bd a667 8dbd bc39 85bd 66ef b7bd
000003a0: dc18 98bc f628 4ebb 5fec c4bd 9b4b 5fbd
000003b0: 3838 b2bd e296 84bc 6491 d5bb c5df 9abd
000003c0: d6e1 0abb d6dd 50bd ba74 91bd ccd5 abbd
000003d0: f809 693d cc55 febc 9f29 a7bd 495e b8bd
000003e0: 5cc8 8abd 18e3 053d 3bf2 68bd 527e 1cbd
000003f0: 1b1f 3cbd 2063 4a3d b8bb 2a3d 1376 e0bc

res1b.conv1.bias f4 [16]
-0.07961862 -0.08323277 0.11923433 0.06788812 -0.09906531 -0.1159201 0.031667124 -0.019066919
-0.046677466 -0.16005054 -0.064400524 -0.14256282 0.09204747 0.09017971 -0.07994619 0.018394705
00000000: 160f a3bd f175 aabd 2131 f43d ed08 8b3d
00000010: c1e2 cabd 8467 edbd 63b5 013d 3a32 9cbc
00000020: df30 3fbd 4ae4 23be 6ce4 83bd fdfb 11be
00000030: 6283 bc3d 24b0 b83d d4ba a3bd 7eb0 963c

res1b.conv2.weight f4 [16, 16, 3, 3]
-0.08759289 0.058967967 -0.0045522014 -0.086642765 -0.048590157 0.048637256 0.09342873 -0.07607117
-0.069696814 0.09136042 -0.0305291 0.010692761 -0.049404964 0.1498314 -0.027969591 -0.080669135
-0.016374096 -0.01619441 -0.123549774 0.16747592 -0.16692853 -0.08257731 0.08163213 0.14265403
-0.06256272 -0.00987899 0.10984552 0.07682378 0.04479249 0.013670376 -0.089639165 -0.015073776
0.07981012 0.0046170047 0.07613617 0.043327782 -0.08126668 -0.102629974 0.018008899 -0.04621387
0.015228315 0.053927593 0.009830631 0.13684247 0.003958929 0.08279964 -0.00448835 -0.012619887
-0.0010258192 0.011257186 0.16227841 -0.015890414 -0.10737145 0.030321717 0.065976925 0.018836197
0.11774624 -0.08953281 0.0047404137 0.06943122 0.121622115 0.0494402 -0.22598666 -0.027067253
0.020537483 -0.19536926 0.07636034 -0.06814526 -0.048538737 0.038654312 -0.047886215 -0.17340021
-0.07868016 -0.105290875 0.052310146 -0.10464853 0.044010896 0.12482822 -0.13486563 0.06401303
0.037180625 -0.03379859 -0.010482357 0.0030007157 -0.083521985 0.18059558 -0.0058874376 -0.2755053
0.14904922 0.045021765 0.0780104 0.026914153 -0.003475908 -0.060472246 0.069685124 -0.0061522448
0.06801939 0.050237525 0.036310963 0.1205013 -0.06192239 0.028167935 0.053679198 0.00046554254
-0.056097347 0.08448687 -0.025480554 0.14983693 -0.0045639486 -0.10265992 0.059785806 -0.08666246
0.041560125 -0.094945766 0.069823444 -0.01782747 -0.06234976 -0.0041574296 0.061857324 0.10565349
-0.03006527 0.10358195 -0.12918827 0.05465624 -0.0040317965 -0.039296947 -0.10281496 -0.07466754
0.002383141 -0.023395034 0.09922696 -0.16552013 0.008591251 -0.0391375 -0.1312141 0.06711535
-0.19297418 -0.0024882613 -0.04897107 -0.14287274 0.13385294 0.0008825828 0.15919144 0.059653483
-0.12846135 0.06396213 0.018871738 0.033768192 0.19482322 -0.10872715 -0.06524908 -0.19723423
-0.0708587 0.09672012 -0.06812846 0.094158284 -0.068229765 -0.00024136971 -0.013569664 -0.109154075
-0.05309753 -0.05695037 0.12284546 -0.08371529 0.0017769636 0.18731245 0.13372256 0.14379306
0.015533024 -0.047664825 -0.037714563 -0.009972872 -0.0066734687 0.07919231 -0.04755924 -0.085679196
0.09352777 0.12194694 -0.061147656 -0.00092628895 -0.0018663874 0.07316918 -0.11390317 0.07989694
-0.030113766 0.04427182 0.08996378 -0.09041286 0.12497419 0.053701814 -0.09915489 0.014534295
0.09025805 -0.048578113 -0.056074966 0.10706882 -0.111681476 -0.011709311 -0.13891448 0.048795953
0.010526499 0.1133341 0.07991036 -0.13500367 0.007098364 -0.13794324 0.27461007 -0.06855605
-0.0693183 -0.023116171 0.1743972 0.05356433 0.06285568 0.19466864 -0.050813876 0.06874719
-0.18414308 0.025610665 -0.111111395 0.018915068 0.0425169 0.059974663 0.0021590667 -0.023991998
0.03621629 -0.122380845 -0.13102122 0.10590786 0.053084526 0.014337983 0.12783948 0.13884453
-0.011650759 -0.08647599 0.22687025 0.2237944 -0.02188613 -0.12335214 -0.07518344 0.15086919
-0.09785173 0.1202565 0.031515963 -0.109037004 -0.10748627 0.005213938 -0.033205714 0.06924401
-0.041490894 -0.021194289 -0.1195089 -0.05660854 0.25295192 -0.06721814 0.061629437 0.073682025
00000000: e763 b3bd 6588 713d a22a 95bb c371 b1bd
00000010: 7906 47bd dc37 473d 9057 bf3d 34cb 9bbd
00000020: 34bd 8ebd 2c1b bb3d 2a18 fabc b130 2f3c
00000030: dc5c 4abd 676d 193e 7c20 e5bc dc35 a5bd
00000040: f822 86bc 24aa 84bc aa07 fdbd cf7e 2b3e
00000050: 50ef 2abe 4b1e a9bd bf2e a73d e613 123e
00000060: e220 80bd 7ddb 21bc b0f6 e03d c955 9d3d
00000070: 5478 373d b6f9 5f3c bd94 b7bd 00f8 76bc
00000080: 7d73 a33d 3e4a 973b 48ed 9b3d 7978 313d
00000090: 256f a6bd aa2f d2bd 6687 933c c14a 3dbd
000000a0: 2f80 793c 2ee3 5c3d a810 213c 6f20 0c3e
000000b0: e7b9 813b dc92 a93d 0213 93bb a4c3 4ebc
000000c0: c874 86ba 0f70 383c 502c 263e 9d2c 82bc
000000d0: 90e5 dbbd 4065 f83c e91e 873d 5e4e 9a3c
000000e0: f124 f13d fa5c b7bd 7955 9b3b f531 8e3d
000000f0: 0415 f93d cf81 4a3d 0c69 67be 25bc ddbc
00000100: 393e a83c e10e 48be cf62 9c3d be8f 8bbd
00000110: 8ed0 46bd fc53 1e3d 5624 44bd d38f 31be
00000120: 1023 a1bd bea2 d7bd 2a43 563d f851 d6bd
00000130: c544 343d f0a5 ff3d 371a 0abe 4319 833d
00000140: b64a 183d 6470 0abd 31be 2bbc a8a7 443b
00000150: 930d abbd 0cee 383e 68eb c0bb 080f 8dbe
00000160: 5ca0 183e be68 383d ebc3 9f3d 127b dc3c
00000170: 0fcc 63bb bfb1 77bd 13b7 8e3d c598 c9bb
00000180: c04d 8b3d ddc5 4d3d ceba 143d 63c9 f63d
00000190: 55a2 7dbd 71c0 e63c b8de 5b3d 1014 f439
000001a0: 55c6 65bd 7407 ad3d 98bc d0bc da6e 193e
000001b0: 2d8d 95bb 5d3f d2bd f6e1 743d 167c b1bd
000001c0: f33a 2a3d ed72 c2bd 98ff 8e3d ea0a 92bc
000001d0: 7662 7fbd 0c3b 88bb 1b5e 7d3d db60 d83d
000001e0: 714b f6bc c622 d43d ee49 04be 39df 5f3d
000001f0: 291d 84bb d6f5 20bd a690 d2bd 4ceb 98bd
00000200: 792e 1c3b f1a6 bfbc 8137 cb3d 1c7e 29be
00000210: 52c2 0c3c a54e 20bd fd5c 06be c673 893d
00000220: 069b 45be 1912 23bb e495 48bd 3b4d 12be
00000230: bf10 093e 215d 673a 1503 233e 3657 743d
00000240: 5f8b 03be 94fe 823d e798 9a3c 8450 0a3d
00000250: bd7f 473e 57ac debd 4fa1 85bd c5f7 49be
00000260: 5e1e 91bd 3315 c63d ef86 8bbd 0fd6 c03d
00000270: 0cbc 8bbd 3018 7db9 4c53 5ebc 2c8c dfbd
00000280: cc7c 59bd cb44 69bd 6796 fb3d ec72 abbd
00000290: 01e9 e83a d6ce 3f3e 91ee 083e 7d3e 133e
000002a0: 3a7e 7e3c 313c 43bd 967a 1abd 4265 23bc
000002b0: 1dad dabb 942f a23d 7acd 42bd 9378 afbd
000002c0: 7d8b bf3d 51bf f93d f775 7abd 33d2 72ba
000002d0: 92a1 f4ba b9d9 953d 1146 e9bd 02a1 a33d
000002e0: 25b1 f6bc 5e56 353d ee3e b83d 612a b9bd
000002f0: 78f2 ff3d 6ff6 5b3d b811 cbbd 4021 6e3c
00000300: 36d9 b83d d8f9 46bd ddae 65bd e646 db3d
00000310: 42b9 e4bd 69d8 3fbc 993f 0ebe 44de 473d
00000320: 5677 2c3c b51b e83d 0ba8 a33d 673e 0abe
00000330: 6599 e83b fe40 0dbe b199 8c3e 1d67 8cbd
00000340: c1f6 8dbd 205e bdbc 2e95 323e 4566 5b3d
00000350: 7bba 803d 3757 473e 3622 50bd 54cb 8c3d
00000360: 0190 3cbe 75cd d13c 5f8e e3bd c6f3 9a3c
00000370: 3326 2e3d fea7 753d 217f 0d3b de8a c4bc
00000380: 8857 143d cfa2 fabd 6d2a 06be 38e6 d83d
00000390: 296f 593d dce9 6a3c 5ae8 023e 432d 0e3e
000003a0: d3e2 3ebc 531a b1bd ad50 683e 5c2a 653e
000003b0: 8b4a b3bc 0ca0 fcbd c7f9 99bd 747d 1a3e
000003c0: 7d66 c8bd 0a49 f63d e216 013d cb4e dfbd
000003d0: c321 dcbd afd9 aa3b b702 08bd cecf 8d3d
000003e0: 5bf2 29bd a59f adbc 15c1 f4bd 5bde 67bd
000003f0: ea82 813e aaa9 89bd 266f 7c3d 9ae6 963d

res1b.conv2.bias f4 [16]
0.033916116 0.007625252 -0.09370586 0.043250185 0.025787309 0.03085365 0.03237787 0.056454588
0.008126158 0.033522505 -0.0028796718 0.064861156 -0.016073748 -0.015094185 0.0197801 0.048734225
00000000: a0eb 0a3d 40dd f93b dce8 bfbd 1b27 313d
00000010: e83f d33c cbc0 fc3c a89e 043d ed3c 673d
00000020: 9423 053c e54e 093d e0b8 3cbb edd5 843d
00000030: 18ad 83bc 9a4d 77bc e009 a23c 8a9d 473d

conv2.weight f4 [32, 16, 3, 3]
0.05717157 -0.012474683 -0.15086773 0.029441664 -0.08785727 -0.2063248 0.083652526 0.028122066
0.068460785 -0.05674264 -0.05006411 0.11097431 -0.019195482 -0.16373178 -0.12446242 0.040873237
0.014917348 0.13075463 0.23190813 0.01996355 -0.12584819 0.023285849 -0.021500375 -0.08817685
0.008507702 0.07447128 0.25098395 -0.026536582 0.008618498 -0.14913227 -0.07332687 -0.023770504
-0.085613936 -0.11406463 0.013417186 -0.10673303 -0.12732783 -0.097922616 -0.09830306 0.061237577
-0.028662106 0.018852971 -0.0301608 0.032585476 -0.0792179 -0.1600137 -0.10495067 0.20350331
0.027799936 0.0016581948 0.1644688 -0.00518784 0.14267305 -0.20330507 0.13528009 -0.2871792
-0.13845664 0.11067206 -0.037462667 0.002804413 -0.0018874771 0.19735311 0.016017139 0.050713927
0.21833679 -0.023455622 -0.028190494 0.07201892 -0.11093206 -0.09203111 -0.06305648 0.08389754
-0.10001268 -0.20639999 0.07082302 0.07065758 0.020229647 0.06436689 -0.043083712 0.049360685
-0.1464298 -0.10293651 -0.0142896315 -0.016883912 0.010747156 -0.019221721 0.07366296 -0.1849044
-0.21936603 -0.12757345 0.0062070554 0.045839135 0.04958215 0.033698324 -0.16324191 0.004477306
-0.028543351 -0.21719953 0.018304985 0.061090972 -0.07764199 0.039375447 0.025087232 0.026807899
-0.015878744 -0.015652154 0.22708845 -0.04872207 -0.027656063 -0.15822327 -0.1259507 -0.0031121713
0.046931632 0.020556225 -0.14925341 0.08209239 0.10406606 0.0026449463 -0.01911495 -0.11586127
0.051463906 -0.05054148 0.053662404 -0.011833792 -0.013526199 0.118198544 -0.02064946 0.027320454
0.0026121659 0.0004975337 0.05355672 -0.26573998 -0.13899115 0.04088758 -0.0929578 -0.087507024
-0.058553234 -0.08042693 -0.12582685 0.09938691 0.020669373 0.06033465 0.111741245 0.057948925
-0.1303266 -0.022271682 0.20581917 -0.1970377 -0.13839379 -0.034297753 0.004678355 0.13969482
-0.04958968 0.16744135 -0.029360252 -0.009942131 0.13353227 0.010852259 -0.0035992786 -0.08385075
-0.050884843 -0.016057365 0.037044615 0.09621664 0.1658484 0.050053008 0.12195504 0.13810253
0.08827411 0.03683401 -0.066457905 -0.09218551 0.035284076 0.015539329 -0.13223779 -0.049480237
-0.20463556 -0.04808939 -0.08120152 -0.17184174 -0.21497221 -0.050485168 -0.010048477 -0.025457628
-0.039934985 -0.046119854 0.026718477 -0.013914555 0.07938192 0.07231643 0.05797352 -0.014035196
-0.10495614 0.007691209 -0.045550823 -0.17350999 -0.004372704 -0.06949792 -0.05674951 -0.1190991
0.015101262 -0.05137128 -0.14118536 0.0074689193 0.09615873 0.060367726 0.048176583 -0.1414439
-0.17943723 -0.12555113 -0.22350062 -0.09333886 -0.0867383 -0.05070541 0.13159649 -0.14925648
0.08070639 -0.023969777 0.0076510427 0.20893854 0.08325017 -0.028063584 0.0063658413 0.05917159
-0.010110968 -0.03458708 -0.15797025 -0.15125738 0.14543736 -0.018304784 -0.017202966 -0.037132148
-0.13610066 -0.058311068 -0.09308489 -0.018667996 -0.039660033 0.051681012 0.12639992 -0.04536451
0.0583014 -0.030195003 -0.0009803782 -0.04685548 -0.08975898 0.12079325 -0.037814517 -0.17021255
0.019446371 -0.1052672 0.1310222 0.058380395 0.039533716 0.009403048 0.038239453 0.18931152
00000000: bc2c 6a3d 9d62 4cbc 127d 1abe a52f f13c
00000010: 83ee b3bd cf46 53be 0452 ab3d 3f60 e63c
00000020: 2b35 8c3d f86a 68bd 0610 4dbd 8046 e33d
00000030: d83f 9dbc 4ea9 27be 27e6 febd b26a 273d
00000040: e467 743c 8be4 053e 5379 6d3e 998a a33c
00000050: 59de 00be f7c1 be3c 8e21 b0bc 1096 b4bd
00000060: e363 0b3c 6684 983d f880 803e 3f63 d9bc
00000070: 9a34 0d3c 21b6 18be 662c 96bd 5cba c2bc
00000080: 5c56 afbd b79a e9bd c2d3 5b3c d996 dabd
00000090: 3a62 02be a78b c8bd 1d53 c9bd 41d4 7a3d
000000a0: cbcc eabc 8c71 9a3c c813 f7bc 5978 053d
000000b0: ff3c a2bd a2da 23be 60f0 d6bd 2c63 503e
000000c0: b1bc e33c c957 d93a 826a 283e c2fe a9bb
000000d0: e218 123e 342f 50be dd86 0a3e 2709 93be
000000e0: 94c7 0dbe 08a8 e23d 7472 19bd 3eca 373b
000000f0: 3965 f7ba ef16 4a3e 6036 833c 68b9 4f3d
00000100: ae93 5f3e 0126 c0bc c0ef e6bc a87e 933d
00000110: 5930 e3bd ce7a bcbd c123 81bd 79d2 ab3d
00000120: 73d3 ccbd 855a 53be a90b 913d ecb4 903d
00000130: a5b8 a53c cad2 833d 8c78 30bd 6e2e 4a3d
00000140: b2f1 15be 61d0 d2bd 0f1f 6abc 2150 8abc
00000150: d714 303c df76 9dbc 9bdc 963d 9457 3dbe
00000160: 7da1 60be 9da2 02be 8e64 cb3b d1c1 3b3d
00000170: a716 4b3d 4107 0a3d e328 27be 5db6 923b
00000180: bfd3 e9bc 8e69 5ebe 56f4 953c 873a 7a3d
00000190: c302 9fbd 2648 213d bd83 cd3c 3d9c db3c
000001a0: 2414 82bc f238 80bc e089 683e cb90 47bd
000001b0: f88e e2bc 4805 22be 38f9 00be 92f5 4bbb
000001c0: 623b 403d 8765 a83c e3d5 18be 0e20 a83d
000001d0: 9620 d53d d656 2d3b f596 9cbc ac48 edbd
000001e0: d1cb 523d 9504 4fbd 1ccd 5b3d 85e2 41bc
000001f0: fe9c 5dbc 1412 f23d 0e29 a9bc 25cf df3c
00000200: df30 2b3b ec6c 023a 4b5e 5b3d 120f 88be
00000210: b253 0ebe bc79 273d a960 bebd e236 b3bd
00000220: 84d5 6fbd e0b6 a4bd c1d8 00be 5d8b cb3d
00000230: d152 a93c 7721 773d 98d8 e43d da5b 6d3d
00000240: 5674 05be 1a73 b6bc 43c2 523e 40c4 49be
00000250: 1ab7 0dbe cd7b 0cbd e34c 993b 290c 0f3e
00000260: 8c1e 4bbd bf75 2b3e e984 f0bc 52e4 22bc
00000270: afbc 083e accd 313c e0e1 6bbb f1b9 abbd
00000280: a06c 50bd bc8a 83bc 18bc 173d 3b0d c53d
00000290: 2ad4 293e 6204 4d3d 90c3 f93d c06a 0d3e
000002a0: 0ec9 b43d 42df 163d 151b 88bd c2cb bcbd
000002b0: 0986 103d ab98 7e3c 5869 07be caab 4abd
000002c0: fc8b 51be 61f9 44bd fc4c a6bd 48f7 2fbe
000002d0: ad21 5cbe 89c9 4ebd 5ea2 24bc 848c d0bc
000002e0: de92 23bd 2ce8 3cbd b5e0 da3c e0f9 63bc
000002f0: fd92 a23d a31a 943d a475 6d3d e1f3 65bc
00000300: 3ff3 d6bd 8a06 fc3b 8093 3abd 9aac 31be
00000310: e648 8fbb ed54 8ebd 2d72 68bd 3bea f3bd
00000320: 496b 773c b16a 52bd e592 10be d6bd f43b
00000330: deee c43d 2644 773d cf54 453d abd6 10be
00000340: 65be 37be 7a90 00be 59dd 64be 7228 bfbd
00000350: daa3 b1bd 7ab0 4fbd 3bc1 063e b1d6 18be
00000360: 6449 a53d 445c c4bc 99b5 fa3b fcf3 553e
00000370: 117f aa3d 9ae5 e5bc 8c98 d03b e95d 723d
00000380: 79a8 25bc 2fab 0dbd f4c2 21be 37e3 1abe
00000390: 88ed 143e eaf3 95bc 3ced 8cbc e117 18bd
000003a0: f95d 0bbe 96d7 6ebd 4aa3 bebd a0ed 98bc
000003b0: 8f72 22bd 78af 533d fb6e 013e 23d0 39bd
000003c0: 73cd 6e3d 835b f7bc 0980 80ba 88eb 3fbd
000003d0: 8ed3 b7bd 7462 f73d 65e3 1abd 334c 2ebe
000003e0: ff4d 9f3c 5496 d7bd af2a 063e 4820 6f3d
000003f0: 1bee 213d 3e0f 1a3c f9a0 1c3d e1da 413e

conv2.bias f4 [32]
-0.032624535 -6.621622e-05 0.014854477 -0.07356578 -0.07441006 -0.044216335 -0.027112594 -0.038184896
-0.11301069 -0.03229526 -0.05802437 -0.021547563 -0.01266757 -0.094894715 -0.037124563 -0.06825465
-0.053148028 -0.051114045 -0.022826556 -0.009777663 -0.060908083 -0.022437615 -0.14511006 -0.06580141
-0.07336789 -0.10679048 -0.12918392 -0.10044522 -0.10862612 -0.14013964 -0.02757576 -0.09253527
00000000: 4ea1 05bd 90dd 8ab8 3160 733c a8a9 96bd
00000010: 4d64 98bd 301c 35bd 3b1b debc c467 1cbd
00000020: 2672 e7bd 0948 04bd f6aa 6dbd 8484 b0bc
00000030: a48b 4fbc 2958 c2bd ed0f 18bd 18c9 8bbd
00000040: bfb1 59bd f65c 51bd c2fe babc 7e32 20bc
00000050: c17a 79bd 17cf b7bc bb97 14be e4c2 86bd
00000060: e841 96bd f8b4 dabd ca48 04be 39b6 cdbd
00000070: 5f77 debd c480 0fbe 8fe6 e1bc 2283 bdbd

res2a.conv1.weight f4 [32, 32, 3, 3]
0.049495228 -0.019117106 -0.017970847 0.12044383 -0.07026699 -0.09846776 -0.11000452 -0.08068811
0.112136364 0.057192445 -0.09871153 0.0018266051 0.10627273 0.0045809215 0.014871149 -0.24420756
-0.19304068 0.0034787299 0.1904082 0.14231293 0.16711667 0.18509848 -0.09874765 0.008711918
-0.11440373 -0.20694523 0.107123725 -0.07960072 0.05979678 0.0065052486 -0.0068076868 0.05012256
-0.05902123 -0.21922782 0.11514635 0.0017330764 0.071634635 -0.00083626836 0.02621398 0.296421
-0.08941028 0.063206434 -0.07964409 -0.1134723 -0.101007216 -0.24050432 0.10491747 0.049955193
-0.22898082 -0.087929554 0.0053137112 -0.14879747 0.034574293 0.04539055 -0.1336871 0.010337043
-0.21756133 0.14370681 0.0039609275 -0.08463645 -0.029858517 0.16789305 0.13162397 -0.3011694
-0.0016780957 0.17817877 -0.075023256 0.11026573 0.120136134 0.051569063 0.011842734 0.060526427
0.08462362 0.03833197 -0.1852333 -0.10461823 0.07674192 -0.09614738 -0.10398646 -0.17663112
-0.0887725 -0.0119601805 -0.13599457 0.10556949 0.0120238345 -0.21969339 0.1663011 -0.115323596
-0.10447648 -0.1179541 -0.007404207 0.045362502 0.10858173 -0.3720549 0.17637901 0.0797236
-0.15154399 0.10120083 0.021148885 -0.037128873 -0.042684816 -0.108473614 -0.0034623598 0.005292945
-0.2430806 -0.2104554 0.030454846 -0.2530797 -0.19431844 -0.1612851 0.05094644 -0.25555593
-0.095133215 0.059000008 -0.20038381 0.09283374 -0.005413624 -0.088583246 -0.10854329 0.0025652503
-0.043946147 -0.21261954 -0.018678196 -0.07419495 -0.1842634 0.15240908 -0.17707554 -0.03760343
0.060992625 -0.031956427 -0.025177676 0.041588373 -0.04322932 -0.027838347 0.074184604 -0.11236079
-0.07800259 0.108716436 -0.12609321 -0.02486084 0.04570448 -0.07416529 0.01902856 -0.002419684
-0.08030484 0.044587098 0.12612656 -0.10701837 0.025145609 0.12030186 -0.026605748 -0.105371654
0.088152565 0.056822952 0.121037535 0.13528748 0.064306915 0.006675828 0.111667015 0.090914965
-0.08687963 -0.052672796 -0.05750927 -0.07197455 -0.052484795 0.031248758 -0.06507357 0.10585452
-0.07314706 -0.05748423 -0.10628896 -0.0010391127 -0.07796215 0.016737761 0.12349475 -0.063279055
0.02092654 0.14782497 -0.07083121 -0.08606787 -0.022684291 -0.10796278 0.19832942 -0.17949359
-0.19296525 -0.045939237 -0.12080516 0.23690814 0.14619014 -0.05446164 -0.17966478 0.10855702
0.036781516 -0.09468434 -0.22072805 -0.22877118 -0.061961435 -0.12627392 0.0726789 -0.028556412
-0.026876826 0.08939307 -0.16281572 0.024226183 -0.0850575 -0.052994248 -0.042920034 -0.3586085
0.08820771 0.105740815 -0.09761567 0.10204686 0.11450916 0.01926614 -0.005369929 0.051314708
-0.29387534 -0.12569177 0.023799676 -0.24716794 -0.2879575 0.09292983 -0.11362567 -0.19408545
0.12004926 -0.19803362 -0.038513415 0.02951158 -0.3910576 -0.109531954 0.12866887 -0.15651062
0.15354897 0.096405745 -0.14492236 -0.018274859 0.03190901 -0.06443606 -0.09974577 0.09009023
0.058374524 -0.0956967 0.062136367 -0.004327795 -0.12239406 -0.046510644 -0.10191478 -0.10620306
-0.0026288237 -0.0761662 4.0838167e-05 0.1169867 -0.038265746 -0.015029357 0.012491902 -0.12000725
00000000: 82bb 4a3d 7a9b 9cbc 9937 93bc 41ab f63d
00000010: 24e8 8fbd 77a9 c9bd 0d4a e1bd cf3f a5bd
00000020: c0a7 e53d a042 6a3d 4529 cabd b26a ef3a
00000030: 84a5 d93d 8e1b 963b 1fa6 733c 8c11 7abe
00000040: 75ac 45be 67fb 633b 5efa 423e 7bba 113e
00000050: a220 2b3e 758a 3d3e 353c cabd 6fbc 0e3c
00000060: 814c eabd 73e9 53be af63 db3d b405 a3bd
00000070: 78ed 743d fb29 d53b 0413 dfbb 504d 4d3d
00000080: 3fc0 71bd 427d 60be d9d1 eb3d 6528 e33a
00000090: 2eb5 923d 0539 5bba b3be d63c 7ec4 973e
000000a0: bd1c b7bd 6072 813d 711c a3bd 2a64 e8bd
000000b0: dfdc cebd c446 76be f8de d63d d19d 4c3d
000000c0: f379 6abe 6914 b4bd a41e ae3b 5d5e 18be
000000d0: c69d 0d3d 71eb 393d 45e5 08be b35c 293c
000000e0: 66c8 5ebe e127 133e abca 813b e055 adbd
000000f0: d999 f4bc 28ec 2b3e 6fc8 063e e032 9abe
00000100: 8cf3 dbba 7f74 363e cba5 99bd 00d3 e13d
00000110: ef09 f63d 153a 533d 0708 423c 8fea 773d
00000120: 264f ad3d fc01 1d3d ccad 3dbe 1542 d6bd
00000130: de2a 9d3d ebe8 c4bd daf6 d4bd cade 34be
00000140: 5bce b5bd a2f4 43bc 2942 0bbe d134 d83d
00000150: 9eff 443c 4ef7 60be d64a 2a3e c72e ecbd
00000160: c4f7 d5bd eb91 f1bd fd9e f2bb 08ce 393d
00000170: 1960 de3d fb7d bebe b39c 343e 2046 a33d
00000180: 592e 1bbe 6142 cf3d 6d40 ad3c 7214 18bd
00000190: 46d6 2ebd 6a27 debd c2e8 62bb 7170 ad3b
000001a0: 1fea 78be 9f81 57be 717c f93c aa93 81be
000001b0: 6afb 46be ec27 25be 37ad 503d 3ad8 82be
000001c0: 34d5 c2bd fea9 713d 6a31 4dbe 9e1f be3d
000001d0: c564 b1bb 226b b5bd f24b debd c21d 283b
000001e0: e000 34bd f0b8 59be 0403 99bc 86f3 97bd
000001f0: 8baf 3cbe 2011 1c3e 4a53 35be 0e06 1abd
00000200: 67d3 793d bee4 02bd 6a41 cebc 9258 2a3d
00000210: 3a11 31bd 3f0d e4bc 19ee 973d 6a1d e6bd
00000220: d2bf 9fbd b9a6 de3d 941e 01be f6a8 cbbc
00000230: 9f34 3b3d f9e3 97bd c8e1 9b3c 9093 1ebb
00000240: dd76 a4bd f6a0 363d 5227 013e 722c dbbd
00000250: 2afe cd3c d260 f63d 4cf4 d9bc 18cd d7bd
00000260: 5589 b43d 2fbf 683d 87e2 f73d cd88 0a3e
00000270: 58b3 833d e7c0 da3b adb1 e43d a031 ba3d
00000280: f3ed b1bd 6ebf 57bd d78e 6bbd 6567 93bd
00000290: 4cfa 56bd 65fd ff3c 4b45 85bd 41ca d83d
000002a0: 20ce 95bd 9574 6bbd 07ae d9bd d632 88ba
000002b0: 9faa 9fbd a11d 893c d1ea fc3d 7398 81bd
000002c0: 236e ab3c 6e5f 173e f40f 91bd 5a44 b0bd
000002d0: 68d4 b9bc 971b ddbd de16 4b3e 2bcd 37be
000002e0: af98 45be c82a 3cbd b268 f7bd 0c98 723e
000002f0: deb2 153e 2b13 5fbd 0bfa 37be 2553 de3d
00000300: 37a8 163d dde9 c1bd 8906 62be fe42 6abe
00000310: 46cb 7dbd f34d 01be add8 943d 23ef e9bc
00000320: ca2c dcbc b713 b73d 2ab9 26be fd75 c63c
00000330: a032 aebd 7f10 59bd ebcc 2fbd 899b b7be
00000340: 3ea6 b43d a48e d83d b9ea c7bd f2fd d03d
00000350: c783 ea3d 06d4 9d3c 3bf6 afbb 5f2f 523d
00000360: d476 96be 58b5 00be 8af7 c23c 9819 7dbe
00000370: 2a6f 93be ff51 be3d 93b4 e8bd 56be 46be
00000380: 63dc f53d 53c9 4abe 3ec0 1dbd 45c2 f13c
00000390: b438 c8be 4a52 e0bd c6c1 033e 5244 20be
000003a0: f13b 1d3e 6070 c53d 8766 14be 28b5 95bc
000003b0: 06b3 023d 0ef7 83bd 8347 ccbd 3a81 b83d
000003c0: 201a 6f3d a2fc c3bd b482 7e3d 2dd0 8dbb
000003d0: bda9 fabd f281 3ebd b2b8 d0bd fd80 d9bd
000003e0: 5848 2cbb 06fd 9bbd a649 2b38 b996 ef3d
000003f0: 8bbc 1cbd b13d 76bc d6aa 4c3c 5cc6 f5bd

res2a.conv1.bias f4 [32]
0.0244734 -0.03208558 -0.023266198 -0.0087385345 0.071841754 0.02770828 0.0843966 0.22489075
0.047890607 0.122038685 0.11836422 0.11271005 0.03065443 0.081024796 -0.0018836732 0.1163514
0.11124709 0.00042701326 0.07156604 -0.0040772916 0.056212895 -0.112223655 0.04512031 -0.09512991
0.013545924 0.16739923 -0.0042074104 -0.054098498 -0.04328841 -0.02134308 -0.028651627 0.10088931
00000000: 717c c83c 2b6c 03bd c198 bebc 122c 0fbc
00000010: c521 933d 7afc e23c 20d8 ac3d c349 663e
00000020: f128 443d 6bef f93d f168 f23d 87d4 e63d
00000030: 001f fb3c 54f0 a53d 96e5 f6ba a549 ee3d
00000040: 84d5 e33d c0e0 df39 3791 923d cd9a 85bb
00000050: 7e3f 663d 84d5 e5bd 13d0 383d 78d3 c2bd
00000060: b9ef 5d3c b46a 2b3e 51de 89bb 6396 5dbd
00000070: 304f 31bd afd7 aebc d1b6 eabc 0e9f ce3d
