checkpoints/ppo_academy_counterattack_hard.pth (torch, 719050 bytes, 45 tensors)

conv1.weight f4 [16, 16, 3, 3]
-0.035917375 -0.11934531 -0.035385583 0.04022608 0.045111526 0.07470928 -0.0784212 -0.10259339
-0.013116718 -0.286136 -0.25368825 -0.14861088 -0.11222612 -0.02263884 0.030088197 0.101947844
0.009500394 0.082776226 0.09713991 0.05914876 0.31758165 0.055351876 0.053683154 0.1895869
-0.11582733 0.047114037 0.20338236 -0.12073944 -0.011569924 -0.030037524 -0.08309847 0.043876003
0.098101504 0.01609891 0.1333109 0.16059624 -0.12669134 0.04739873 0.1007799 -0.046637233
0.024393806 -0.0521384 -0.017875513 -0.14466366 -0.010032263 -0.16324337 -0.29805496 -0.061414916
-0.041216463 0.025627825 -0.3700025 -0.046981912 0.104157634 -0.2598774 0.072676264 0.04096083
0.016239814 0.10983348 -0.03284991 0.07328815 0.13193186 0.13462716 -0.11743703 0.21207385
0.1371614 -0.042463 -0.011901757 0.13012303 0.07349669 0.1436947 0.03366694 -0.08528028
-0.15923908 0.030464275 -0.09410507 -0.059237413 -0.03854326 0.06659599 -0.07237457 -0.02302275
-0.068046145 -0.08537933 -0.10933731 0.047337472 0.038429737 0.02623214 -0.2940391 -0.1795954
-0.1040121 -0.004329969 0.15013412 0.008971854 -0.11611634 -0.046669807 0.28752735 0.14960885
0.2800587 0.08940112 0.1309713 0.12132829 0.034789406 -0.036654145 0.14264226 -0.0035178054
0.08288455 0.121301 -0.0991039 0.007895728 -0.0871245 -0.2384173 0.12613478 0.10395043
-0.16283247 -0.023285484 -0.0026002512 0.017783152 0.017217392 0.02353466 0.15121983 -0.07161721
-0.2629294 0.09590143 -0.03377798 -0.1883056 0.0151675865 -0.08006224 0.44677594 -0.13857138
0.069327876 -0.09960319 0.09507586 -0.13158473 0.080720335 -0.11337118 0.0027427333 -0.05272143
-0.049763292 -0.06862145 0.03768697 0.062109627 0.037613764 -0.06383273 0.21754993 0.11062009
0.01698497 0.07251237 0.046315044 -0.15678495 0.11416385 -0.089440554 0.14855865 0.20938282
-0.31398132 -0.24524342 0.037754502 0.045710605 0.10877876 -0.15077375 -0.29676098 0.1613652
0.07522582 0.08389736 -0.25754747 -0.24544933 0.032255705 -0.27158803 -0.03768681 -0.043886762
-0.028938841 0.026412377 -0.017785378 -0.04345049 0.00065705774 0.097482555 0.013817047 0.20732865
0.05111329 0.19023345 0.10961433 -0.10420902 -0.14653088 -0.026355857 -0.0026218486 0.04594994
0.091596276 0.017158834 -0.21418786 0.09662599 -0.023536352 0.04150432 -0.13085833 -0.20730512
-0.06846078 0.014172296 0.21664844 -0.03412429 -0.16259621 -0.014957277 -0.26288712 -0.040960267
-0.19607842 -0.27080747 -0.119366005 -0.17110626 -0.069002084 -0.32087114 -0.18207091 -0.19085254
-0.037095744 0.20276615 -0.100546375 0.24142759 0.05947506 -0.29383585 0.17747408 -0.35422054
-0.035648752 -0.15473814 -0.036920242 -0.04014353 -0.019130467 0.04583808 -0.17601691 -0.288403
0.038021777 -0.06048458 -0.034004737 -0.2867119 0.07586771 0.15623137 0.08761147 -0.047937583
0.10199655 -0.020995423 -0.07213497 -0.18982294 -0.09606023 0.19249684 -0.18243921 -0.3769986
-0.17170148 -0.060020044 -0.009359792 0.078965 -0.028713139 0.0022964124 0.0051857927 0.07678702
0.112200476 -0.050879158 0.003653315 -0.2074592 -0.10092319 -0.1041322 -0.07287426 -0.21835062
00000000: 191e 13bd 506b f4bd 79f0 10bd 1ac4 243d
00000010: ddc6 383d 2e01 993d 4b9b a0bd 7c1c d2bd
00000020: 81e7 56bc 6b80 92be 6de3 81be 732d 18be
00000030: cfd6 e5bd 1775 b9bc 867b f63c 08ca d03d
00000040: 8aa7 1b3c 9586 a93d 4af1 c63d f845 723d
00000050: 109a a23e a6b8 623d dee2 5b3d 1123 423e
00000060: e136 edbd a6fa 403d 7743 503e 3d46 f7bd
00000070: c78f 3dbc 4111 f6bc 882f aabd 53b7 333d
00000080: 71e9 c83d dce1 833c a782 083e 5773 243e
00000090: 60bb 01be 2c25 423d b165 ce3d af06 3fbd
000000a0: 85d5 c73c 138f 55bd ab6f 92bc b622 14be
000000b0: 5c5e 24bc 4529 27be a99a 98be 358e 7bbd
000000c0: 98d2 28bd 72f1 d13c f870 bdbe 1b70 40bd
000000d0: 9950 d53d a70e 85be 4bd7 943d 8bc6 273d
000000e0: 5c09 853c 60f0 e03d a18d 06bd 1918 963d
000000f0: 2519 073e b4db 093e d382 f0bd e329 593e
00000100: 0a74 0c3e afed 2dbd 96ff 42bc f93e 053e
00000110: 6f85 963d b424 133e 58e6 093d 6da7 aebd
00000120: 920f 23be 3790 f93c 29ba c0bd eea2 72bd
00000130: 8adf 1dbd 7a63 883d 1e39 94bd 359a bcbc
00000140: c75b 8bbd 5cdb aebd 3dec dfbd f0e4 413d
00000150: 8068 1d3d c9e4 d63c 4b8c 96be dbe7 37be
00000160: 4c04 d5bd 6ae2 8dbb c2bc 193e affe 123c
00000170: 67ce edbd d728 3fbd c936 933e 1033 193e
00000180: db63 8f3e ef17 b73d 571d 063e f77a f83d
00000190: 567f 0e3d a822 16bd d010 123e fb8a 66bb
000001a0: 60bf a93d a96c f83d fcf6 cabd 155d 013c
000001b0: 546e b2bd aa23 74be 7a29 013e f7e3 d43d
000001c0: 8ebd 26be 33c1 bebc fa68 2abb f9ad 913c
000001d0: 7d0b 8d3c c2cb c03c 5fd9 1a3e 0bac 92bd
000001e0: af9e 86be f867 c43d c75a 0abd 2fd3 40be
000001f0: 7881 783c acf7 a3bd d1bf e43e a8e5 0dbe
00000200: c6fb 8d3d c2fc cbbd 22b7 c23d 26be 06be
00000210: b450 a53d 262f e8bd 6ebf 333b 6df2 57bd
00000220: 98d4 4bbd 6789 8cbd a75d 1a3d aa66 7e3d
00000230: e410 1a3d bcba 82bd 69c5 5e3e c98c e23d
00000240: 1024 8b3c 5e81 943d d8b4 3d3d 3c8c 20be
00000250: bdce e93d 9c2c b7bd c21f 183e 7368 563e
00000260: 29c2 a0be 1721 7bbe 77a4 1a3d 0b3b 3b3d
00000270: 66c7 de3d 6f64 1abe 0ef1 97be eb3c 253e
00000280: ff0f 9a3d 61d2 ab3d 43dd 83be 1257 7bbe
00000290: 8f1e 043d 960d 8bbe 7c5d 1abd 9bc2 33bd
000002a0: 2611 edbc c55e d83c a4b2 91bc 24f9 31bd
000002b0: 663e 2c3a efa4 c73d e560 623c f64d 543e
000002c0: 2b5c 513d 8fcc 423e 7a7d e03d 8a6b d5bd
000002d0: 310c 16be 3de8 d7bc 52d3 2bbb 0136 3c3d
000002e0: d496 bb3d af90 8c3c 1054 5bbe d9e3 c53d
000002f0: 4fcf c0bc 6f00 2a3d baff 05be cb47 54be
00000300: 2a35 8cbd eb32 683c 17d9 5d3e e9c5 0bbd
00000310: 9f7f 26be 5e0f 75bc 2499 86be f4c5 27bd
00000320: c8c8 48be 47a7 8abe 2a76 f4bd 7b36 2fbe
00000330: f750 8dbd 3949 a4be cc70 3abe d96e 43be
00000340: b5f1 17bd eea1 4f3e 42eb cdbd cb38 773e
00000350: 1f9c 733d a771 96be c4bb 353e 655c b5be
00000360: 6d04 12bd ad73 1ebe ae39 17bd 8b6d 24bd
00000370: 7fb7 9cbc b6c0 3b3d c73d 34be 8fa9 93be
00000380: b9bc 1b3d aebe 77bd 8d48 0bbd e7cb 92be
00000390: 8860 9b3d 1efb 1f3e a46d b33d 335a 44bd
000003a0: 91e3 d03d 98fe abbc 80bb 93bd f260 42be
000003b0: 3abb c4bd e41d 453e 58d1 3abe f605 c1be
000003c0: 83d2 2fbe 94d7 75bd d059 19bc 67b8 a13d
000003d0: d137 ebbc 687f 163b 95ed a93b 8342 9d3d
000003e0: 5dc9 e53d aa66 50bd 746c 6f3b 2f70 54be
000003f0: d1b0 cebd 4343 d5bd 1a3f 95bd 4e97 5fbe

conv1.bias f4 [16]
-0.007429777 -0.004149558 -0.028045015 -0.10769334 -0.06668871 -0.016795086 -0.038551405 -0.065374985
-0.08336272 -0.039664563 -0.006983316 -0.00663242 -0.011278024 -0.034634326 0.018777281 -0.074555576
00000000: 7d75 f3bb 04f9 87bb a9be e5bc 538e dcbd
00000010: 1794 88bd d995 89bc 14e8 1dbd 52e3 85bd
00000020: 13ba aabd 4f77 22bd 4dd4 e4bb c554 d9bb
00000030: 76c7 38bc b9dc 0dbd d0d2 993c 98b0 98bd

res1a.conv1.weight f4 [16, 16, 3, 3]
-0.03347333 0.14611827 0.08105354 -0.089725666 0.054994084 -0.16383135 0.12722489 0.0011808613
-0.04862461 -0.17022419 -0.033910606 -0.021030005 -0.15857865 -0.010373569 0.16373911 -0.09567847
0.053565644 0.21368277 -0.018392887 0.15983203 -0.035337877 -0.07920862 -0.016870556 -0.1252681
-0.115368076 -0.08794284 -0.102290764 -0.2626718 0.004026577 0.1857555 -0.16610242 0.09843781
-0.04824093 0.22905955 0.08445992 0.12048089 -0.031142727 0.07416754 0.05125741 -0.14448732
-0.16978365 -0.07240209 0.027675284 -0.1104515 -0.042774126 0.06217355 0.08663563 -0.19764502
-0.023171393 -0.20079769 -0.012653132 0.0009941253 -0.17105602 0.015771497 0.002498735 0.060544815
0.021350421 -0.116963655 -0.1804851 0.023962852 -0.09502637 -0.04672473 0.13634075 0.08249959
-0.033137154 -0.12809336 -0.0126948925 -0.23290312 -0.108161524 -0.01445463 0.11169559 0.12898281
-0.17748989 -0.08993863 0.09058188 -0.2215707 -0.09812894 -0.0018549141 -0.07011044 -0.038628493
0.22621284 -0.016670333 0.11295219 0.01923478 -0.0029086934 0.02693428 -0.071570784 -0.08057863
0.010507594 0.12905 -0.060948867 0.17968345 -0.016921533 -0.14145528 -0.092402585 -0.016745428
0.04583025 -0.009489883 -0.08308911 -0.059985742 -0.0019214756 0.053378846 -0.17954282 -0.16373383
-0.06698708 0.06181693 0.08443701 0.11898864 0.004827288 0.05649224 0.090834275 -0.028047968
0.08902252 0.0052213795 -0.026950248 -0.052849792 0.13707381 0.043291032 0.0066616763 -0.0011665487
-0.11427438 -0.06475221 -0.0704184 0.013171714 0.021899933 0.12182912 -0.18884996 0.07400593
-0.07457784 -0.26352295 0.0055172164 0.112131536 -0.05643938 0.021880953 0.036781743 -0.02360049
-0.0137095 0.015242586 0.023837676 -0.10127645 0.074444614 0.06513127 -0.04737921 -0.09546772
0.036749218 0.101035625 0.059146438 -0.065825805 0.036154233 0.029967394 0.1459434 0.1392105
-0.08965463 -0.14656182 -0.017348336 0.08883527 -0.006375387 -0.09957105 -0.06693973 0.05544339
-0.20530032 -0.024225904 0.08380809 -0.027424961 -0.17726669 -0.03439703 0.07976475 0.047859818
0.030330967 -0.048502177 -0.031199047 0.05279722 0.10922422 -0.026044449 0.08726007 -0.00064128335
-0.02627519 -0.23871164 0.14148618 -0.29580104 0.24191634 -0.008493297 -0.0075687133 0.2972156
0.05031231 -0.03522431 0.21452549 0.06328455 -0.006528509 -0.1356049 -0.08255498 -0.1560594
-0.028768936 0.0057017696 -0.01520078 0.10846899 0.010351045 -0.02217784 0.005171428 -0.036209956
-0.11929314 0.17947099 0.05323751 -0.28415298 -0.015400242 0.105475515 -0.12602068 -0.19710262
-0.031398743 -0.04712087 -0.057865154 -0.14664266 -0.09050419 -0.11465378 -0.20340818 -0.12651272
-0.13604659 0.08169443 -0.2996985 0.058456652 0.12948297 0.1145109 -0.039450247 0.11176829
0.06474261 -0.12656693 0.059414197 0.004020908 0.047027428 0.010963971 0.03270268 0.11929382
-0.16836773 -0.03269998 -0.03684066 -0.023002569 0.040815625 -0.06839131 0.12889768 0.10060079
0.020154547 0.045050498 0.0055434993 -0.04679696 0.21890278 0.24787149 0.080694534 0.19734189
0.024166737 -0.0757785 -0.057941902 -0.16598852 -0.23026623 -0.081499055 0.050098136 -0.029577786
00000000: 551b 09bd 07a0 153e 66ff a53d 17c2 b7bd
00000010: 7a41 613d 68c3 27be 3e47 023e 21c7 9a3a
00000020: 992a 47bd 404f 2ebe d9e5 0abd 1e47 acbc
00000030: 7162 22be e7f5 29bc 3aab 273e 13f3 c3bd
00000040: a667 5b3d a8cf 5a3e aeac 96bc 02ab 233e
00000050: 73be 10bd 2138 a2bd 1f34 8abc 4846 00be
00000060: 1946 ecbd 601b b4bd d27d d1bd eb7c 86be
00000070: 60f1 833b b136 3e3e c116 2abe c399 c93d
00000080: 4898 45bd 968e 6a3e 53f9 ac3d afbe f63d
00000090: 081f ffbc 27e5 973d 4af3 513d 7cf4 13be
000000a0: c4db 2dbe 8c47 94bd 47b7 e23c 6534 e2bd
000000b0: ec33 2fbd b1a9 7e3d 056e b13d 7563 4abe
000000c0: efd1 bdbc e99d 4dbe 154f 4fbc 4f4d 823a
000000d0: 4f29 2fbe 3a33 813c d1c1 233b d7fd 773d
000000e0: 14e7 ae3c a48a efbd 16d1 38be be4d c43c
000000f0: 2f9d c2bd 6e62 3fbd e99c 0b3e 8cf5 a83d
00000100: d3ba 07bd e82a 03be 3dfe 4fbc 287e 6ebe
00000110: ca83 ddbd 1dd3 6cbc a8c0 e43d 1214 043e
00000120: e9bf 35be bf31 b8bd fe82 b93d 6ee3 62be
00000130: d3f7 c8bd 9720 f3ba 1096 8fbd e938 1ebd
00000140: 57a4 673e 3990 88bc 7a53 e73d 4292 9d3c
00000150: c79f 3ebb 47a5 dc3c b493 92bd 6906 a5bd
00000160: 0b28 2c3c af25 043e 85a5 79bd f0fe 373e
00000170: 079f 8abc a7d9 10be 913d bdbd b52d 89bc
00000180: 80b8 3b3d 747b 1bbc a02a aabd 9cb3 75bd
00000190: 06da fbba c7a3 5a3d 13da 37be d7a9 27be
000001a0: 8630 89bd c033 7d3d 50ed ac3d 51b0 f33d
000001b0: 3a2e 9e3b 6864 673d 5207 ba3d dac4 e5bc
000001c0: 7051 b63d 1b18 ab3b c4c6 dcbc 0679 58bd
000001d0: 145d 0c3e f051 313d 314a da3b e1e6 98ba
000001e0: b008 eabd cf9c 84bd 8637 90bd 2cce 573c
000001f0: 7d67 b33c 8c81 f93d e261 41be 6c90 973d
00000200: 44bc 98bd 7bec 86be c4c9 b43b 38a5 e53d
00000210: fb2c 67bd af3f b33c 74a8 163d d155 c1bc
00000220: d09d 60bc 0abc 793c 3b47 c33c 076a cfbd
00000230: 6b76 983d 8b63 853d b410 42bd 9484 c3bd
00000240: 5986 163d c4eb ce3d 8943 723d aecf 86bd
00000250: 7616 143d 2e7e f53c 3072 153e 338d 0e3e
00000260: d99c b7bd 4d14 16be 191e 8ebc 44ef b53d
00000270: 9fe8 d0bb e8eb cbbd b217 89bd 9c18 633d
00000280: 3f3a 52be 6775 c6bc 93a3 ab3d 50aa e0bc
00000290: 6685 35be e6e3 0cbd b45b a33d a808 443d
000002a0: a678 f83c 38aa 46bd 2595 ffbc e641 583d
000002b0: f3b0 df3d 2b5b d5bc 68b5 b23d cc1b 28ba
000002c0: 113f d7bc d370 74be c1e1 103e 3c73 97be
000002d0: ebb8 773e 7827 0bbc f802 f8bb a52c 983e
000002e0: 4814 4e3d 5e47 10bd 92ac 5b3e 559b 813d
000002f0: 1aed d5bb 03dc 0abe 9612 a9bd 09ce 1fbe
00000300: d5ac ebbc e9d5 ba3b b10c 79bc fd24 de3d
00000310: 6e97 293c 4dae b5bc 1575 a93b e450 14bd
00000320: f64f f4bd 3ec7 373e 930f 5a3d 807c 91be
00000330: 4c51 7cbc 8c03 d83d 910b 01be 45d5 49be
00000340: f89b 00bd d001 41bd 0304 6dbd 7e29 16be
00000350: 435a b9bd 9acf eabd 3c4a 50be 8d8c 01be
00000360: cc4f 0bbe 694f a73d 1572 99be 3e70 6f3d
00000370: 2f97 043e b184 ea3d 9596 21bd c6e6 e43d
00000380: c697 843d c39a 01be 4d5c 733d d2c1 833b
00000390: d59f 403d 3aa2 333c 3ff3 053d 5150 f43d
000003a0: 9768 2cbe 6af0 05bd 3be6 16bd e26f bcbc
000003b0: 492e 273d be10 8cbd c1fd 033e c907 ce3d
000003c0: 261b a53c df86 383d 3ea6 b53b 2bae 3fbd
000003d0: 0d28 603e 06d2 7d3e 2d43 a53d fe13 4a3e
000003e0: 52f9 c53c c231 9bbd 7d54 6dbd e5f8 29be
000003f0: e9ca 6bbe fae8 a6bd b433 4d3d 1d4d f2bc

res1a.conv1.bias f4 [16]
-0.017467668 -0.073558144 -0.12366003 0.09685591 0.07247052 -0.19637693 -0.017463673 0.036670662
0.089521036 -0.06796684 -0.007931227 -0.10876152 -0.12441291 -0.042263586 -0.005221201 0.08552977
00000000: 5b18 8fbc a7a5 96bd 7841 fdbd 645c c63d
00000010: 6d6b 943d 0917 49be fa0f 8fbc fa33 163d
00000020: ce56 b73d 3332 8bbd faf1 01bc 5cbe debd
00000030: 32cc febd 951c 2dbd 9c16 abbb 3b2a af3d

res1a.conv2.weight f4 [16, 16, 3, 3]
0.054727446 -0.05968381 -0.043744575 -0.10293022 -0.1889617 -0.12997527 0.118661776 -0.052025065
-0.13641912 0.09172646 -0.024193818 -0.06286011 -0.055471376 -0.03612613 -0.001019619 -0.077245235
0.074421294 0.027239513 0.15516335 -0.184177 0.038404692 -0.111922175 -0.19329621 0.14142181
0.08100247 -0.061396774 0.06822639 -0.18832149 0.04740974 0.15177116 0.052964326 0.058001943
0.12924859 -0.08988437 -0.14459196 -0.009814232 -0.0470287 -0.08073506 -0.12300636 0.060891923
-0.09503244 0.10457985 0.18444224 -0.08736716 0.18027501 0.027705675 -0.08044128 0.018442221
0.08278852 0.064392515 -0.07837747 0.033862073 0.019738557 0.024534767 0.009562223 -0.105242446
0.02521865 0.0787899 0.1685807 0.118338265 0.0926438 -0.058106784 -0.02601127 0.005028382
0.049822744 0.039626233 -0.048282567 -0.0014917209 0.18797874 0.0012234688 0.068791725 0.031130178
-0.026165577 0.03892856 -0.12916689 0.042456508 0.050695363 -0.054807145 0.07370251 0.011398632
0.07774243 -0.043591056 -0.023925267 -0.15022857 -0.058169883 0.05296209 0.04166993 0.0694837
-0.05172983 0.047876783 -0.044620167 0.0783971 0.11138721 -0.14830089 -0.009815552 0.0038236333
0.0033474017 -0.076088294 0.103810325 -0.009704679 -0.10697476 0.02020826 0.24034715 0.14738464
0.19246031 0.14129888 -0.005969352 0.06022963 0.015440456 -0.028059969 -0.0628352 -0.026097028
-0.06611285 0.08480033 0.08145988 0.047872 0.059810024 -0.058890767 -0.114334956 -0.019722875
0.0077239443 -0.14789233 -0.24565709 0.0012959015 -0.048310757 -0.04609389 0.037806932 0.089999534
-0.0922947 -0.089248195 -0.019407978 0.105665594 0.042874295 0.013741754 0.12379888 -0.1038006
0.11381542 0.0155856805 -0.1388913 0.16261613 0.11943081 -0.09514921 -0.08635583 -0.10374061
0.057604954 -0.14457996 0.16027911 0.05817008 -0.04374243 0.06016981 0.004502089 -0.094296776
-0.0908716 -0.024764149 0.017847339 -0.20118448 -0.017247144 -0.049352318 -0.15225999 -0.028982598
-0.048974313 -0.064283125 -0.07720875 0.041815802 0.17242101 0.010815613 0.07073796 0.09067863
-0.040565144 -0.19816715 0.0807227 0.077163205 0.07695787 -0.046908807 0.15603599 0.08145684
-0.016167909 0.10637884 0.027910722 0.09711633 -0.2372547 -0.1870168 0.03275323 -0.07297687
-0.11495708 0.12845802 0.052138116 0.007405628 0.13025856 0.024068482 -0.05030187 0.14596102
0.037655555 -0.10144022 0.14142726 -0.12869422 -0.14104663 0.0030716043 0.02072754 -0.022111222
-0.0035124 -0.043024 0.024536258 0.09014404 0.16458903 -0.13331741 0.07320361 0.04044074
-0.033422336 0.003991001 0.033836473 0.03131003 0.08765612 -0.012502865 -0.10229186 -0.010306416
-0.065229096 0.02562182 -0.049437106 0.024373818 0.02701741 0.07337004 0.025895564 -0.054744978
0.1438037 -0.008007273 -0.077138186 0.028666122 0.016776789 -0.07463466 0.052860618 -0.039269697
-0.06806009 -0.018438827 -0.04271825 0.0074811364 0.13256645 -0.06908982 -0.0016416447 0.14159384
-0.042837188 0.06308707 0.17034295 -0.1524133 0.02697298 0.06875626 -0.041213665 0.037014097
0.059820756 -0.14274247 0.11065679 -0.078771986 0.063925564 -0.060356565 -0.010731107 -0.061572354
00000000: e329 603d 0377 74bd 832d 33bd 14cd d2bd
00000010: 2d7f 41be 3d18 05be f204 f33d 3c18 55bd
00000020: 74b1 0bbe 15db bb3d 1d32 c6bc cdbc 80bd
00000030: f435 63bd fef8 13bd bda4 85ba c032 9ebd
00000040: 316a 983d 6625 df3c 24e3 1e3e e598 3cbe
00000050: 3d4e 1d3d 7437 e5bd 71ef 45be e1d0 103e
00000060: 9fe4 a53d 2f7b 7bbd 47ba 8b3d 59d7 40be
00000070: b730 423d e669 1b3e 1ff1 583d 7293 6d3d
00000080: be59 043e 4c15 b8bd ea0f 14be dfcb 20bc
00000090: 2ba1 40bd 6c58 a5bd c2ea fbbd cf69 793d
000000a0: 5ea0 c2bd f62d d63d 6dde 3c3e 8eed b2bd
000000b0: 039a 383e 03f7 e23c 66be a4bd 2414 973c
000000c0: 078d a93d 39e0 833d 5e84 a0bd f5b2 0a3d
000000d0: c1b2 a13c 23fd c83c dfaa 1c3c 5a89 d7bd
000000e0: 5897 ce3c 995c a13d 6ba0 2c3e 555b f23d
000000f0: 08bc bd3d 6101 6ebd 9615 d5bc 20c5 a43b
00000100: ef12 4c3d 1e4f 223d f1c3 45bd d985 c3ba
00000110: 807d 403e cd5c a03a ade2 8c3d b704 ff3c
00000120: 3159 d6bc 8e73 1f3d 5344 04be e0e6 2d3d
00000130: f1a5 4f3d 757d 60bd 57f1 963d 54c1 3a3c
00000140: 6c37 9f3d 898c 32bd ecfe c3bc 85d5 19be
00000150: 8b43 6ebd c7ee 583d 17ae 2a3d 784d 8e3d
00000160: a9e2 53bd 721a 443d a3c3 36bd a98e a03d
00000170: fa1e e43d 30dc 17be 69d1 20bc ec95 7a3b
00000180: 1560 5b3b 2ed4 9bbd 829a d43d 6000 1fbc
00000190: 9515 dbbd cb8b a53c 901d 763e 00ec 163e
000001a0: 5114 453e a7b0 103e 8e9a c3bb 58b3 763d
000001b0: f7f9 7c3c 05de e5bc beaf 80bd 6fc9 d5bc
000001c0: 2d66 87bd ccab ad3d 70d4 a63d 6e15 443d
000001d0: 5bfb 743d 7237 71bd 7228 eabd de91 a1bc
000001e0: 2419 fd3b 1671 17be 888d 7bbe 3ddb a93a
000001f0: 80e1 45bd f2cc 3cbd 71db 1a3d ad51 b83d
00000200: 0105 bdbd c2c7 b6bd 7bfd 9ebc 3467 d83d
00000210: f59c 2f3d 1825 613c 448a fd3d 6995 d4bd
00000220: 0f18 e93d 155b 7f3c 8539 0ebe d884 263e
00000230: 2498 f43d 97dd c2bd 53db b0bd f575 d4bd
00000240: 2cf3 6b3d c50c 14be 3520 243e c043 6e3d
00000250: 432b 33bd 9e74 763d 4386 933b ab1e c1bd
00000260: e41a babd 2fde cabc 9534 923c 4e03 4ebe
00000270: e249 8dbc a825 4abd 0bea 1bbe ea6c edbc
00000280: 4a99 48bd dfa6 83bd 9f1f 9ebd 0c47 2b3d
00000290: 228f 303e f833 313c 10df 903d b8b5 b93d
000002a0: a327 26bd 54ec 4abe f151 a53d be07 9e3d
000002b0: 169c 9d3d 7323 40bd e6c7 1f3e d8d2 a63d
000002c0: 9072 84bc 26dd d93d 07a5 e43c ede4 c63d
000002d0: e5f2 72be 5581 3fbe 4028 063d e674 95bd
000002e0: 9e6e ebbd 808a 033e c78e 553d e9aa f23b
000002f0: 8062 053e 442b c53c 5509 4ebd ce76 153e
00000300: b63c 1a3d e4bf cfbd 4fd2 103e 6bc8 03be
00000310: 876e 10be f84c 493b cdcc a93c 9822 b5bc
00000320: 4b30 66bb ef39 30bd 4300 c93c 709d b83d
00000330: 078a 283e 5c84 08be c6eb 953d 30a5 253d
00000340: dce5 08bd f1c6 823b 1d98 0a3d f23e 003d
00000350: 0d85 b33d d1d8 4cbc 657e d1bd 3edc 28bc
00000360: d596 85bd dae4 d13c 907e 4abd 9aab c73c
00000370: 9e53 dd3c 0843 963d ef22 d43c 453c 60bd
00000380: 4741 133e f030 03bc a0fa 9dbd 37d5 ea3c
00000390: 7a6f 893c 0eda 98bd 6084 583d 43d9 20bd
000003a0: 1763 8bbd 060d 97bc 55f9 2ebd 5224 f53b
000003b0: 80bf 073e f77e 8dbd 752c d7ba fafd 103e
000003c0: 0c76 2fbd cb33 813d 626e 2e3e 3b12 1cbe
000003d0: 70f6 dc3c 15d0 8c3d a9cf 28bd 189c 173d
000003e0: 9c06 753d 152b 12be 07a0 e23d 3553 a1bd
000003f0: 68eb 823d 7238 77bd 86d1 2fbc 4b33 7cbd

res1a.conv2.bias f4 [16]
0.0024160652 -0.032949977 -0.08548177 -0.065008804 -0.033780817 -0.018554961 -0.026828883 -0.016132269
0.0036623224 -0.022563854 0.0060887504 -0.0027142852 -0.08383642 -0.06546037 -0.007824276 -0.053321812
00000000: d956 1e3b 8ef6 06bd 1111 afbd 5623 85bd
00000010: c15d 0abd 9300 98bc 3fc8 dbbc d227 84bc
00000020: 9303 703b d5d7 b8bc 2484 c73b 26e2 31bb
00000030: 6eb2 abbd 1610 86bd 6431 00bc f967 5abd

res1b.conv1.weight f4 [16, 16, 3, 3]
0.11973159 -0.06323595 -0.055092797 -0.09626396 -0.1784077 0.032821234 -0.17287938 -0.16296935
-0.19839102 0.22492237 0.13453451 -0.0054321573 0.12231862 -0.05857063 0.1934251 0.025435658
-0.060689982 -0.0886574 0.19718383 0.048052978 0.026258523 -0.37718406 -0.17912513 0.0009233615
-0.09632862 -0.04368783 0.037352562 -0.002307289 0.16121314 0.27462584 -0.07890123 0.20915957
0.26838493 -0.0058166347 -0.117314525 0.17346911 -0.17231758 -0.18271875 0.017407889 -0.18580464
-0.32985404 -0.18711437 -0.057210643 -0.17219335 -0.16560505 0.013019825 -0.038398154 0.06746977
0.050091285 -0.08063897 0.039711293 0.21374667 0.073917136 -0.034775008 -0.22490947 0.06404099
0.16922186 0.09567796 0.17092429 0.039396822 -0.13663311 0.00547402 0.07961419 0.08283754
0.12041739 0.03416146 0.08760229 -0.034756817 -0.041079286 0.09454891 -0.13738076 -0.21737023
-0.05334053 -0.31950688 -0.049120735 -0.21287732 0.16031913 0.07085727 -0.38743153 -0.13306767
0.092708424 -0.006779017 0.15953197 0.09744052 -0.06495443 0.140679 0.06736997 0.031527106
-0.016757064 -0.017742034 0.14818992 -0.03482951 -0.004474117 -0.09919072 0.024572743 -0.09003136
0.036015116 -0.04199344 0.09571582 0.021224927 0.07643313 -0.030299708 0.033455398 0.22883648
0.027277345 0.0499513 0.13795628 0.070549324 0.001870905 0.2693583 0.022882786 0.008962252
0.068125464 -0.19461693 -0.05455711 0.040522393 0.08713146 0.07224175 0.08177304 -0.13340639
0.17063414 0.07350797 -0.05616926 0.095024966 -0.0028549838 0.17120206 0.21560068 0.0030054892
-0.2058853 -0.13268887 -0.19666007 -0.0854218 -0.24597336 -0.22022575 0.10273113 -0.2662311
-0.010045531 0.2168689 -0.046540294 -0.075984456 0.119980074 -0.0052880566 0.104022585 -0.008131161
-0.09083298 0.027682723 0.053066235 -0.09878929 -0.058228284 -0.07983605 -0.08688807 -0.08423542
-0.008095266 0.010868464 -0.06154636 0.034783386 -0.10382345 0.006612804 0.033742797 0.02379604
0.038660243 0.0015476869 -0.056237917 -0.0072497907 0.018582625 -0.010072106 0.015814528 -0.034871664
-0.030759986 -0.035907958 0.009431377 -0.08462811 -0.06309982 -0.06687489 0.062544815 0.04890499
0.05857253 -0.009385619 0.041853808 -0.06296247 0.03726621 0.057844225 0.010766183 -0.06677423
-0.008235141 0.0060384874 -0.042261105 -0.061164208 -0.08693687 0.006702223 0.052037496 -0.036942225
0.016695878 -0.06650732 -0.057509646 -0.063703425 -0.07909062 -0.08740232 0.044682797 -0.015333858
0.051040716 0.041309405 -0.04348965 -0.016045656 0.049118936 -0.062164158 0.02707494 -0.05790789
-0.06734452 0.02023594 -0.00490154 0.057054076 -0.029655365 -0.02847902 0.045053996 -0.0017505729
-0.017894894 0.06408657 -0.07473179 0.05965675 -0.017191665 -0.06306022 -0.025378527 -0.08357309
-0.08393658 -0.06443656 -0.030525768 -0.06354803 -0.059618615 -0.06904535 -0.065051526 -0.089812085
-0.018566541 -0.003145752 -0.09615397 -0.054515462 -0.08702129 -0.016185228 -0.006517576 -0.07562212
-0.0021191738 -0.05099281 -0.07102342 -0.08390388 0.056894273 -0.03104677 -0.081622355 -0.090023585
-0.06776497 0.032687277 -0.056871634 -0.038206406 -0.045928102 0.04941094 0.04168293 -0.027400052
00000000: d635 f53d da81 81bd fca8 61bd 0a26 c5bd
00000010: 82b0 36be 8f6f 063d 4b07 31be 70e1 26be
00000020: 0427 4bbe 0d52 663e 6ac3 093e 3d00 b2bb
00000030: 2f82 fa3d c2e7 6fbd 3b11 463e 715e d03c
00000040: 0f96 78bd 0392 b5bd 8fea 493e 33d3 443d
00000050: 1d1c d73c 451e c1be 946c 37be be0d 723a
00000060: f147 c5bd 03f2 32bd 00ff 183d e335 17bb
00000070: 0f15 253e c29b 8c3e f896 a1bd ed2d 563e
00000080: c069 893e 7899 bebb 9942 f0bd e3a1 313e
00000090: 0574 30be a01a 3bbe fd9a 8e3c 9243 3ebe
000000a0: a1e2 a8be e99a 3fbe b555 6abd 7453 30be
000000b0: 5f94 29be 1b51 553c 6247 1dbd 972d 8a3d
000000c0: 852c 4d3d 0b26 a5bd 4fa8 223d 68e0 5a3e
000000d0: de61 973d 3d70 0ebd ab4e 66be ec27 833d
000000e0: 7f48 2d3e cef2 c33d c706 2f3e 905e 213d
000000f0: 8de9 0bbe 685f b33b c40c a33d baa6 a93d
00000100: 649d f63d e3ec 0b3d d468 b33d 2a5d 0ebd
00000110: c142 28bd dca2 c13d 8bad 0cbe 4d96 5ebe
00000120: 997b 5abd 6896 a3be d332 49bd 83fc 59be
00000130: b32a 243e 9e1d 913d 6d5d c6be e442 08be
00000140: eadd bd3d 8422 debb 595c 233e e58e c73d
00000150: d406 85bd 280e 103e 44f9 893d 9122 013d
00000160: 1c46 89bc be57 91bc 19bf 173e 63a9 0ebd
00000170: 9d9b 92bb 8124 cbbd c74c c93c 5d62 b8bd
00000180: 9684 133d 5001 2cbd a806 c43d e6df ad3c
00000190: f988 9c3d 1837 f8bc 8708 093d 1c54 6a3e
000001a0: bd74 df3c bc99 4c3d 6944 0d3e 2a7c 903d
000001b0: 2839 f53a 55e9 893e ae74 bb3c 69d6 123c
000001c0: 5d85 8b3d a949 47be 4777 5fbd cffa 253d
000001d0: fb71 b23d 7cf3 933d a078 a73d af9b 08be
000001e0: b7ba 2e3e 598b 963d bd11 66bd 739c c23d
000001f0: ae1a 3bbb 984f 2f3e 6dc6 5c3e bef7 443b
00000200: 99d3 52be 97df 07be 4261 49be a0f1 aebd
00000210: 71e0 7bbe dc82 61be b364 d23d 714f 88be
00000220: 0396 24bc e212 5e3e 09a1 3ebd bd9d 9bbd
00000230: 1db8 f53d 6f47 adbb cb09 d53d 9038 05bc
00000240: a406 babd e1c6 e23c fb5b 593d 0a52 cabd
00000250: c880 6ebd 1581 a3bd 5ff2 b1bd 9f83 acbd
00000260: 02a2 04bc a411 323c 0918 7cbd 0679 0e3d
00000270: 64a1 d4bd 38b0 d83b e335 0a3d eaef c23c
00000280: 345a 1e3d c1db ca3a bb59 66bd a78f edbb
00000290: 973a 983c 7905 25bc 788d 813c 97d5 0ebd
000002a0: 5efc fbbc 3914 13bd 1086 1a3c 8151 adbd
000002b0: 7a3a 81bd b4f5 88bd 7f17 803d 9950 483d
000002c0: c0e9 6f3d 24c6 19bc e66e 2b3d 78f2 80bd
000002d0: 74a4 183d 11ee 6c3d a564 303c edc0 88bd
000002e0: afec 06bc 81de c53b fb19 2dbd 5287 7abd
000002f0: f50b b2bd 529e db3b 4525 553d bb50 17bd
00000300: cbc5 883c fd34 88bd 3c8f 6bbd f176 82bd
00000310: 43fa a1bd fdff b2bd 4f05 373d dd3a 7bbc
00000320: 1210 513d 0d34 293d 3422 32bd 2e72 83bc
00000330: f030 493d d89f 7ebd 44cc dd3c d330 6dbd
00000340: eceb 89bd d8c5 a53c 199d a0bb 89b1 693d
00000350: cfef f2bc d54c e9bc 8a8a 383d 7b73 e5ba
00000360: 5098 92bc d23f 833d fb0c 99bd a35a 743d
00000370: 89d5 8cbc b725 81bd a1e6 cfbc 5e28 abbd
00000380: f1e6 abbd 51f7 83bd 2d11 fabc 7825 82bd
00000390: a632 74bd a667 8dbd bc39 85bd 66ef b7bd
000003a0: dc18 98bc f628 4ebb 5fec c4bd 9b4b 5fbd
000003b0: 3838 b2bd e296 84bc 6491 d5bb c5df 9abd
000003c0: d6e1 0abb d6dd 50bd ba74 91bd ccd5 abbd
000003d0: f809 693d cc55 febc 9f29 a7bd 495e b8bd
000003e0: 5cc8 8abd 18e3 053d 3bf2 68bd 527e 1cbd
000003f0: 1b1f 3cbd 2063 4a3d b8bb 2a3d 1376 e0bc

res1b.conv1.bias f4 [16]
-0.06273996 -0.08323277 0.13306472 0.096881874 -0.13471419 -0.11311656 0.027167361 -0.008739015
-0.027867675 -0.13845769 -0.07069809 -0.15361449 0.07678451 0.06504756 -0.09424175 0.035409898
00000000: cf7d 80bd f175 aabd 1e42 083e 016a c63d
00000010: 84f2 09be a8a9 e7bd 168e de3c 162e 0fbc
00000020: c04a e4bc dac7 0dbe 29ca 90bd 1e4d 1dbe
00000030: 3241 9d3d a837 853d d201 c1bd f809 113d

res1b.conv2.weight f4 [16, 16, 3, 3]
-0.110931724 0.08417798 0.003402443 -0.09794819 -0.043346304 0.0633666 0.10191592 -0.08445924
-0.037398398 0.071737565 -0.0480623 -0.018483687 -0.031863753 0.1548095 -0.053549185 -0.07141352
-0.026485907 -0.0071622473 -0.12935917 0.13168788 -0.11535261 -0.06300455 0.031220665 0.17911865
-0.049968105 0.014559835 0.118527964 0.06363477 0.0022759046 0.023121059 -0.05227633 0.019487552
0.065568976 0.028757209 0.08596568 0.024816759 -0.066803746 -0.0855864 0.009663827 -0.032032423
0.015241152 0.008620078 0.001104859 0.13870943 -0.01726961 0.052933425 -0.0029706196 0.0346756
0.015996106 0.034923192 0.17561959 -0.007935381 -0.101581655 0.010792693 0.058413688 0.043405645
0.14730541 -0.14965299 -0.064570814 0.04403204 0.07283047 -0.007622887 -0.20751442 -0.059505202
0.048069157 -0.19331737 -0.0070778006 -0.063760735 -0.05820034 0.030425984 -0.056777976 -0.1419876
-0.06872809 -0.14194255 0.06700339 -0.06695268 0.035967223 0.14107908 -0.09554819 0.061305124
0.077738084 -0.051267996 -0.07232267 0.03681463 -0.10397826 0.15218987 0.0053749736 -0.25456393
0.17124628 0.026896793 0.01961095 -0.012751107 0.0017093113 -0.0418044 0.093425326 -0.021008903
0.039690014 0.05454937 0.021230895 0.1039702 -0.0728477 0.062151663 0.013800886 -0.0007967618
-0.052623104 0.11870076 -0.024280883 0.14265288 0.02486166 -0.0993249 0.10250145 -0.04270294
0.03746807 -0.08981211 0.06342564 -0.024114003 -0.08311894 -0.03397498 0.06312946 0.10816556
-0.0014821289 0.14177124 -0.16710728 0.043702852 -0.033383023 -0.007380449 -0.089888476 -0.07259019
0.037397765 0.013423368 0.13310069 -0.13970575 -0.032920625 -0.006885806 -0.08328116 0.09066725
-0.17482708 0.013906422 -0.017776204 -0.09320481 0.12766694 -0.005569397 0.17073637 0.06080864
-0.15868804 0.08904775 0.010355392 -0.0126595255 0.18077196 -0.080606475 -0.10952013 -0.19107224
-0.039536234 0.06934419 -0.094713114 0.096377775 -0.11857169 -0.03179155 -0.015297696 -0.11763204
-0.072301626 -0.0850523 0.05864982 -0.067081474 -0.036152255 0.15691385 0.16183338 0.13759534
-0.014501128 -0.06299773 -0.06481242 -0.04201178 -0.01538968 0.05837934 -0.055376854 -0.03654112
0.08244389 0.08459345 -0.049583912 0.035242733 -0.003950248 0.07071727 -0.14026438 0.07622286
-0.051392294 0.027705856 0.09361011 -0.112375535 0.11899778 0.014185028 -0.088541724 0.028220084
0.064936474 -0.05360561 -0.023029583 0.08690163 -0.12415028 -0.0037467477 -0.12514913 0.04293023
0.021070046 0.06996728 0.034054734 -0.19797587 0.005294757 -0.14152655 0.24855581 -0.08961448
-0.09255605 0.011639857 0.14791659 -0.015984986 0.047772232 0.21918188 -0.095377035 0.051738787
-0.11372563 0.050676253 -0.17143564 0.07470995 0.05628201 0.019051626 -0.02753312 -0.030191803
0.0112542175 -0.11062006 -0.16005717 0.0584967 0.03159577 0.015157549 0.13724789 0.07076949
-0.04345496 -0.07153514 0.1945289 0.20809077 -0.057319067 -0.15450186 -0.040812913 0.12331402
-0.11511164 0.12451716 0.028922074 -0.119109385 -0.08040847 0.007904827 -0.017066939 0.08380305
-0.038696792 0.024629313 -0.10475017 -0.030965364 0.24548076 -0.042665318 0.07429259 0.09285313
00000000: 2c30 e3bd 8165 ac3d 85fb 5e3b 1099 c8bd
00000010: e58b 31bd 59c6 813d 4bb9 d03d f7f8 acbd
00000020: 102f 19bd 25eb 923d f9dc 44bd 1a6b 97bc
00000030: 9183 02bd 6286 1e3e 6456 5bbd 4041 92bd
00000040: f9f8 d8bc 49b1 eabb bb76 04be 30d9 063e
00000050: fd3d ecbd 8808 81bd 7bc2 ff3c e16a 373e
00000060: 5bab 4cbd 608c 6e3c cabe f23d f252 823d
00000070: 5827 153b 6068 bd3c b41f 56bd 5ca4 9f3c
00000080: 0749 863d 3d94 eb3c c60e b03d 844c cb3c
00000090: 67d0 88bd ec47 afbd 0755 1e3c 6e34 03bd
000000a0: 06b6 793c 3a3b 0d3c ebd0 903a d809 0e3e
000000b0: ff78 8dbc b8d0 583d baae 42bb 0008 0e3d
000000c0: 440a 833c 9f0b 0f3d 9fd5 333e 6603 02bc
000000d0: 0b0a d0bd d6d3 303c 3143 6f3d 1eca 313d
000000e0: 3bd7 163e a23e 19be b43d 84bd f15a 343d
000000f0: 2428 953d 69c9 f9bb a97e 54be babb 73bd
00000100: 2ae4 443d fdf4 45be e5ec e7bb fd94 82bd
00000110: 7b63 6ebd ea3f f93c 0690 68bd 3365 11be
00000120: 50c1 8cbd 6359 11be 1339 893d 7d1e 89bd
00000130: 5e52 133d 0977 103e c5ae c3bd 151b 7b3d
00000140: 2535 9f3d 64fe 51bd e81d 94bd f0ca 163d
00000150: 8ef2 d4bd a9d7 1b3e 8c20 b03b 3456 82be
00000160: 2f5b 2f3e aa56 dc3c 25a7 a03c 05ea 50bc
00000170: f80a e03a 173b 2bbd c755 bf3d dd1a acbc
00000180: ff91 223d 296f 5f3d 6aec ad3c 54ee d43d
00000190: 2d31 95bd be92 7e3d 1d1d 623c c7dd 50ba
000001a0: 538b 57bd 6219 f33d b4e8 c6bc 9913 123e
000001b0: aeaa cb3c da6a cbbd 48ec d13d 47e9 2ebd
000001c0: 1e78 193d 69ef b7bd 4de5 813d bb8a c5bc
000001d0: 433a aabd 5929 0bbd 054a 813d e885 dd3d
000001e0: fe43 c2ba 7b2c 113e 2c1e 2bbe c301 333d
000001f0: a3bc 08bd b2d7 f1bb 7317 b8bd 2aaa 94bd
00000200: 662e 193d b0ed 5b3c 8c4b 083e 060f 0fbe
00000210: c7d7 06bd 54a2 e1bb 508f aabd c0af b93d
00000220: df05 33be c3d7 633c 679f 91bc 2ae2 bebd
00000230: 1fbb 023e 7d7f b6bb 84d5 2e3e 7b12 793d
00000240: 1e7f 22be ab5e b63d a9a9 293c e669 4fbc
00000250: 491c 393e 0215 a5bd 174c e0bd 71a8 43be
00000260: bff0 21bd 5404 8e3d f3f8 c1bd b661 c53d
00000270: b7d5 f2bd db37 02bd 30a3 7abc 11e9 f0bd
00000280: e012 94bd e62f aebd cb3a 703d 0362 89bd
00000290: 6314 14bd 06ae 203e a6b7 253e cbe5 0c3e
000002a0: 2496 6dbc f404 81bd 60bc 84bd 8b14 2cbd
000002b0: ff24 7cbc 2d1f 6f3d d7d2 62bd 24ac 15bd
000002c0: 58d8 a83d 553f ad3d 8018 4bbd af5a 103d
000002d0: 1571 81bb 37d4 903d 77a1 0fbe bb1a 9c3d
000002e0: ba80 52bd 64f7 e23c a8b6 bf3d 2525 e6bd
000002f0: 1cb5 f33d 5268 683c 5d55 b5bd ce2d e73c
00000300: 6afd 843d 8e91 5bbd 89a8 bcbc 7bf9 b13d
00000310: 8142 febd ff8b 75bb 1827 00be 9cd7 2f3d
00000320: 179b ac3c 014b 8f3d fa7c 0b3d 30ba 4abe
00000330: a47f ad3b 56ec 10be 6a85 7e3e cc87 b7bd
00000340: 078e bdbd 19b5 3e3c 7277 173e f2f2 82bc
00000350: d1ac 433d 3771 603e 0955 c3bd 0dec 533d
00000360: fce8 e8bd e791 4f3d d38c 2fbe 8801 993d
00000370: f787 663d 2812 9c3c 238d e1bc cd54 f7bc
00000380: 9c63 383c c58c e2bd 07e6 23be 3c9a 6f3d
00000390: 916a 013d 5e57 783c b68a 0c3e 98ef 903d
000003a0: d4fd 31bd 0481 92bd 9532 473e bf15 553e
000003b0: 66c7 6abd bc35 1ebe 712b 27bd 108c fc3d
000003c0: a7bf ebbd da02 ff3d fced ec3c 9fef f3bd
000003d0: 32ad a4bd 3f83 013c f7cf 8bbc efa0 ab3d
000003e0: 8780 1ebd 6ac3 c93c 4287 d6bd 13ab fdbc
000003f0: 4f5f 7b3e d4c1 2ebd b726 983d c829 be3d

res1b.conv2.bias f4 [16]
0.034983926 0.007094811 -0.114217095 0.050392013 0.030297203 0.030646123 0.026042094 0.079723135
-0.003250135 0.045395765 -0.010491783 0.06530876 -0.004517263 -0.018452678 0.03708217 0.062485278
00000000: 4e4b 0f3d 977b e83b a7ea e9bd db67 4e3d
00000010: d731 f83c 940d fb3c 3b56 d53c e245 a33d
00000020: 3800 55bb e9f0 393d bae5 2bbc 99c0 853d
00000030: 8c05 94bb 122a 97bc 79e3 173d 90f0 7f3d

conv2.weight f4 [32, 16, 3, 3]
0.02050866 -0.05807938 -0.12745464 0.017802518 -0.0528384 -0.10675195 0.045145046 0.060064267
0.12013228 -0.013044784 -0.0077174604 0.08603843 -0.06145142 -0.107884794 -0.086545095 0.036738794
0.048090395 0.092571154 0.17902724 0.024252199 -0.093913205 0.030525615 0.073408835 -0.053067964
-0.028694835 0.08470087 0.19082916 -0.024946472 -0.010076681 -0.10560514 -0.04074362 -0.04907164
-0.078282855 -0.12261427 -0.011647317 -0.10446619 -0.15041648 -0.11965756 -0.09776958 0.072468184
-0.008156454 0.05253457 -0.020677991 0.04255736 -0.07594606 -0.1273879 -0.06325358 0.16762738
0.048923988 -0.016321203 0.11812407 0.038081344 0.13675077 -0.21574157 0.09930401 -0.31858706
-0.1260385 0.109560065 -0.06538255 -0.0065630227 0.01571629 0.1705257 0.017982421 -0.0010637447
0.15373889 -0.07535551 -0.066200756 0.060748387 -0.118268736 -0.14430368 -0.025194792 0.13676143
-0.11967038 -0.19092692 0.08931325 0.0820361 0.033980846 0.047299534 -0.03227414 0.05071732
-0.18619952 -0.08092492 0.046070185 0.013801471 0.0099129295 -0.020852732 0.07130523 -0.18913987
-0.28301266 -0.16053157 -0.041753765 0.102233805 0.102707915 0.022355188 -0.13002993 0.017948218
-0.055532064 -0.18764317 0.036225073 0.08744145 -0.12497293 0.011121089 0.008404001 -0.029259613
-0.03433151 -0.01760441 0.20935094 -0.04996243 -0.06663067 -0.16541333 -0.11961311 0.027086446
0.04863095 0.011038243 -0.12962794 0.045318168 0.0697172 -0.0023291223 0.003150674 -0.054070797
0.045879334 -0.025762016 0.08158517 0.06304742 0.017784238 0.15773155 -0.035887245 0.007523376
-0.009285442 0.018343866 0.048778743 -0.28075516 -0.12657453 0.03563796 -0.15579745 -0.042810526
-0.07314258 -0.072135545 -0.14652677 0.06845472 0.020780984 0.056812495 0.09790062 0.04042501
-0.14032671 -0.042794257 0.16933498 -0.14286219 -0.10028475 -0.094774015 0.05562216 0.15722801
-0.060093466 0.1781564 -0.101098776 -0.03351882 0.10850275 -0.024341058 0.024247985 -0.12517132
-0.06640529 0.0258546 0.051915906 0.095178545 0.21528448 0.08833374 0.14108157 0.14829911
0.11926311 0.056667622 0.02221233 -0.107374564 0.020910555 -0.028304575 -0.13640492 -0.038483102
-0.2507517 -0.043015115 -0.07895112 -0.20526102 -0.18321346 -0.057238426 -0.04490137 -0.058795463
-0.039745897 -0.087182485 0.0028361708 -0.0488658 0.06483686 0.115558915 0.06329324 0.023969607
-0.05925475 0.021619994 0.017073777 -0.20505318 0.02729992 -0.06643292 -0.051330145 -0.082605705
0.03601086 -0.03565649 -0.14278284 -0.0035426486 0.10268915 0.037200548 0.064912274 -0.046579547
-0.12288141 -0.114577666 -0.20146 -0.111936264 -0.14622632 -0.041576993 0.116179496 -0.19809185
0.08651602 -0.04072874 -0.009155693 0.18140833 0.023977917 -0.022881445 -0.049149603 -0.007933101
-0.038824514 -0.06979347 -0.14728342 -0.14769897 0.09668405 -0.0054561654 0.039142825 -0.010270352
-0.19760403 -0.005195649 -0.08828283 -0.013215088 -0.033782274 0.062103078 0.121316046 -0.013530147
0.019992787 -0.077640295 0.00409985 -0.0197067 -0.072426856 0.11433783 -0.023310263 -0.12775198
-0.013864316 -0.14833133 0.10716454 0.024989685 0.019367084 -0.0023466896 0.018216407 0.19330081
00000000: c701 a83c a5e4 6dbd 7883 02be 96d6 913c
00000010: 146d 58bd c4a0 dabd 03ea 383d f305 763d
00000020: ea07 f63d cab9 55bc c0e2 fcbb eb34 b03d
00000030: 7cb4 7bbd b4f2 dcbd 8e3e b1bd 6b7b 163d
00000040: 6ffa 443d f295 bd3d eb52 373e 8cac c63c
00000050: 9155 c0bd db10 fa3c 5f57 963d cb5d 59bd
00000060: 6e11 ebbc a677 ad3d b868 433e 8b5c ccbc
00000070: aa18 25bc 8247 d8bd c8e2 26bd 58ff 48bd
00000080: c352 a0bd 311d fbbd 63d4 3ebc 5ff2 d5bd
00000090: c706 1abe 060f f5bd 6b3b c8bd 336a 943d
000000a0: a6a2 05bc 7d2e 573d e464 a9bc a050 2e3d
000000b0: 9c89 9bbd f971 02be 188b 81bd 83a6 2b3e
000000c0: 8564 483d 0bb4 85bc 08eb f13d 2ffb 1b3d
000000d0: 6508 0c3e 5ceb 5cbe e75f cb3d d81d a3be
000000e0: 3d10 01be 0761 e03d 49e7 85bd a00e d7bb
000000f0: 73bf 803c 4a9e 2e3e df4f 933c 596d 8bba
00000100: ba6d 1d3e fd53 9abd 4394 87bd 4dd3 783d
00000110: e136 f2bd 58c4 13be 4f65 cebc 300b 0c3e
00000120: bf15 f5bd 5982 43be dde9 b63d 8b02 a83d
00000130: 802f 0b3d 28bd 413d e331 04bd f7bc 4f3d
00000140: 16ab 3ebe f7bb a5bd 17b4 3c3d 911f 623c
00000150: d769 223c 59d3 aabc 7a08 923d e2ad 41be
00000160: 09e7 90be 6362 24be ff05 2bbd f55f d13d
00000170: 8758 d23d 3a22 b73c 9126 05be 2408 933c
00000180: 9775 63bd 8825 40be be60 143d 8114 b33d
00000190: cff1 ffbd 3a35 363c efb0 093c dbb1 efbc
000001a0: 339f 0cbd 2037 90bc 1860 563e 68a5 4cbd
000001b0: a975 88bd 1d62 29be b8f7 f4bd 65e4 dd3c
000001c0: 3f31 473d bfd9 343c 30bd 04be 8b9f 393d
000001d0: e4c7 8e3d 30a4 18bb 8a7b 4e3b 5779 5dbd
000001e0: f8eb 3b3d dd0a d3bc 2016 a73d 011f 813d
000001f0: 40b0 913c 6184 213e 81fe 12bd a786 f63b
00000200: f721 18bc e045 963c 38cc 473d 24bf 8fbe
00000210: c19c 01be 1cf9 113d 5e89 1fbe 175a 2fbd
00000220: c7cb 95bd cdbb 93bd 1d0b 16be fd31 8c3d
00000230: e23c aa3c 38b4 683d 1f80 c83d b294 253d
00000240: ceb1 0fbe 0849 2fbd 2666 2d3e 774a 12be
00000250: 1762 cdbd e118 c2bd 10d4 633d 6100 213e
00000260: 9124 76bd a26e 363e e00c cfbd 084b 09bd
00000270: b136 de3d e666 c7bc b6a3 c63c e92c 00be
00000280: 7fff 87bd 07cd d33c c6a5 543d f8ec c23d
00000290: 8973 5c3e 52e8 b43d b077 103e b9db 173e
000002a0: 3840 f43d 4f1c 683d a2f6 b53c 32e7 dbbd
000002b0: 9d4c ab3c ffde e7bc bbad 0bbe 75a0 1dbd
000002c0: 8762 80be 9e30 30bd 20b1 a1bd f22f 52be
000002d0: 4f9c 3bbe d772 6abd 80ea 37bd 83d3 70bd
000002e0: 98cc 22bd bb8c b2bd 0ddf 393b 8127 48bd
000002f0: 30c9 843d 27aa ec3d e39f 813d e95b c43c
00000300: 1cb5 72bd 6a1c b13c 4ede 8b3c 76f9 51be
00000310: 15a4 df3c fc0d 88bd 8f3f 52bd 2e2d a9bd
00000320: 2080 133d 8a0c 12bd aa35 12be c82b 68bb
00000330: b04e d23d 9a5f 183d baf0 843d 32ca 3ebd
00000340: 40a9 fbbd b2a7 eabd 884b 4ebe d73e e5bd
00000350: 5abc 15be a34c 2abd 84ef ed3d 97d8 4abe
00000360: 502f b13d 2ed3 26bd c301 16bc 1bc3 393e
00000370: 566d c43c de71 bbbc 1851 49bd d6f9 01bc
00000380: 7406 1fbd e1ef 8ebd 77d1 16be 663e 17be
00000390: 4a02 c63d a2c9 b2bb 3a54 203d fa44 28bc
000003a0: b658 4abe 4340 aabb a1cd b4bd 1984 58bc
000003b0: 485f 0abd cc5f 7e3d 8c74 f83d 8dad 5dbc
000003c0: eac7 a33c e001 9fbd 0958 863b f26f a1bc
000003d0: 8854 94bd f429 ea3d 2af5 bebc 6ad1 02be
000003e0: 2827 63bc 2be4 17be 1579 db3d 2bb7 cc3c
000003f0: b8a7 9e3c ebca 19bb 933a 953c a6f0 453e

conv2.bias f4 [32]
-0.038096152 -0.026489433 0.0017939477 -0.09622303 -0.074673764 -0.0817355 -0.03796956 -0.059979036
-0.109005064 -0.032225203 -0.06653603 0.0029125055 -0.030620607 -0.09740654 -0.06491407 -0.10238209
-0.0924451 -0.04972268 -0.027689915 -0.007760714 -0.05772282 -0.00910424 -0.13583677 -0.07464934
-0.09337043 -0.08917561 -0.13354622 -0.090664506 -0.11798587 -0.13384946 -0.019238971 -0.08403923
00000000: b60a 1cbd 5e00 d9bc e522 eb3a 9410 c5bd
00000010: 8fee 98bd f164 a7bd f885 1bbd 94ac 75bd
00000020: 0c3e dfbd 93fe 03bd 0b44 88bd bcdf 3e3b
00000030: 11d8 fabc 147d c7bd abf1 84bd b4ad d1bd
00000040: db53 bdbd 02aa 4bbd f6d5 e2bc 964d febb
00000050: c46e 6cbd f329 15bc cb18 0bbe c1e1 98bd
00000060: ff38 bfbd b4a1 b6bd 57c0 08be 50ae b9bd
00000070: 93a2 f1bd d50f 09be 0c9b 9dbc c31c acbd

res2a.conv1.weight f4 [32, 32, 3, 3]
0.08056586 -0.036352813 -0.0143689085 0.13653281 -0.06208838 -0.06138602 -0.08564221 -0.0662816
0.14338754 0.049636062 -0.082798116 0.0054312483 0.0945049 0.022321327 0.011486562 -0.24317849
-0.20496012 -0.029060056 0.16634937 0.13295847 0.17439693 0.198669 -0.12387161 0.03319817
-0.12061651 -0.21669209 0.13736069 -0.08819248 0.055753883 -0.012878173 0.0069531677 0.012232368
-0.0694236 -0.16340895 0.09258902 0.014547555 0.06730583 -0.02056036 0.025992166 0.27696472
-0.11700875 0.023375617 -0.044539787 -0.110270135 -0.109710045 -0.20658243 0.059541926 0.0505234
-0.19614427 -0.0805619 -0.02653168 -0.14289223 0.052291483 0.03820195 -0.12718624 -0.0089500025
-0.21255879 0.14303471 -0.003965079 -0.085657924 -0.02787693 0.16549446 0.12847237 -0.23209697
-0.028197344 0.15945564 -0.077307574 0.09490955 0.13777603 0.034151837 -0.036532037 0.052475795
0.04946159 -0.006271078 -0.1746474 -0.120934285 0.063548155 -0.045204837 -0.1292115 -0.1795335
-0.045670096 0.0075918688 -0.12344074 0.09710981 0.0020523996 -0.1765621 0.14744358 -0.10238831
-0.07954753 -0.08094847 0.005252538 0.030715263 0.12357134 -0.3480051 0.17023279 0.08477843
-0.20730849 0.06713417 0.03268942 -0.07104598 -0.093008846 -0.1679286 0.004709688 -0.0041248114
-0.23329714 -0.2068734 0.007437091 -0.25767842 -0.18165827 -0.115829505 0.03882389 -0.25919816
-0.09002218 0.096987166 -0.21092246 0.05896547 0.032386787 -0.11222731 -0.14516321 0.0035066784
-0.019617025 -0.23988484 -0.011389923 -0.064531885 -0.12691286 0.17859977 -0.17018874 -0.04328485
0.04671869 -0.00996342 -0.012351757 0.059398953 -0.075397715 -0.047386345 0.054767683 -0.12238354
-0.07679427 0.11342789 -0.12834328 -0.040967397 0.04168099 -0.060747784 0.045536533 -0.026678184
-0.07643857 0.031829596 0.12960367 -0.10614135 -0.0019306457 0.13571471 -0.04935635 -0.12532267
0.08905816 0.04244122 0.09940285 0.16432731 0.06406744 -0.015007035 0.096307755 0.101198785
-0.07369496 -0.05722067 0.00076848187 -0.038000938 0.012780536 0.088447675 -0.051363945 0.17333166
-0.06950928 -0.100719295 -0.09720038 0.012899091 -0.04977773 0.07058511 0.09083467 -0.079817854
0.06315728 0.060266994 -0.08893626 -0.06015956 -0.011212672 -0.13543454 0.22757544 -0.18355638
-0.19511668 -0.03397598 -0.12402837 0.25870654 0.2211627 -0.11021734 -0.24302806 0.072425365
0.039052255 -0.13025415 -0.23350614 -0.28248549 -0.07915389 -0.14158292 0.06776697 -0.012037968
-0.052546088 0.03673877 -0.14042857 0.038145624 -0.116767965 -0.08012037 -0.009893446 -0.33952305
0.03497832 0.088056 -0.09699407 0.067528814 0.09052863 0.030199451 -0.015633745 0.028896172
-0.2902343 -0.085357055 0.025873948 -0.22619481 -0.2713522 0.11254173 -0.107436195 -0.19050467
0.12771124 -0.238405 -0.0642898 -0.0136710955 -0.3858499 -0.13418955 0.14457043 -0.082894355
0.15206894 0.119738065 -0.19725592 -0.02803154 0.09430896 -0.039840143 -0.09837129 0.10295407
0.04588537 -0.0499101 0.088690996 0.014016895 -0.13880047 -0.04668203 -0.104958706 -0.10878396
0.024338458 -0.06334924 -0.0031430628 0.14178027 -0.018746644 -0.0076358635 0.023088386 -0.12313559
00000000: b7ff a43d b0e6 14bd 926b 6bbc 42cf 0b3e
00000010: 6350 7ebd e86f 7bbd 2f65 afbd a6be 87bd
00000020: 2fd4 123e 2f4f 4b3d 0f92 a9bd 9df8 b13b
00000030: c98b c13d 37db b63c 2232 3c3c c803 79be
00000040: 11e1 51be 5b0f eebc 7d57 2a3e 4426 083e
00000050: 1c95 323e e36f 4b3e 66b0 fdbd cefa 073d
00000060: ca05 f7bd 88e4 5dbe 48a8 0c3e 429e b4bd
00000070: 2f5e 643d f9fe 52bc 66d7 e33b 456a 483c
00000080: f62d 8ebd ad54 27be 509f bd3d de58 6e3c
00000090: a4d7 893d 336e a8bc 86ed d43c 52ce 8d3e
000000a0: 49a2 efbd 397e bf3c 5a6f 36bd 4fd5 e1bd
000000b0: a9af e0bd 588a 53be 3ce2 733d a0f1 4e3d
000000c0: 0bda 48be a3fd a4bd f758 d9bc 5752 12be
000000d0: 982f 563d a679 1c3d 1c3d 02be 08a3 12bc
000000e0: 03a9 59be b177 123e 7eed 81bb 6c6d afbd
000000f0: 295e e4bc 6177 293e 438e 033e d4aa 6dbe
00000100: 1efe e6bc 5748 233e 6f53 9ebd f05f c23d
00000110: 2915 0d3e cce2 0b3d 9ea2 15bd dcf0 563d
00000120: 3c98 4a3d 9d7d cdbb c5d6 32be 65ac f7bd
00000130: 8925 823d b528 39bd 0550 04be a1d7 37be
00000140: 9110 3bbd 36c5 f83b 80ce fcbd 82e1 c63d
00000150: 8d81 063b b2cc 34be 73fb 163e f6b0 d1bd
00000160: d1e9 a2bd 50c8 a5bd 7b1d ac3b 939e fb3c
00000170: f912 fd3d b92d b2be 8151 2e3e 50a0 ad3d
00000180: ad48 54be a47d 893d 57e5 053d 8e80 91bd
00000190: 6c7b bebd 7af5 2bbe ba53 9a3b 6d29 87bb
000001a0: 72e5 6ebe 9fd6 53be d7b2 f33b 6dee 83be
000001b0: a004 3abe 0538 edbd cd05 1f3d 9fb5 84be
000001c0: 8c5d b8bd 35a1 c63d 0ffc 57be c785 713d
000001d0: 02a8 043d 6fd7 e5bd aaa5 14be 4dd0 653b
000001e0: e2b3 a0bc 5fa4 75be cd9c 3abc 4b29 84bd
000001f0: 72f5 01be dce2 363e f545 2ebe 744b 31bd
00000200: 195c 3f3d 9d3d 23bc 065f 4abc 514c 733d
00000210: 1e6a 9abd 2f18 42bd 1454 603d 39a4 fabd
00000220: 5046 9dbd e24c e83d 6c6c 03be 6ecd 27bd
00000230: b0b9 2a3d abd2 78bd 8484 3a3d 358c dabc
00000240: d38b 9cbd c05f 023d d3b6 043e a360 d9bd
00000250: b80d fdba ccf8 0a3e e229 4abd 9654 00be
00000260: 2064 b63d d8d6 2d3d b993 cb3d 6b45 283e
00000270: ca35 833d 11e0 75bc 003d c53d 4f41 cf3d
00000280: 62ed 96bd 3960 6abd f273 493a dfa6 1bbd
00000290: 7465 513c 0e24 b53d 0063 52bd db7d 313e
000002a0: e25a 8ebd eb45 cebd fe10 c7bd b556 533c
000002b0: bce3 4bbd ed8e 903d 8707 ba3d 8b77 a3bd
000002c0: 9b58 813d 86da 763d 3724 b6bd df69 76bd
000002d0: 5bb5 37bc 5aaf 0abe 8909 693e 34f6 3bbe
000002e0: abcc 47be 662a 0bbd 9602 febd 2f75 843e
000002f0: 7a78 623e a1b9 e1bd 59dc 78be c053 943d
00000300: 42f5 1f3d 5861 05be 3c1c 6fbe f0a1 90be
00000310: 6f1b a2bd 1dfb 10be 69c9 8a3d e63a 45bc
00000320: 913a 57bd 647b 163d 82cc 0fbe 963e 1c3d
00000330: 0b24 efbd 2616 a4bd 1f18 22bc f7d5 adbe
00000340: 6d45 0f3d b456 b43d d4a4 c6bd 8c4c 8a3d
00000350: 1367 b93d d764 f73c 5712 80bc aab7 ec3c
00000360: 9799 94be aecf aebd 9af5 d33c 9d9f 67be
00000370: adee 8abe 477c e63d 8207 dcbd a813 43be
00000380: bcc6 023e 7120 74be 5faa 83bd bbfc 5fbc
00000390: 1e8e c5be fc68 09be 450a 143e 84c4 a9bd
000003a0: f6b7 1b3e 3b39 f53d 75fd 49be 66a2 e5bc
000003b0: 0e25 c13d 6b2f 23bd e376 c9bd 95d9 d23d
000003c0: 4cf2 3b3d 886e 4cbd a0a3 b53d 1ea7 653c
000003d0: b621 0ebe a835 3fbd 97f4 d6bd 20ca debd
000003e0: 7261 c73c 3fbd 81bd d8fb 4dbb d92e 113e
000003f0: 9092 99bc 4436 fabb db23 bd3c 832e fcbd

res2a.conv1.bias f4 [32]
-0.0071432246 0.008808692 -0.06893796 0.0028473616 0.07070312 0.04464843 0.085347734 0.21749009
0.07848159 0.17377599 0.12743255 0.091467775 0.02444437 0.05255392 -0.017617146 0.09016412
0.109373845 0.012315437 0.06591284 -0.0825196 0.0102993585 -0.0907899 0.031518124 -0.1102333
0.0018103264 0.17486246 0.050117414 -0.02157672 0.022456216 -0.03257023 -0.03490057 0.12633531
00000000: b611 eabb 5552 103c 582f 8dbd cd9a 3a3b
00000010: cccc 903d 46e1 363d cbca ae3d b9b5 5e3e
00000020: f5ba a03d 55f2 313e ae7d 023e 7553 bb3d
00000030: 8f3f c83c c742 573d d551 90bc f7a7 b83d
00000040: 65ff df3d b0c6 493c 50fd 863d 0900 a9bd
00000050: a4be 283c 0ef0 b9bd 2619 013d ffc1 e1bd
00000060: 7948 ed3a 250f 333e eb47 4d3d a9c1 b0bc
00000070: 19f6 b73c 5d68 05bd e6f3 0ebd 0b5e 013e
