checkpoints/ppo_academy_run_pass_and_shoot_with_keeper.pth (torch, 719147 bytes, 45 tensors)

conv1.weight f4 [16, 16, 3, 3]
-0.12543888 -0.020838618 -0.09949954 0.01429566 0.108454354 0.13101622 0.06140401 -0.052484993
0.024272153 -0.12312789 -0.06825402 -0.101364195 -0.06950318 -0.0061575836 0.047381077 0.015068421
0.05590063 -0.07059338 0.18967259 0.07722333 0.21026878 0.16753724 0.16137414 0.041479155
0.08181038 0.020349694 0.013292155 -0.04107502 0.08068293 0.02634108 -0.080681115 0.06879706
0.04986416 -0.051913053 0.04279916 0.08978205 -0.119917996 -0.0039146696 0.054310136 -0.025536321
0.04740803 0.012514369 0.076995514 -0.016355047 0.03447239 -0.18866797 -0.14784239 -0.07496863
-0.17953807 0.03761318 -0.12577665 -0.20310415 0.05011321 -0.034879453 0.035706703 0.0077970275
0.113529555 0.20017758 -0.014185745 0.04720241 0.062337775 0.06277616 -0.112301245 0.06697525
-0.0006456433 -0.08426755 0.04433835 0.06335568 0.0548871 0.064485 0.12826005 0.054708526
-0.08339573 0.03573686 -0.10411922 -0.0071597854 0.0011498936 0.037713625 -0.13527314 0.0048408834
0.034479305 -0.035206027 -0.10308512 0.036695972 -0.17477925 -0.0187695 -0.09784177 -0.1731769
-0.09796993 0.048135906 0.18690272 0.029891657 0.025805883 0.05279531 0.1602232 0.14245583
0.09452575 0.15195143 0.058584925 0.06938457 0.029134924 -0.0945034 0.20357735 0.11899305
0.09669469 0.023195747 0.03602528 0.18346693 -0.03741754 -0.13975243 0.06261611 0.039861906
-0.030673599 -0.053993266 -0.0028644854 0.02961046 0.09885975 -0.052290335 0.03918014 0.0030279283
-0.103178754 0.042821508 -0.09834 -0.18973811 -0.06460946 -0.073571116 0.29543805 0.024858069
0.10623056 0.02001572 0.13793722 0.06721193 0.019027065 -0.1684816 0.18877435 -0.0144813815
-0.070736594 -0.042069495 0.14472069 0.09115507 -0.014345333 -0.09685041 0.27349827 0.13613532
-0.048306726 0.113183565 0.049492024 -0.054954823 0.059280686 0.01909471 0.13308729 0.2080839
-0.24682747 -0.1924537 -0.097650856 -0.0063005025 0.054873724 -0.07443611 -0.2599257 0.11579719
-0.012813991 0.17923808 -0.17848362 -0.2581455 0.0048017967 -0.13771944 -0.16658089 -0.0759216
0.033337474 0.06997201 0.0066461787 -0.009762989 -0.035620324 -0.017884515 0.053202767 0.11799173
0.04824394 0.21148285 0.14706361 -0.21109344 -0.18357594 0.012074646 0.014059795 0.014511353
0.13126075 -0.014700868 -0.17033377 0.12456883 -0.083778806 -0.024989959 -0.15415968 -0.18820338
-0.11057639 -0.025742745 0.09326664 -0.059322804 -0.22392741 0.07551201 -0.31635424 0.13433595
-0.12541392 -0.17195335 -0.08926727 -0.17532264 -0.043904748 -0.19355156 -0.2880468 -0.09886782
-0.061847635 0.07867862 -0.029687772 0.099820234 0.034421824 -0.37514856 0.19686997 -0.24576844
-0.049300067 -0.112504296 0.05683748 -0.020076606 -0.0100391675 -0.004537493 -0.020149231 -0.10864185
-0.027883723 -0.022044092 -0.07150609 -0.119260155 -0.01588926 0.07352911 -0.011665365 -0.15994412
0.020679092 0.0010329275 -0.06268144 -0.12765035 -0.034848794 0.093985215 -0.14819323 -0.2464399
-0.18377988 -0.036325496 0.016693925 0.055432484 -0.061072793 -0.049592376 0.11687284 -0.025655752
0.017543826 0.027691802 -0.012528499 -0.18392123 -0.024546467 0.008277721 -0.09714353 -0.079681195
00000000: 0d73 00be c0b5 aabc 6ac6 cbbd 5838 6a3c
00000010: 511d de3d 1e29 063e c582 7b3d 81fa 56bd
00000020: 65d6 c63c 7a2a fcbd c3c8 8bbd 0898 cfbd
00000030: af57 8ebd 8ec5 c9bb a912 423d 8ae1 763c
00000040: 0ff8 643d 4393 90bd 8839 423e 4427 9e3d
00000050: b350 573e e28e 2b3e 433f 253e 0ce6 293d
00000060: 338c a73d 67b4 a63c 57c7 593c 483e 28bd
00000070: 183d a53d 40c9 d73c 243c a5bd 79e5 8c3d
00000080: 5d3e 4c3d c8a2 54bd 2c4e 2f3d a7df b73d
00000090: 9197 f5bd a146 80bb 4e74 5e3d 8c31 d1bc
000000a0: ec2e 423d 1109 4d3c d3af 9d3d 05fb 85bc
000000b0: ec32 0d3d 2d32 41be ff63 17be 2789 99bd
000000c0: d4d8 37be 4710 1a3d 98cb 00be 89fa 4fbe
000000d0: 8243 4d3d c2dd 0ebd 3141 123d 357e ff3b
000000e0: 2f82 e83d 5afb 4c3e 546b 68bc 5057 413d
000000f0: e555 7f3d ca90 803d 32fe e5bd 522a 893d
00000100: 6340 29ba 7794 acbd 219c 353d 9fc0 813d
00000110: 4cd1 603d b610 843d 9a56 033e 0c16 603d
00000120: 61cb aabd d060 123d 753c d5bd a29c eabb
00000130: 07b8 963a 9a79 1a3d 0b85 0abe 46a0 9e3b
00000140: 2c3a 0d3d 3234 10bd 4b1e d3bd 844e 163d
00000150: 55f9 32be 7fc2 99bc 4461 c8bd 4955 31be
00000160: 75a4 c8bd 282a 453d 6d63 3f3e 59df f43c
00000170: dc66 d33c e53f 583d 8d11 243e f1df 113e
00000180: b796 c13d 2899 1b3e bff6 6f3d 7f19 8e3d
00000190: 5dac ee3c 008b c1bd 9576 503e a1b2 f33d
000001a0: de07 c63d 0205 be3c 3e8f 133d c1de 3b3e
000001b0: 2243 19bd 431b 0fbe e03c 803d 3d46 233d
000001c0: 3347 fbbc 0b28 5dbd 17ba 3bbb a391 f23c
000001d0: fb76 ca3d 642e 56bd 5b7b 203d 3570 463b
000001e0: 624f d3bd 9b65 2f3d 7b66 c9bd b54a 42be
000001f0: f751 84bd 74ac 96bd a843 973e 26a3 cb3c
00000200: 688f d93d 02f8 a33c 6a3f 0d3e 69a6 893d
00000210: a6de 9b3c 7186 2cbe 104e 413e 5143 6dbc
00000220: 59de 90bd 1051 2cbd a931 143e 82af ba3d
00000230: b008 6bbc 8259 c6bd f707 8c3e 0f67 0b3e
00000240: 46dd 45bd c9cc e73d 26b8 4a3d 4f18 61bd
00000250: 4ed0 723d 826c 9c3c 0948 083e f213 553e
00000260: 57c0 7cbe 9512 45be 2cfd c7bd 7274 cebb
00000270: 45c3 603d f671 98bd fb14 85be 1427 ed3d
00000280: c6f1 51bc 308a 373e 69c4 36be a62b 84be
00000290: 6458 9d3b 5306 0dbe 2e94 2abe c97c 9bbd
000002a0: e08c 083d 7c4d 8f3d 30c8 d93b f2f4 1fbc
000002b0: 9ee6 11bd 8c82 92bc 25eb 593d a6a5 f13d
000002c0: 709b 453d f68e 583e d897 163e e128 58be
000002d0: 55fb 3bbe bcd4 453c 0e5b 663c 07c1 6d3c
000002e0: 3869 063e e9db 70bc fa6b 2ebe f11d ff3d
000002f0: 3994 abbd beb7 ccbc 09dc 1dbe 63b8 40be
00000300: e075 e2bd 73e2 d2bc 9502 bf3d 78fc 72bd
00000310: 3a4d 65be 0aa6 9a3d 2ff9 a1be 5d8f 093e
00000320: 826c 00be 8a14 30be c2d1 b6bd c787 33be
00000330: 77d5 33bd 6132 46be df7a 93be 367b cabd
00000340: f253 7dbd 4222 a13d c533 f3bc 8d6e cc3d
00000350: e6fd 0c3d 7913 c0be 4898 493e b9aa 7bbe
00000360: deee 49bd a768 e6bd 6bce 683d b277 a4bc
00000370: 527b 24bc 40af 94bb 0010 a5bc 9e7f debd
00000380: 686c e4bc d095 b4bc c971 92bd ab3e f4bd
00000390: 322a 82bc 6e96 963d 1620 3fbc 64c8 23be
000003a0: 3367 a93c 4c63 873a 205f 80bd c6b6 02be
000003b0: 9cbd 0ebd 527b c03d f7bf 17be be5a 7cbe
000003c0: cb30 3cbe 0bca 14bd b3c1 883c 2c0d 633d
000003d0: 7727 7abd 6021 4bbd 075b ef3d 032c d2bc
000003e0: 12b8 8f3c ebd9 e23c 5544 4dbc d955 3cbe
000003f0: ac15 c9bc 479f 073c 30f3 c6bd e52f a3bd

conv1.bias f4 [16]
-0.004566634 0.0067941262 -0.040955257 -0.088993266 -0.07000765 -0.0031027782 -0.014098247 -0.017812107
-0.041304495 -0.02324408 -0.009515748 -0.016417693 -0.02277055 -0.001806462 0.023373706 -0.072665
00000000: b4a3 95bb 43a1 de3b b3c0 27bd 1a42 b6bd
00000010: 2c60 8fbd fb57 4bbb 55fc 66bc b2ea 91bc
00000020: e72e 29bd 5e6a bebc f1e7 1bbc 667e 86bc
00000030: 4e89 babc cec6 ecba 377a bf3c 63d1 94bd

res1a.conv1.weight f4 [16, 16, 3, 3]
-0.018305162 0.1249892 0.09900369 0.0011069581 0.043443725 -0.03291514 0.031354357 0.06532918
-0.054930218 -0.09351445 -0.0009178927 -0.08017007 -0.11216149 -0.1000424 0.03877022 -0.081971936
-0.018098215 0.10981097 -0.043920968 0.0753995 -0.039090518 -0.013583839 0.0390664 0.0027726295
-0.10468835 0.028290251 -0.11434454 -0.2442426 0.08110943 0.1962822 -0.06433762 0.12766244
0.0039818394 0.14964817 0.03556638 0.07060893 -0.009576079 0.09800987 0.09057871 0.0039174813
-0.02380437 -0.011597447 0.062120527 -0.059339162 0.016365917 0.017634662 0.036005665 -0.15300977
-0.014563672 -0.1461243 -0.02343449 -0.029588554 -0.17800547 -0.15119416 -0.058033712 0.030290928
0.065947376 -0.16416527 -0.1139365 0.05269199 -0.048844587 0.032792345 0.11884667 0.057339635
0.072567984 -0.057939257 -0.0019364994 -0.16614288 -0.16651611 -0.040123448 -0.018599112 0.030520044
-0.07974364 -0.09913078 0.051554292 -0.09719853 -0.097350195 -0.047142077 -0.068543054 -0.07868849
-0.0011844429 0.024478428 0.07926957 0.012546048 -0.010891279 0.03777388 -0.0042210184 -0.12349116
0.05126712 0.065182105 -0.017410794 0.08268207 -0.057329226 -0.030537844 0.017305402 0.00803707
-0.00031278873 -0.023223622 -0.10721073 -0.08509203 -0.07629797 0.03163425 -0.063068084 -0.19053096
-0.103614345 -0.0029455915 0.023468716 0.025748344 0.052717492 0.014666118 0.058975026 0.033774335
0.05119256 0.040434137 -0.0067842402 -0.005059164 0.09128369 0.07015777 0.06975905 0.03300348
-0.062378645 0.025919892 -0.069560535 -0.045776904 -0.022791354 -0.019398173 -0.13094187 0.025391398
-0.018650748 -0.18358456 -0.07190075 0.07931768 -0.009863526 -0.009837805 -0.040771015 0.07311555
0.027699424 0.101283 0.018666878 -0.033507574 0.044777762 0.054876696 0.0358335 -0.21193878
-0.016166441 0.08734008 0.04071029 -0.08321457 0.037354495 0.019042628 0.079677664 0.011364994
-0.117587365 -0.047534935 0.080015756 0.10894062 -0.029828332 -0.074261524 -0.1356751 0.014764713
-0.13907124 -0.086942285 0.016926754 -0.038028196 -0.18096414 -0.10262069 -0.032886654 0.030971438
-0.14838614 -0.1631675 -0.02494614 0.044476878 0.070268735 0.033426832 0.11291651 -0.052258193
0.03797993 -0.16682228 0.07594872 -0.1753211 0.12239118 -0.049314197 0.07893713 0.1633284
0.03315253 0.1029355 0.14807676 0.13847461 0.13555329 -0.077771254 -0.039480202 -0.1510203
-0.051958717 -0.024275018 -0.025706518 0.034561105 -0.09413291 -0.009553286 0.04170271 -0.048968866
-0.0073944503 0.16036843 0.005501867 -0.14315668 -0.12780602 0.044902094 0.020802505 -0.1324782
-0.027938498 0.011438639 -0.012761821 -0.087219805 -0.046643645 -0.12635507 -0.25138658 -0.14386906
-0.007519839 0.1602827 -0.15984143 0.0799353 0.08071143 0.053569738 -0.16948864 0.064123325
0.055601135 0.046621487 0.0919743 -0.062629886 0.041335605 0.022522412 0.006986584 -0.0005003717
-0.15150337 -0.052749123 -0.08696157 -0.023286566 0.02874882 -0.09437429 0.036667936 0.07018871
-0.08899491 -0.14385551 0.004142297 0.03810674 0.19268392 0.10999339 0.08278175 0.11674332
-0.015098946 -0.13655952 -0.11455858 -0.09192827 -0.10695055 -0.0889946 0.045250345 -0.035400912
00000000: b5f4 95bc 56fa ff3d 72c2 ca3d 5a17 913a
00000010: 0cf2 313d 07d2 06bd 6d6d 003d 4ecb 853d
00000020: 82fe 60bd 8184 bfbd bd9e 70ba 3530 a4bd
00000030: ecb4 e5bd 08e3 ccbd 86cd 1e3d e7e0 a7bd
00000040: b542 94bc 93e4 e03d 79e6 33bd 0e6b 9a3d
00000050: 611d 20bd c08e 5ebc 1704 203d 01b5 353b
00000060: d866 d6bd f5c0 e73c 782d eabd bb1a 7abe
00000070: b31c a63d 33fe 483e 71c3 83bd f1b9 023e
00000080: 177a 823b 5f3d 193e 0dae 113d 6a9b 903d
00000090: fde4 1cbc 66b9 c83d 5581 b93d 375e 803b
000000a0: 6201 c3bc 3803 3ebc 1872 7e3d 9f0d 73bd
000000b0: d111 863c 9176 903c ad7a 133d 98ae 1cbe
000000c0: 789c 6ebc 9ca1 15be b0f9 bfbc b263 f2bc
000000d0: 1147 36be a4d2 1abe c2b4 6dbd ae24 f83c
000000e0: 6b0f 873d f11a 28be 8a57 e9bd 8ed3 573d
000000f0: 4311 48bd 4451 063d e265 f33d f7dc 6a3d
00000100: 869e 943d b751 6dbd 23d2 fdba 5c21 2abe
00000110: 3383 2abe 7c58 24bd 2a5d 98bc 2c05 fa3c
00000120: a250 a3bd 1405 cbbd 982a 533d 0610 c7bd
00000130: 8a5f c7bd 0d18 41bd 4d60 8cbd 6e27 a1bd
00000140: 4f3f 9bba fc86 c83c 1658 a23d f08d 4d3c
00000150: 5671 32bc c9b8 1a3d 7850 8abb efe8 fcbd
00000160: 79fd 513d 327e 853d 15a1 8ebc 3855 a93d
00000170: 0dd2 6abd 802a fabc 0fc4 8d3c eaad 033c
00000180: cbfd a3b9 773f bebc 4d91 dbbd bb44 aebd
00000190: 1c42 9cbd ea92 013d d729 81bd 8c1a 43be
000001a0: c233 d4bd d30a 41bb 7741 c03c 31ee d23c
000001b0: 4cee 573d 284a 703c cc8f 713d f556 0a3d
000001c0: 4aaf 513d 449e 253d 554e debb 58c7 a5bb
000001d0: f1f2 ba3d e0ae 8f3d d5dd 8e3d a82e 073d
000001e0: c080 7fbd f455 d43c c175 8ebd 9080 3bbd
000001f0: efb4 babc ebe8 9ebc a015 06be 9f01 d03c
00000200: 74c9 98bc 97fd 3bbe b340 93bd 4f71 a23d
00000210: a09a 21bc bf2e 21bc 82ff 26bd 9bbd 953d
00000220: e7e9 e23c 766d cf3d 48eb 983c 3d3f 09bd
00000230: e368 373d 63c6 603d 26c6 123d 7b06 59be
00000240: 7c6f 84bc 5bdf b23d d5bf 263d 676c aabd
00000250: 0701 193d 49ff 9b3c 0b2e a33d 3d34 3a3c
00000260: a5d1 f0bd feb3 42bd 4ddf a33d 431c df3d
00000270: 8c5a f4bc 6d16 98bd 6aee 0abe b2e7 713c
00000280: b168 0ebe cc0e b2bd faa9 8a3c 74c3 1bbd
00000290: aa4e 39be cc2a d2bd 28b4 06bd d0b7 fd3c
000002a0: 89f2 17be 6215 27be d95b ccbc 632d 363d
000002b0: 0ee9 8f3d 93ea 083d c540 e73d b00c 56bd
000002c0: d890 1b3d 76d3 2abe 018b 9b3d 6087 33be
000002d0: 3aa8 fa3d affd 49bd caa9 a13d 8f3f 273e
000002e0: f3ca 073d d9cf d23d 6fa1 173e 4acc 0d3e
000002f0: 7bce 0a3e 8946 9fbd feb5 21bd 11a5 1abe
00000300: aad2 54bd 67dc c6bc 7a96 d2bc f28f 0d3d
00000310: c1c8 c0bd 6385 1cbc 76d0 2a3d 9493 48bd
00000320: 254d f2bb 9f37 243e 0149 b43b aa97 12be
00000330: 95df 02be 42eb 373d 046a aa3c 5ea8 07be
00000340: 47df e4bc 2169 3b3c f516 51bc 4ca0 b2bd
00000350: 680d 3fbd 3963 01be beb5 80be 6952 13be
00000360: fb68 f6bb 2621 243e 79ad 23be 1eb5 a33d
00000370: 094c a53d f16b 5b3d 6e8e 2dbe 1753 833d
00000380: 04be 633d 2cf6 3e3d 065d bc3d 1944 80bd
00000390: 864f 293d ec80 b83c b7ef e43b 602b 03ba
000003a0: b323 1bbe 770f 58bd e818 b2bd 78c3 bebc
000003b0: a582 eb3c 4f47 c1bd 1e31 163d 19bf 8f3d
000003c0: f742 b6bd dc4e 13be 1bbc 873b d015 1c3d
000003d0: ef4e 453e 3744 e13d 7a89 a93d 1f17 ef3d
000003e0: 9261 77bc 42d6 0bbe b09d eabd e444 bcbd
000003f0: e408 dbbd cd42 b6bd 6d58 393d 8c00 11bd

res1a.conv1.bias f4 [16]
0.005802794 -0.024734167 -0.0732914 0.088451974 0.0808782 -0.10478713 0.02758609 0.04906346
0.040353224 -0.07029 -0.033711273 -0.10876152 -0.07594128 -0.015849793 0.029205626 0.0849603
00000000: 5d25 be3b 4f9f cabc cd19 96bd 4f26 b53d
00000010: 78a3 a53d a39a d6bd 39fc e13c c4f6 483d
00000020: 6c49 253d 34f4 8fbd d514 0abd 5cbe debd
00000030: 1a87 9bbd 6dd7 81bc a340 ef3c aaff ad3d

res1a.conv2.weight f4 [16, 16, 3, 3]
0.03743053 0.0149091575 -0.05666648 -0.14907436 -0.105713256 -0.101805694 0.06936809 -0.057920776
-0.12279752 0.12253504 -0.03625427 -0.1591102 0.049055547 0.012654763 -0.0051338705 -0.082687855
0.045247238 -0.01671988 0.072875746 -0.17180757 0.028771576 -0.13168794 -0.12219902 0.1379954
0.035519145 -0.07304218 0.09316246 -0.14216681 0.08138154 0.057801787 0.051696252 0.029632159
0.11050708 0.019562365 -0.13966966 -0.04312933 0.0025035879 -0.0012112763 -0.10824613 0.029227315
-0.09967418 0.10427946 0.04961436 -0.10238844 0.19419077 -0.0017922872 -0.00081347505 -0.0095412955
-0.0399598 0.029842336 -0.08046244 -0.025187109 0.016780071 0.039605554 0.062413603 0.034682494
0.097572364 0.04952809 0.06779481 0.021512559 0.088124305 -0.05543081 0.0011044596 0.06246614
0.053501755 -0.030655775 -0.069257505 -0.0075135273 0.058980744 -0.07189561 0.05084234 -0.007556426
-0.0017946736 0.060505122 -0.15796006 -0.017671136 0.04186134 0.003966254 0.06255946 -0.029175118
0.0927085 -0.04721418 0.0058179884 -0.043465577 -0.04119921 0.06937639 0.03353203 0.07942035
0.008937311 0.036001936 -0.074614085 0.012240676 0.06595786 -0.12883791 -0.0313685 0.036668904
0.03700947 -0.03610442 0.11822927 -0.06309458 -0.11381176 0.039766904 0.2403633 0.14713116
0.15145437 0.12211618 0.059690073 0.020699672 0.0052654147 -0.017238336 -0.07379576 -0.014709619
-0.057350844 0.054963253 0.073070884 -8.539272e-05 0.07041019 -0.039603475 -0.11194846 0.014987393
-0.027007552 -0.14362417 -0.17303623 -0.02329884 -0.058174144 -0.03107701 0.08377784 0.06471564
-0.06609147 -0.08112172 -0.07119512 0.019180866 0.027263917 0.0643434 0.15370773 -0.05680948
0.12330002 -0.027681785 -0.13695692 0.12992907 -0.0019239015 -0.029132163 -0.09023571 -0.1070192
0.03096156 -0.076731645 0.1311583 0.037834607 -0.052040916 0.055641655 0.05629665 -0.1194481
-0.051281676 -0.055829477 -0.010054789 -0.20599265 0.017894411 -0.020653086 -0.0823077 -0.0054569333
-0.026227592 -0.04462723 -0.08233375 0.11370213 0.12306711 -0.03413196 0.061987996 0.09793206
0.007106139 -0.12142294 0.06739915 0.03962263 0.07470176 0.02167783 0.07281948 0.04518064
-0.049156766 0.06448337 -0.008812102 0.04305276 -0.08838172 -0.093378 0.012649106 -0.089705914
-0.1339089 0.037436802 0.020113667 -0.074929185 0.028126486 -0.028685689 0.0030768549 0.08962139
-0.036439646 -0.07645626 0.1779256 -0.04085592 0.0020483506 0.11260335 0.072424896 -0.059254766
0.01286501 0.0043830113 0.05813566 0.0056157787 0.1354683 -0.0446489 0.022958348 0.039091863
-0.02902784 0.0077138315 -0.080621116 -0.016539333 0.07772982 -0.010678967 -0.064886115 0.021798056
-0.002504909 0.025051994 -0.09672712 0.009465729 -0.01604583 0.002737312 0.123451196 0.020581217
0.10393379 0.024640178 -0.03356478 0.024570033 -0.0030987302 -0.039874177 0.12622751 -0.026300875
0.010014036 0.056234527 -0.02798432 -0.056452658 0.07622432 0.0015806353 -0.02865315 0.11887619
0.036708165 0.03451543 0.067160256 -0.062038288 0.030820737 -0.03912375 -0.016184209 0.017173419
-0.00034953014 -0.10043857 -0.0026507215 -0.10951786 0.023326715 -0.0071322867 -0.06680264 -0.106168516
00000000: c150 193d 8a45 743c 1c1b 68bd f3a6 18be
00000010: 3180 d8bd 817f d0bd db10 8e3d 563e 6dbd
00000020: 447d fbbd a7f3 fa3d 5b7f 14bd c9ed 22be
00000030: 78ee 483d ec55 4f3c 073a a8bb 4058 a9bd
00000040: 2b55 393d 21f8 88bc e13f 953d 53ee 2fbe
00000050: 5eb2 eb3c 34d9 06be 7b43 fabd ab4e 0d3e
00000060: 867c 113d 2397 95bd f6cb be3d 2d94 11be
00000070: 5dab a63d 91c1 6c3d 73bf 533d 24bf f23c
00000080: 8951 e23d 4141 a03c 9005 0fbe 61a8 30bd
00000090: 3c13 243b b0c3 9eba 26b0 ddbd 1f6e ef3c
000000a0: fa21 ccbd 7890 d53d 6d38 4b3d 08b1 d1bd
000000b0: f2d9 463e 2eeb eaba 633f 55ba 1853 1cbc
000000c0: e3ac 23bd ea77 f43c 7ec9 a4bd 3255 cebc
000000d0: 5c76 893c 6f39 223d 68a5 7f3d 3b0f 0e3d
000000e0: 05d4 c73d f7dd 4a3d 01d8 8a3d 1b3b b03c
000000f0: 847a b43d 6b0b 63bd 84c3 903a 7fdc 7f3d
00000100: a824 5b3d d221 fbbc e1d6 8dbd 0934 f6bb
00000110: cb95 713d 013e 93bd 0f40 503d e59b f7bb
00000120: 413b ebba 38d4 773d 48c0 21be 0fc3 90bc
00000130: cc76 2b3d 5af7 813b 2d1f 803d a800 efbc
00000140: f4dd bd3d a863 41bd d3a4 be3b f608 32bd
00000150: 81c0 28bd 3515 8e3d e258 093d 23a7 a23d
00000160: cd6d 123c c476 133d 45cf 98bd 1e8d 483c
00000170: ea14 873d 16ee 03be 427c 00bd 2232 163d
00000180: 3e97 173d 3ae2 13bd 3022 f23d bb37 81bd
00000190: 2416 e9bd 9fe2 223d cc21 763e 8da9 163e
000001a0: db16 1b3e 0c18 fa3d 947d 743d 5c92 a93c
000001b0: 8089 ac3b 6937 8dbc 3b22 97bd 9d00 71bc
000001c0: b8e8 6abd 2621 613d 30a6 953d de14 b3b8
000001d0: 3833 903d 4137 22bd 3c45 e5bd af8d 753c
000001e0: f13e ddbc 3712 13be 6930 31be 35dd bebc
000001f0: 0348 6ebd 3795 febc b793 ab3d a289 843d
00000200: f75a 87bd 2523 a6bd bfce 91bd 3121 9d3c
00000210: 9458 df3c 79c6 833d 8f65 1d3e 0fb1 68bd
00000220: b984 fc3d e9c4 e2bc 6f3e 0cbe 200c 053e
00000230: 6c2b fcba 93a6 eebc 80cd b8bd e22c dbbd
00000240: 19a3 fd3c 7b25 9dbd 5d4e 063e 76f8 1a3d
00000250: db28 55bd 81e8 633d 5197 663d 35a1 f4bd
00000260: bc0c 52bd 73ad 64bd d7bc 24bc bdef 52be
00000270: 4d97 923c a930 a9bc f090 a8bd 13d0 b2bb
00000280: 3fdb d6bc 0bcb 36bd 999e a8bd aadc e83d
00000290: 9c0a fc3d f4cd 0bbd 20e7 7d3d 9b90 c83d
000002a0: 9dda e83b 97ac f8bd 9108 8a3d 574b 223d
000002b0: 3dfd 983d b495 b13c 6122 953d 560f 393d
000002c0: 9b58 49bd db0f 843d a260 10bc 1758 303d
000002d0: 7a01 b5bd f73c bfbd 323e 4f3c bcb7 b7bd
000002e0: 6a1f 09be 5557 193d 6bc5 a43c 7974 99bd
000002f0: 8469 e63c 40fe eabc 0fa5 493b 6b8b b73d
00000300: bd41 15bd 1a95 9cbd 2132 363e 8a58 27bd
00000310: 9f3d 063b 969c e63d 8153 943d 20b5 72bd
00000320: c3c7 523c 5d9f 8f3b a81f 6e3d 9104 b83b
00000330: 34b8 0a3e c4e1 36bd 2513 bc3c ca1e 203d
00000340: cbcb edbc 4fc4 fc3b af1c a5bd 7f7d 87bc
00000350: d030 9f3d d6f6 2ebc 03e3 84bd d691 b23c
00000360: 6629 24bb d739 cd3c de18 c6bd 2516 1b3c
00000370: 8b72 83bc 7a64 333b fbd3 fc3d f199 a83c
00000380: 3ddb d43d 33da c93c 397b 09bd 1847 c93c
00000390: 1114 4bbb 1b53 23bd c941 013e ef74 d7bc
000003a0: e911 243c 2d56 663d 5f3f e5bc e73a 67bd
000003b0: 7f1b 9c3d 522d cf3a 03ba eabc 5c75 f33d
000003c0: 4d5b 163d 0d60 0d3d 518b 893d dc1b 7ebd
000003d0: c57b fc3c 3a40 20bd bf94 84bc 45af 8c3c
000003e0: 2441 b7b9 bdb2 cdbd bab7 2dbb e64a e0bd
000003f0: ab17 bf3c f5b5 e9bb d3cf 88bd e16e d9bd

res1a.conv2.bias f4 [16]
0.025962286 0.0007040819 -0.047287315 -0.0542925 -0.015843103 -0.014952359 -0.049279723 0.015409389
-0.0030240812 -0.040379677 0.014209668 -0.021821253 -0.066790506 -0.05219071 0.011182475 -0.020164123
00000000: dcae d43c 2392 383a 58b0 41bd d061 5ebd
00000010: 65c9 81bc bdfa 74bc 89d9 49bd a977 7c3c
00000020: aa2f 46bb 2965 25bd abcf 683c 7cc2 b2bc
00000030: 76c9 88bd edc5 55bd b336 373c 3b2f a5bc

res1b.conv1.weight f4 [16, 16, 3, 3]
0.09929646 -0.015248666 -0.04714276 -0.0077538947 -0.038459964 0.053405683 -0.10236702 -0.084809884
-0.20960742 0.13579278 0.10279976 -0.00581026 0.09111388 0.00493744 0.1753204 0.13436225
0.017328093 -0.0029081577 0.10921077 -0.004565783 0.070349365 -0.2897852 -0.1300836 0.037332147
0.03905532 0.06109082 0.10734089 -0.005973787 0.11503688 0.12372751 -0.07754273 0.1980028
0.2020451 -0.0013299532 0.0020711906 0.12640043 -0.20431326 -0.13223879 0.0063369325 -0.09149849
-0.13573359 -0.19895287 0.09736277 -0.17128032 -0.2794545 -0.08277134 -0.07849293 0.044394735
0.051061433 -0.06195746 0.02525163 0.1687949 0.06793792 -0.014213573 -0.17225432 0.027505208
-0.0034371181 0.12669179 0.12756097 0.04043115 -0.06571396 0.041210633 0.032623116 0.00591873
0.043660816 -0.00128707 0.100631535 -0.029105062 0.012085762 0.0664848 -0.087327294 -0.08636055
-0.011052027 -0.2876878 -0.05421528 -0.035675313 0.1689172 0.008386267 -0.2868169 -0.11545727
0.13868903 -0.020307293 0.07394773 0.10295464 -0.04832186 0.121457346 0.08433836 0.010697648
0.051066916 0.1151921 0.0575707 -0.020854475 -0.055650745 -0.07908357 0.017035875 -0.11978881
0.05933756 0.0029675455 0.08893194 -0.01914478 0.0071060546 -0.04581292 -0.004046925 0.15966487
-0.014466958 0.0029397171 0.0561594 -0.005327037 0.23318863 0.27525595 -0.04611259 0.017871808
-0.022951717 -0.2674597 -0.06326869 -0.071595244 0.0060088746 -0.025787335 -0.017365003 -0.08894091
0.13439834 0.09159061 -0.04947374 0.1495996 0.013907886 0.073479235 0.23170012 0.12672111
-0.023096126 0.026889628 0.013838333 0.044884946 -0.1633883 -0.0790222 0.1661558 -0.191568
0.015669007 0.076358646 -0.07398827 -0.107732706 0.0113136815 0.00634775 0.020487214 -0.06940127
-0.090877794 0.03263386 0.053066235 -0.09796165 -0.05804435 -0.07983605 -0.08499893 -0.08378747
-0.008095266 0.011829742 -0.053570542 0.042760815 -0.10259975 0.012792117 0.039886713 0.02379604
0.038550597 0.00654234 -0.056237917 -8.281079e-05 0.026842479 -0.010072106 0.020688763 -0.034871664
-0.030759986 -0.035926655 0.009431377 -0.08462811 -0.060246073 -0.06687489 0.062544815 0.05444062
0.06461464 -0.009385619 0.045875337 -0.063044034 0.040329807 0.059902165 0.010766183 -0.06453205
-0.008235141 0.0060384874 -0.042261105 -0.061164208 -0.08693687 0.006702223 0.06009962 -0.028289877
0.016695878 -0.062212832 -0.057509646 -0.063703425 -0.07884122 -0.08740232 0.047455065 -0.014403483
0.051040716 0.04235972 -0.04348965 -0.016045656 0.049118936 -0.062164158 0.02707494 -0.05790789
-0.06734452 0.02023594 -0.00490154 0.057054076 -0.029655365 -0.02847902 0.045053996 -0.0017505729
-0.016604956 0.069089025 -0.07473179 0.06331516 -0.015047318 -0.06306022 -0.024808275 -0.08357309
-0.08393658 -0.06443656 -0.030525768 -0.06157316 -0.059618615 -0.06904535 -0.065051526 -0.0888822
-0.018566541 -0.003145752 -0.09475185 -0.054515462 -0.08702129 -0.014304576 -0.0020819888 -0.07520581
-0.0013518928 -0.04665558 -0.06997786 -0.08390388 0.056767542 -0.03104677 -0.08093717 -0.090023585
-0.06776497 0.032687277 -0.055921994 -0.03455698 -0.045928102 0.04941094 0.04168293 -0.027400052
00000000: f15b cb3d 8ad5 79bc c418 41bd 6214 febb
00000010: 3288 1dbd ebbf 5a3d cda5 d1bd ceb0 adbd
00000020: 54a3 56be 430d 0b3e ae88 d23d fe63 bebb
00000030: ea99 ba3d 40ca a13b 3187 333e 4296 093e
00000040: a5f3 8d3c ca96 3ebb e5a9 df3d 909c 95bb
00000050: 5413 903d ba5e 94be a334 05be 98e9 183d
00000060: 79f8 1f3d 5e3a 7a3d 8ad5 db3d c2bf c3bb
00000070: 7598 eb3d d964 fd3d b9ce 9ebd 3fc1 4a3e
00000080: e9e4 4e3e d351 aeba d0bc 073b 1d6f 013e
00000090: 7f37 51be 9b69 07be 0ba6 cf3b 8f63 bbbd
000000a0: bffd 0abe 4dba 4bbe 2266 c73d 1c64 2fbe
000000b0: a914 8fbe 0584 a9bd e7c0 a0bd 41d7 353d
000000c0: cb25 513d 1bc7 7dbd 82dc ce3c 92d8 2c3e
000000d0: 0923 8b3d 0ce0 68bc 7063 30be 9a52 e13c
000000e0: 4641 61bb 7ebb 013e 589f 023e 229b 253d
000000f0: 0a95 86bd 7bcc 283d d19f 053d e8f1 c13b
00000100: afd5 323d e7b2 a8ba e817 ce3d bd6d eebc
00000110: 5c03 463c 2f29 883d a7d8 b2bd cddd b0bd
00000120: 9013 35bc d14b 93be d710 5ebd 4720 12bd
00000130: a1f8 2c3e 8e66 093c aad9 92be dc74 ecbd
00000140: 7f04 0e3e 7b5b a6bc e871 973d e2d9 d23d
00000150: 25ed 45bd a1be f83d 97b9 ac3d 3045 2f3c
00000160: 8b2b 513d d6e9 eb3d 41cf 6b3d 01d7 aabc
00000170: 09f2 63bd 91f6 a1bd d28e 8b3c d653 f5bd
00000180: f10b 733d 277b 423b f321 b63d 83d5 9cbc
00000190: e8d9 e83b 54a6 3bbd 119c 84bb 307f 233e
000001a0: d206 6dbc 45a8 403b 6607 663d 6d8e aebb
000001b0: 00c9 6e3e 59ee 8c3e 8ee0 3cbd e667 923c
000001c0: 3d05 bcbc 7af0 88be 0493 81bd 87a0 92bd
000001d0: 18e6 c43b f63f d3bc 0d41 8ebc a726 b6bd
000001e0: b89f 093e dc93 bb3d faa4 4abd a330 193e
000001f0: e7dd 633c 487c 963d cc42 6d3e 2ec3 013e
00000200: 1634 bdbc a347 dc3c 2dba 623c 47d9 373d
00000210: 434f 27be 64d6 a1bd bf24 2a3e 672a 44be
00000220: 4a5c 803c ec61 9c3d 2987 97bd f7a2 dcbd
00000230: 055d 393c c900 d03b cdd4 a73c 4122 8ebd
00000240: 231e babd 15ab 053d fb5b 593d 1ea0 c8bd
00000250: eabf 6dbd 1581 a3bd eb13 aebd c498 abbd
00000260: 02a2 04bc 89d1 413c c96c 5bbd f725 2f3d
00000270: d11f d2bd 0796 513c 4060 233d eaef c23c
00000280: 3be7 1d3d 2061 d63b bb59 66bd b4aa adb8
00000290: c2e4 db3c 7905 25bc 7b7b a93c 97d5 0ebd
000002a0: 5efc fbbc d427 13bd 1086 1a3c 8151 adbd
000002b0: 96c4 76bd b4f5 88bd 7f17 803d 21fd 5e3d
000002c0: ae54 843d 24c6 19bc c7e7 3b3d 3b1d 81bd
000002d0: de30 253d f95b 753d a564 303c 6129 84bd
000002e0: afec 06bc 81de c53b fb19 2dbd 5287 7abd
000002f0: f50b b2bd 529e db3b 052b 763d 2cc0 e7bc
00000300: cbc5 883c e2d2 7ebd 3c8f 6bbd f176 82bd
00000310: 8177 a1bd fdff b2bd 3e60 423d 96fc 6bbc
00000320: 1210 513d 6381 2d3d 3422 32bd 2e72 83bc
00000330: f030 493d d89f 7ebd 44cc dd3c d330 6dbd
00000340: eceb 89bd d8c5 a53c 199d a0bb 89b1 693d
00000350: cfef f2bc d54c e9bc 8a8a 383d 7b73 e5ba
00000360: 1e07 88bc 8c7e 8d3d fb0c 99bd 61ab 813d
00000370: 0789 76bc b725 81bd b93a cbbc 5e28 abbd
00000380: f1e6 abbd 51f7 83bd 2d11 fabc 2334 7cbd
00000390: a632 74bd a667 8dbd bc39 85bd df07 b6bd
000003a0: dc18 98bc f628 4ebb 420d c2bd 9b4b 5fbd
000003b0: 3838 b2bd be5d 6abc fa71 08bb 8105 9abd
000003c0: ff31 b1ba ec19 3fbd 8d50 8fbd ccd5 abbd
000003d0: 1585 683d cc55 febc 63c2 a5bd 495e b8bd
000003e0: 5cc8 8abd 18e3 053d 760e 65bd 9f8b 0dbd
000003f0: 1b1f 3cbd 2063 4a3d b8bb 2a3d 1376 e0bc

res1b.conv1.bias f4 [16]
-0.04889392 -0.068889394 0.08873151 0.058989808 -0.096607246 -0.09905998 0.017145306 -0.04070612
-0.007456408 -0.13346095 -0.04605865 -0.06017508 0.045060802 0.04943048 -0.07738341 0.047499362
00000000: fe44 48bd e215 8dbd deb8 b53d 4c9f 713d
00000010: 05da c5bd f5df cabd 5074 8c3c 76bb 26bd
00000020: e254 f4bb fda9 08be ffa7 3cbd 257a 76bd
00000030: ad91 383d 9d77 4a3d 317b 9ebd b18e 423d

res1b.conv2.weight f4 [16, 16, 3, 3]
-0.110614 0.03165403 -0.053674545 -0.06785443 0.046961978 0.09834249 0.00065634714 -0.09530034
0.003562199 0.084568486 -0.063418515 0.013411851 -0.0041787215 0.053918242 -0.057722088 -0.09854715
-0.021025538 0.057913445 -0.0483723 0.0650619 -0.10483088 -0.030699227 0.003086568 0.119023375
0.051491935 -0.009355308 0.097925596 0.059518807 -0.012897442 0.091870114 -0.06565406 0.014899355
0.035332453 0.06886057 0.06573396 0.015619948 -0.058715194 -0.04739355 0.0045913975 -0.028156204
-0.004486922 -0.06986759 0.036509365 0.18103462 0.02393316 0.06382106 -0.033043027 -0.021939814
0.028844729 0.022975752 0.2077622 -0.059486102 -0.1015532 0.090338744 0.09619425 0.05317728
0.16263875 -0.09031833 0.06276984 0.09937801 0.057467233 -0.011967402 -0.09939526 -0.04712117
0.059089858 -0.14147477 0.05661628 -0.043625478 -0.020991463 0.06985369 0.006205625 -0.14111432
-0.059435107 -0.15020002 0.006954793 -0.06264782 0.026050821 0.107661225 -0.06124159 0.037801467
0.02805996 -0.10303783 -0.059429333 -0.052633002 -0.05596162 0.12500894 -0.053390134 -0.12750609
0.08383062 0.02384537 -0.03718673 -0.022659969 0.0033259788 -0.12839271 0.023690753 -0.11672579
0.09392619 0.10240589 0.050471745 0.14109606 -0.060135256 0.027626028 0.05816642 -0.0010983701
-0.033104923 0.08453471 -0.04035719 0.08098121 0.047411848 -0.0798477 0.07831128 -0.08847654
0.029200494 -0.034267705 0.017495524 0.00018419878 0.006466328 -0.02284393 0.055280693 0.12393341
-0.05068188 0.0638281 -0.06618433 -0.030110467 -0.053458236 -0.036171723 -0.09164343 -0.048255924
0.0035704002 0.05182076 0.060576618 -0.13280812 0.027553944 -0.037357993 -0.05653055 0.04531613
-0.11116591 -0.0039262883 -0.038171936 -0.054249775 0.097798124 0.07217786 0.088289216 -0.003542123
-0.0756701 0.04428918 -0.038510453 0.0743494 0.13751636 -0.0978308 -0.041839935 -0.17482682
-0.010604321 0.06151836 -0.06398679 0.06753597 -0.066805065 -0.0088499375 0.025465855 0.012931715
-0.015774 -0.025098179 -0.0071883467 -0.08163536 0.112031944 0.052084234 0.01522658 0.11339364
-0.019081384 -0.14265431 -0.13572775 -0.0760749 -0.039227284 0.017087486 -0.041742302 -0.065318525
0.08537154 0.044383265 -0.03627365 0.08399391 -0.065683134 0.017538685 -0.11632606 0.0665473
-0.07941531 0.04031044 0.09555149 -0.1354923 0.03675195 0.046581045 -0.082330845 -0.02718049
0.1068383 -0.088914685 -0.06012813 0.13726522 -0.081166625 -0.015981678 -0.017385878 0.028767692
0.0066156643 0.11842491 0.018621482 -0.14217362 -0.035973698 -0.12244318 0.23367165 -0.03260185
-0.015062866 -0.061197724 0.08900307 -0.02172563 0.05476612 0.08705234 -0.094695956 0.11134285
-0.101967596 0.06378441 -0.06074106 -0.034691554 0.015288581 0.04851399 -0.0847437 -0.025642782
0.066349454 -0.021644115 -0.0834542 0.019867938 0.060022242 -0.032678213 0.02480237 0.14437537
-0.07519709 -0.065325424 0.09904647 0.09592041 -0.05622014 -0.1714312 -0.09167097 0.12241687
-0.09829007 0.12896292 0.052016757 -0.047705013 -0.010722227 0.027050085 -0.094272204 0.10687846
0.009899012 -0.09293383 -0.13815655 0.006779614 0.19098379 -0.07527154 0.0043888553 0.03827965
00000000: 9889 e2bd a8a7 013d d7d9 5bbd 43f7 8abd
00000010: 345b 403d ca67 c93d b60e 2c3a d32c c3bd
00000020: c873 693b 3e32 ad3d 91e1 81bd 61bd 5b3c
00000030: a8ed 88bb 60d9 5c3d ff6d 6cbd 17d3 c9bd
00000040: c03d acbc a636 6d3d 0822 46bd 2c3f 853d
00000050: 93b1 d6bd f27c fbbc 0548 4a3b 87c2 f33d
00000060: 35e9 523d 0147 19bc 378d c83d fec9 733d
00000070: cb4f 53bc 6626 bc3d a375 86bd 6d1c 743c
00000080: c3b8 103d c506 8d3d 879f 863d cfea 7f3c
00000090: 587f 70bd bd1f 42bd 6f73 963b d7a7 e6bc
000000a0: 0807 93bb bd16 8fbd d88a 153d 2461 393e
000000b0: 790f c43c 9eb4 823d 2058 07bd 20bb b3bc
000000c0: c84b ec3c a537 bc3c 9dbf 543e b3a7 73bd
000000d0: 20fb cfbd 8503 b93d 7e01 c53d 6bd0 593d
000000e0: c68a 263e d1f8 b8bd 798d 803d b386 cb3d
000000f0: c362 6b3d ec12 44bc be8f cbbd 2102 41bd
00000100: 3508 723d c3de 10be 79e6 673d a1b0 32bd
00000110: 4af6 abbc 740f 8f3d 8e58 cb3b 4680 10be
00000120: 3a72 73bd 09ce 19be 08e5 e33b 804d 80bd
00000130: 8868 d53c 7d7d dc3d 76d8 7abd b6d5 1a3d
00000140: 00de e53c 7f05 d3bd 2c6c 73bd b495 57bd
00000150: 0338 65bd 5802 003e 9daf 5abd f590 02be
00000160: 63af ab3d 5e57 c33c 1d51 18bd 66a1 b9bc
00000170: aaf8 593b 6179 03be 1c13 c23c ee0d efbd
00000180: 605c c03d 2eba d13d 76bb 4e3d 7c7b 103e
00000190: 6350 76bd fb4f e23c e93f 6e3d 2ff7 8fba
000001a0: 0799 07bd 8920 ad3d 954d 25bd 7ad9 a53d
000001b0: ed32 423d 3187 a3bd aa61 a03d 3033 b5bd
000001c0: e035 ef3c 4b5c 0cbd c652 8f3c 7c25 4139
000001d0: 7ee3 d33b 3223 bbbc 026e 623d cdd0 fd3d
000001e0: ce97 4fbd 4fb8 823d a68b 87bd 3aaa f6bc
000001f0: 06f7 5abd cd28 14bd 8daf bbbd 01a8 45bd
00000200: 60fd 693b 0142 543d 301f 783d dafe 07be
00000210: cfb8 e13c b204 19bd 948c 67bd 689d 393d
00000220: f4aa e3bd 18a8 80bb 2d5a 1cbd 0335 5ebd
00000230: 624a c83d fcd1 933d fad0 b43d f622 68bb
00000240: edf8 9abd 9268 353d 23bd 1dbd 8044 983d
00000250: 17d1 0c3e 845b c8bd 5a60 2bbd cd05 33be
00000260: bfbd 2dbc adfa 7b3d 820b 83bd 4c50 8a3d
00000270: 18d1 88bd 54ff 10bc c59d d03c 8bdf 533c
00000280: 7a38 81bc b29a cdbc 398c ebbb 7130 a7bd
00000290: 0171 e53d 4756 553d e878 793c ed3a e83d
000002a0: 9050 9cbc f913 12be 37fc 0abe 28cd 9bbd
000002b0: caac 20bd 0efb 8b3c faf9 2abd b8c5 85bd
000002c0: 46d7 ae3d 3acb 353d ae93 14bd 0005 ac3d
000002d0: e184 86bd 4aad 8f3c 5b3c eebd f349 883d
000002e0: 7ea4 a2bd 8f1c 253d 80b0 c33d 7ebe 0abe
000002f0: 3689 163d c4cb 3e3d 139d a8bd 9ea9 debc
00000300: 0ace da3d e718 b6bd ea48 76bd 418f 0c3e
00000310: b03a a6bd 02ec 82bc d46c 8ebc 39aa eb3c
00000320: 37c8 d83b c288 f23d 148c 983c f695 11be
00000330: 2859 13bd 7dc3 fabd 9f47 6f3e 8489 05bd
00000340: 3dca 76bc 77aa 7abd 3e47 b63d f3f9 b1bc
00000350: 7052 603d 7f48 b23d f4ef c1bd b807 e43d
00000360: 63d4 d0bd 67a1 823d 9ecb 78bd bb18 0ebd
00000370: f57c 7a3c 9bb6 463d 1b8e adbd d010 d2bc
00000380: 39e2 873d 004f b1bc 09ea aabd 16c2 a23c
00000390: e2d9 753d 97d9 05bd 572e cb3c 23d7 133e
000003a0: ef00 9abd 56c9 85bd e0d8 ca3d eb71 c43d
000003b0: 1747 66bd a98b 2fbe fdbd bbbd b2b5 fa3d
000003c0: 4e4c c9bd db0e 043e 860f 553d 5566 43bd
000003d0: 48ac 2fbc 2498 dd3c c911 c1bd 18e3 da3d
000003e0: 772f 223c 1854 bebd e978 0dbe 8627 de3b
000003f0: 4191 433e f727 9abd 63d0 8f3b 1fcb 1c3d

res1b.conv2.bias f4 [16]
0.0042720702 0.00439578 -0.07433744 0.03472566 -0.00023097321 0.035509344 0.033683725 0.047770508
-0.032901134 0.023622219 0.0051323506 0.048408203 0.009789967 -0.026408602 0.0029256663 0.025273994
00000000: b9fc 8b3b 7a0a 903b 3a3e 98bd 7e3c 0e3d
00000010: 6631 72b9 3f72 113d f2f7 093d 02ab 433d
00000020: 57c3 06bd 6283 c13c 472d a83b ae47 463d
00000030: 1966 203c da56 d8bc 89bc 3f3b 680b cf3c

conv2.weight f4 [32, 16, 3, 3]
0.07616664 0.006212876 -0.020627914 -0.025941897 -0.08676604 -0.14968044 -0.029387709 -0.05920066
6.771008e-05 -0.051535845 -0.035645377 0.100175805 -0.010044932 -0.11294281 -0.11184401 0.040572513
-0.05442066 0.051847503 0.21184841 0.09494023 -0.10414899 0.03803222 -0.055793248 -0.12885496
0.06056931 0.013501248 0.14407022 -0.039210606 0.00739891 -0.07197097 -0.096335925 -0.05878213
-0.025408776 -0.20869628 -0.008996279 -0.041473057 -0.094688475 -0.116831504 -0.14043309 0.014687145
-0.09100269 0.012450734 -0.088069 -0.0043424144 -0.05287111 -0.10790596 -0.065172575 0.12004693
0.06481663 -0.03905646 0.11988071 -0.0046914136 0.08728447 -0.117405124 0.025112774 -0.26531294
-0.06034085 0.027739756 -0.024362868 0.06437818 0.039637037 0.121309824 -0.015315483 0.025089366
0.13376786 -0.079143986 -0.049890544 0.01679188 -0.15095091 -0.051806256 0.04213076 0.09037541
-0.005481913 -0.17286669 -0.007329454 0.062140174 0.042402726 0.15185139 -0.048946165 -0.0024177528
-0.045830626 -0.15028621 0.003799611 0.029812671 -0.017233357 0.0063443263 0.070686325 -0.08363657
-0.124426864 -0.07371858 0.016281728 -0.03544043 0.031826515 -0.009448078 -0.13000618 -0.0463603
-0.047508195 -0.17035837 -0.044452753 -0.032125104 -0.1542263 0.04091936 0.0031211183 -0.002829577
0.07249949 0.0026187038 0.12528802 -0.007087205 -0.009836188 -0.06318888 -0.096614964 0.05648802
0.03499672 0.029868301 -0.13000992 0.034463253 -0.008857367 -0.077229396 0.005651297 -0.13672434
0.039236657 -0.013331602 0.06834603 -0.06926316 -0.039006546 0.04125798 -0.05699276 0.017508315
0.05654491 -0.0054971115 -0.017892303 -0.14943407 -0.099942245 -0.07227197 0.016337784 -0.0044609345
-0.056853365 -0.06735063 -0.10539251 0.06665164 0.029986624 0.06844378 0.0999427 0.00370018
-0.04391254 0.016396204 0.09442132 -0.12843704 -0.09507208 -0.054619804 0.07138291 0.15653637
0.036705576 0.04174479 -0.052448586 -0.016488675 0.07043007 0.07921141 -0.006740357 -0.055099178
0.013286747 0.018146534 0.07029268 0.07764015 0.074036255 0.089103535 0.03658449 0.05020693
0.15488863 0.0407587 -0.039754666 -0.12647322 -0.0434349 0.024871908 -0.07136991 -0.02838504
-0.14362971 -0.028756931 0.029694237 -0.057255227 -0.15874922 -0.04284833 -0.014343107 -0.0005537893
0.006111862 0.007413234 0.033772256 -0.056175116 0.100640595 0.055861305 -0.03924425 -0.05673353
-0.030345371 -0.06479974 0.032665066 -0.16956729 -0.007891086 0.018648788 0.09060367 -0.04692731
-0.06095234 -0.053622298 -0.11537235 -0.022681102 -0.03217554 -0.018497724 0.045645755 -0.037361395
-0.062427036 -0.050831087 -0.09892361 -0.04103717 -0.11911574 -0.02618902 0.17217472 -0.21314144
0.028226707 -0.10839245 -0.054111417 0.11748795 -0.031583276 0.0062809475 -0.060461655 -0.012164001
0.00034067803 0.012879398 -0.1142578 -0.12635064 0.09260655 0.052700713 0.041091528 -0.034876138
-0.14849778 0.010697251 0.018980702 -0.0032319324 -0.025907336 0.049226988 0.12290095 -0.09375404
0.013729629 -0.029758142 -0.09009692 -0.102888 -0.116098925 0.09040923 -0.05568437 -0.22347502
0.073162936 -0.09688679 0.027496442 0.10205809 0.11178651 0.07458889 0.026818031 0.1127698
00000000: 41fd 9b3d 6295 cb3b dffb a8bc 1a84 d4bc
00000010: 65b2 b1bd d445 19be 7ebe f0bc 647c 72bd
00000020: 93ff 8d38 4017 53bd e300 12bd f928 cd3d
00000030: 8093 24bc 8f4e e7bd 790e e5bd 5d2f 263d
00000040: 33e8 5ebd 0c5e 543d caee 583e 0670 c23d
00000050: 114c d5bd acc7 1b3d 7687 64bd 8ef2 03be
00000060: 8617 783d 5734 5d3c 2587 133e 4d9b 20bd
00000070: 8e72 f23b 8465 93bd c54b c5bd 88c5 70bd
00000080: 1126 d0bc 7ab4 55be 2165 13bc a7df 29bd
00000090: 08ec c1bd 5b45 efbd b1cd 0fbe 5aa2 703c
000000a0: 9e5f babd 2afe 4b3c 855d b4bd d04a 8ebb
000000b0: 618f 58bd cdfd dcbd 3379 85bd 2adb f53d
000000c0: 95be 843d abf9 1fbd 0584 f53d 6eba 99bb
000000d0: 33c2 b23d 1972 f0bd 4eb9 cd3c 19d7 87be
000000e0: f827 77bd 7c3e e33c a394 c7bc b5d8 833d
000000f0: 725a 223d 4971 f83d cbed 7abc 3788 cd3c
00000100: 71fa 083e 3e16 a2bd 075a 4cbd 208f 893c
00000110: e092 1abe cc32 54bd 4e91 2c3d be16 b93d
00000120: 9fa1 b3bb f703 31be eb2b f0bb b286 7e3d
00000130: 7bae 2d3d ee7e 1b3e c67b 48bd 2973 1ebb
00000140: e5b8 3bbd a1e4 19be e502 793b b439 f43c
00000150: f82c 8dbc 11e4 cf3b fec3 903d a649 abbd
00000160: 83d3 febd c4f9 96bd 4261 853c fc29 11bd
00000170: 855c 023d 1dcc 1abc 5720 05be 4ce4 3dbd
00000180: f497 42bd 6d72 2ebe 1714 36bd 9d95 03bd
00000190: 80ed 1dbe 0f9b 273d ad8b 4c3b 6d70 39bb
000001a0: 9d7a 943d 8f9e 2b3b 814b 003e c93b e8bb
000001b0: f627 21bc 2c69 81bd 11de c5bd fb5f 673d
000001c0: b858 0f3d 5eae f43c 5221 05be 5729 0d3d
000001d0: 7d1e 11bc 722a 9ebd 842e b93b 7701 0cbe
000001e0: 9eb6 203d cb6c 5abc 01f9 8b3d d8d9 8dbd
000001f0: 54c5 1fbd 21fe 283d 3e71 69bd 996d 8f3c
00000200: a39b 673d 1d21 b4bb e192 92bc 3f05 19be
00000210: 85ae ccbd 5403 94bd d1d6 853c 082d 92bb
00000220: 13df 68bd 21ef 89bd 07d8 d7bd a880 883d
00000230: 82a6 f53c 412c 8c3d c2ae cc3d b87e 723b
00000240: a3dd 33bd 5551 863c f75f c13d 0085 03be
00000250: 27b5 c2bd 04b9 5fbd 3431 923d 124b 203e
00000260: 9658 163d 96fc 2a3d 54d4 56bd 4213 87bc
00000270: a43d 903d 9739 a23d 36de dcbb adaf 61bd
00000280: a8b0 593c 0aa8 943c 9cf5 8f3d cd01 9f3d
00000290: 52a0 973d ea7b b63d 9ed9 153d c8a5 4d3d
000002a0: 209b 1e3e 98f2 263d cad5 22bd 3282 01be
000002b0: cbe8 31bd 2cc0 cb3c 632a 92bd be87 e8bc
000002c0: ab13 13be a893 ebbc 5441 f33c 7584 6abd
000002d0: 288f 22be bb81 2fbd 5aff 6abc 2c2c 11ba
000002e0: 0446 c83b b7ea f23b c754 0a3d e117 66bd
000002f0: a81c ce3d d3ce 643d 94be 20bd 6b61 68bd
00000300: db96 f8bc bab5 84bd cecb 053d 0ca3 2dbe
00000310: 9d49 01bc 58c5 983c 6b8e b93d da36 40bd
00000320: 29a9 79bd 0ea3 5bbd 5748 ecbd b8cd b9bc
00000330: 80ca 03bd 8a88 97bc 0bf7 3a3d 4308 19bd
00000340: 7eb3 7fbd 4234 50bd 7698 cabd 9716 28bd
00000350: f4f2 f3bd 5b8a d6bc 924e 303e c041 5abe
00000360: b23b e73c dcfc ddbd efa3 5dbd 869d f03d
00000370: 775d 01bd 68d0 cd3b a4a6 77bd 854b 47bc
00000380: 089d b239 1c04 533c feff e9bd 1062 01be
00000390: 81a8 bd3d b4dc 573d 974f 283d 48da 0ebd
000003a0: cd0f 18be 8643 2f3c 6b7d 9b3c d4ce 53bb
000003b0: 9f3b d4bc 3da2 493d 7eb3 fb3d 1e02 c0bd
000003c0: 3df2 603c 59c7 f3bc bc84 b8bd f2b6 d2bd
000003d0: 46c5 edbd 7928 b93d 4b15 64bd a3d6 64be
000003e0: 73d6 953d 956c c6bd 3840 e13c d503 d13d
000003f0: 53f0 e43d 0fc2 983d 7db1 db3c daf3 e63d

conv2.bias f4 [32]
0.043892365 0.032736715 -0.0016632463 -0.07664118 -0.011313565 -0.053730752 -0.04412989 -0.05427483
-0.04332922 -0.019771421 -0.046768826 0.0010209384 -0.0037680224 -0.016851619 -0.05518884 -0.045227308
-0.056321263 -0.008438508 -0.022418715 0.024812026 -0.03100732 -0.0026399584 -0.08611648 -0.02359171
-0.038769536 -0.045957617 -0.09268636 0.014506473 -0.068013884 -0.095270775 -0.01950443 -0.07003259
00000000: 7bc8 333d ef16 063d 4901 daba 0df6 9cbd
00000010: 885c 39bc c714 5cbd 8bc1 34bd 494f 5ebd
00000020: fb79 31bd adf7 a1bc ab90 3fbd 02d1 853a
00000030: edf0 76bb 680c 8abc b10d 62bd 4540 39bd
00000040: 20b1 66bd ab41 0abc 74a7 b7bc 9742 cb3c
00000050: 1003 febc 2703 2dbb d65d b0bd 6743 c1bc
00000060: cecc 1ebd 0e3e 3cbd 59d2 bdbd 8fac 6d3c
00000070: dd4a 8bbd 531d c3bd c1c7 9fbc 3f6d 8fbd

res2a.conv1.weight f4 [32, 32, 3, 3]
0.0053807567 -0.03308767 -0.04661455 0.021093734 -0.008112036 -0.05996978 -0.04949957 -0.10076623
0.05689506 0.027526313 -0.0920525 0.007010885 0.02352329 0.050132774 0.0044888956 -0.22584248
-0.13823953 -0.0126959095 0.0921664 0.024462862 0.17227821 0.10571263 -0.055131916 0.03580566
-0.043623406 -0.13048485 0.09995271 -0.1626357 0.06692128 0.007909924 -0.09867994 0.015174166
0.0079544345 -0.14890854 0.016205352 -0.008374667 -0.035997473 -0.09864768 0.003024667 0.06897458
-0.05186312 0.07087489 0.002331279 -0.05503899 -0.1692848 -0.25366348 0.04072451 0.03779458
-0.16446285 -0.08294723 0.060335886 -0.12553827 0.052633595 0.03419604 -0.13084587 -0.044433184
-0.25900322 0.0056923134 -0.024063237 -0.03180849 -0.04295059 0.07607997 0.11202033 -0.19351704
-0.007796416 0.12935315 -0.13331881 0.047062665 0.060119536 0.08212638 -0.07028968 -0.028246302
0.04192755 0.005995402 -0.08977593 -0.20395584 0.034420695 -0.08220957 -0.115856305 -0.09548514
-0.050101943 -0.12352698 -0.08068593 0.19496594 -0.074351765 -0.10140422 0.14654826 -0.08862277
-0.09111569 -0.102373414 -0.031842373 -0.012435483 0.113450564 -0.2835546 0.081029445 0.10121437
-0.08697994 0.011993172 -0.01140761 -0.09778787 -0.08018508 -0.057763636 -0.10553534 -0.054886762
-0.27806816 -0.12715748 0.09395194 -0.22904427 -0.08686482 -0.045935534 0.06176254 -0.13665654
-0.029669445 0.05784243 -0.20944333 0.02346464 0.028376697 -0.07778306 -0.051334843 0.04537152
-0.02213179 -0.087842315 0.02745953 -0.0005527049 -0.11097024 -0.015870493 -0.11052839 -0.0097244475
0.08705846 -0.035273664 -0.034839094 -0.064758405 -0.037641216 -0.019242078 0.017324379 -0.036065806
-0.10691277 0.06211093 -0.12662569 -0.052605968 0.047476992 -0.08321358 0.016415723 -0.046830967
-0.036691803 0.023721732 0.07084642 -0.1853338 -0.053580176 0.056372713 -0.09267048 -0.12057113
0.03550975 -0.0925703 0.04440978 0.022562537 -0.025584128 0.06363567 0.121606104 0.042063687
-0.14939007 -0.092273705 -0.10877419 -0.041862868 0.008883035 -0.0075671147 -0.03724656 0.07555531
-0.13272302 -0.10486362 -0.060927127 0.064630605 -0.02006273 0.016259972 0.025218938 -0.03444499
0.0578266 0.0043376284 -0.0030383263 0.020699913 0.019059716 -0.11929663 0.13491601 -0.112831496
-0.10056812 0.00053535646 -0.03667637 0.08051922 0.05729611 -0.039952457 -0.20095445 0.05656716
-0.08567465 -0.13978803 -0.12493623 -0.18144208 -0.0126252305 -0.13500446 -0.029378403 -0.118317604
0.007723334 -0.055178177 -0.10071702 0.015013402 -0.0830535 -0.028325126 -0.012557799 -0.18836667
0.070613235 0.059399497 -0.073548935 0.039479412 0.037100352 0.02154671 -0.04642598 -0.054871693
-0.19346368 -0.106758766 0.06841079 -0.21610779 -0.2247651 0.1421424 0.004074813 -0.12846562
0.098873116 -0.308516 -0.04387621 0.013806888 -0.3669881 -0.13819456 0.07051613 -0.20472659
0.020347686 0.017771363 -0.20160457 -0.093220785 0.00093041814 -0.13267186 -0.115150705 0.028769944
-0.05947088 -0.095075354 0.004280942 -0.015304582 -0.029947678 0.021831872 -0.09696256 -0.046422724
0.091548234 -0.08112108 -0.0023213837 0.101415195 -0.019772528 -0.023155412 0.0036703413 -0.13319989
00000000: 0f51 b03b f086 07bd e6ee 3ebd c4cc ac3c
00000010: 58e8 04bc dfa2 75bd 10c0 4abd 865e cebd
00000020: cb0a 693d dd7e e13c 0586 bcbd 91bb e53b
00000030: eab3 c03c 0658 4d3d 9617 933b 4043 67be
00000040: aa8e 0dbe 8102 50bc bdc1 bc3d 5766 c83c
00000050: b369 303e dd7f d83d 01d2 61bd f5a8 123d
00000060: 75ae 32bd d29d 05be 02b4 cc3d f989 26be
00000070: 060e 893d a098 013c b518 cabd 119d 783c
00000080: 5153 023c 7b7b 18be 16c1 843c e635 09bc
00000090: 1672 13bd cb07 cabd 7e39 463b 8b42 8d3d
000000a0: 6c6e 54bd db26 913d 5fc8 183b 9070 61bd
000000b0: ff58 2dbe 2ee0 81be bece 263d 7dce 1a3d
000000c0: f368 28be 3de0 a9bd c322 773d 1b8d 00be
000000d0: 5396 573d 2611 0c3d 76fc 05be 92ff 35bd
000000e0: 129c 84be 9686 ba3b 4420 c5bc 9f49 02bd
000000f0: f5ec 2fbd d1cf 9b3d ea6a e53d 5529 46be
00000100: 1479 ffbb 2775 043e ba84 08be c8c4 403d
00000110: e73f 763d e031 a83d 09f4 8fbd ca64 e7bc
00000120: 39bc 2b3d 1475 c43b 71dc b7bd cdd9 50be
00000130: b7fc 0c3d 7e5d a8bd 1246 edbd b78d c3bd
00000140: b237 4dbd b7fb fcbd aa3e a5bd 27a5 473e
00000150: bd45 98bd 04ad cfbd bf10 163e db7f b5bd
00000160: dd9a babd 27a9 d1bd 266d 02bd 32be 4bbc
00000170: c558 e83d 122e 91be c4f2 a53d 7b49 cf3d
00000180: 8a22 b2bd 027f 443c fce6 3abc 0245 c8bd
00000190: 1338 a4bd 9099 6cbd ea22 d8bd f1d0 60bd
000001a0: f35e 8ebe 9235 02be e069 c03d 958a 6abe
000001b0: 2fe6 b1bd e626 3cbd b8fa 7c3d b1ef 0bbe
000001c0: 560d f3bc 2fec 6c3d 5078 56be eb38 c03c
000001d0: 3f76 e83c ba4c 9fbd 7c44 52bd 7dd7 393d
000001e0: ba4d b5bc ace6 b3bd cff2 e03c 66e3 10ba
000001f0: 5d44 e3bd d602 82bc b55c e2bd 4a53 1fbc
00000200: b54b b23d 1e7b 10bd 70b3 0ebd 0ea0 84bd
00000210: ad2d 1abd 90a1 9dbc dbeb 8d3c bdb9 13bd
00000220: 15f5 dabd 0868 7e3d 2aaa 01be 5b79 57bd
00000230: 3c77 423d e26b aabd 447a 863c d4d1 3fbd
00000240: 254a 16bd 1454 c23c ee17 913d 25c8 3dbe
00000250: e376 5bbd 13e7 663d 05ca bdbd ffed f6bd
00000260: ac72 113d 7f95 bdbd 08e7 353d 12d5 b83c
00000270: ce95 d1bc 6b53 823d 9f0c f93d f94a 2c3d
00000280: b6f9 18be fff9 bcbd 01c5 debd 6678 2bbd
00000290: 268a 113c 8ff5 f7bb d98f 18bd bebc 9a3d
000002a0: 8be8 07be bdc2 d6bd b98e 79bd 0d5d 843d
000002b0: 985a a4bc a233 853c f297 ce3c 3116 0dbd
000002c0: 96db 6c3d aa22 8e3b a81e 47bb dd92 a93c
000002d0: 1f23 9c3c cb51 f4bd 6c27 0a3e 3314 e7bd
000002e0: a9f6 cdbd 2a57 0c3a f639 16bd 43e7 a43d
000002f0: 53af 6a3d 30a5 23bd 01c7 4dbe f7b2 673d
00000300: 3176 afbd 9824 0fbe 91de ffbd f4cb 39be
00000310: 0eda 4ebc 9c3e 0abe faaa f0bc 8050 f2bd
00000320: 0514 fd3b 8302 62bd ba44 cebd c6fa 753c
00000330: f417 aabd 180a e8bc 3abf 4dbc 31e3 40be
00000340: ac9d 903d e34c 733d d3a0 96bd 2ab5 213d
00000350: 8af6 173d ba82 b03c 2b29 3ebd 24c1 60bd
00000360: 581b 46be 57a4 dabd f51a 8c3d 5c4b 5dbe
00000370: d328 66be c78d 113e 0286 853b 7e8c 03be
00000380: fd7d ca3d cff5 9dbe 8ab7 33bd 4936 623c
00000390: dde5 bbbe e082 0dbe c36a 903d d9a3 51be
000003a0: 31b0 a63c 4095 913c 6e71 4ebe 8aea bebd
000003b0: 4ee7 733a 22db 07be 22d4 ebbd f2ae eb3c
000003c0: bd97 73bd deb6 c2bd 2547 8c3b 12c0 7abc
000003d0: d554 f5bc c1d8 b23c 4f94 c6bd c125 3ebd
000003e0: a47d bb3d cf22 a6bd 5b22 18bb c5b2 cf3d
000003f0: fff9 a1bc 6bb0 bdbc 1c8a 703b 8d65 08be

res2a.conv1.bias f4 [32]
-0.023636838 0.018012092 -0.06570321 0.08094526 0.045186203 0.043716367 0.06573006 0.12250059
0.056639988 0.09450067 0.08920445 0.08421363 0.027956693 0.01944846 -0.035654042 0.054513335
0.11461522 -0.054233707 0.017442195 -0.023919305 0.08015051 -0.002733775 0.0796867 -0.050293878
0.017278152 0.051472735 0.06445954 -0.042359907 0.010459612 0.035348427 -0.03401339 0.07864819
00000000: 0ba2 c1bc 188e 933c 688f 86bd a1c6 a53d
00000010: 2b15 393d ef0f 333d 7b9d 863d 97e1 fa3d
00000020: 55ff 673d 9189 c13d d3b0 b63d 3278 ac3d
00000030: 6f05 e53c 6052 9f3c f909 12bd 6049 5f3d
00000040: 62bb ea3d 2a24 5ebd efe2 8e3c 6bf2 c3bc
00000050: f325 a43d 2229 33bb c832 a33d f400 4ebd
00000060: e98a 8d3c 13d5 523d 5d03 843d 9581 2dbd
00000070: cb5e 2b3c 83c9 103d a051 0bbd 4d12 a13d
