checkpoints/ppo_academy_empty_goal_close.pth (torch, 718950 bytes, 45 tensors)

conv1.weight f4 [16, 16, 3, 3]
00000000: 2ea6 95bd c40d 833d d195 86bd 1e07 cd3c
00000010: a642 853d 5e7e 35bc 664e c83c 4a3e d7bd
00000020: bea1 653d b35e 2bbd 6d5a 9cbd b0ac babb
00000030: c605 41bd 1043 953c f78b b63b c501 b1bc
00000040: b479 2b3d 6673 87bd 48ae f93c 4f44 6fbd
00000050: cefd 403d cc77 cf3d b016 7c3d 1d99 973d
00000060: 05fa 9c3d ab9c 8fbd 60de c93c f083 433d
00000070: 1e22 56bc cb38 7d3d 45cf d5bd aaca 073e
00000080: 4b30 8d3d f258 3f3d 6435 d73c 4c61 683c
00000090: 1e77 b5bb 5fd8 013d d7a7 cabc 36bd 793b
000000a0: a7c8 7f3d 2edf b6bd 4ccf 34bc 0d19 d7bc
000000b0: 9bd6 583d 4fdd 37ba 083e a13d 4772 353c
000000c0: 4005 54bd be68 a3bc 7a22 85bc ef38 5cbc
000000d0: 6b32 3dbd 850e a5bd 326a 3bbc 99b4 13bc
000000e0: f579 57bd 4200 7c3c 0749 9b3d 696c 6d3c
000000f0: c7c0 82bd 67bb c7bd 1238 313d bb20 c1bd
00000100: 46de d43d 3e92 573a ca80 ed3d cdcc 6e3c
00000110: 4f8e cd3c 9cb0 583d 9a80 093e 7b03 d9bb
00000120: 0ecc b43c 9c54 0b3e 4dbb a5bd 28ad 923c
00000130: 9588 233c 707f 9fbc da70 60bd 79bb a63d
00000140: 07cf 703d e845 adbd b1da 3d3d c398 5bbc
00000150: 36ce 6e3d fa98 bfbd 5d13 a6bd 064b d4bd
00000160: 2719 953b 3244 1d3d 322e 9f3d e566 8ebc
00000170: 03f6 93bc ebde e03d 37a7 a4bd 922b bcbd
00000180: b18e 7e3d b054 fdbc 049a b2bd 7bae df3d
00000190: f2af 28bd 1ceb 803d 3a47 083e d657 bc3d
000001a0: 80aa 0ebd 9c59 d53c e73f 583e e547 c03c
000001b0: 1757 f33c cbf0 cb3d 9f39 69bd 8e18 9ebd
000001c0: 1191 833c 5b81 32bd a166 b1bd 1beb b13b
000001d0: ca9a 053c 9a78 88bd 4d0a 743d 2a7f 01bd
000001e0: c6f0 963d 51bd 073d a60d 2f3d 96fc 93bb
000001f0: e4b9 55bc d34e ccbd d4f6 58bd 2efa 63bd
00000200: 886d 163d be96 c6bc 5507 fbbb 1511 b33d
00000210: 60b9 fdbd 711d 77be d695 8f3d d4cd 2a3d
00000220: 4bb7 db3d 20f2 333d 7137 4bbd 0e83 003e
00000230: ffbc 173e 7b81 bab9 699f 213e 95b8 b63d
00000240: 5439 303d 9a53 68bc e47e 47bd 6ac8 bc3d
00000250: 4048 0a3d 6010 c8bd 7df6 c6bd 9c93 8c3b
00000260: 5ecb babd d33f 31bc e0f1 45bc 0c6a a5ba
00000270: 8480 253d f2ef 48bc 6e1c 383d 7d82 85bd
00000280: 1f1e 713d 98ba 6fbd 1832 c23d c6f5 513d
00000290: 2b09 bc3d 1e09 11bd 0026 bbbd 4503 c53c
000002a0: 78b4 12bd fe0b 433d 36b7 39bc 4c25 96bd
000002b0: 5280 9f3d 5ee1 853d a188 413c 8154 693d
000002c0: ed0d 003a 3a77 a2bd 403b 883d 5156 a53d
000002d0: 72ad 413d ab0b c1bb af90 aabc 76ea 4a3d
000002e0: 1030 8d3d b9c4 823b 1b29 78bd 71f0 74bd
000002f0: 0c8b f8bc e53c 89bd a997 bbbd 5c00 9a3c
00000300: 902b ad3c af74 c83c 7562 5d3c a536 eebd
00000310: 0502 9cbd c5e2 e0bd aa98 22bd b144 58bd
00000320: f88d 44bd 7205 c93d 0364 97bc 0671 e33d
00000330: 73cf 54bd c684 d9bc c4c6 8ebc 53cd 60bd
00000340: 3e48 8d3d 1d09 033d 465a 05bd 977c a73d
00000350: 606f 0e3d cd99 673d c86d 6abb fc73 703c
00000360: 74d1 35bc 1d59 3fbc 8369 a2bd 9e1b 34bd
00000370: 9b9b d9bc 5bd6 193d b687 8d3b 9217 3ebd
00000380: da4e 9cbd 0227 86bc 6c55 03bd 9a38 2039
00000390: 6b5c 77bd 3381 083d 458e 09bb 33f5 9cbd
000003a0: bd90 bdbd bf65 fcbc ef66 5ebd daf6 2abd
000003b0: 068b ae3d 28d5 14bc 100f 0a3e af74 aabd
000003c0: 0f89 6e3d f3f6 7abc e4b0 db3c a8cf 533d
000003d0: 1558 b93b 7f31 593d 19a0 2dbc aa6b 5f3d
000003e0: 88df 7e3d 8068 51bc e427 953d 4ec3 573d
000003f0: 9db0 143d a4d7 7f3d caef d5bc 35eb 49bd
-0.07307087 0.0639911 -0.06571544 0.025027808 0.06506853 -0.011077492 0.024451446 -0.105099276
0.056062452 -0.04183836 -0.07634435 -0.0056968555 -0.047124647 0.018220454 0.0055708843 -0.02160729
0.041864112 -0.066138074 0.030478612 -0.058414754 0.047117047 0.10130271 0.061545074 0.07402251
0.07664875 -0.07012304 0.02464217 0.047733247 -0.013069658 0.06182174 -0.10439924 0.13260904
0.06893977 0.046715684 0.026270576 0.014183354 -0.0055378815 0.03170049 -0.024738235 0.0038107163
0.062447216 -0.08929287 -0.011035752 -0.026257062 0.05293904 -0.00070138735 0.0787316 0.011074609
-0.05176282 -0.019947406 -0.016251791 -0.013441308 -0.04619066 -0.0805941 -0.011438893 -0.009015226
-0.05260654 0.015380921 0.07582288 0.014491179 -0.063844256 -0.09752541 0.043266363 -0.09430071
0.10393958 0.0008223391 0.1159683 0.0145751955 0.025092272 0.052902803 0.13427964 -0.0066227294
0.022069957 0.13606495 -0.080923654 0.017904833 0.009981294 -0.019469947 -0.054795124 0.08141226
0.058791187 -0.08460599 0.04635114 -0.01340312 0.058302127 -0.0935535 -0.08109162 -0.10365872
0.0045501175 0.038395114 0.07772483 -0.017383048 -0.018061643 0.10980018 -0.08039706 -0.09187998
0.0621478 -0.030924171 -0.087207824 0.109219514 -0.04118342 0.062948436 0.13308421 0.09196441
-0.03483057 0.026043706 0.21118127 0.023471782 0.029704614 0.09958037 -0.056939717 -0.07719527
0.016060384 -0.043580394 -0.08662153 0.005429638 0.00815458 -0.06663628 0.059580136 -0.031615414
0.07370143 0.03313953 0.042737626 -0.0045161946 -0.013044808 -0.09975972 -0.05296977 -0.05565851
0.03672555 -0.024241801 -0.007660786 0.087434925 -0.12388873 -0.24132325 0.07011001 0.0417002
0.1072832 0.04393208 -0.04961342 0.12549993 0.1481819 -0.00035573155 0.15783466 0.08921925
0.043023422 -0.014180088 -0.048704997 0.092179134 0.03376031 -0.09768748 -0.09714983 0.0042900573
-0.091208205 -0.01081844 -0.012081593 -0.0012620105 0.040405765 -0.012264239 0.044948988 -0.06519029
0.058866616 -0.05852756 0.09482211 0.05125978 0.09181436 -0.035409085 -0.09138107 0.02404941
-0.03581664 0.04761886 -0.011335185 -0.073313326 0.07788147 0.06537126 0.01181236 0.056965355
0.00048848876 -0.07932897 0.06651926 0.08073104 0.04728455 -0.0058912835 -0.020820944 0.049540006
0.06893933 0.0039907363 -0.060586076 -0.059799615 -0.03033974 -0.06701068 -0.09159786 0.018799
0.021138936 0.024469702 0.0135122435 -0.11631516 -0.07617573 -0.10980753 -0.039696373 -0.052799884
-0.047986954 0.09815492 -0.018480306 0.11105542 -0.05195565 -0.02655257 -0.017428763 -0.054883312
0.06898545 0.031991113 -0.032556795 0.081780605 0.034774184 0.05654316 -0.0035771 0.01467609
-0.011097301 -0.011678961 -0.07930281 -0.04397165 -0.026563456 0.03755794 0.0043191565 -0.046409197
-0.07632227 -0.016376022 -0.032063887 0.00015279875 -0.06039087 0.03332634 -0.002098934 -0.076639555
-0.09256122 -0.030810235 -0.054297384 -0.041739322 0.0852261 -0.009084024 0.13482308 -0.08323037
0.058236178 -0.015317666 0.026817746 0.05171171 0.005656252 0.05302572 -0.010597252 0.054546036
0.062224895 -0.012781262 0.07282999 0.05267649 0.036301244 0.06246151 -0.026115317 -0.049296577

conv1.bias f4 [16]
00000000: 88c7 1f3d 81eb 7cbd f8f0 133d 3c69 093d
00000010: 10ce c43b 94fe 6dbc 78bd 75bd 69b3 5a3d
00000020: 3c0b 093b 17d1 72bd dbeb 3e3d 3b4f 96bb
00000030: a450 5f3d 9bfc 5bbd 0965 88bd a554 acbd
0.039008647 -0.06174803 0.036118478 0.033547625 0.00600601 -0.014526028 -0.059995145 0.053393755
0.0020911237 -0.059281435 0.046611648 -0.0045870817 0.054520264 -0.0537077 -0.06659896 -0.08414582

res1a.conv1.weight f4 [16, 16, 3, 3]
00000000: 6a82 01bd 678c 97bd 37f6 233d 1b01 75bd
00000010: 34ab 2d3d fc3e 7cbd 40d1 6c3d 4764 94bd
00000020: f4f3 83bd cf2c 91bc 8ffa 313d 7cc5 383d
00000030: 7d77 d0bb 1522 67bd b4ea a73d 0c1e 3dbd
00000040: e171 9abd 0b7e 14be 6614 733c fcdc 0d3d
00000050: 05a0 113d b088 f83c edd7 4cbd d0e7 52bd
00000060: 6619 9c3d feb4 2b3d 12ad a3bd a923 983c
00000070: aee0 9fbd fb98 573d fb1f d73c 4c6f 563c
00000080: 2a0c 9f3b d7dd 97bc 9064 bbbd f8ca c83c
00000090: c858 a8bb c1e0 8bbd 26d5 43bd c336 68bc
000000a0: bab8 62bd 9211 e9bc 43a9 b1bc a20a edbc
000000b0: f914 35bd 30ec 893d 4a7b 3abc c05a 393d
000000c0: 0a0f 853d 4687 7fbd 7ba0 9b3c 3535 4fbd
000000d0: d6fb f23c e05c c9bd 6c6e 293d 582b 4ebd
000000e0: cb37 473d caef a7bc 7679 803d a5c3 babd
000000f0: 987d 3e3d 556e 713d 8045 05be ba81 22bd
00000100: b638 ce3c 881b d63c f1fa 01bd 2542 abbb
00000110: bc2a aebc ba76 603d 034c 98bd 2caa 99bd
00000120: cf3e 17bd b4cb 91bd 41c5 223c 23ed 2ebd
00000130: 6473 3cbd 7afd 00be e729 903d fa11 833d
00000140: 51e4 5a3c e481 9d3d a98a ab3d 3975 383d
00000150: f929 6fbb 8abd 7a3d ba8f d5bc d293 963d
00000160: f1e8 6fbb c047 f5bd e1fe 2c3d 4cf1 b3bd
00000170: 75c1 56bd a158 ae3c c1f6 0bbc f9c1 08bc
00000180: 4071 873b 81c9 44bd 09d9 5dbd b37f eebc
00000190: 751d 0abd 11dc 723d 4e5b 2ebd f7a6 033d
000001a0: 1cf8 993c 4bb0 bc3d 0ef7 883d d591 babd
000001b0: 9e6b 2e3d fa0b 54bd 5b01 873c 4503 3fbd
000001c0: e38c 2abd 5b49 c0bd b2a2 80bc 52dd 7139
000001d0: 5c4e 43bd 4c9a 67bd fedf 91bd 33ae 6b3c
000001e0: e094 963b b54a 8abd 9d56 403c 8fbf 883c
000001f0: 3655 4e3a bff1 b6bd 1d13 15bd c814 d73c
00000200: 7bdb df3c c92f b83d 9bbb 7cbd 2e03 a73d
00000210: 8903 c33d de67 20bd 9c40 88bd bfef 8dbc
00000220: 1697 1f3d b54d 383d 6e34 293d af59 bcbc
00000230: 58d6 69bd f316 643d 1006 803d e10b 5dbd
00000240: 697c 363c 32cc 5bbc e370 d13b 1f2c 473d
00000250: e829 873d 0a2a afbd 3c33 ef3c 38f1 42bd
00000260: 2c0e b9bb 8b64 ad3d 02b9 733d 089e acbc
00000270: 8e48 b1bc 1df7 24bd 8e3e 9c3c 5743 123d
00000280: 4c18 dc3d 8d69 68bd dc2d 263d af13 f63c
00000290: bac4 813d 8a1a ea3b 616e b23d 9787 5b3d
000002a0: ce7b 65bd 361d 0b3d 4b5e 3bbc e70e 983d
000002b0: e99b 00bd 1f52 48bd 0ece 393c df78 20bc
000002c0: 6d12 853d 773d 2dbd 6789 1f3d 45cf 17bd
000002d0: 9218 cebc 4c5b 8dbb b897 2cbd 8446 f7bc
000002e0: e280 00bc 7286 633d 0e88 863d 3eb4 c73b
000002f0: f5ec 533d 5708 a23d ceff 2fbc e531 923d
00000300: bf5a 1f3d 56b7 973b e3ea e13c 6f0b 9f3a
00000310: ad60 a03d f273 47bc cdcb ee3d 5bf1 7c3c
00000320: d635 06bd 02f8 333d 5e35 aebc 6c3b b03c
00000330: 5b41 883d f9a5 f9bc 261c 763d a209 93bd
00000340: 16e3 823d 5e0e 03bd c7d3 31bd 1a5e a63d
00000350: 8b9a cd3b 9751 bfb9 3edc 58ba 6d07 54bd
00000360: eafb a83d 8a9c 903d b7d9 973d 0bbf 20bd
00000370: 8753 ad3d 14c6 9f3d b1a8 8cbd 6adc 293d
00000380: c0fe 9b3d 293c 693b c14d 66bd 6b56 493d
00000390: 6944 47bb d860 efbc e599 5cbc e9a5 0a3d
000003a0: a12f 153c fe74 1cbd cfba 8e3d 2cc8 343c
000003b0: 49cf 89bc f191 6dbd b8b8 06bc dd76 a4bd
000003c0: 5fe0 9cbd 15ad 3fbd 7190 a1bb fb36 d33d
000003d0: c579 573d 4d47 b6bc 8d69 993d c1ba b03d
000003e0: 87d7 d63c 2101 49bd 8510 5cbd 2d10 8b3d
000003f0: 4b14 70bc d69e 973b 8edc 683d c29b ac3c
-0.031618513 -0.073998265 0.04002973 -0.059815507 0.0423996 -0.061583504 0.057816744 -0.07245689
-0.06443015 -0.017721562 0.043451842 0.04511021 -0.0063619004 -0.056428988 0.08199063 -0.046171233
-0.07541252 -0.14501207 0.014836406 0.034634575 0.035552997 0.030338615 -0.05001061 -0.051490605
0.07622032 0.041920654 -0.07991995 0.018571692 -0.07806526 0.052636128 0.026260367 0.013088059
0.004853745 -0.018538399 -0.0915004 0.024510846 -0.0051375367 -0.06829978 -0.047810696 -0.014173212
-0.05535195 -0.028450761 -0.021687156 -0.028935734 -0.044209454 0.06734502 -0.011381933 0.04525256
0.06497009 -0.062384866 0.018997421 -0.05058785 0.0296611 -0.098321676 0.041365072 -0.050334305
0.048637193 -0.020500083 0.06273167 -0.091193475 0.046506494 0.05894311 -0.13014793 -0.0396745
0.025173526 0.026136175 -0.031733457 -0.005226391 -0.021260612 0.054800726 -0.07436373 -0.07503161
-0.036925133 -0.071189314 0.009934724 -0.04270662 -0.046008483 -0.12596694 0.07039242 0.06399913
0.013360099 0.0769079 0.08376057 0.045033667 -0.0036493524 0.061215915 -0.02606951 0.07352413
-0.003660735 -0.11976576 0.04223526 -0.08786258 -0.05243059 0.021282496 -0.008542717 -0.008347028
0.0041333735 -0.04804373 -0.05416206 -0.029113626 -0.0337195 0.059291903 -0.042567544 0.032141652
0.018795066 0.09213313 0.06687747 -0.091098465 0.0425831 -0.051769234 0.016480139 -0.046633977
-0.041638266 -0.093889914 -0.01570258 0.00023065999 -0.04768215 -0.056543633 -0.07122801 0.014384794
0.004595384 -0.067525305 0.0117394 0.016692905 0.0007870974 -0.08932828 -0.03639518 0.026255026
0.027326336 0.08993489 -0.061702352 0.08154903 0.09522159 -0.039161555 -0.06652948 -0.017326234
0.038962446 0.044995982 0.041309766 -0.022991983 -0.05708918 0.05568595 0.06251156 -0.053966407
0.01113806 -0.013415383 0.006391631 0.04862606 0.0659979 -0.0855294 0.029199235 -0.047593325
-0.0056474414 0.08466443 0.05950261 -0.021071449 -0.021641042 -0.040274728 0.019072797 0.03570875
0.10746822 -0.056741286 0.04057108 0.030038683 0.06336351 0.007144277 0.08712459 0.053596105
-0.056026272 0.033963405 -0.011436055 0.074247174 -0.031398688 -0.04890644 0.011340631 -0.009794443
0.06497655 -0.042294946 0.038949396 -0.037062902 -0.0251582 -0.004313862 -0.042136878 -0.030184992
-0.007843228 0.05554814 0.06568919 0.0060944846 0.05173965 0.07911747 -0.010742141 0.07138423
0.0389049 0.0046300096 0.027577823 0.0012134145 0.078309394 -0.01217364 0.11659966 0.015438403
-0.032766186 0.04393769 -0.021265682 0.02151271 0.066530906 -0.03047465 0.06008544 -0.07179572
0.063909695 -0.031996123 -0.043414857 0.08123417 0.0062745265 -0.00036491148 -0.0008272565 -0.051764894
0.08251174 0.070611075 0.07414573 -0.039244693 0.08463197 0.07801452 -0.06868113 0.04146997
0.07616949 0.0035588837 -0.056226496 0.04915468 -0.0030405766 -0.029220983 -0.013464426 0.03384963
0.009105594 -0.03819751 0.06969225 0.011034053 -0.016822474 -0.05800051 -0.008222751 -0.08030484
-0.07659983 -0.046795923 -0.004930549 0.10313221 0.052606363 -0.022250796 0.07490835 0.086293705
0.026225818 -0.049073342 -0.05372669 0.06790195 -0.014653276 0.004627089 0.056850962 0.021070365

res1a.conv1.bias f4 [16]
00000000: c137 613d f8cc e1bc 1ec4 373d c836 b33c
00000010: a867 88bd d5ef a6bc 5ba8 9a3d 2d67 97bd
00000020: e23d e73c bdda 893d c863 91bd 7c91 70bd
00000030: cb92 efbc 6b2d 1b3d 2cc0 93bd be67 cb3c
0.05498481 -0.027563557 0.044864766 0.021876708 -0.06660396 -0.020378033 0.075516425 -0.07392726
0.02822775 0.06731174 -0.0709911 -0.058732495 -0.029244801 0.03788511 -0.07214388 0.024829742

res1a.conv2.weight f4 [16, 16, 3, 3]
00000000: fe62 6cbd 1986 893d 54d2 193d bc04 9a3d
00000010: 52a3 733d fc6c e1bb bf2c 933c c249 84bd
00000020: a5e8 cfba 15b4 bb3d 7ca4 9fbc cc8b 573d
00000030: 1c1d c63d 6b32 ae3c eda7 7a3c 426c 82bc
00000040: 67e5 5fbd 2977 dcbc 1751 a03d 2338 8a3d
00000050: db1b 4d3d 95c1 16bd 9c5b 25bd 6bc9 7dbd
00000060: ff85 40bd 2c16 12bd 3665 09bd b6fb ab3c
00000070: 77ba e8bc 62fe 96bd b252 0ebd c7d8 2f3d
00000080: f31a 863c 07e0 2abd bd6a 333d c368 9a3d
00000090: a2e6 7d3d a7e2 40ba 6220 c23c 3503 87bd
000000a0: dc53 013d 8008 b63d 0db4 f63b b329 40bd
000000b0: c0d0 883d 32d8 ad3d 1235 6f3d e19f f3bb
000000c0: c095 823d 312e 1a3d 0d38 1fbd 4a87 063c
000000d0: 71a2 7abd f9e9 813d aa13 7a3a 0f8b 48bc
000000e0: 536b 4e3d 7dd3 bd3c 30bd 2f3d 9c14 01bd
000000f0: eb4f 4cbd 904c 5fbd 342a ab3d f37c 77bd
00000100: 416c 48bd a5a6 1ebd ce1e 253d 3afb 8cbd
00000110: 079e 173d a1bb 313c 866b 3cbd 7020 6abc
00000120: 3b48 393d 6e21 12bd 1986 abbd 0566 c03b
00000130: 7cbe ea3c 775a 1dbd 91f0 703d 647a a13d
00000140: 797b c93c 042c 2f3c d8f0 32bc f8a4 2d3d
00000150: ab68 81bd 5f5c 82bd bda7 db3c c456 043c
00000160: 3ed6 c73a 069e 2ebd 16f0 8d3d 523e a6bd
00000170: be02 8c3d 2852 fbba 1382 b6bc 92d7 81bc
00000180: 83f8 04bd 12f7 80bd d683 9f3d a7a3 613d
00000190: c7ab 32bd e8d0 c13d 1ecd ed3d 5fde 25bc
000001a0: ffd4 393d 0e63 cf3d 05dc 15bd 1cd1 af3d
000001b0: a9d5 063d 76df a93c 8dbc df3c b0fd c33c
000001c0: 9ffc 83bd 217a f3bc 5709 75ba bbb6 363d
000001d0: c845 39bc e1d7 753d 7d65 e93c 83e2 153d
000001e0: 04c7 fc3c 0420 75bd e44a 86bd 7a79 b33d
000001f0: 5700 1ebd 1f54 823d cb78 89bc 2c4b 3bbd
00000200: 894a 96bd 0d68 923c 8255 803d 086b 81bb
00000210: bd79 dfbc 236e 8d3d 2ae5 61bd 8b16 08bd
00000220: 21d2 0fbd 3764 2b3d f3bf b63d 0c78 1fbd
00000230: 6caa 163d 33d7 90bd 74a5 ab3b 27fd b23d
00000240: 6c5d 63bc 24b5 8abd 87e4 8bbd d0b7 6fbd
00000250: 1b23 81bd 6843 443d 3dee a73d c59c 713b
00000260: 7199 cabc c6c9 91bd 7f03 073d 766f 0fbd
00000270: c949 95bd c626 a0bd d7c4 103d 135d 9e3d
00000280: 38b8 5bbd 23fc 98bc 3246 743d 64a1 9b3c
00000290: 1863 6a3b ad89 043d d715 d93c a3ac 043d
000002a0: ff4e 9a3c 1396 a43d 3e51 a03c 028d 3bbd
000002b0: e3f0 e23c 468d 5c3d a66c b4bd b7e8 8abd
000002c0: 3c80 3cbd 4aeb 933c 6208 1bbd ca52 03bd
000002d0: 4a2e 88bd 828b 71bd 8042 b03c ff9b a3bd
000002e0: 3867 443c c8f9 27bd d48d 65bd 68ed c3bb
000002f0: 10d3 bdbd 01b4 bb3c 5708 91bd 2c54 ffbb
00000300: f3cf 993d 0fc5 3d3d a5ff 10bd aa1b 903c
00000310: 3d23 a83c b6a3 22bd 72e9 093d 73fa c0bd
00000320: 165f 053d 9437 debc 70ce e13b c9f7 94bd
00000330: 2d41 8e3d 3eb1 d23b abcb b4bd 7ece 6d3d
00000340: 9648 63bd f5f4 d1bb c9dc abbd 019b 5cbd
00000350: dde1 c3bc 1f96 9bbd 481b efbc 9976 00bd
00000360: da7f 143c 282a 88bd 31cd a3bd f309 5abd
00000370: de16 86bd 94a1 50bd 4e56 82bd 2587 02bd
00000380: 0713 293d b833 a8bc d3a8 193d 6e8e a4bd
00000390: b088 aa3d 21bc 203d cfe9 ffbc 401f 8b3c
000003a0: c8ad 2b3c ffa8 7cbd 000d 25bd c574 9bbd
000003b0: b86d 8b3d 6977 0abc 4483 8e3d c4f0 5e3b
000003c0: f2fc 6cbc a754 7dbd 6ae2 74bd 2007 fb3c
000003d0: 312f 8bbd 842b c0bb 37c3 a4bd 2b51 41bd
000003e0: 2704 bdbd d2e1 d6bb 35e9 0bbc e2cd 0e3b
000003f0: d617 ad3c 4eec 9e3d 590e 7f3d c1aa 7e3d
-0.057711594 0.0671503 0.0375541 0.07520434 0.059481926 -0.006879447 0.017965673 -0.06459381
-0.001586218 0.09165207 -0.019487612 0.052623555 0.09673521 0.021264276 0.015298826 -0.015920762
-0.054662134 -0.026912289 0.07827967 0.067489885 0.050075393 -0.036805708 -0.04037057 -0.061959665
-0.04700279 -0.035665676 -0.033543788 0.020994049 -0.028409226 -0.073727384 -0.034746833 0.042931344
0.016370272 -0.041717555 0.043802965 0.07539513 0.061987527 -0.00073579926 0.023697082 -0.065924086
0.031574115 0.0888834 0.007528788 -0.046914767 0.06680441 0.084885016 0.05840022 -0.0074348305
0.06376219 0.037641708 -0.038871814 0.008210966 -0.061190072 0.06343455 0.00095396733 -0.012240185
0.05039532 0.023172135 0.042905033 -0.031513795 -0.049880903 -0.054516375 0.08357659 -0.060421895
-0.048931364 -0.038733143 0.04031258 -0.06883855 0.03701594 0.010847957 -0.04600098 -0.01428996
0.0452349 -0.035676412 -0.083751865 0.0058715367 0.028655283 -0.038416352 0.058823172 0.07884672
0.02459501 0.0106916465 -0.010921679 0.042393655 -0.06318792 -0.06365275 0.026813382 0.008077327
0.0015246344 -0.04263117 0.069305584 -0.081173554 0.068364605 -0.0019174265 -0.022278821 -0.015849862
-0.03246356 -0.06297125 0.077888176 0.05508771 -0.04362085 0.09463674 0.116113886 -0.010123818
0.045369145 0.10126315 -0.03658678 0.08584806 0.032918606 0.020736437 0.027311588 0.023924679
-0.06444668 -0.029721322 -0.00093474 0.04460786 -0.011308141 0.06002033 0.028490776 0.03659297
0.030856617 -0.059844986 -0.06557253 0.08763404 -0.038574543 0.06363701 -0.016781231 -0.045725986
-0.07338435 0.01787188 0.06266309 -0.0039495267 -0.027279729 0.069057725 -0.05515019 -0.033224624
-0.035112504 0.04184362 0.0892333 -0.038932845 0.03678362 -0.07072296 0.0052382294 0.08739691
-0.013877254 -0.06772831 -0.068306975 -0.058524907 -0.06305524 0.047915846 0.08199737 0.0036867124
-0.02473137 -0.07118563 0.03296232 -0.035018407 -0.07289464 -0.078198954 0.03534397 0.07732596
-0.05364248 -0.018674916 0.059637256 0.018997855 0.003576463 0.03235786 0.026499672 0.0323912
0.018836496 0.08036437 0.01956999 -0.045788772 0.027702754 0.053845666 -0.088097855 -0.06782668
-0.04602073 0.01805653 -0.03784979 -0.032061376 -0.06649454 -0.058970936 0.021516085 -0.07988738
0.0119875 -0.041009694 -0.05604346 -0.0059792288 -0.092687726 0.022912981 -0.07081669 -0.0077920165
0.07510366 0.046330508 -0.03540005 0.017591316 0.020524615 -0.03970691 0.033669896 -0.094227694
0.032561384 -0.027126111 0.0068910643 -0.07273824 0.06946025 0.0064298203 -0.08827909 0.058058254
-0.055489145 -0.006407375 -0.08391721 -0.05385876 -0.023911411 -0.07596993 -0.029187813 -0.031363104
0.009063685 -0.06648666 -0.079981215 -0.053232145 -0.0654733 -0.050935343 -0.063641176 -0.031867165
0.04127791 -0.020532474 0.03751452 -0.08034979 0.08326852 0.039241914 -0.031239418 0.016982675
0.010478444 -0.061684605 -0.0402956 -0.075906314 0.068080366 -0.008451321 0.06958631 0.003401802
-0.014464604 -0.06184831 -0.059786238 0.030643046 -0.067961104 -0.0058645625 -0.08045047 -0.04719655
-0.092293076 -0.0065576816 -0.008539488 0.0021790196 0.02112953 0.07759915 0.062269542 0.062174562

res1a.conv2.bias f4 [16]
00000000: a334 023c 0ab1 203d 0f1e a2bc dc73 8b3d
00000010: dfcb c93a 3147 273c 5636 79bd 4e8c a13c
00000020: 9a9c 193d 6221 7f3d 667f debc b846 3bbd
00000030: de43 57bc 2c85 893d 7721 f7bb 08e9 fc3c
0.00794712 0.039231338 -0.019789724 0.06809208 0.0015395841 0.010209844 -0.060842834 0.019720223
0.037502863 0.062287696 -0.027160358 -0.04572174 -0.013138739 0.06714854 -0.007541831 0.030872837

res1b.conv1.weight f4 [16, 16, 3, 3]
00000000: 6ba6 89bd 8cdd edbc 5b4d aebb 4b29 c2bb
00000010: ae69 603d 77b1 05bd 10f6 a1bb 3af7 04bd
00000020: 5386 5a3d 320d 9ebd a0a3 a43d 8b2e 2d3d
00000030: e6ce 0abd 2d11 20bd 1340 993d fb2f aebc
00000040: 14d8 ba3d c91c 8e3d 2c7c ce3d 1e61 6bbd
00000050: b658 d0bd a95e c63b 5d11 fd3c 3fba afbd
00000060: a92c bb3d a5ef 743d 66fc 95bd 5b7a 933c
00000070: d6d4 d8bc f4e3 63bd f6b3 8d3d 6a51 91bc
00000080: 9d50 423d 0bdf 63bd 31e7 a6bc 3e28 16bd
00000090: 1ae6 ba3d 1cf6 60bd 1d55 813d 475b 99bc
000000a0: 3bd2 333c f671 c6bd bb22 ca3d 2e37 373d
000000b0: 646a a0bc 6305 243d 56fc d0bc 1630 433d
000000c0: 496a b93c d74d 023e 0277 fabc f9a2 673c
000000d0: b5e4 f13d 0c2e fa3d 288b edbc 8e8f d83d
000000e0: 09fb fa3c e7f8 59bd af07 c83b 97ec 933d
000000f0: f0af 2a3b f6c4 193c 215b 3c3d 1915 13bd
00000100: 0ea0 203d 6083 eebc e0dc 59bb a16a 513d
00000110: 55c4 00bd c846 47bd f623 bebc 95c7 313d
00000120: 9950 9c3d 490b a23c c45b 1dbd 7324 44bb
00000130: f378 14bd 7912 413c c8a1 ddbc 0c09 9c3d
00000140: 7989 933d f0f2 123d 9ca8 64bd 822c cebc
00000150: 466f 77bd 2ef6 cbbc 3b2f f0bc 96d2 92bd
00000160: 1aba 0dbd dfb6 8c3c 339a 393e 4f99 2d3e
00000170: 23ef 503e 4e99 503e 398f 283e 5fbe 753d
00000180: b55e 273e 7855 253e 0127 c73d 37f7 563d
00000190: dd0c ecbb fdc5 8a3d f3e2 2fbd efc7 9e3c
000001a0: f966 64bc c96b 3fbc 2cba 603d ef78 8cbd
000001b0: 5e05 31bb 0e3d 013d 9c67 97bd ea5e 07bd
000001c0: f496 30bb 71f7 6dbd 869e 943d 0bb1 e3bc
000001d0: 5850 ba3d f31a 153d 54f7 1abb 34e7 35bc
000001e0: 91b8 993c c5e1 293d 0d85 0c3e 4c6d 4bbd
000001f0: 8b93 4a3b 9428 b93d f286 303c c163 353d
00000200: a179 1f3d efd8 d5bb 41d4 7a3d a661 5f3b
00000210: 7e8c a73d 3da3 cb3d 6337 3f3d aa8d cf3c
00000220: a129 69bd 15a4 8e3c a96d 86bb bcc5 543d
00000230: ee8b 833d 490c d1bc c19a 7bbd 37d5 9b3c
00000240: c0bf c5bc f8ee cfbd cb2f afbd d1c6 96bb
00000250: 84d2 ccbd 6288 86bd 72e2 283d 3813 26bd
00000260: 939d 2ebd 1a7e 293d b18a c53c cc2b 833d
00000270: 6e22 03bc aa02 1abd 385d f7bc d62b 1c3d
00000280: 04e1 aa3c 2c77 263d 986b abbd c655 483d
00000290: e6f4 c0bd b9a0 e7bd 3c81 263d 3393 0b3d
000002a0: 7057 f53c 2243 37bd c3c0 b7bd f320 b0bd
000002b0: f7b4 823d 3546 8cbc 144b 5cbc 3df9 1a3d
000002c0: 6c80 143d 50bf 02bd 6122 96bd bebf 86bd
000002d0: ccb4 643c 7d12 d9bc d01f 21bd 530e 643d
000002e0: b924 92bd 030f a83d c858 2bbd c76b 8abc
000002f0: f64d 403d 82ac d93c e562 41bd ad63 80bd
00000300: 4c11 2abb 7a0d 483c 4eb7 843b 220e d3bc
00000310: ff71 eabd 4c9e 9bbd 8f27 573d ce82 e8ba
00000320: 3343 583d 55a9 42bc 0389 2b3d afa0 f0bc
00000330: 1608 913d e191 703d 87eb 8cbd cc10 b33d
00000340: 07cf dabc ab3f 013c 87a4 643d 88fa df3c
00000350: 2ae4 8c3c b83a 88bc 0aa2 e23c c64d a23d
00000360: da33 41bd fe34 493d 7bb3 673d 57a9 163d
00000370: d660 113d fcad 2dbd 12df 55bc c159 153d
00000380: 6da4 0abd 920e 62bd ccc5 35bc 4a28 c3bc
00000390: 6298 0f3d 26ee aebd dd34 4ebd a340 863d
000003a0: 04ad 4bbd f46d 8d3d 0df7 0d3d a3dc b9bb
000003b0: 8017 2ebd dec3 f7bd d2e7 c7bb 3343 13bc
000003c0: 1538 07be 81c6 c9bd ea5c f23c 5c5c 4dbd
000003d0: acf4 d4bd bd35 633d f4c2 c53c 9214 cbbc
000003e0: cce7 84bd ca0d f23c cc06 f7bd a5a1 fb3c
000003f0: 46c4 e2bc ba9f bb3c 1106 2abd b645 da3c
-0.06721195 -0.029036306 -0.00531928 -0.0059253327 0.054788284 -0.032639947 -0.004942663 -0.032462336
0.053350758 -0.077173606 0.080390215 0.042280715 -0.03388872 -0.03907888 0.07482924 -0.021263113
0.09123245 0.06939084 0.10082278 -0.057465665 -0.1017317 0.006053765 0.030892069 -0.085804455
0.091393776 0.059798855 -0.07323532 0.01800268 -0.026468676 -0.055637315 0.069190904 -0.017739017
0.04744016 -0.055632632 -0.020373913 -0.03665947 0.0912592 -0.05492221 0.06315062 -0.018720282
0.010975416 -0.09689705 0.098699056 0.044730358 -0.019581981 0.0400442 -0.025510948 0.04765328
0.022633689 0.12725006 -0.030574325 0.014137977 0.118112005 0.12215814 -0.028997019 0.10574256
0.030637281 -0.053215887 0.0061044316 0.0722286 0.0026044808 0.009385338 0.045985345 -0.035908792
0.03921514 -0.029115379 -0.0033243224 0.05112708 -0.031437237 -0.048651487 -0.023210507 0.043403227
0.0763256 0.019780772 -0.038417593 -0.0029928952 -0.03624816 0.011784189 -0.027054682 0.07618913
0.07203955 0.035876215 -0.05582486 -0.025167707 -0.060408853 -0.024897661 -0.029319396 -0.07169072
-0.03460131 0.017177043 0.18125229 0.16953014 0.20403723 0.20370981 0.16460885 0.059996005
0.16344722 0.16145885 0.09724236 0.052481856 -0.007203682 0.067760445 -0.042941045 0.019382445
-0.013940566 -0.011683413 0.054865047 -0.06859004 -0.0027011256 0.031552367 -0.07392809 -0.0330495
-0.0026945444 -0.058097307 0.072567984 -0.027794382 0.090973556 0.036402654 -0.0023645954 -0.011102486
0.018764766 0.041475076 0.1372263 -0.04966478 0.0030910696 0.09040943 0.010774361 0.044284586
0.038934354 -0.0065261046 0.061237577 0.0034085303 0.08181094 0.099432446 0.04668368 0.025336105
-0.056924466 0.017412225 -0.004102428 0.051946387 0.06423174 -0.025518553 -0.06142688 0.019022567
-0.024139285 -0.101530015 -0.08554038 -0.0046013375 -0.1000109 -0.06568982 0.04123158 -0.040545672
-0.042630743 0.041380025 0.024113985 0.06404838 -0.008003814 -0.037600197 -0.030195817 0.038127743
0.020859249 0.040640995 -0.08370131 0.048909925 -0.09421711 -0.11309952 0.04065059 0.034075927
0.02994892 -0.044741757 -0.08972313 -0.086000346 0.063821726 -0.017123321 -0.013445634 0.03783535
0.036255285 -0.03192073 -0.07330776 -0.06579541 0.013959121 -0.026498074 -0.03933698 0.055677723
-0.071359105 0.08205988 -0.041832715 -0.016897095 0.04694935 0.026571516 -0.047213454 -0.06269012
-0.002595025 0.012210244 0.004050172 -0.025763575 -0.11447524 -0.07598552 0.05252796 -0.0017739178
0.05279846 -0.011881192 0.04187871 -0.029373495 0.070816204 0.05873287 -0.06880861 0.08743438
-0.026710046 0.007888715 0.055820968 0.027341142 0.01719864 -0.016629562 0.027665157 0.0792499
-0.04716859 0.049122803 0.05656765 0.03678259 0.03549274 -0.042402253 -0.013053672 0.03646255
-0.033848215 -0.055189677 -0.011094522 -0.023822922 0.035057433 -0.08541517 -0.050343383 0.06555297
-0.049725547 0.069057375 0.034659434 -0.005672054 -0.04250288 -0.120979056 -0.006100633 -0.0089881895
-0.13204987 -0.09852315 0.02958532 -0.05013691 -0.1039823 0.05547117 0.024140812 -0.024790082
-0.06489524 0.02954759 -0.12061843 0.030716727 -0.027681481 0.022903312 -0.04150969 0.026644569

res1b.conv1.bias f4 [16]
00000000: d8f1 15bc 12a7 563c b845 483d 88a3 0cbd
00000010: 024f 99bc 1726 6bbd ec6f cdbc 5b7b 9ebc
00000020: 4444 403d 384a a4bd 2b11 53bd 3696 a8bd
00000030: c20b 35bd 3679 00bd de03 923c ca48 753d
-0.009151898 0.013101356 0.048894614 -0.034335643 -0.018714432 -0.057409372 -0.025077783 -0.01934593
0.046940103 -0.080219686 -0.051530045 -0.082317755 -0.044200666 -0.031365596 0.01782411 0.05988387

res1b.conv2.weight f4 [16, 16, 3, 3]
00000000: 93c3 08bd 82cf 173d 63d1 af3c 139c 023d
00000010: 5748 123d 517c 83bd cf03 3dbd 76de 473d
00000020: 52d0 bebd 6880 89bd 8cb4 373d c38f da3b
00000030: d2f6 2dbd 42a3 19bd 3c7f d83c 6b3b 723d
00000040: 5cf5 55bd 6d9d aebd d2d6 a5bd 2fe7 123c
00000050: 649b 3f3c 040d 74bd 62ac 773d 3663 653d
00000060: 46df 9e3d 31ad 95bd 6dac 25bd 8559 0f3d
00000070: eb45 bb3c a1e1 ab3d a4dc 9fbd f8d9 ec3c
00000080: cab8 10bd f3f8 a33d 18bd 363c f71e 60bd
00000090: f234 8a3d 9d21 ce3b f4d9 0c3d 56f9 bd3d
000000a0: 6527 a33d 7346 6abd a0d4 d43d d205 33bc
000000b0: 9b96 9abd 9185 33bd 20c1 6f3d 0404 5d3d
000000c0: 12d4 7bbd 95a0 f43c 5aec 2a3d 9d7a 5b3d
000000d0: 4712 863d e61f aebd b37f 7a3d d718 b5bd
000000e0: 9da9 263d dab5 afbd 3780 603d 0339 f4ba
000000f0: 83d1 f3bc 671b 62bd a9e8 893d 44d5 903c
00000100: 5c10 933d a994 d93d 0986 d8bc fb9c 3ebd
00000110: 7cf6 78bd b633 3ebd e52b 0cbd 2767 813d
00000120: d1c7 2bbd ce7f 8fbd 4e1e 873c aa24 cebc
00000130: ddb5 633c ca82 a63d f869 c8ba 099c 123d
00000140: 1fa6 1abd 244a e73c c926 13bd 37dc 83bd
00000150: 39d1 29bd 2f65 acbd 396d b1bd ccbb f63c
00000160: 4808 8a3d 02c7 c73c dbf6 96bd c5f6 53bd
00000170: 93c7 45bc 0d16 babd e09e 583d 1870 abba
00000180: 81a8 ba3c 1fc2 85bd 6bf6 a1bd 968b b9bd
00000190: 55df 5dbd 6d05 e43b 147a b7bd 94c3 8d3d
000001a0: aa9f 7fbd c8e5 f5bc 0a32 983d bbd1 053d
000001b0: 431f b6bd 35ed 843c 26a2 2ebd 3582 b63c
000001c0: 3548 c8bc b334 873d f019 8dbd a923 943d
000001d0: f92b 36bc b20d ff3c 4c7e b7bd 7a36 c1bc
000001e0: 352b 263c f4f1 1ebd e730 8b3d aa83 a93c
000001f0: 1c67 233c b6b3 933d 0e59 8c3c 3038 e53c
00000200: 2bb9 b6bc 49f5 53bc 6f2f 69bd bdac b63d
00000210: 5e3a 983d f22b 49bd c32d c33d a419 12bd
00000220: 115a e93c e990 7b3d e6a1 623d 6359 ef38
00000230: f636 fb3b 0a4f ffbc 606f 23bd b586 6bbc
00000240: 8c7e 1ebd 6efa 43bd ff63 913d 15b9 c7bd
00000250: 0ba5 a0bd 54b3 5c3d 3fef c53c 6e3c 5bbd
00000260: cd11 03bb 7e80 113d 2a84 593d 8e5b 173d
00000270: 4154 36bc e53d 3f3d ed4d 93bd a435 ce3c
00000280: ca94 a33c f262 413c 333e 4d3d aa4b 3abc
00000290: 6300 893d a908 abbd bb4f 11bd 0a2b f83d
000002a0: 0d46 c83b 6cbb a8bc e57d 0fbd 53ec 403d
000002b0: fafa 203d 7eff b038 a655 39bd 36fa 8f3d
000002c0: 5004 8b3d ef73 843d ae1f 453d f753 883d
000002d0: 72db 3f3c 242b 02bd 27dd 4bbd fe26 6f3c
000002e0: 8f7e b53d b6fc b1bc e3b8 17bd a37b 8cbd
000002f0: 3bdc d43d 8cd0 193d 2f66 b0bc 6701 e23b
00000300: 4c95 90bd a634 0bbc 3098 9cbd 85d7 073d
00000310: 790a 863d 420d 0e3a df04 923d e7ab 3fbc
00000320: 0be4 46bd a9f1 333c c8dd 283d ddad 1cbd
00000330: 2040 bcbc 6ea8 283d 3bc2 203d ce5a d9bd
00000340: 6247 b63d 83b4 663d 41ae fbbd bcb0 803d
00000350: e058 b1ba 67e1 90bd 3f70 243c 61dc 95bc
00000360: e60f 2a3c ba69 77bd 9ac0 3cbc b23f 22bc
00000370: b0c2 473c 7d02 983c 160b 98bd 24e3 a7bd
00000380: 4060 483d 42c2 2bbd 02c8 653d 1711 8abc
00000390: ecc3 8abd f6e6 953d f38c 0dbd a65a 033d
000003a0: c98b 273c 07c0 87bd 7a11 353d ab92 8bbd
000003b0: 90e5 38bd 6c7e 893d 507d a2bd 479b 83bd
000003c0: f702 8cbd df0b 3a3d eee3 9bbc 8a23 48bc
000003d0: 8a25 b6bd bae8 b63d d772 39bd 6399 12bd
000003e0: 18a5 e83d a564 6d3d 2717 19bd e927 c43d
000003f0: 31c0 dabc aac6 41bd f84a 90bc 494b 47bd
-0.03338964 0.03706313 0.021462148 0.031887125 0.03571352 -0.06420196 -0.04614621 0.04879614
-0.09317078 -0.06713945 0.044849917 0.0066699698 -0.042471714 -0.03750921 0.026427858 0.059138697
-0.052235946 -0.0852612 -0.08097614 0.008966251 0.011694763 -0.059582725 0.06046713 0.056002818
0.0775743 -0.07308424 -0.04044764 0.03499748 0.022860488 0.08392645 -0.07805756 0.02891253
-0.03533248 0.08006468 0.011153482 -0.05471703 0.0674838 0.006290628 0.034387544 0.09276073
0.07966498 -0.05719609 0.103921175 -0.010926681 -0.07548257 -0.04382855 0.058533788 0.053958908
-0.061481543 0.029861728 0.04172931 0.05358373 0.06546455 -0.08502178 0.06115694 -0.088426284
0.0406891 -0.08579607 0.054809775 -0.0018632713 -0.029762989 -0.055201914 0.067338295 0.017679818
0.07180855 0.10624058 -0.0264311 -0.046536427 -0.06078194 -0.046436034 -0.03422155 0.06318503
-0.041938607 -0.07006799 0.016493943 -0.025163967 0.01389834 0.08130415 -0.001529037 0.035793338
-0.03775608 0.028233595 -0.03592566 -0.06438487 -0.041459296 -0.08417737 -0.08663411 0.030118845
0.06739861 0.024386887 -0.07371303 -0.05174901 -0.012071508 -0.09086237 0.05288589 -0.0013079671
0.022785427 -0.06531166 -0.079083286 -0.09059827 -0.054168064 0.0069586546 -0.089588314 0.06922069
-0.062408127 -0.030016795 0.07431419 0.032670718 -0.088926814 0.01622639 -0.042635106 0.022278884
-0.024448493 0.066018485 -0.06889713 0.07233364 -0.011118882 0.03113446 -0.08959636 -0.023585547
0.010142137 -0.038804963 0.06796437 0.020692665 0.009973314 0.072120115 0.017132308 0.027980894
-0.022305092 -0.0129368985 -0.05693 0.08919666 0.07433008 -0.049114175 0.09530213 -0.035668984
0.02848533 0.061417494 0.05533018 0.00011413058 0.007666464 -0.031165618 -0.039901137 -0.014375378
-0.038694903 -0.04784625 0.07099151 -0.097520985 -0.078439794 0.053881958 0.024161933 -0.053524427
-0.0019999624 0.03552293 0.053104557 0.036952548 -0.011128486 0.046689887 -0.071925975 0.025172062
0.01996841 0.011803376 0.050108146 -0.011370579 0.06689527 -0.08351261 -0.035476428 0.12117584
0.0061118663 -0.020597182 -0.03503217 0.047100376 0.03930185 8.439923e-05 -0.045247696 0.07030146
0.06787932 0.06467425 0.048125915 0.0665664 0.011710035 -0.031779423 -0.049771454 0.014596699
0.0886203 -0.021726947 -0.037041556 -0.06859519 0.10393568 0.0375524 -0.0215331 0.00689714
-0.07059726 -0.008496439 -0.07646215 0.03316452 0.06544966 0.00054188457 0.07129835 -0.0116987
-0.048557322 0.010982909 0.041227132 -0.038251746 -0.022979796 0.041176252 0.039247733 -0.10613023
0.08900334 0.056324493 -0.12289096 0.062837094 -0.0013530515 -0.07074242 0.010036527 -0.018293561
0.010379767 -0.060403563 -0.011520529 -0.009902881 0.012192413 0.018555874 -0.074239895 -0.081976205
0.048919916 -0.041933306 0.056098945 -0.016853852 -0.067756504 0.07319443 -0.034558248 0.03206887
0.0102261985 -0.06628423 0.04420612 -0.06815084 -0.045140803 0.06713566 -0.07934058 -0.06426101
-0.06836503 0.045421477 -0.019029584 -0.012215504 -0.08893879 0.08931108 -0.045275535 -0.035790812
0.11359614 0.05795731 -0.037375595 0.09577925 -0.026702972 -0.0473086 -0.017613873 -0.048655782

res1b.conv2.bias f4 [16]
00000000: 24b1 46bd a529 2fbd 3abb 4a3c 2c50 9cbb
00000010: 81d0 22bd fe11 343c cd55 c639 d62f d8bc
00000020: a027 abbc b7c2 0b3d 4a58 74bc 3288 8d3c
00000030: 6c12 9bbd 1832 a0bb f903 b53b dd54 30bd
-0.04850878 -0.042764325 0.01237374 -0.0047702994 -0.039749626 0.010990618 0.0003782943 -0.026389997
-0.020892918 0.03412124 -0.014913628 0.017276857 -0.07571873 -0.004888784 0.005524155 -0.043049682

conv2.weight f4 [32, 16, 3, 3]
00000000: 919d 79bc 7c17 2d3d 3828 29bd a56e a23b
00000010: 4177 0abd c89d b63d c27a 333d 7893 073d
00000020: 88da 4bbb 0c66 51bd a9fc e2bc c409 b43d
00000030: 005d 873c 2180 f53c c592 3b3d 6978 933c
00000040: 48b4 823d f305 a03d 198a 49bd 5dd9 73bd
00000050: ccc7 2ebd 8164 863d 8a80 2a3d 85b9 f23c
00000060: 7ab3 86bd 03e4 d5bb 97c8 9d3d a804 80bd
00000070: 1be7 123d acdd 133d a834 933c f556 0d3c
00000080: 6dd5 a83d f79c 97bd a972 18bd 10e7 0a3d
00000090: 24bb 723d 2391 b4bc c9eb f13b 6fed a23c
000000a0: 9de9 3b3d 3cc5 7a3d e528 a33d 8692 05bc
000000b0: 31ed 9b3d 40a3 c73d 1260 bf3c 3ef5 14bc
000000c0: 1bf7 9e3d 1691 823c 715d ce3d 041f 7e3d
000000d0: 0268 6abd 6009 b83d 95d1 92bd 1421 0cbd
000000e0: 743c 4dbd db52 273d d7eb 9c3b 9aad fdba
000000f0: f625 5a3d 7160 843d 2623 1dbd 8921 aebc
00000100: 3e70 5bbc 7f27 c03c f9c1 a4bd f4d6 113c
00000110: 9989 a2bd 2207 a3bd 42e9 aebd e2a5 9c3d
00000120: b637 96bc 2fc8 5fbd ed75 043d cb6d 8d3c
00000130: a4fc 50bd f364 623d 7a10 10bd 1ff5 b03c
00000140: 1571 673d 7f5f 9fbb 87ca 353d 3589 91bd
00000150: a5cc 803d 6da2 95bd 72dd 073c a2db eb3c
00000160: c29e 3f3b ff79 44bd 3f8b 7bbd 9116 e4bc
00000170: 33b6 063d f0f8 dabd 69b2 acbd 9068 eb3c
00000180: 2bc1 b5bd ba6b ce3a 19e1 943d 3767 23bd
00000190: 1b26 2cbd 2b2f dd3c 863a 85bc 565f 293d
000001a0: dce4 873d 22ee 843d 080e 66bd f530 313d
000001b0: e133 603d e56c 8abd a3c3 0fbd d596 ab3d
000001c0: 9a2f 7cbd a894 8c3d 5e9f f7bc a940 89bc
000001d0: 5e20 ab3c 8e10 16bc e3ba 6ebd 5bb9 813d
000001e0: b8d3 ab3d 00a8 883d f3f8 8ebd 4064 9bbd
000001f0: 5883 82bc 84c8 a43d 27ff a3bd b35c 85bb
00000200: bee7 38bc 9f3f d1ba 8ed6 a33c 0f9b cdbc
00000210: cf3f cb3c 52b5 143c 665f 3dbd 191f 863d
00000220: 9e75 943d 7ce3 17bd 0bf8 97bd 63b9 c33d
00000230: 0cc9 c43d 38aa 313d ea0c e3bc e00b 85bc
00000240: 9c24 523b 3be5 c33c ae69 383d 34d3 633d
00000250: c526 e1bc 966c 6a3d 2fb4 a83d 856d 19bd
00000260: 45df 1d3d 2a82 833c a51e c03d 3969 403c
00000270: ab93 873d cfdf 5abb 0b55 543d 342e 6b3d
00000280: 2a6d 38bd 6ccc 2abd 52c1 14bd 4d6d 7b3c
00000290: d252 88bd da53 8f3c 5005 11bd 719d fcbd
000002a0: 9075 953d 361f 853c c300 bfbd 2fde e93c
000002b0: 33e7 15bc e1b5 363c 1eae afbd b241 a5bc
000002c0: d370 a23d 7d77 3f3d 3fb2 8d3d 661c 75bb
000002d0: 2b0c 2d3d aff6 7cbd f8de 4b3d 8436 95bc
000002e0: 64f6 49bd 6c42 cfba 488c 973d 7183 0dbd
000002f0: 7bd1 803c b600 d93d 48ce 483c 900e 1dbd
00000300: 58e2 ba3d 883c 013d 3e8b cf3d 9936 9c3d
00000310: 5ff2 613d 0478 cf3d c686 84bd b78c 263c
00000320: 8b5e af3c 1f46 3d3d 7218 f8bc 7bc2 02be
00000330: 12e8 5dbd 6770 1fbd b87b 9cbd bee6 8ebd
00000340: f054 403d dc61 42bd 39cd 89bd 2161 173d
00000350: e310 19bc eff5 5f3d 69c0 39bd 06dd 213d
00000360: ef5f 5bbd 39d3 0a3d 6657 a03d bdac 83bd
00000370: 65ff 42bd 3d08 97bd 808e 553d 30e6 913d
00000380: 9a6a 713d 8fd0 b33c 0eba c2bd d228 17bc
00000390: a624 18bd 8500 193d 430e 97bd 28ac c4bd
000003a0: 8f96 0d3d 9d83 4f3d 4fce 683d 7037 b3bd
000003b0: 5c3f 753d c924 8cbd 27d8 bcbc 0ac3 703d
000003c0: 44f3 bdbd 02a4 31bc ccfe d3bc a808 6abd
000003d0: 38a4 5d3d 93c7 373d 66e0 f0bc 565b e23c
000003e0: 1a9a febb ca7f d53b 4428 87bc eaaf d0bc
000003f0: 09fa f4bc 3602 6b3d 2671 3b3d ee0a a63c
-0.015235321 0.042258725 -0.04129812 0.0049570375 -0.033805136 0.08916813 0.043818243 0.03309962
-0.0031105597 -0.05112271 -0.027708368 0.08790925 0.016523838 0.029968323 0.045794267 0.018001752
0.06382042 0.07813635 -0.049203966 -0.059533466 -0.04267101 0.06562138 0.04162649 0.029629478
-0.06577201 -0.0065274253 0.07704275 -0.06250888 0.03586493 0.036100075 0.017969444 0.008626689
0.08243833 -0.074029855 -0.037218723 0.033911765 0.059260502 -0.022041863 0.007382844 0.019888608
0.045877088 0.061223254 0.079667844 -0.00815261 0.076136 0.09747934 0.02336124 -0.009091673
0.077619754 0.015938323 0.10076416 0.062041298 -0.057228096 0.08986163 -0.07168881 -0.034211233
-0.05010648 0.0408505 0.0047888565 -0.0019354105 0.05325886 0.06463707 -0.0383636 -0.021256225
-0.01339346 0.023456333 -0.0804481 0.0089013465 -0.07936401 -0.07960345 -0.08540584 0.07648827
-0.018337112 -0.05463427 0.032339025 0.017264267 -0.051022187 0.055272054 -0.035171963 0.021601258
0.056504328 -0.004863679 0.0443826 -0.07106248 0.06289033 -0.07306371 0.008292543 0.028791253
0.0029238914 -0.047967907 -0.061412092 -0.027842792 0.032888602 -0.10692012 -0.084324665 0.028736383
-0.088747345 0.0015748658 0.072694965 -0.039893355 -0.042028528 0.02700003 -0.016263258 0.041350685
0.06635448 0.06490733 -0.056165725 0.04325958 0.054736976 -0.06759051 -0.035098683 0.08378378
-0.061568834 0.068642914 -0.03022736 -0.016754465 0.020889457 -0.00915922 -0.058283698 0.06334182
0.083899915 0.066726685 -0.06981077 -0.075874805 -0.01593177 0.08046058 -0.08007651 -0.0040698885
-0.01128572 -0.0015964395 0.019999769 -0.025098352 0.0248107 0.009076433 -0.046233557 0.065489
0.07248996 -0.03708218 -0.07420357 0.09556844 0.09608659 0.043375224 -0.027716119 -0.016241014
0.0032065278 0.023913017 0.04502266 0.05562134 -0.027484307 0.057232462 0.08237492 -0.03745796
0.038543005 0.016053278 0.09380845 0.011743837 0.06619962 -0.003339756 0.051838916 0.05741711
-0.045025982 -0.04169886 -0.036317177 0.015345884 -0.06656422 0.017496038 -0.035405457 -0.12334717
0.07297814 0.016250234 -0.09326317 0.028548328 -0.0091493605 0.011151762 -0.08578132 -0.020172928
0.07931676 0.046744812 0.06918763 -0.003740096 0.042247932 -0.061758693 0.049773186 -0.018214472
-0.049307242 -0.0015812642 0.073998034 -0.03454918 0.015724888 0.10595839 0.0122562125 -0.038343966
0.09125203 0.031551868 0.1013398 0.07627601 0.055162784 0.10130313 -0.064710185 0.010165385
0.021407386 0.04620945 -0.030285094 -0.12769501 -0.054176398 -0.038925555 -0.07640785 -0.06977604
0.046956003 -0.047456607 -0.06728596 0.036957864 -0.009342405 0.0546779 -0.045349512 0.039517425
-0.053558286 0.033892844 0.0782917 -0.064294316 -0.047606844 -0.07374618 0.05213785 0.07123983
0.058939554 0.021950034 -0.09508143 -0.009226041 -0.037144326 0.03735401 -0.07375767 -0.09603149
0.034567412 0.050662626 0.056837376 -0.08750808 0.059874877 -0.06842954 -0.023052288 0.058779754
-0.09274915 -0.010842325 -0.025878333 -0.05713716 0.05411169 0.044868063 -0.029403877 0.027631443
-0.007769835 0.006515478 -0.016498692 -0.025474507 -0.029904382 0.057375155 0.045762204 0.020268884

conv2.bias f4 [32]
00000000: d225 5d3d 6acd 2b3d 3f55 f73c 983f 313d
00000010: b31f 81bd 0fa3 66bd e913 79bd 9384 5fbd
00000020: 0a86 89bd cf91 86bc 5237 953d 27cf 5cbd
00000030: 930b 8dbd a249 f53c d120 2c3d 2ea2 013d
00000040: 4a60 243d 0f7f 68bc f406 da3c c06f 36bc
00000050: fd89 6cbc 0189 94bd b1ae 1bbd ae45 a43b
00000060: f5c1 9abd 3d44 20bd 6933 f8bc b3ab 8fbc
00000070: f272 1e3d 7e16 9bbc 539f 5d3b 2da1 2cbd
0.053991146 0.041943945 0.030192016 0.04327354 -0.06304874 -0.05630785 -0.060810003 -0.054569792
-0.06715019 -0.016426949 0.07285942 -0.053908493 -0.06886973 0.029942337 0.042023484 0.031648807
0.04013089 -0.014190449 0.026614644 -0.011135042 -0.014437196 -0.07252694 -0.038008396 0.0050131893
-0.075565256 -0.039127577 -0.030297952 -0.017537927 0.03868384 -0.018931624 0.0033816888 -0.042145897

res2a.conv1.weight f4 [32, 32, 3, 3]
00000000: 03a4 39bd 52c8 a2bc e8c4 e3bc c871 313d
00000010: ad25 403d 9738 4aba 7071 4a3b 520c 593c
00000020: 3b3f abbc 52c4 4d3d 4fc4 34bd b7d2 773d
00000030: 27a7 a3bc a7f0 613d a567 373c d4cc 573c
00000040: 0d6d 603d c6f6 a73b 5e95 633c 4d3f 383d
00000050: 1892 88bc 840a a03b a3b8 543d f38e d73c
00000060: f3c6 bb3c ee56 a6bc 003a 46bd b272 b7bc
00000070: 8a76 bd3c 3064 953c e5e9 55bd 9db4 62bd
00000080: 5910 62bd ed01 43bc 00f7 3e3d f5f1 6d3d
00000090: b5c8 673c 2672 c73c 2abb 15bd de77 4e3c
000000a0: 7cfd 23bd 3eaf 51bc 49f1 433c 19cd 4dbd
000000b0: 33b0 483c d303 853c d68b b33c c560 2cbb
000000c0: bcfe 3fbb a004 e8bb 11a7 41bd 3add 573d
000000d0: 8bd1 7cbd a230 c0bd 28ef 983b 0ce9 cf3c
000000e0: e1ed db3b e778 393d 47fb fdbc a212 0a3d
000000f0: a3e1 c43b 58fd 9a3c d8d9 63bd ab3d da3c
00000100: fc2d 1abb 813e c23c 49c8 c63c f852 9a39
00000110: ea57 25bc abf2 423a adda e4bc 3f3a 2abd
00000120: 36f1 03bc d2be 02bd a159 8a3d a35e 273d
00000130: 7c5e 233d 8ad3 4cbc 0728 0fbd 3ac5 89ba
00000140: 0f85 a63c 0610 99bc 2a73 833d 6c11 84bb
00000150: 0b8c 883d e97a b83c f837 8cbd 43d7 2a3d
00000160: d961 923d 06b2 0fbe 5093 fd3c 940f 4cbc
00000170: aac5 633d 06d5 e0bc 77a6 253d c791 d1bc
00000180: 23bf 10bd 1252 8abc 32cc 4e3d d777 1fbd
00000190: 631b 9b3c 0971 efbc 6a8f 41bd 31ad 59bb
000001a0: 6dd4 97bc 0f25 b7bc 3d1b f93c bac8 943c
000001b0: 2081 173d 7855 d43c 126a cf3c da0e 783c
000001c0: 7bc9 65ba 70c8 00bd 6003 3d3d 1dfa abbc
000001d0: b982 d6bb cc9c a2bc a162 16bb 879e 26bd
000001e0: 9c2f ffbc 81d8 53bc 0502 53bc 922d 043d
000001f0: 1ca3 16bd 3792 42bc 0404 9b3c a890 d93c
00000200: ec04 a5bc d54f 453d d9cc 0c3d e178 fd3b
00000210: a8e2 c13c 9b23 60bb c243 dcbc b38c 8fba
00000220: ca22 3cbd e1ef af3c cec3 5cbd 3dd4 273c
00000230: 76b7 353d 8b25 13bd d025 303d 50b2 273d
00000240: c52a 23bd 6cfa cd3a 35ac a83c 340a 303d
00000250: 5975 e0bc e94e 1f3c 5199 beba 9b82 253c
00000260: 085f 0c3d 18f3 93bc de3f 033d 342e 80bc
00000270: c71c 2a3d 80b4 54bd 9eb6 26bb b410 743d
00000280: 61fa 21bd fd9c c2bd a900 8fbb 20d8 58bd
00000290: 7369 223d 0cfc 87bc 425b 57bd e698 28bd
000002a0: 236f 7bbd bcce b93b a295 09bb 33e2 7a3d
000002b0: e75b 243d 9250 343d a672 2fbd 81ff c13c
000002c0: 105a 58bd 513c 093d 5086 71bd fcac 0d3d
000002d0: 2ee1 3a3d 0903 e13c e2f3 203d 18c1 323d
000002e0: 9db6 17bd 806e 9d3c fad9 1ebc f50b a3bc
000002f0: c800 6e3c dca6 853d dcaa f63c 6794 f93c
00000300: 6c95 503d e76c 813d 4076 a2bc cd06 ab3c
00000310: 9bc2 00bc ce43 d73c da83 74bc a16f 6f3d
00000320: 2527 ff3c a429 a43b 5f1b 13bc e4c6 52bd
00000330: 7b59 93bc 171d f13c 1550 8fbd 2cd6 423d
00000340: 51d2 c73c 16d6 5a3d 5149 e6bc ca5a 9e3b
00000350: 2f49 ee3b a8c6 173d 24d3 88bb 605d 00bb
00000360: eeb8 263d d7ad 643c 923b 1b3d 26e7 573d
00000370: d3ca 00bd ec0a 0cbd 76f4 2dbc 3271 9bbc
00000380: 5d24 02be 8147 16bd 511b 353d 0a4e 973d
00000390: cc15 ecbc 4aeb 513d 83cf 223c f2f0 6f3c
000003a0: 2bb3 633c 48e2 7dbb 99c9 483d f162 2dbc
000003b0: 2acf 9eba 685e 4a3d cbfc 8b3c 8a19 48bd
000003c0: 6d1a ccbc 6bd5 5fbb e11b bdbd b4fa 163d
000003d0: 297a 2f3d 5cb7 00bd 5ec7 46bd 7939 21bd
000003e0: 3824 733d 9ffa cf3c 69c9 86bd cae0 f93c
000003f0: b4cb 99bb fd10 e8bc 6225 8bbb f753 82bc
-0.04532243 -0.01987091 -0.027803853 0.0433214 0.04691093 -0.0007714121 0.0030890368 0.013247566
-0.020904174 0.050236054 -0.044132527 0.060503688 -0.019977165 0.055161145 0.011194144 0.013171393
0.0547915 0.0051258532 0.013890592 0.044982243 -0.016671225 0.004884066 0.051933896 0.02631328
0.022922015 -0.020305123 -0.048395157 -0.022393558 0.023127813 0.01823625 -0.052225012 -0.055348027
-0.05519137 -0.011902315 0.046622276 0.058092076 0.014146973 0.024346422 -0.036555447 0.012601821
-0.040036663 -0.012798129 0.011959382 -0.050244424 0.01224904 0.016237175 0.021917265 -0.0026302796
-0.002929612 -0.0070806295 -0.047278468 0.052701212 -0.061723273 -0.09384276 0.0046671815 0.02537968
0.006711707 0.045281317 -0.031003607 0.033709176 0.0060083433 0.018919632 -0.055627674 0.026640734
-0.0023525944 0.023711445 0.024265425 0.00029434985 -0.010091761 0.0007436673 -0.027936304 -0.041559454
-0.008053115 -0.03192026 0.067553766 0.040861737 0.03988503 -0.012501607 -0.034950282 -0.0010511049
0.02032712 -0.018684398 0.0641845 -0.004030397 0.06667336 0.022519546 -0.06846613 0.041709196
0.07147569 -0.14032754 0.030954033 -0.012454886 0.05560843 -0.027445327 0.040441956 -0.025582207
-0.035338532 -0.016884837 0.050487705 -0.038932648 0.018933957 -0.029228704 -0.04725591 -0.0033214802
-0.01853391 -0.022356538 0.030408496 0.01816212 0.036988378 0.02591966 0.025319133 0.01514026
-0.00087656797 -0.031441152 0.046145797 -0.020993287 -0.006546345 -0.019850157 -0.002294697 -0.040678527
-0.031150632 -0.0129300365 -0.012878899 0.03227002 -0.036776647 -0.011875681 0.018922813 0.026558235
-0.020143948 0.048171837 0.034375045 0.007735357 0.023667648 -0.003420091 -0.026887778 -0.0010951966
-0.045931615 0.021476688 -0.05389767 0.010243473 0.044364415 -0.035924476 0.04300481 0.040941536
-0.03983571 0.001571489 0.020589927 0.04297848 -0.027399706 0.0097234035 -0.0014541541 0.01010194
0.034270316 -0.018060252 0.03204333 -0.015647031 0.04153135 -0.05192995 -0.0025438438 0.05958624
-0.03954542 -0.095025994 -0.0043640924 -0.052940488 0.039651345 -0.016599678 -0.052577265 -0.04116144
-0.061385285 0.0056703966 -0.002099373 0.061250877 0.040126707 0.04402215 -0.042833947 0.023681404
-0.052820265 0.033504788 -0.05896598 0.0345888 0.045624904 0.027467268 0.039295085 0.04364118
-0.037039388 0.01921773 -0.009695524 -0.019903162 0.014526553 0.065259665 0.030110769 0.030466272
0.05092375 0.063195996 -0.019831777 0.020877266 -0.007858898 0.026277449 -0.014924014 0.058456067
0.031146595 0.0050098468 -0.008978694 -0.051459208 -0.017987004 0.029432816 -0.06997696 0.04756753
0.024392279 0.053426825 -0.028111132 0.0048326002 0.0072719078 0.037054688 -0.0041755605 -0.0019586906
0.040703706 0.013957462 0.037898608 0.052710675 -0.03144343 -0.034190103 -0.010617366 -0.018974874
-0.12709184 -0.036689285 0.044215504 0.07387932 -0.028818987 0.05124978 0.00993717 0.014644848
0.013897697 -0.003873961 0.049020384 -0.0105826715 -0.0012116183 0.04940644 0.017088315 -0.04885248
-0.024914945 -0.0034154307 -0.09233833 0.036860183 0.04284111 -0.031424865 -0.048529975 -0.03936145
0.059360713 0.02538806 -0.06581385 0.030502696 -0.0046934728 -0.028328413 -0.0042463997 -0.015909178

res2a.conv1.bias f4 [32]
00000000: 2512 0abd 4614 9e3c ef93 9d3c 465b 963c
00000010: 4f8a 29bd a602 edbc 5311 493d c2b1 ee3b
00000020: 690f 24bd b424 183d 7cd0 c53c dea9 eb3b
00000030: 0139 1a3d eda0 bfbc 3db8 bdbc a55d 753c
00000040: 9c90 e73c 5913 083d cb4d dd3c 76c2 30bd
00000050: 8f42 a1b9 5526 d1bb 1c64 f3bc 31b6 d0bb
00000060: 6c08 473d e9dc aa3c 6f5e e2bc 8fb9 3b3c
00000070: 74e1 483a 7cd5 c8bc cf8c 91bc e2f9 a93c
-0.03370871 0.019296777 0.01923558 0.01835407 -0.041391667 -0.028931927 0.049088787 0.007284374
-0.04005376 0.037144378 0.024147265 0.0071918806 0.03765202 -0.023392165 -0.02315914 0.01497594
0.028267197 0.033221576 0.027014634 -0.043154202 -0.00030757903 -0.0063827434 -0.029710822 -0.006369375
0.048592016 0.020857291 -0.02763292 0.011457815 0.00076629897 -0.02451586 -0.017767338 0.020749036
