checkpoints/ppo_academy_3_vs_1_with_keeper.pth (torch, 718571 bytes, 45 tensors)

conv1.weight f4 [16, 16, 3, 3]
000000 be 77 20 bd 02 85 1c bd 5b 09 c9 bd d0 a4 85 3a
       -0.039176695 -0.038212784 -0.098162375 0.0010196213
000010 15 fc a3 3d 95 ae e7 3d 06 2f 07 3d d7 4f 15 bd
       0.08007065 0.11312596 0.03300383 -0.036453094
000020 e7 51 92 3d e3 50 52 be 06 5c 23 be 30 f6 05 be
       0.07144528 -0.20538668 -0.15953073 -0.13082194
000030 b0 b7 95 bd 9a a1 fc 3c 37 73 c4 3d 2e 8b 7f bb
       -0.07310426 0.030838776 0.09592288 -0.003899287
000040 d9 23 9a 3c 41 eb b4 bc f4 d2 fe 3d d6 5b d5 3d
       0.018815922 -0.022084834 0.1244258 0.10417907
000050 6d 53 5a 3e 8a 93 0e 3e c1 fa cf 3d 7f f8 03 3e
       0.21320887 0.13923469 0.101552494 0.12887762
000060 59 8d 90 3d d4 2d 12 bc 56 f3 b3 3d 06 c5 72 bd
       0.0705821 -0.008922059 0.08786647 -0.059269927
000070 10 17 9d 3d 2f 6f a1 bd ab 8a 03 be f2 a5 0e bc
       0.076704144 -0.07882535 -0.12845866 -0.008706557
000080 e9 f4 4a 3d 91 bb b9 3c 3d 4a ca 3d 3b 8d 0b 3e
       0.04954997 0.022672446 0.09877441 0.13628094
000090 b3 6a ad bd 8b fe 92 bc 59 8e 70 3d a1 4b 71 bd
       -0.08467617 -0.017943641 0.058729503 -0.058910016
0000a0 7e 5a 68 3d f0 03 9f 3c 24 0f 41 3d 3d 03 ec bd
       0.056726925 0.019411057 0.04713358 -0.11524055
0000b0 f6 c1 72 3d d7 77 43 be 1e da 64 be cf 3e c9 bd
       0.059267007 -0.19088684 -0.2234883 -0.09826433
0000c0 12 66 13 be 34 28 88 3d 52 0a 81 be c2 82 68 bd
       -0.14394405 0.06648293 -0.25203186 -0.056765325
0000d0 15 89 a2 3d 34 fb 18 be 35 88 17 3d 23 e9 e4 3d
       0.079363026 -0.14939576 0.03699513 0.1117728
0000e0 b7 ec 85 3d d5 7e 14 3e 17 6e bb bd 94 92 9e 3d
       0.065392904 0.14501508 -0.09151857 0.07742801
0000f0 af 35 83 3d 7c c7 d3 3d f9 38 21 be b2 70 ff 3d
       0.06406724 0.10340783 -0.1574439 0.12472667
000100 6a 4d b8 3c b8 c8 44 bd 32 40 c4 3d 2f 5f b9 3d
       0.022497851 -0.048042983 0.09582557 0.09051358
000110 6c 3f d4 3d f9 d7 d0 3d 20 19 5c 3d e0 b9 de 3b
       0.10363659 0.101974435 0.0537349 0.0067970604
000120 38 12 ac bd 1d 3e d9 3c 18 5c c3 bd 06 0b 3b bd
       -0.084019125 0.026518876 -0.0953905 -0.04566481
000130 b1 13 61 bb cd e4 45 3d 8e 16 18 be bd 96 b1 3b
       -0.0034344012 0.048313905 -0.14852354 0.0054195807
000140 fc d8 81 bb 25 57 04 bd 2a 9a d2 bd 13 4f bc 3c
       -0.003962634 -0.03230967 -0.10283311 0.022986924
000150 ac 3d 74 bd ef 03 14 3c c0 ad 20 be 47 97 65 be
       -0.059629127 0.009034141 -0.1569128 -0.22420989
000160 ec bb 9e bd 7c f7 00 3d 1a bc 67 3e bf 10 41 bc
       -0.07750687 0.03148602 0.22630349 -0.011783778
000170 ce 98 fe bc de be 48 3d 1c b8 11 3e b2 28 46 3e
       -0.031078722 0.04901015 0.14230388 0.19351462
000180 00 af 79 3d d1 26 b3 3d 56 ea 9e 3d 99 84 d2 3d
       0.06095791 0.08747638 0.0775954 0.10279197
000190 0f 6b 89 3b b4 4d d8 bd fc 97 61 3e 41 01 b6 3d
       0.0041936706 -0.10561696 0.22030634 0.08886958
0001a0 78 4e 07 3e c6 8b b7 3c 1c 97 7a 3b 64 70 af 3d
       0.13213527 0.022405516 0.003823704 0.08566359
0001b0 da 08 80 bd d2 1b 3c be 63 e1 f3 3d 25 a2 9c 3d
       -0.06251688 -0.18369988 0.119082235 0.07648114
0001c0 eb c9 09 be 3c 04 28 bd a2 9e de bc 6e a8 2e 3c
       -0.13455932 -0.041019663 -0.027175251 0.010660274
0001d0 45 04 80 3d b9 27 48 bd 89 23 ab 3d 14 67 07 bd
       0.06250814 -0.048866007 0.08356387 -0.033057287
0001e0 67 bb 16 be 37 ed b7 3d 9b 63 f9 bd 71 97 37 be
       -0.14719926 0.08980792 -0.12177201 -0.17928864
0001f0 97 b7 53 bc 7b 9d 3c bd 7f 85 c3 3e 41 6b 95 3c
       -0.012922189 -0.046048623 0.38187787 0.01823962
000200 a7 06 3f 3d 3a 3f 52 bc 99 e1 4a 3e bb a3 af bd
       0.046637204 -0.012832457 0.19812621 -0.08576151
000210 30 1e 87 bc 9c 10 84 be 7a ed 11 3e 8e 17 aa bc
       -0.016493887 -0.25793922 0.14250746 -0.020763185
000220 6b cf 3a bd fd 1b 6c bc 01 5d 1b 3e de 30 f1 3d
       -0.045607965 -0.01441097 0.15172197 0.11776899
000230 91 37 46 3d d3 ec 09 be 6a b5 82 3e 18 7f 93 3d
       0.048392836 -0.13469248 0.25529033 0.072019756
000240 48 c9 ec bd 63 c2 d5 3d bc 03 a3 3d 56 44 43 be
       -0.11561829 0.10437467 0.07959697 -0.19069037
000250 04 30 fb 3d 2d 59 23 bc fa e3 e3 3d d9 74 e0 3d
       0.12265018 -0.009969992 0.111274675 0.10959787
000260 e6 86 89 be 84 b8 8b be 3c 8f e0 3c e0 48 98 bc
       -0.26860732 -0.27289212 0.02741205 -0.018589437
000270 e0 67 a0 3d 18 28 c5 bd e6 6f 8d be 88 6c 1f 3e
       0.078323126 -0.09626788 -0.27624434 0.15568745
000280 52 2a 1c bd f8 c8 11 3e 10 46 73 be e0 81 7a be
       -0.038126297 0.1423682 -0.23757195 -0.24463606
000290 9b ea 46 3c 56 af c5 bd cf 72 da bd 07 f4 14 be
       0.012140895 -0.09652583 -0.10666429 -0.14546214
0002a0 9e ee 64 bd 40 2b b6 3d 0b bd 35 bd 5b f2 63 bd
       -0.055891626 0.08894968 -0.04436974 -0.05565105
0002b0 b6 69 31 bd e8 4e fc 3c ca 09 10 3d 99 0a 10 3e
       -0.043313704 0.030799344 0.035165586 0.14066543
0002c0 19 97 81 3d b2 97 2d 3e a6 d4 0f 3e 67 f0 77 be
       0.06327648 0.16952398 0.14045963 -0.242128
0002d0 ca 46 41 be 13 03 17 bd e6 7f 0f bc 8f 74 05 3e
       -0.1887466 -0.036868166 -0.008758521 0.13032745
0002e0 17 16 e2 3d ae f0 5f 3d 07 51 81 be e5 d0 b2 3d
       0.110393696 0.05467289 -0.2525713 0.0873125
0002f0 4c bf d9 bd b4 25 c8 3c b8 40 fb bd 25 33 91 be
       -0.1063219 0.02443204 -0.122682035 -0.28359333
000300 86 15 9f bd 2d e2 5a bb f4 11 e9 3d 88 a1 cf bc
       -0.07767777 -0.0033398971 0.113803774 -0.025345579
000310 95 f8 0f be 34 ba 11 3d 6c 72 59 be 25 8b 85 3d
       -0.1405967 0.035577968 -0.21235055 0.0652068
000320 8b 76 5e be c7 64 22 be 76 ad 00 be 16 da 3a be
       -0.21724908 -0.15858756 -0.1256617 -0.18247256
000330 5d 13 05 be ce 6a 58 be a8 4e 82 be 6c 7c 12 be
       -0.12995668 -0.21134493 -0.25450635 -0.14305276
000340 75 65 db bd 89 b8 2c 3e 99 f0 56 bd 0f f9 22 3e
       -0.10712711 0.1686727 -0.052475546 0.15915321
000350 2d 2a 1f 3d dc 4f a6 be 55 5a 34 3e 4e 99 54 be
       0.03885858 -0.32482803 0.17612584 -0.20761606
000360 d6 5f 0a bd 0b b2 f4 bd 07 85 2f bd 68 a2 76 3d
       -0.033782803 -0.119480215 -0.042851474 0.060213476
000370 ab ef 81 bd 33 86 15 3d bc e8 3c bd e3 20 3a be
       -0.06344541 0.036504935 -0.04612039 -0.18176608
000380 f6 70 6e 3d 72 3a 9e bd 17 d5 f8 bc 46 5a 3e be
       0.058213197 -0.07725991 -0.030375047 -0.18589124
000390 e8 a4 2f 3d 57 8d 23 3e e0 16 12 3d a1 82 d7 bd
       0.042881876 0.15971886 0.035666347 -0.10522962
0003a0 b7 3a 8d 3d 7a 30 12 bc c2 d1 b2 bd 71 8e ec bd
       0.068959646 -0.0089226905 -0.087314144 -0.11550606
0003b0 e4 af ad 3d 5d 6a 15 3e 6d e5 34 be 1f 50 ba be
       0.08480814 0.14591356 -0.17665644 -0.36389253
0003c0 e7 ed 37 be 82 d4 0c be 66 d6 6b 3d 4f f8 d2 3c
       -0.17961846 -0.1375294 0.057577513 0.025753168
0003d0 18 29 ae bc 9e cb a6 bd 94 c1 16 3e cc db ba bc
       -0.02125983 -0.08144306 0.14722282 -0.022809885
0003e0 88 c1 78 3d b9 56 3d bc e5 6e 52 bc 96 6e 51 be
       0.06073144 -0.011556321 -0.012843822 -0.20452341
0003f0 60 6b ca bc b5 97 f5 ba e8 9c ad bd 1a c3 0a be
       -0.024709404 -0.0018737229 -0.08477193 -0.13550988

conv1.bias f4 [16]
000000 13 62 f2 bb e9 3f 47 bb 9f c5 27 bd ee f8 f5 bd
       -0.0073969453 -0.0030403084 -0.04095995 -0.1201037
000010 04 d4 8d bd 59 3d 39 3c a2 ed 16 bd 5c 66 08 bd
       -0.069252044 0.01130613 -0.036847718 -0.033300743
000020 4a bf 5c bd 78 f9 ba bc 1d 55 6a bc 61 7e 72 bc
       -0.053893365 -0.022824034 -0.014302519 -0.014800639
000030 52 44 cf bc 69 83 b7 bc 6c 93 b1 3c 4b 22 a2 bd
       -0.025301132 -0.022401528 0.021676742 -0.07916697

res1a.conv1.weight f4 [16, 16, 3, 3]
000000 dc 1e ef bc ce a3 24 3e 69 78 d7 3d 21 07 ee bc
       -0.02918952 0.16078112 0.10521013 -0.029056134
000010 96 8f 19 3d 70 08 80 bd e9 a2 e6 3d ba 80 3a bd
       0.03749045 -0.06251609 0.112615414 -0.04553292
000020 5d 0b 45 bd 84 90 31 be d3 bc 55 bd 5e 56 5d bd
       -0.04810654 -0.17340285 -0.05218203 -0.054037444
000030 33 b3 f7 bd c1 34 c3 bd 6b 35 bf bb a2 de 0a be
       -0.120947264 -0.095315464 -0.0058352253 -0.1356149
000040 fc 73 55 bc c3 79 ea 3d 6e e1 a2 bc e6 b5 0f 3e
       -0.013028141 0.114490055 -0.019882884 0.14034232
000050 40 76 96 bc 1b fd 53 bc 2e 18 c4 3d 37 59 4b bd
       -0.018366933 -0.012938763 0.095749244 -0.04964563
000060 52 df d9 bd bc 93 0b bd 30 14 c7 bd 85 50 89 be
       -0.10638298 -0.034076437 -0.09720647 -0.26819244
000070 95 a2 00 3d 55 cc 45 3e 39 5e e9 bd 75 af bb 3d
       0.03140505 0.19316228 -0.11394925 0.09164325
000080 83 09 c4 bb 99 ec 62 3e b1 78 26 3d c2 f1 d5 3c
       -0.005982579 0.22160567 0.040642444 0.026116256
000090 7f e5 4a 3c fe a1 da 3d 89 b0 a5 3d b1 cc b9 3b
       0.012383818 0.10675429 0.08090312 0.005670153
0000a0 ec 44 8e bd 47 52 1d bd e8 79 40 3d 38 62 f9 bd
       -0.069467396 -0.038408544 0.04699126 -0.12176937
0000b0 77 32 28 bd fe 7f a5 3c 10 72 10 3e b5 10 06 be
       -0.041063752 0.020202633 0.14106011 -0.1309231
0000c0 aa 42 83 bd f5 b7 c6 bd 26 bf 7a bd 83 3f b4 bc
       -0.064091995 -0.09703056 -0.06121745 -0.022002941
0000d0 d3 4a 4b be bb e4 2a be c1 53 82 bd 32 97 6d 3d
       -0.19852762 -0.16688816 -0.06363631 0.05800552
0000e0 6f 07 ab 3d b3 4f e9 bd 11 3a ca bd 71 7c 4c 3d
       0.08351027 -0.113921545 -0.098743565 0.049923364
0000f0 60 9b 41 bd 35 aa f9 bc cb 18 ca 3b 42 66 03 3e
       -0.047267318 -0.030476669 0.0061675063 0.12831977
000100 1f b7 8f 3d 93 b9 b0 bd 62 d8 64 3b d9 aa 74 be
       0.070173495 -0.086291455 0.0034919013 -0.23893298
000110 a8 78 2a be 2f 8c fb 3c ae db 33 3d 5a ee d1 3c
       -0.16647589 0.030706493 0.043910675 0.02562635
000120 9a 85 28 be c9 b5 ad bd cc 7f d1 3d 1f ca 08 be
       -0.16457215 -0.084819384 0.102294534 -0.13358353
000130 dc 30 96 bd b0 60 13 bc 30 ad 24 bd fb a4 2d bd
       -0.07333538 -0.00899522 -0.040204227 -0.042393666
000140 40 b4 4a 3d c4 c6 62 3d 59 b9 08 3e 94 2e ac 3c
       0.049488306 0.05536534 0.13351955 0.021018304
000150 cf 4e 96 bb d2 11 ab 3d 74 1e 7d bd 4d 68 cb bd
       -0.0045870314 0.08353008 -0.06179662 -0.09932003
000160 db 41 40 3d 33 96 99 3d 0a ae a6 bc ab fc 02 3e
       0.046937805 0.07499351 -0.02034666 0.12791698
000170 b5 d9 04 bd 14 c4 de 3c 83 46 9d bc 27 b3 f2 bc
       -0.032434184 0.027193107 -0.019198662 -0.029626442
000180 7c 45 65 3d 0c 0d 50 3c fb 55 c1 bd bd 95 0f bc
       0.05597447 0.012698423 -0.094402276 -0.008763728
000190 df 6b 5b 3a 13 eb 50 3d d1 6a bd bd 61 17 49 be
       0.0008370261 0.051005434 -0.09248889 -0.19637825
0001a0 4e 42 19 be 5f f9 c4 3d 47 07 61 3d f2 1f 8f 3d
       -0.149667 0.09617876 0.05493858 0.06988515
0001b0 12 08 82 3d 32 5f 3f 3d 9f 30 54 3d d1 46 b9 3d
       0.063491955 0.046721645 0.05180418 0.0904671
0001c0 d1 d1 57 3d 44 65 9d bb f2 58 69 3d 1b c4 0d bb
       0.05269033 -0.0048033316 0.05696959 -0.002163178
0001d0 57 65 fd 3d c7 a5 66 3d 5c 2e 43 3d 77 51 1a 3d
       0.12372845 0.05631044 0.047651634 0.037675347
0001e0 2b ea fb 3b 4f b2 52 bd 99 55 cd bd f2 20 8e bb
       0.007687827 -0.05143958 -0.10026092 -0.0043374235
0001f0 04 7c 85 bd bd 5e 4d 3c 0a a7 28 be d1 bf 6f 3c
       -0.06517795 0.012534794 -0.1646997 0.014633135
000200 97 dc 01 bd 05 56 5d be 9e 27 15 bd d9 80 92 3d
       -0.03170451 -0.21614845 -0.036414735 0.07153482
000210 10 ce dc bc fa 6a 16 bd 15 b5 84 bd 7c ff 75 3d
       -0.026953727 -0.036723115 -0.06479851 0.060058102
000220 7a fd a2 3c ce 85 80 3d 58 7a fe 3c fd dc eb bc
       0.019896258 0.06275521 0.031064197 -0.028791899
000230 98 47 70 3c aa c6 08 3e 98 31 91 bd 6f 2e 86 be
       0.014665507 0.13357034 -0.070895374 -0.262073
000240 b1 aa fd 3b 48 80 b7 3d 22 ca 7a 3d fe f4 ca bd
       0.0077412953 0.089600146 0.061227925 -0.0991001
000250 53 99 17 3d 0c 94 e9 3c 64 82 8a 3d 29 38 66 3d
       0.037011456 0.028512977 0.06763151 0.056205902
000260 3d 9e 97 bd 2c 54 b6 bd 9e ed 88 3c 7d bd ce 3d
       -0.074032284 -0.08902773 0.016714867 0.10094736
000270 0c 9b 82 bc 33 ef ce bd f6 28 c0 bd 23 7b 18 bb
       -0.015943073 -0.101042174 -0.09382813 -0.0023266755
000280 02 24 27 be 51 7f 99 bd 54 67 c1 3d 31 fc b5 bc
       -0.1632233 -0.07494987 0.094435364 -0.02221498
000290 a3 1c 23 be a1 4e 9c bd 4a a8 30 bb 52 48 a8 3d
       -0.15928893 -0.07632185 -0.0026955777 0.08216919
0002a0 a1 aa 41 bd e8 f8 fc bd bd e4 12 3d fd e6 7e 3d
       -0.047281865 -0.123521626 0.035862673 0.062232006
0002b0 0a 56 9e 3d 98 fe d4 bb 69 37 a1 3d 6d 09 05 be
       0.077312544 -0.0065000765 0.07871897 -0.12991877
0002c0 ba 74 ae bb 35 77 6e be cb 9a c7 3d 5f 14 81 be
       -0.0053239735 -0.23287661 0.09746321 -0.25210854
0002d0 c7 33 6b 3e a9 54 6c bb fb 8c 8d 3d 96 15 5b 3e
       0.2296897 -0.0036061204 0.069116555 0.21394953
0002e0 78 8c 19 3d c3 1a 87 3d 7b c2 3b 3e ba bc fd 3d
       0.037487477 0.06596901 0.18335907 0.12389512
0002f0 05 3a 0d 3e 23 fc a4 bd 50 df 80 bd 71 cb 1a be
       0.13791664 -0.08055904 -0.062925935 -0.15116669
000300 e9 2a 32 bd a6 8e 2a 3d 33 a0 89 3c e0 21 91 3d
       -0.043497954 0.041639946 0.016800022 0.07086539
000310 cd 17 89 bd 00 2d 1f 3d cd 0b 9f 3c b6 04 09 bd
       -0.06693993 0.038861275 0.019414807 -0.03345176
000320 33 ca 92 bd 86 2a 14 3e b8 48 0b b9 fd 3d 2b be
       -0.07167473 0.14469346 -0.00013283163 -0.16722865
000330 91 b2 dd bd fa b7 82 3d 95 e9 4b bc 25 0a e1 bd
       -0.108250745 0.06382747 -0.012445827 -0.10988263
000340 58 74 e1 bc 8a 12 29 3d a5 a1 90 bc 32 cf 0c be
       -0.027521297 0.041277446 -0.017655203 -0.13750914
000350 b7 c6 57 3a ea 98 d6 bd ea aa 32 be 58 4d d1 bd
       0.000823121 -0.10478385 -0.17448011 -0.1021983
000360 18 e5 ef bc 89 9c 2c 3e f5 1b 42 be 57 19 10 3d
       -0.029284045 0.16856588 -0.18955977 0.035180416
000370 29 a0 fc 3d af 9f db 3d 7d a0 01 be fb 83 0f 3e
       0.123352356 0.107238166 -0.12658878 0.1401519
000380 de 1b cb 3d ef ea a1 3c 77 94 c7 3d 0b b8 07 bd
       0.099174246 0.019765345 0.09745114 -0.0331345
000390 87 0e 56 3d 34 7f 55 ba 2e ee de 3c 4d 04 6d 3d
       0.052259948 -0.000814426 0.027213182 0.05786543
0003a0 ae e6 26 be 2c 20 2f 3c fa d3 af bc f8 45 7c bc
       -0.16298935 0.010688823 -0.021463383 -0.015397541
0003b0 2e 9f 0e 3d 8d 60 f7 bd 9a 5b 4f 3d eb fb 21 3e
       0.034819774 -0.120789625 0.050624467 0.15818755
0003c0 9d b0 4a bd 61 2e d8 bd e1 82 ab 3d 14 82 0e 3d
       -0.049484838 -0.10555721 0.083745725 0.03479202
0003d0 3a 06 46 3e f0 4b 36 3e 27 64 b2 3d 80 ff 21 3e
       0.19338313 0.17802405 0.08710509 0.15820122
0003e0 aa e0 5d 3d 36 47 d0 bd a1 c9 1c be 7a 89 b0 bd
       0.054169334 -0.101698324 -0.1531129 -0.086199716
0003f0 b0 8c 47 bd 8e bd 46 bd 36 f8 17 3d c7 2c d4 bb
       -0.048718154 -0.048520617 0.037101947 -0.0064750644

res1a.conv1.bias f4 [16]
000000 ab d2 d4 bc 58 1c 00 bd b9 69 98 bd 98 d4 ce 3d
       -0.02597936 -0.03127703 -0.0744204 0.10099143
000010 27 b7 77 3d b2 92 0c be 1b d4 87 3c 19 88 7a 3c
       0.060477402 -0.13727835 0.016580632 0.015291237
000020 88 c9 74 3d 52 33 14 bd 95 9f 14 bd 5c be de bd
       0.059762508 -0.036181755 -0.036285 -0.10876152
000030 83 fe 04 be ab 38 56 3c d0 d9 26 3c 97 76 ce 3d
       -0.12987714 0.013075034 0.0101837665 0.10081213

res1a.conv2.weight f4 [16, 16, 3, 3]
000000 3d 4e 4e 3d 3c 1f 5f bb 82 36 77 bd 72 ce f1 bd
       0.050367583 -0.0034045717 -0.060354717 -0.118069544
000010 1c 80 18 be d3 b7 ff bd c1 d3 b4 3d a5 6c 73 bd
       -0.1489262 -0.124862336 0.08829451 -0.059429783
000020 55 3c bc bd 69 25 d6 3d 8e a4 ea bc 7e d2 e8 bd
       -0.09191195 0.10456354 -0.028642919 -0.11368273
000030 45 be 48 3b e1 cf ad bb 6f a2 34 bc 1e 8a c9 bd
       0.0030630988 -0.005304322 -0.011025055 -0.09840797
000040 b1 36 f9 3c 40 eb fc 3b 1d 5b c9 3d 74 c9 45 be
       0.030421587 0.0077184737 0.098318316 -0.1931513
000050 b1 83 d0 bb de 71 eb bd f7 df 21 be 57 2b 1b 3e
       -0.006363355 -0.11496328 -0.15808092 0.15153252
000060 52 dc e4 3c 14 97 a4 bd c8 e7 03 3e 71 f5 1f be
       0.027937088 -0.08036628 0.12881386 -0.15620972
000070 2d 36 95 3d 8d f5 d7 3d c2 de 80 3d 42 3e ed 3c
       0.07285724 0.10544882 0.06292488 0.02896035
000080 4a 45 05 3e 5f 99 de bc 4e fe 34 be 2d d9 ab 3a
       0.13014713 -0.027172742 -0.17675135 0.0013110988
000090 a6 50 b4 3c 77 5e e1 bc f1 f0 ff bd 36 0c 37 3d
       0.022011112 -0.027510865 -0.12497128 0.04468938
0000a0 65 68 97 bd ba 3b 17 3e 1a d0 d5 3d 9a 29 d5 bd
       -0.073929586 0.14768878 0.10440083 -0.104083255
0000b0 ae 5d 7b 3e b0 87 21 3b b9 bf 5f bd 8f 27 47 bd
       0.24547455 0.0024647526 -0.0546262 -0.04862171
0000c0 99 3d 40 3c 65 da 1e 3d d4 67 b8 bd 62 59 c5 bc
       0.011733436 0.038782496 -0.09004179 -0.024090473
0000d0 bc fc 3e 3d d7 78 7e 3d f6 84 1c 3d d0 cd 95 bc
       0.046627745 0.06212696 0.03821274 -0.018286616
0000e0 c3 fd 9c 3d 0c 3d 96 3d 93 7a ce 3d 81 e7 71 3d
       0.07665589 0.073358625 0.10081973 0.05905867
0000f0 a2 9a cc 3d fc d1 63 bd 36 6d 46 3c a9 be 4c 3d
       0.09990431 -0.05562018 0.012110999 0.049986515
000100 99 a6 e2 3c 85 9c a4 3c 52 83 4e bd ba 45 98 3c
       0.02766733 0.020094166 -0.050418206 0.018587936
000110 0c 4b 00 3e b2 50 29 bd 94 5d a0 3d b7 6c 2f 3d
       0.12528628 -0.041336723 0.078303486 0.042828288
000120 53 c7 68 3b 18 b6 be 3d cc ea 0d be ae 29 01 bd
       0.0035519197 0.093120754 -0.13859099 -0.03153389
000130 aa 2b 53 3c 8b aa 2b bc 4e 9b c6 3d aa ca 01 bd
       0.012888828 -0.010477672 0.09697591 -0.031687416
000140 3a 3f c2 3d 03 82 9c bd e9 b9 1b bc 8c a1 b3 bd
       0.09484716 -0.07641985 -0.009504774 -0.08771047
000150 75 5c 3e bd 82 a1 6a 3c ad ac f1 3b 70 36 92 3d
       -0.046474893 0.014320733 0.007375321 0.071392894
000160 7f 28 8c bc 44 35 58 3d a6 d2 cd bd d2 6e 0e 3c
       -0.017109154 0.052785173 -0.100499436 0.008693414
000170 c9 73 ce 3d be 03 46 be 20 c9 2a bd c8 0c 56 3d
       0.10080678 -0.19337365 -0.041695714 0.052258283
000180 f0 3f 40 3c 6c e5 e3 bc aa ab 02 3e 3d 5f 37 bd
       0.011733994 -0.027819358 0.12760797 -0.04476856
000190 40 4a 01 be 1b 8d 23 bb b9 2b 89 3e dd 29 f2 3d
       -0.1262598 -0.0024955932 0.2679117 0.11824391
0001a0 cb 53 26 3e 7a 2e 16 3e b8 42 95 3c a7 43 cd 3d
       0.16242902 0.14666167 0.01822029 0.10022669
0001b0 46 89 e7 3b 8a 6a 09 bc fc 21 82 bd e0 a7 65 bc
       0.007065925 -0.008387217 -0.06354138 -0.014017075
0001c0 ee 48 9c bd 3c 80 82 3d 18 ab ce 3d b0 0f fd 3c
       -0.07631098 0.06372115 0.10091227 0.03089127
0001d0 b5 20 ee 3d 49 01 c8 bc bf 9d 9d bd a0 2e 52 3c
       0.11627332 -0.024414675 -0.07696103 0.012828499
0001e0 76 e0 78 ba 9a 14 f5 bd 2c 69 33 be 83 ea 1c 3d
       -0.00094938965 -0.1196682 -0.17520589 0.038309585
0001f0 75 5c 33 bd 7f 16 d2 bc be c5 8b 3d b3 0b d3 3d
       -0.043789346 -0.025645493 0.06824826 0.10304966
000200 63 84 7c bd 3c 29 d9 bd 96 dc c7 bd e3 7d 8c 3d
       -0.06164969 -0.10603568 -0.0975887 0.068599485
000210 e8 85 39 3d aa f5 99 3d 96 ba 37 3e d0 c4 a0 bd
       0.04529372 0.0751756 0.1794227 -0.07850039
000220 6f ad f6 3d 50 85 43 3c 7e b3 09 be aa a0 24 3e
       0.120447986 0.01193364 -0.13447377 0.16076913
000230 d1 89 00 3d 5e a8 8d bd 41 07 8b bd 4e dd 85 bd
       0.031381432 -0.06916879 -0.06788493 -0.06536351
000240 e8 63 23 3d c0 f8 d9 bd 42 56 1b 3e d3 62 93 3c
       0.0398902 -0.106431484 0.15169623 0.017991459
000250 fa 69 1a bd 1a d7 8a 3d 68 dd 58 3c 55 93 04 be
       -0.037698723 0.067793086 0.013236381 -0.12946828
000260 4c 18 a5 bd 30 1e 07 bd 09 7d cb ba 68 c7 57 be
       -0.08061275 -0.032987773 -0.0015524934 -0.21072161
000270 64 74 ea ba 8b 40 6c bc 33 d6 da bd 80 8c 4c bd
       -0.001788747 -0.014419685 -0.106853865 -0.04993868
000280 f2 00 10 bd a1 3f a0 bd bb 15 d5 bd c8 e9 6a 3d
       -0.03515715 -0.07824636 -0.104045354 0.057351857
000290 07 82 1c 3e 3d 9d a0 bc a3 99 52 3d a8 8b f5 3d
       0.15283976 -0.019606227 0.05141605 0.11989528
0002a0 08 33 1c bd a8 66 45 be 93 e3 da 3c 52 e3 50 3d
       -0.038134605 -0.19277442 0.026719844 0.05099804
0002b0 4a 59 cb 3d 46 2b e9 bc 40 43 f1 3d ff 51 9e 3d
       0.0992914 -0.028463017 0.11780405 0.07730483
0002c0 69 ea 0b bb 08 03 d1 3d 38 f2 e4 3b 9e 58 8b 3d
       -0.0021349436 0.10205656 0.0069868825 0.06804012
0002d0 86 a9 4b be a4 2e 07 be 33 9b 88 3c c0 23 b1 bd
       -0.19888887 -0.13201386 0.016675567 -0.08649397
0002e0 d9 84 0f be 7d 78 9c 3d 76 37 c6 3d 57 c4 44 bd
       -0.14015521 0.07640169 0.09678547 -0.048038807
0002f0 6f 61 d4 3c 54 47 5f bb 81 d0 f1 bb ae e1 e6 3d
       0.025925366 -0.0034069614 -0.007379592 0.11273514
000300 fc f0 07 3a fd 01 c8 bd b8 83 3e 3e f9 32 b8 bd
       0.0005185751 -0.09766004 0.18604934 -0.08994097
000310 33 ac 9a bd 7e a8 6a 3d 3c 25 05 3d d5 94 6d bd
       -0.07552376 0.057289593 0.032506213 -0.058003265
000320 50 18 91 bc 71 bf a0 bc 6a 50 e4 3c 6d 5b 8f 3d
       -0.017711788 -0.019622536 0.027870376 0.0699986
000330 09 90 24 3e 0c 2f f9 bd 2b ab 7e 3d a1 ff 29 3d
       0.1607057 -0.121671766 0.062174957 0.041503552
000340 ef 5a 56 bd 3c 3e 25 bb 1a f8 10 bd 1b 17 d7 bb
       -0.052332815 -0.0025214097 -0.035392858 -0.0065640337
000350 cf a3 e9 3d c3 54 3b bd 3a e7 01 be 46 60 15 3d
       0.11408197 -0.045735132 -0.12685862 0.036468767
000360 e6 f9 58 bc d0 ab 25 3d da be d9 bd bf af 20 3d
       -0.013243174 0.040447056 -0.10632105 0.039230105
000370 65 b9 e5 3c e5 81 42 3d 78 4b db 3d 6a 09 c0 bc
       0.028042505 0.04748716 0.10707754 -0.023441989
000380 66 7d cb 3d 14 4e 20 bd 58 c8 a6 bd 7f 94 30 3c
       0.09936027 -0.03913696 -0.08143681 0.010777592
000390 83 4e 46 b9 cb 21 3b bd 94 6c ea 3d f2 f5 f9 bc
       -0.00018912 -0.045686524 0.11446491 -0.030512784
0003a0 fd dc c5 3b 5e 9e bb 3d 50 38 bd bd cb 58 94 bd
       0.0060383067 0.091610655 -0.092392564 -0.072434984
0003b0 f5 82 46 3d 23 56 22 bc aa 96 c6 bb f1 41 12 3e
       0.048464734 -0.009908232 -0.006060441 0.14282967
0003c0 89 4b 46 bc 01 09 78 3d 3a c8 f8 3d aa 4b 0b be
       -0.01210297 0.06055546 0.12147565 -0.13603082
0003d0 77 02 05 bc 4c e4 52 bd 46 87 48 bd 65 57 aa 3c
       -0.008118263 -0.051487252 -0.04895713 0.020793626
0003e0 5b d6 39 3d dc 8b 1b be f4 0c 81 3d 98 22 5d bd
       0.04537044 -0.15190071 0.06301299 -0.05398807
0003f0 ba ec 3c 3d 70 fd 78 bd d3 b8 a0 bd 30 40 9d bd
       0.046124198 -0.06078857 -0.078477524 -0.076782584

res1a.conv2.bias f4 [16]
000000 d5 4a 48 3c 3d 2b 9b bc 61 81 8f bd 19 c5 74 bd
       0.012224873 -0.018941516 -0.07007099 -0.05975828
000010 c5 1e 00 bd 8d 6b fb bc 3a d0 5c bc a2 d5 62 3c
       -0.031279344 -0.030690933 -0.013477379 0.013844879
000020 47 60 90 bb 93 dc ea bc 73 74 cd 3b 43 c1 74 bc
       -0.0044060084 -0.028669631 0.0062699853 -0.014938655
000030 ee a3 96 bd 7a e9 89 bd 31 f0 7f 3b 07 25 0d bd
       -0.07355486 -0.06733985 0.0039053077 -0.03445914

res1b.conv1.weight f4 [16, 16, 3, 3]
000000 24 f3 eb 3d 21 aa 7c bd a1 c2 e5 bc 6d fb 9a bd
       0.11520985 -0.061685685 -0.028046908 -0.07567487
000010 c8 17 f8 bd ea 2f 2a 3d 59 1a 42 be 2b 19 eb bd
       -0.12113911 0.0415496 -0.18955363 -0.1147941
000020 24 9c 88 be 05 25 09 3e 4a 91 95 3d f5 3a e6 3c
       -0.26681626 0.13393028 0.07303102 0.028104285
000030 79 e6 de 3d e1 d3 ad bc 42 55 1b 3e 2d f3 31 3d
       0.10883803 -0.021219196 0.15169242 0.0434448
000040 75 45 f6 b9 e2 e6 85 bd 05 8c 18 3e c8 60 87 bc
       -0.00046972526 -0.06538178 0.14897163 -0.016525641
000050 eb 7b 32 3d d4 2d 8f be c3 8f 1b be 53 88 93 3b
       0.04357521 -0.27964652 -0.1519156 0.004502335
000060 98 d1 fd bc 6a c6 27 3b d9 d6 a1 3d a0 a3 6e bd
       -0.030983731 0.0025600442 0.07902307 -0.058261514
000070 56 a5 d6 3d f0 8c 17 3e 32 c5 0a be 4e 26 18 3e
       0.10480754 0.14799857 -0.13551787 0.14858362
000080 f7 37 5f 3e a3 0b 02 bc 22 a9 cb bd 61 02 10 3e
       0.21798693 -0.007937345 -0.09944369 0.14063407
000090 3a 7f 69 be 85 a1 31 be dd 90 1f bc 6c 79 f9 bd
       -0.2280244 -0.17346771 -0.009739128 -0.121813625
0000a0 31 33 1f be 66 b1 2c be ea 2d a8 3d 0d 46 d9 bd
       -0.15546872 -0.16864547 0.082118824 -0.10609064
0000b0 8c ee 7a be 78 7d 36 bd 00 85 02 bd 82 b8 8c 3d
       -0.24505061 -0.04455325 -0.03186512 0.068711296
0000c0 a0 5a 40 3d aa 0f 60 bd d5 a6 cd 3c 87 bb 06 3e
       0.046961427 -0.05470244 0.025103966 0.13157474
0000d0 24 3d 43 3d ef 53 39 bd 49 6d e7 bd 35 14 9c 3d
       0.04766573 -0.04524606 -0.11300141 0.07621042
0000e0 44 eb c6 3d 1b b1 99 3d 5b df 07 3e 4c 95 d6 bc
       0.09712842 0.07504483 0.13268797 -0.026194237
0000f0 ba 15 1f be b8 27 33 bc a2 60 4c 3c 81 87 13 3d
       -0.15535632 -0.010934763 0.012474211 0.0360179
000100 c8 3e d7 3d 14 62 2e 3d 60 44 78 3d 38 3c 6f bd
       0.105100214 0.042574003 0.060612082 -0.05840704
000110 75 f2 c5 bc 4e e2 10 3d 9f c7 03 be e3 7f 2e be
       -0.024163464 0.03537207 -0.12869118 -0.17040972
000120 9c be ca 3c b2 f7 ac be 52 ce ec bd b3 44 e7 bc
       0.024749093 -0.33782727 -0.1156279 -0.028231
000130 8a 7d 0e 3e ab 75 8b 3c c1 01 88 be c4 7c ab bd
       0.13915077 0.017023882 -0.26563838 -0.083734065
000140 d5 93 2a 3e 6f 39 46 bd 56 28 99 3d 9d 21 9a 3d
       0.16657956 -0.048394617 0.074783966 0.075259425
000150 47 db 46 3b 36 a2 12 3e 55 ab 9d 3d fa 7e 2a 3d
       0.0030343102 0.14319691 0.076986946 0.041625
000160 3a 7d de 3c f2 22 f8 3d 39 38 a0 3d 03 2d 9d bc
       0.027159322 0.1211604 0.078232236 -0.019186502
000170 61 38 27 bd 46 e5 bb bd e1 cc fe 3c 4e b8 93 bd
       -0.04082525 -0.0917459 0.031103553 -0.07212888
000180 d3 a3 04 3e eb a9 d9 3c 30 4e 78 3d cd af 7f bc
       0.12953119 0.026570281 0.06062144 -0.015605879
000190 e5 cb 4e 3d 29 56 7c bc 26 00 ba 3b 97 41 41 3e
       0.050487418 -0.015401402 0.005676287 0.18872677
0001a0 86 5d 98 bc 09 d3 a0 3b 2f a2 b0 3d 3e 00 11 3c
       -0.018599283 0.00490797 0.08624684 0.008850155
0001b0 29 72 26 3e 56 c5 86 3e 4a f1 0e be b3 af cc bc
       0.16254486 0.2632243 -0.13959232 -0.024986124
0001c0 19 dc 24 bd 0c 8a 8b be 35 7d 0b bd 24 ef fc bb
       -0.040248964 -0.2725376 -0.034054954 -0.0077189375
0001d0 fd 7d 6a 3d 34 37 11 bd 08 c4 5d 3c 6f 2e a8 bd
       0.057249058 -0.035453036 0.013535507 -0.082119815
0001e0 26 39 0e 3e 5b c3 9d 3d 6e 7e 85 bd a3 d5 05 3e
       0.13888988 0.07703277 -0.06518255 0.13069777
0001f0 d0 0f dd 3d af 0a ce 3d cf a3 6b 3e c0 83 fd 3d
       0.107940316 0.100606315 0.23011707 0.12378645
000200 6b 79 95 bd 62 70 4c bd 37 16 66 bd 69 05 cd bb
       -0.07298549 -0.049911864 -0.05617353 -0.0062567485
000210 7a 46 9a be 38 94 83 bd f4 61 10 3e 80 dc 3e be
       -0.30131894 -0.06424755 0.14099866 -0.18638802
000220 22 ec c2 3c 99 89 42 3e 87 c7 26 bd f5 47 a2 bd
       0.023794238 0.18997802 -0.040717628 -0.07923881
000230 e0 6b ae 3d 41 9b 00 3d 20 d9 8a 3c b7 63 55 bd
       0.08516669 0.03139806 0.016949236 -0.05209705
000240 23 1e ba bd 15 ab 05 3d fb 5b 59 3d 1e a0 c8 bd
       -0.090877794 0.03263386 0.053066235 -0.09796165
000250 ea bf 6d bd 15 81 a3 bd eb 13 ae bd c4 98 ab bd
       -0.05804435 -0.07983605 -0.08499893 -0.08378747
000260 02 a2 04 bc 89 d1 41 3c c9 6c 5b bd f7 25 2f 3d
       -0.008095266 0.011829742 -0.053570542 0.042760815
000270 d1 1f d2 bd 07 96 51 3c 40 60 23 3d ea ef c2 3c
       -0.10259975 0.012792117 0.039886713 0.02379604
000280 3b e7 1d 3d 20 61 d6 3b bb 59 66 bd b4 aa ad b8
       0.038550597 0.00654234 -0.056237917 -8.281079e-05
000290 c2 e4 db 3c 79 05 25 bc 7b 7b a9 3c 97 d5 0e bd
       0.026842479 -0.010072106 0.020688763 -0.034871664
0002a0 5e fc fb bc d4 27 13 bd 10 86 1a 3c 81 51 ad bd
       -0.030759986 -0.035926655 0.009431377 -0.08462811
0002b0 96 c4 76 bd b4 f5 88 bd 7f 17 80 3d 21 fd 5e 3d
       -0.060246073 -0.06687489 0.062544815 0.05444062
0002c0 ae 54 84 3d 24 c6 19 bc c7 e7 3b 3d 3b 1d 81 bd
       0.06461464 -0.009385619 0.045875337 -0.063044034
0002d0 de 30 25 3d f9 5b 75 3d a5 64 30 3c 61 29 84 bd
       0.040329807 0.059902165 0.010766183 -0.06453205
0002e0 af ec 06 bc 81 de c5 3b fb 19 2d bd 52 87 7a bd
       -0.008235141 0.0060384874 -0.042261105 -0.061164208
0002f0 f5 0b b2 bd 52 9e db 3b 05 2b 76 3d 2c c0 e7 bc
       -0.08693687 0.006702223 0.06009962 -0.028289877
000300 cb c5 88 3c e2 d2 7e bd 3c 8f 6b bd f1 76 82 bd
       0.016695878 -0.062212832 -0.057509646 -0.063703425
000310 81 77 a1 bd fd ff b2 bd 3e 60 42 3d 96 fc 6b bc
       -0.07884122 -0.08740232 0.047455065 -0.014403483
000320 12 10 51 3d 63 81 2d 3d 34 22 32 bd 2e 72 83 bc
       0.051040716 0.04235972 -0.04348965 -0.016045656
000330 f0 30 49 3d d8 9f 7e bd 44 cc dd 3c d3 30 6d bd
       0.049118936 -0.062164158 0.02707494 -0.05790789
000340 ec eb 89 bd d8 c5 a5 3c 19 9d a0 bb 89 b1 69 3d
       -0.06734452 0.02023594 -0.00490154 0.057054076
000350 cf ef f2 bc d5 4c e9 bc 8a 8a 38 3d 7b 73 e5 ba
       -0.029655365 -0.02847902 0.045053996 -0.0017505729
000360 1e 07 88 bc 8c 7e 8d 3d fb 0c 99 bd 61 ab 81 3d
       -0.016604956 0.069089025 -0.07473179 0.06331516
000370 07 89 76 bc b7 25 81 bd b9 3a cb bc 5e 28 ab bd
       -0.015047318 -0.06306022 -0.024808275 -0.08357309
000380 f1 e6 ab bd 51 f7 83 bd 2d 11 fa bc 23 34 7c bd
       -0.08393658 -0.06443656 -0.030525768 -0.06157316
000390 a6 32 74 bd a6 67 8d bd bc 39 85 bd df 07 b6 bd
       -0.059618615 -0.06904535 -0.065051526 -0.0888822
0003a0 dc 18 98 bc f6 28 4e bb 42 0d c2 bd 9b 4b 5f bd
       -0.018566541 -0.003145752 -0.09475185 -0.054515462
0003b0 38 38 b2 bd be 5d 6a bc fa 71 08 bb 81 05 9a bd
       -0.08702129 -0.014304576 -0.0020819888 -0.07520581
0003c0 ff 31 b1 ba ec 19 3f bd 8d 50 8f bd cc d5 ab bd
       -0.0013518928 -0.04665558 -0.06997786 -0.08390388
0003d0 15 85 68 3d cc 55 fe bc 63 c2 a5 bd 49 5e b8 bd
       0.056767542 -0.03104677 -0.08093717 -0.090023585
0003e0 5c c8 8a bd 18 e3 05 3d 76 0e 65 bd 9f 8b 0d bd
       -0.06776497 0.032687277 -0.055921994 -0.03455698
0003f0 1b 1f 3c bd 20 63 4a 3d b8 bb 2a 3d 13 76 e0 bc
       -0.045928102 0.04941094 0.04168293 -0.027400052

res1b.conv1.bias f4 [16]
000000 f8 29 ab bd e2 15 8d bd af 94 bc 3d 31 46 b5 3d
       -0.08357614 -0.068889394 0.09208047 0.088512786
000010 d7 d1 e0 bd 8b 0f d6 bd de 29 24 3a 2b 43 20 bd
       -0.10977524 -0.10452183 0.0006262342 -0.039126556
000020 f8 1a cc bc e9 61 26 be 4f b9 38 bd c2 6e d7 bd
       -0.024915203 -0.16248287 -0.0450986 -0.10519172
000030 3b fa 96 3d 59 d5 51 3d 4c da b5 bd cf 41 05 3d
       0.073719464 0.051228855 -0.088795274 0.032533463

res1b.conv2.weight f4 [16, 16, 3, 3]
000000 4d df ab bd 5e f1 b8 3c 08 29 41 bd a7 b7 90 bd
       -0.083922006 0.02257603 -0.04715827 -0.07066279
000010 88 01 45 3b 89 64 aa 3d f8 a3 5e 3c 50 de a9 bd
       0.0030060727 0.08319957 0.013588898 -0.08294356
000020 5d 2c 6a 3c 79 31 b2 3d 1c 50 0b bc 13 ce f3 ba
       0.014292804 0.087008424 -0.008502986 -0.0018600844
000030 1f ec 8e bc 8c d9 f7 3d ea 40 bf bd 3a 2b fe bd
       -0.017446576 0.12102041 -0.09338553 -0.124105886
000040 8a d5 0b bd 89 8d 3e 3c e1 56 a5 bd 6c d8 c9 3d
       -0.034139194 0.011630424 -0.080732115 0.09855732
000050 de 2c 96 bd b2 4c f3 bc 80 87 35 3d ab 60 cd 3d
       -0.073327765 -0.029699657 0.044318676 0.100282036
000060 7b ab 26 bd b8 8e 13 bc 6c 88 b9 3d f2 1c 90 3d
       -0.04069088 -0.009006195 0.090592235 0.07036771
000070 10 9b d8 bb cd 63 47 3d 36 cb ab bd 32 0f 08 bd
       -0.0066102818 0.04867916 -0.08388369 -0.033217616
000080 3b 11 48 3d d0 b3 f8 3c bf ff 92 3d a6 d2 e5 3c
       0.048844557 0.030359179 0.07177686 0.028054547
000090 15 67 be bd 3e dc 85 bd a4 66 5d 3c 8d 42 0a bc
       -0.09297005 -0.065361485 0.013513241 -0.0084387185
0000a0 e8 fb cf 3c 1d ac b0 ba 42 2b 08 3d a2 5c 20 3e
       0.025388673 -0.0013479028 0.03324438 0.15660337
0000b0 15 19 09 bd 36 a3 79 3d 57 3e 83 bc 7d fc e5 bb
       -0.033471186 0.060946666 -0.016020937 -0.0070186243
0000c0 ff 30 5f 3b 88 40 e9 3c 29 b2 39 3e 7b e3 ad bd
       0.0034056304 0.028473154 0.18134369 -0.08490654
0000d0 05 61 01 be b4 52 64 3d 06 3e c4 3d c3 24 88 3d
       -0.12634666 0.055742934 0.095821425 0.06647637
0000e0 e4 cf 10 3e 76 73 9d bd 4c 52 53 3d 31 57 89 3d
       0.14141804 -0.07688038 0.051592156 0.067060836
0000f0 64 bb 51 3d 9f 62 9d 3b 20 e3 3a be d9 2c ee bc
       0.0512041 0.0048030163 -0.18250704 -0.02907412
000100 aa f3 a7 3d 5c 79 eb bd ef f5 0a 3d 18 62 81 bd
       0.08200772 -0.11497757 0.033925947 -0.06317538
000110 be 66 0e bc b5 39 83 3c bd c7 19 bb 2a db 09 be
       -0.008691488 0.016018728 -0.0023465 -0.1346251
000120 9a 0c b9 bd 02 c0 1e be f8 fe e0 3c 30 22 92 bd
       -0.09035607 -0.15502933 0.027465329 -0.07135427
000130 0c c7 01 3d 67 44 08 3e be 54 ec bc 0a 95 a7 3d
       0.031683967 0.13307343 -0.028849002 0.08182724
000140 bf bb cc 3d cf 07 fe bd 26 9c 9f bd fc 94 5b bd
       0.09996747 -0.12403833 -0.07793455 -0.05360888
000150 77 63 95 bd 37 7a 11 3e bd 8a 08 39 80 89 2f be
       -0.07294362 0.14206778 0.00013021655 -0.17142296
000160 cd c0 f8 3d 0f 98 89 3d fc cf be 3b 82 b1 09 3d
       0.12146149 0.06718456 0.0058231335 0.03361655
000170 bd 8c 94 3c 61 c8 63 bd 7e c7 72 3d 94 85 d3 bd
       0.018133515 -0.055611018 0.05927228 -0.103282124
000180 27 7b 00 3e 3a 95 cc 3d 36 e6 b9 3c 38 51 f5 3d
       0.12546979 0.099894 0.022692781 0.11978382
000190 d0 33 93 bd 7d 38 7d 3d 17 8a 18 3d 3e a5 81 ba
       -0.07187617 0.06182145 0.037241068 -0.0009891165
0001a0 27 d1 ad bc fd c0 97 3d 99 36 81 bd 74 81 e9 3d
       -0.021217896 0.074098565 -0.06309242 0.11401644
0001b0 aa f9 33 bb 26 37 ce bd e3 49 a8 3d 3c 30 d9 bd
       -0.0027462044 -0.100691125 0.08217218 -0.10604903
0001c0 40 32 a6 3c a6 66 15 bc 1f 07 d3 ba ea 54 9c bc
       0.020287633 -0.009118712 -0.0016100145 -0.019083459
0001d0 b0 d5 d4 3b d0 5b c8 bd 62 30 0e 3d 52 01 20 3e
       0.0064952 -0.09783137 0.03471411 0.15625504
0001e0 93 fc 51 bd be 19 00 3e b8 c2 81 bd 62 1a 90 bc
       -0.051266264 0.1250982 -0.06335968 -0.017590705
0001f0 6c e0 74 38 70 66 9f 3c 6f bf c6 bd f3 ae 43 bd
       5.8383142e-05 0.019458026 -0.09704482 -0.047774266
000200 26 25 e9 3c 91 01 01 3d 87 9f 9c 3d 5d 98 03 be
       0.028460097 0.031495634 0.07647615 -0.1285109
000210 16 ad b6 3c 86 46 8b bc 95 c6 24 bd e6 3d 87 3d
       0.02229933 -0.017001402 -0.040228445 0.06603603
000220 25 e0 32 be 31 f2 89 3c 73 f7 0d bd e6 ba a4 bd
       -0.17468317 0.016839119 -0.034659814 -0.080434605
000230 50 70 13 3e bc 98 e8 3c 4a 87 13 3e 1a 7e e5 3c
       0.14398313 0.028393142 0.14407077 0.028014231
000240 11 fe 1c be 21 32 9c 3d ef ae 0e bc db 8e 55 bc
       -0.15331294 0.07626749 -0.0087087 -0.013034548
000250 16 67 f6 3d 8e 18 e7 bd 6d a4 af bd 8a 36 45 be
       0.12031381 -0.1128398 -0.085762836 -0.19259086
000260 72 55 a2 3b 09 f4 1a 3c 6e 8b 96 bd 5b 79 d0 3d
       0.0049540335 0.009457597 -0.07350813 0.10179397
000270 6f 7b a1 bd 59 2e 3a 3c f5 38 df 3b 75 bc 91 bc
       -0.07884871 0.011363589 0.0068122097 -0.017790059
000280 77 f5 3b 3c e9 0b 98 bc 10 e5 68 3d c7 45 7d bd
       0.011472098 -0.018560367 0.056859076 -0.061834123
000290 3a ad 31 3d 8b 0e b4 3d d5 2d 3b 3d 03 aa ea 3d
       0.043378092 0.08791836 0.045698006 0.114582084
0002a0 89 69 ba 3c c0 46 0f be 25 03 d3 bd 64 5b 33 bd
       0.022755401 -0.13991833 -0.10303334 -0.04378833
0002b0 4c e4 bd bd a0 eb 17 3c cf c0 31 bc da cc b4 bd
       -0.0927206 0.009272486 -0.010849192 -0.08828135
0002c0 23 ae 20 3e 05 51 72 3d a7 5e 97 bd c7 2b de 3d
       0.15691428 0.059159297 -0.073911004 0.108481936
0002d0 4e c5 f1 bc f7 89 3e 3d 40 4d ea bd 85 53 8e 3d
       -0.029513028 0.046518292 -0.114405155 0.06949524
0002e0 56 cc 60 bd 21 81 32 3d ae e4 d6 3d 97 e9 dd bd
       -0.05488237 0.04358018 0.10492836 -0.10835569
0002f0 51 06 c0 3d ac 7c 07 3d f8 8f 6f bd 20 83 8f 38
       0.09376205 0.03307788 -0.05848691 6.843195e-05
000300 c6 b6 b9 3d f2 33 44 bd d3 41 a7 bd ba 8c 0d 3e
       0.090680644 -0.0479011 -0.08166852 0.13823214
000310 75 c7 cc bd c9 bc 27 bd 74 ab 37 bd 68 cb b2 3c
       -0.09998981 -0.040951524 -0.044841245 0.021825507
000320 07 a1 fc 3b be e6 95 3d 88 1e 04 bd 89 5c 24 be
       0.0077096256 0.07319401 -0.03225568 -0.16050924
000330 fd 6b 12 3d 6c c4 eb bd 44 b2 85 3e 1f 49 a4 bd
       0.035747517 -0.11512074 0.26112568 -0.08021759
000340 19 df 7c bd c4 6f 33 bd f7 21 b2 3d 37 4c d3 bc
       -0.0617362 -0.04380776 0.086978845 -0.025793178
000350 0b a5 2d 3d db e4 21 3e c1 99 88 bd 1d e4 c3 3d
       0.042393725 0.15809958 -0.06669951 0.095649935
000360 90 6b e7 bd 81 d6 a5 3c 48 2b a7 bd 2c 55 b8 3c
       -0.11299813 0.020243885 -0.08162552 0.02250155
000370 7f 98 0d 3d 85 16 9b 3d 33 ba 16 bd 0e 51 00 bd
       0.03456926 0.07572655 -0.036798667 -0.0313273
000380 1e ee a0 3d 5f 7a 1a bd 95 6a e4 bd 8d 3c 9e 3d
       0.07857917 -0.03771436 -0.111531414 0.07726393
000390 06 fe ab 3c e4 69 79 bd d4 86 07 3e c6 5c 9d 3d
       0.020995151 -0.060892 0.13235027 0.07683711
0003a0 69 9b 9c bd ae b8 1a 3c fb 27 22 3e 47 ee e4 3d
       -0.0764683 0.009443445 0.15835564 0.1117826
0003b0 e3 fb d5 bd 26 1f 2a be 0a 8c 95 bd a7 3f e2 3d
       -0.10448434 -0.16613445 -0.07302101 0.11047297
0003c0 27 25 af bd 59 66 19 3e be f2 b6 3c a8 b3 8c bd
       -0.08552008 0.14980449 0.022332545 -0.06870204
0003d0 36 c0 bc bc 8c 1d 01 3d 39 8c 48 bd b3 28 c7 3d
       -0.023040872 0.03152232 -0.04896185 0.0972456
0003e0 6e 7c 7e bc d1 fb 45 bd da 32 cf bd 0c de ca 3c
       -0.015532596 -0.048335854 -0.10117121 0.024764083
0003f0 ef 68 86 3e 30 0c 72 bd 4e 70 66 3d 4a 5a 83 3d
       0.26251933 -0.059093654 0.056259446 0.06413706

res1b.conv2.bias f4 [16]
000000 a8 d6 8c 3c 79 4a 7e 3c 7a 7d 99 bd f9 89 53 3d
       0.0171922 0.015520685 -0.07494636 0.051645253
000010 0c 79 95 3c d2 a4 aa 3c e3 73 e5 3c d3 8f 78 3d
       0.018246196 0.020830546 0.02800936 0.060684036
000020 84 bf 72 bc 60 c6 cc 3c e2 a8 8e 3c e0 51 34 3d
       -0.014816169 0.024996936 0.017414514 0.044023395
000030 d9 22 82 bb f0 cb c3 bc b0 a5 42 3a 03 f0 f0 3c
       -0.0039714393 -0.023900956 0.0007425202 0.029411322

conv2.weight f4 [32, 16, 3, 3]
000000 fe 2c 88 3d 6a ce 87 ba 0c d4 c6 bd 0d 35 01 3c
       0.066492066 -0.0010361199 -0.097084135 0.007886183
000010 7d 15 ac bd 96 66 1c be 87 e1 39 bc d1 03 8d bd
       -0.08402536 -0.15273508 -0.011345274 -0.068854935
000020 9f b8 68 3d 6b aa c2 bc b1 62 38 bd 58 ab e8 3d
       0.056816693 -0.023762902 -0.045015994 0.11360806
000030 88 96 8a 3c 30 ed 0f be 4b e2 84 bd fe 3a 4e 3c
       0.016917482 -0.14055324 -0.064884745 0.012587307
000040 61 f7 34 bd 86 33 48 3d 8e 0a 4b 3e 51 67 64 3d
       -0.04418123 0.04887726 0.19828245 0.055762593
000050 ea 91 df bd f7 d7 19 3d 3d 9d 1e bd ad 2b ab bd
       -0.10916503 0.037559476 -0.038724173 -0.0835794
000060 28 3a 2c 3d 5f 8a 56 3d 82 c8 52 3e 82 7c c1 bd
       0.04204765 0.052378055 0.205843 -0.09447576
000070 c2 c5 d7 3b af 1b 74 bd 2a 01 de bd 9a 30 16 bd
       0.006584854 -0.059596714 -0.10840066 -0.036667444
000080 11 1d 16 bd 2b 64 2d be bb ff 65 3b 9a c3 a9 bb
       -0.036648814 -0.16932742 0.0035095054 -0.005180788
000090 1a 43 0a be a4 b1 17 be 52 8b e7 bd 19 dd 7d 3c
       -0.1350216 -0.14813858 -0.1130587 0.015494608
0000a0 f0 49 83 bd fb 5d 03 3d ea 36 92 bd a5 63 8c 3c
       -0.06410587 0.03207205 -0.0713938 0.017137358
0000b0 8c 69 50 bd b6 ca 34 be b4 67 8c bd a7 c9 44 3e
       -0.050881907 -0.17655453 -0.06855717 0.1921755
0000c0 b1 b3 83 3d 86 28 54 bc d0 3b 18 3e 86 97 6b 3b
       0.06430758 -0.012949115 0.14866567 0.003594847
0000d0 e2 7e be 3d 7e 49 3b be 8f da b4 3c 31 d4 9c be
       0.09301545 -0.18289754 0.022076873 -0.3063064
0000e0 d6 a3 1a be 9d be 8b 3d 28 64 80 bd 75 91 8d 3d
       -0.15101561 0.06823466 -0.06269103 0.06912509
0000f0 7d 91 b7 3c 17 ca da 3d 37 9a 2c 3d 35 f0 5f 3d
       0.022408241 0.10683077 0.04213926 0.05467244
000100 85 05 0b 3e da 5e 1d bd 04 bc 1c bc fb 16 0b 3d
       0.13576324 -0.038420536 -0.009566311 0.033957463
000110 8f 85 05 be 79 0d 76 bd c3 fb 9f 3c ba 81 c9 3d
       -0.1303923 -0.060071442 0.019529229 0.098391965
000120 2c df d0 bd 33 9d 54 be 34 77 e2 3c 11 82 8f 3c
       -0.10198817 -0.20763092 0.027644731 0.017518075
000130 68 2b a2 3c c6 a6 fa 3d 45 88 c9 bd c6 7b b9 bb
       0.019796088 0.12238841 -0.098404445 -0.005660507
000140 85 ac a6 bd b9 1d e6 bd e9 f4 98 3d 34 a9 fc 3c
       -0.08138374 -0.11236138 0.07468588 0.030842401
000150 47 f8 c6 3c 07 cd 95 3c 56 2a 34 3d 5f 83 c9 bd
       0.02428831 0.018286241 0.043985687 -0.0983951
000160 9b 67 15 be 30 a5 c4 bd 24 13 c1 3c df 39 2e 3d
       -0.14590304 -0.096018195 0.023568697 0.04253566
000170 31 18 94 3d 1d f5 d8 3b ef d8 cf bd b3 f3 c6 bc
       0.07231177 0.0066210167 -0.10148799 -0.024286127
000180 38 ee 26 bd 51 bd 31 be ce 5a ee bc d7 a7 57 bc
       -0.040754527 -0.17357375 -0.029096033 -0.013162575
000190 fe 41 13 be ae de 41 3d a7 c5 ab 3c e6 7c 63 bc
       -0.14380643 0.047331505 0.020968271 -0.013884759
0001a0 c2 c7 fc 3c cf 75 b8 bc b0 2d 09 3e 81 96 4a bd
       0.03085697 -0.022517113 0.13396335 -0.049459938
0001b0 0e a8 04 3c c8 a9 05 be 1a cc b0 bd bd e6 84 3d
       0.008096708 -0.13053048 -0.08632679 0.06489322
0001c0 cc 5e 2a 3d fe 2c 4a 3d 66 9c eb bd 2e 42 3c 3d
       0.04159431 0.049359314 -0.1150444 0.04596155
0001d0 b2 b3 10 bc a8 fc 44 bd fe 6c 73 3c 5c e6 02 be
       -0.008831905 -0.048092514 0.014857529 -0.12783188
0001e0 18 e0 89 3d 9b f8 30 bc b5 f3 ac 3d fd d4 18 bd
       0.067321956 -0.01080146 0.08444921 -0.037312496
0001f0 6e c7 d8 bc 32 f7 a3 3d 14 72 99 bd 0d 73 c2 3c
       -0.026462283 0.08006133 -0.07492462 0.023736501
000200 3c e9 8d 3d 3d 55 4f bd d5 8e 8c bc cf 2b 47 be
       0.069292516 -0.0506184 -0.017157951 -0.19450305
000210 8f b1 08 be c4 0e ba bc 18 10 c0 bb d8 b7 e2 bc
       -0.13348983 -0.022712119 -0.0058612935 -0.027675554
000220 55 61 6b bd da a1 98 bd 8f 0c d8 bd 51 7c 81 3d
       -0.05746587 -0.07452746 -0.1054927 0.063225396
000230 a3 5d e5 3c 52 d4 a3 3d 16 85 b3 3d 68 47 69 3b
       0.027998751 0.07999481 0.087656185 0.003559554
000240 db e4 4c bd d6 23 45 3d bb 4e 19 3e d2 1c 39 be
       -0.05002294 0.04812988 0.1497144 -0.180774
000250 c7 56 10 be 17 5e 66 b9 ec 53 8d 3d 05 22 02 3e
       -0.14095603 -0.0002196956 0.069007725 0.1270829
000260 df a4 a0 3d 0d f5 87 3d ab da 27 bd 09 6d ba 3c
       0.07843947 0.066385366 -0.040980022 0.02275707
000270 f2 6f 1d 3e be b2 62 3d 16 27 c3 bc b2 b7 de bd
       0.15374735 0.055346243 -0.023822349 -0.10874881
000280 57 7e f4 bc cd 26 46 3d f7 4f 92 3d e3 f1 eb 3d
       -0.0298454 0.048376847 0.07144158 0.115207456
000290 6f 23 f9 3d 4d 06 8f 3d 95 1e 53 3d e4 9a cd 3d
       0.121649615 0.06983624 0.051542837 0.10039309
0002a0 ea 28 12 3e ba 2d 29 3d b2 d7 1e bd 15 08 29 be
       0.1427342 0.041303374 -0.03877992 -0.1650699
0002b0 bb aa 8c bc 2d fd 89 bc e4 e4 e1 bd e1 1e 0b bd
       -0.017171254 -0.016844356 -0.110299855 -0.033964995
0002c0 3d aa 34 be a0 29 1c 3d 85 9d c7 3c d9 0b 23 be
       -0.17643066 0.038125634 0.024367103 -0.15922488
0002d0 0d a8 17 be cb eb 38 bd 48 89 3a bd ed f7 b2 bc
       -0.148102 -0.045146745 -0.045541078 -0.021846736
0002e0 e7 1f b7 bb f5 15 19 bd 3d 5b af bc 09 d5 61 bd
       -0.00558852 -0.037374455 -0.02140581 -0.055134807
0002f0 7e a6 8a 3d 61 89 58 3d cc 1d 3b 3c 38 60 2c bd
       0.06770037 0.05286539 0.011420678 -0.04208395
000300 fa 48 39 bd 73 72 f5 bc de ba 90 3d 9c 76 0d be
       -0.04523561 -0.0299618 0.07066892 -0.13814777
000310 02 d5 52 bc b4 77 6c bc 86 67 38 3c 40 66 6e bc
       -0.012868168 -0.014432836 0.011255151 -0.0145507455
000320 38 53 d1 3c 0f 55 8c bd 10 4f 28 be 6d dd 8d 3c
       0.025552377 -0.06852161 -0.1643641 0.017317498
000330 d1 76 e8 3c 90 80 54 bc 59 d8 3a 3d 6e 5f 95 bd
       0.028376969 -0.012970105 0.04561648 -0.072935924
000340 5c 8d ad bd 3e ae bf bd 80 23 1f be 3e eb a5 bd
       -0.08474228 -0.09359406 -0.15540886 -0.081015095
000350 cd 0a 26 be ea af 60 bc 1a 9a 43 3e 58 ad 4e be
       -0.16215058 -0.013713816 0.19101754 -0.20183313
000360 85 ff 28 3d b5 8c e1 bd 66 50 0c bd d7 98 f1 3d
       0.041259307 -0.11013166 -0.03425636 0.1179673
000370 52 f6 76 3c 99 37 c1 3a 21 fa a3 bd 67 08 f7 bc
       0.015073376 0.0014741301 -0.08006693 -0.030155374
000380 56 bc e9 bc 74 35 85 bd f7 01 24 be 02 1b 29 be
       -0.028532188 -0.06504336 -0.16016375 -0.16514209
000390 35 0d c6 3d ba f0 e8 3c 28 23 1e bd 36 d5 3a 3c
       0.09670488 0.0284351 -0.038607746 0.0114033725
0003a0 db 4d 06 be e5 50 ff bc c6 c4 16 bd 71 be 12 bc
       -0.13115637 -0.031166503 -0.03680875 -0.008956538
0003b0 44 14 79 bd 0f 38 ed 3b 13 85 13 3e 4e f6 a2 bd
       -0.060810342 0.0072393487 0.14406233 -0.07957135
0003c0 4d a4 f5 3c 1b c4 07 bc c4 b5 6f bc 19 9c c1 bd
       0.029985571 -0.008286501 -0.014630739 -0.094536014
0003d0 fb fa 76 bd bb 69 15 3e 7d e4 6a 3c f7 dd 38 be
       -0.060297947 0.14591114 0.014336702 -0.18053423
0003e0 6f 6c be 3d 25 76 bf bd 95 7e 8e 3d 7f 85 90 3d
       0.09298026 -0.09348706 0.06957737 0.07056712
0003f0 06 11 aa 3d 4b ba 56 3d 5c e3 a2 bb 2f d7 f5 3d
       0.08304028 0.052423757 -0.004970951 0.12003934

conv2.bias f4 [32]
000000 ad d7 e9 3c 61 82 fd 3c f9 c1 5e 3b 22 f8 ab bd
       0.028545225 0.030945959 0.0033990128 -0.08396937
000010 df a9 31 bd a4 55 87 bd 74 b1 6c bd c1 63 6a bd
       -0.043374892 -0.066081315 -0.05778642 -0.05722404
000020 c3 59 9a bd 18 26 19 bc 16 27 31 bd ff 97 06 bd
       -0.07536652 -0.009347461 -0.043250166 -0.0328598
000030 0f f1 cb 3c 09 c5 16 bd a1 f6 79 bd a7 68 92 bd
       0.02489522 -0.036809 -0.06102622 -0.07148867
000040 08 64 34 bd 3f e9 cf bc 06 28 0a bd e7 5d 96 3a
       -0.04404071 -0.025379775 -0.033729576 0.0011472077
000050 f0 ff 5f bd 4e 92 b6 bb 42 d6 d4 bd 5c db 22 bd
       -0.05468744 -0.00557164 -0.10392429 -0.03975998
000060 f9 a0 67 bd db 74 77 bd 5b 03 b7 bd a0 b7 81 bc
       -0.05655 -0.060414176 -0.08936187 -0.01583463
000070 2e a9 9b bd be b5 e0 bd 0a d1 8a bc c6 d3 82 bd
       -0.07600628 -0.109721646 -0.01694538 -0.06388049
