checkpoints_old/ppo_academy_empty_goal_close.pth (torch, 718950 bytes, 45 tensors)

conv1.weight f4 [16, 16, 3, 3]
000000 9c 30 99 3d a6 e2 8c bd 61 0d b2 3c 1f 3a a4 bd
       0.07479975 -0.06879167 0.021734895 -0.08018898
000010 14 2c 0f 3e f8 28 48 bd c4 d1 3b bd d6 be 8e bd
       0.13981658 -0.048867196 -0.045854345 -0.06969993
000020 b5 1a 2b 3d 67 10 e7 3c 0b 3b 07 bc 9e d0 0d bd
       0.041773517 0.028206063 -0.008253823 -0.03462278
000030 ae c5 99 3c cc fd 5d 3c 7c 00 db 3d e7 69 11 bd
       0.018771019 0.013549279 0.10693452 -0.035501387
000040 29 ad c5 3c 78 99 be bc 09 2b e4 3c 51 bf a0 bc
       0.02413042 -0.023266539 0.027852552 -0.019622477
000050 54 c6 bc bd f9 69 9a 3d ff b7 18 be 3a 6c 91 3d
       -0.092175156 0.07539744 -0.14913939 0.07100721
000060 bd 9d 06 3d c4 83 06 be 0b d1 0f bd 58 d9 7f bb
       0.032865275 -0.13136202 -0.03511147 -0.003903946
000070 4e 83 6c bc f0 c9 61 bc 2d 53 b4 3c 49 27 17 bd
       -0.014435602 -0.013781056 0.022012318 -0.0369027
000080 c4 94 06 3c ec 71 7b bd 6b 42 c9 bd 29 7c 1a bd
       0.008214179 -0.06138794 -0.09827121 -0.037716065
000090 7a 41 af 3c 7d 34 7b bc 82 c1 fd 3b 73 cb d4 bc
       0.021393526 -0.015332338 0.007744015 -0.025975918
0000a0 66 a8 3a 3d 63 27 8a bd 83 c3 cc bd 1c f9 9d bd
       0.045570754 -0.06745794 -0.099982284 -0.077135295
0000b0 5c 2a 6f 3d 6c d6 97 bc cd a0 4a 3d 3b 8e b1 3d
       0.058390006 -0.018534862 0.049469758 0.086697064
0000c0 04 4d 9f bd 6f 5d 12 bc ea f6 d7 bd 78 f2 f7 bd
       -0.077783614 -0.008933409 -0.10545142 -0.12106794
0000d0 e1 06 56 3d 6a 61 af bd 1a 0b 4c 3d a8 b9 60 bd
       0.052252654 -0.08563502 0.049815275 -0.054864556
0000e0 3b 82 1f 3d 05 08 81 bc 69 dd 94 3b 4c 66 14 3e
       0.038942557 -0.015750894 0.0045429957 0.14492148
0000f0 70 89 04 bd 0e 17 3e be d9 b0 84 bd cd a9 63 bd
       -0.032357633 -0.18563482 -0.064790435 -0.055581857
000100 0c cc e8 bb a2 58 db bd 4f bb 03 bd d5 d7 28 bd
       -0.0071044024 -0.10710265 -0.032161053 -0.04122146
000110 38 58 f5 bc ac 15 ef 3c 9d f7 00 be ca 41 5c bd
       -0.029949293 0.029185139 -0.12594457 -0.05377368
000120 b6 f0 b7 3d cc e9 37 bb 4d 4c 5b bd ed db 95 3c
       0.08981459 -0.0028062938 -0.053539563 0.018293345
000130 89 ec d6 3c bf 66 ec bd f3 cb 76 3d 70 cf b6 bd
       0.026235836 -0.11543035 0.060253095 -0.08926284
000140 d4 e7 c3 3c c2 68 15 be 68 b2 38 3d 54 c2 c5 3c
       0.023914255 -0.14590743 0.045092016 0.024140514
000150 a9 d2 63 bd ca 08 99 bd 8a 02 53 bd 76 78 91 bc
       -0.055620823 -0.074723795 -0.051516093 -0.017757636
000160 a2 5c 18 bd b6 d2 fa bb 05 4c d0 bd 8a 20 8b bd
       -0.037197717 -0.007654513 -0.101707496 -0.06793316
000170 c5 1d 3f 3e 2a 76 0b be 31 f0 81 bc 2d 96 24 3e
       0.186637 -0.13619295 -0.015861603 0.16072913
000180 3c 40 bb bb 37 6f d2 bc ac 9e 99 3c 0a 83 92 bd
       -0.0057144444 -0.025687797 0.018752418 -0.071539
000190 2c 03 84 bc 25 2c d0 bd 2c 58 b6 bd 33 b4 22 bc
       -0.016114794 -0.1016467 -0.08903536 -0.009930658
0001a0 21 a2 06 bd 59 ab 5f 3c d1 60 3e bd ce ba 3f 3d
       -0.032869462 0.013651692 -0.04647905 0.04680901
0001b0 97 88 51 3c 38 59 83 bd 95 f2 09 be 54 fd a6 3c
       0.012788913 -0.064135015 -0.13471444 0.020384468
0001c0 82 26 6e bd e4 a6 7d bd fb 43 bf bd 92 5d b7 3d
       -0.058142193 -0.061926737 -0.09339138 0.08953394
0001d0 e8 5a 8e 3c 5a 2c bb 3c a3 f6 c3 bd 4e 2d 83 bd
       0.017377332 0.022848297 -0.095685266 -0.064051256
0001e0 7e d2 3e bd 3e 67 04 3d 4e 4e 44 3d 3c f5 a4 bd
       -0.04658746 0.032325022 0.04792624 -0.08054587
0001f0 5f 07 8e bd bb 7a 93 3d 80 65 9c bd 16 85 43 3d
       -0.06935 0.07201143 -0.07636547 0.047734343
000200 ee cb 73 3e d9 e4 c5 bd 83 3c 8d bd 23 d1 e7 3c
       0.23808262 -0.0966279 -0.06896307 0.028297966
000210 e9 ae 38 3e 57 f8 05 be 71 dd 91 bd 11 e8 c0 bd
       0.18035473 -0.13083015 -0.07122315 -0.09419263
000220 c6 c5 a7 3d 42 d4 e9 bd 1d b0 a1 3b be b4 1c bd
       0.08192019 -0.11417438 0.0049343244 -0.038258307
000230 65 9a 04 bc f9 38 17 be 44 12 6e 3d aa cc 20 3d
       -0.008093451 -0.14767827 0.05812289 0.039257683
000240 e2 02 0a 3a 11 d3 20 3c db fb c7 bd 65 8c 43 bc
       0.0005264712 0.009815947 -0.097648345 -0.011935328
000250 87 88 b6 bc 15 3b cd 3c aa 50 e0 bc fe a5 18 3d
       -0.022281898 0.025052587 -0.027382214 0.037267677
000260 c5 cb d1 bc 5e 01 1c bb cc e9 9a bd 52 be a1 bc
       -0.02560986 -0.0023804526 -0.075641245 -0.019744072
000270 a9 07 49 3b f2 85 9d 3d 29 1b d5 3c c0 1e d9 3c
       0.0030674732 0.07691564 0.026013928 0.02650392
000280 be 7a d1 bd 5f 69 52 bd 14 5c 73 3d 76 ae e3 3d
       -0.10228489 -0.05137002 0.059413984 0.1111726
000290 99 28 c7 3d 66 c9 15 3c 24 6d b0 bc f3 eb 02 3c
       0.0972454 0.009142255 -0.021536417 0.007990825
0002a0 09 96 3a 3d fc b1 c4 3c 9e c0 75 bc d6 a5 cc bc
       0.04555324 0.02401065 -0.014999537 -0.02498142
0002b0 5e ab 6e 3d a0 cb 50 be 3d 06 d0 bd b1 86 41 bd
       0.058268897 -0.20390177 -0.1015744 -0.047247592
0002c0 53 f3 33 3c 2f e6 7c 3d 77 d8 99 3d 5c b0 6b 3d
       0.010983306 0.061742958 0.075119905 0.057541236
0002d0 e2 2a 63 3d fe bb 08 bd 4a db 18 bd 0e 03 32 3c
       0.055460818 -0.03338241 -0.037318505 0.010864986
0002e0 93 06 00 be f6 77 d4 bd f2 95 4b 3d 5e 57 2a bd
       -0.12502508 -0.10374443 0.049703546 -0.041587226
0002f0 f9 c2 95 3d e7 35 6e 3d 07 7c a8 3c a0 ca f6 bd
       0.07312579 0.058156874 0.020566953 -0.120503664
000300 3b 58 11 3d db bf 59 3d 20 a5 8e 3c 6f 2a 26 be
       0.035484534 0.053161483 0.017412722 -0.16227125
000310 ec 7f a0 bb 91 f9 05 be c0 2d b4 3c ef 26 ad 3d
       -0.004898062 -0.13083483 0.021994472 0.084546916
000320 c1 93 0b 3d 99 78 80 bd 1f 8b a2 bd bb 1f dd 3d
       0.034076456 -0.06273002 -0.079366915 0.10797068
000330 ad 5f c7 bc a0 49 67 3d 25 6a 29 be 3f ba 5d 3d
       -0.024337614 0.0564667 -0.16544397 0.054132696
000340 bd 4b 8c bd c5 53 89 3d c4 f8 71 bc 96 46 05 be
       -0.068503834 0.06705431 -0.014768783 -0.13015208
000350 a7 3c 0f bd fa fa ba 3d 97 c5 d7 bc 24 c3 3c bc
       -0.034969952 0.09129901 -0.026339335 -0.0115211345
000360 48 70 0e 3d 80 98 fc bc 25 1b 90 3b 7f c6 2d 3d
       0.03477505 -0.030834436 0.004397767 0.04242563
000370 64 c8 d6 bb f0 88 06 bd 1d 3d cc bd 7f 0f 2f 3d
       -0.00655465 -0.032845438 -0.09972594 0.042739388
000380 e1 8a e1 3c 75 92 6e bd d1 89 29 bd 4d 54 58 bd
       0.027532043 -0.05824514 -0.041391198 -0.05281477
000390 82 c4 05 3b 20 90 a0 bd 72 ac 3b bd 0c 23 65 3d
       0.0020411317 -0.0783999 -0.045818754 0.055941626
0003a0 44 af 70 3d 96 47 07 be be 35 5a 3d f8 44 52 3d
       0.058760896 -0.13210902 0.05327391 0.051335305
0003b0 c0 33 b5 3c 84 4b 03 be 04 70 c4 3c b7 f2 7f 3d
       0.022119403 -0.12821776 0.023979194 0.06248733
0003c0 97 c4 47 bd ab 04 68 3d 2d 7e bc bd 10 87 19 bd
       -0.048771467 0.056645077 -0.092037536 -0.03748232
0003d0 d8 ad b2 bd 81 56 e8 3d d4 18 2b 3c ec b1 1a 3e
       -0.08724564 0.11344624 0.010442931 0.15106934
0003e0 fd 6b 95 bd 69 18 88 bd ee d5 3e 3d fd 2c 98 3d
       -0.07295988 -0.06645281 0.046590738 0.07430456
0003f0 6d 2e cc bd 42 3f 78 3d 2f f5 26 be c2 8d ad 3d
       -0.099697925 0.060607202 -0.16304468 0.08474304

conv1.bias f4 [16]
000000 3a a1 04 3d c4 a9 94 bd ca 38 24 3c f8 fe 22 bb
       0.03238032 -0.07258943 0.010023305 -0.0024871211
000010 04 4e b0 bd 4b 23 29 3d 47 13 1f 3d 83 a5 73 bd
       -0.0860863 0.041293424 0.038836744 -0.059484016
000020 aa 4e 08 3d 98 a5 79 bb ab fb 4e 3c 2d 65 c6 bc
       0.033278145 -0.0038093086 0.0126332445 -0.024218166
000030 77 1a a7 bd 11 6c e3 3b a0 cf 15 bd 37 b0 a1 bd
       -0.08159345 0.0069403728 -0.03657496 -0.078949384

res1a.conv1.weight f4 [16, 16, 3, 3]
000000 b4 d0 bf 3c cf b1 bb 3d f4 59 a4 bc cb 29 dc 3d
       0.023414947 0.09164774 -0.020062424 0.10750159
000010 32 12 c8 3d 11 ed 00 3e 8a 37 14 3d 68 e0 fd b9
       0.097690955 0.12590434 0.03618578 -0.00048423116
000020 40 22 9c bb fb f0 12 bc ec ab 6a bc d6 19 23 3c
       -0.004764825 -0.008968587 -0.014323216 0.00995489
000030 42 eb 04 bd 17 90 f4 3c 6b 84 b1 bd 6a 36 4f bd
       -0.03245092 0.029853864 -0.08667835 -0.050589003
000040 25 54 f7 bd a3 84 c8 bc b7 5d 08 3d ab 6e ed bc
       -0.12076596 -0.024477309 0.0332925 -0.028983435
000050 b7 7c 84 3d a8 a1 76 bb 77 03 c5 3d e4 ed 96 3d
       0.064691 -0.0037632976 0.096198015 0.07369593
000060 a0 80 85 3d d9 ae f2 3c 4c 67 d7 bc bc c7 25 bc
       0.06518674 0.02962439 -0.026294373 -0.010118421
000070 b4 56 61 bc af c6 ce bd 60 49 1c 3d eb ec e4 3b
       -0.013753582 -0.1009649 0.038155913 0.0069862506
000080 64 b2 16 bd f2 d1 8b 3d ca 1a 7b 3d 64 29 60 3d
       -0.03679122 0.06827153 0.061304845 0.054726973
000090 f1 66 85 3c e7 c8 84 bc 77 e1 df 3c 0d a6 96 bd
       0.016284438 -0.016209079 0.02732919 -0.073558904
0000a0 5f 99 4b bd 61 82 e2 bd 85 5c e8 bc f4 13 3d bd
       -0.049706813 -0.11060024 -0.02836443 -0.046161607
0000b0 21 ce 08 3d f2 8c 98 3d ea 8a 88 3d 27 bb 25 3d
       0.033399705 0.07448758 0.06667121 0.040461686
0000c0 ed fb 20 3d bd 6d 85 3c 33 f9 90 bc 45 3a 92 3b
       0.039302755 0.016287679 -0.017696952 0.0044625127
0000d0 08 d5 b5 3d 17 74 be 3b b2 fd 34 bd 84 56 07 3d
       0.08878523 0.005812179 -0.044187255 0.033041492
0000e0 8b 73 4f bd c8 62 ca 3d 7b 0e 50 3c fc 5c c8 3d
       -0.0506473 0.09882122 0.012698765 0.0978336
0000f0 28 cb 66 3c c1 5b 83 3d 25 11 a0 3d b4 63 b5 bd
       0.014086522 0.06413985 0.0781577 -0.088569075
000100 65 df a0 3d a4 a0 ca bc e9 46 28 bd 99 25 f8 bc
       0.07855109 -0.024734803 -0.04108325 -0.030291365
000110 43 25 77 bd 72 d9 14 bd 4f 80 59 3d 8c 78 10 3d
       -0.06033827 -0.036340185 0.05310088 0.035271212
000120 6e 89 91 3d 03 04 e9 bb d2 f8 39 3d cd a2 f9 bc
       0.07106291 -0.007111074 0.04540331 -0.030473137
000130 de b6 29 bd 0e 8d 3c 3d ec 8b 8d bd 4b fe 99 3c
       -0.04143416 0.046032958 -0.069114536 0.018798014
000140 27 9d 8c 3d 92 72 d5 3d 91 6a 5a 3d a1 50 2c bd
       0.06865912 0.10422243 0.053324286 -0.04206908
000150 97 7a f1 3c 06 37 ab 3d 1a 91 83 3d 67 33 5e 3d
       0.0294774 0.08360104 0.0642416 0.05424824
000160 72 df 19 bd 71 53 1a 3d 49 8e 22 3d d4 cd ff bc
       -0.03756661 0.037677232 0.039686475 -0.031226076
000170 d5 1f 8e 3c d8 87 92 3c bd f8 43 3d a5 c6 6e 3d
       0.017349163 0.017887041 0.047844637 0.05829491
000180 b5 15 b1 3a ed c5 58 bc fb f9 10 bd f2 b6 1a 3d
       0.0013510498 -0.013230783 -0.03539465 0.037772126
000190 ec 86 ab 3c 52 8f a6 3d ef 58 a7 bd 7e 16 4b 3c
       0.02093836 0.08132805 -0.081712596 0.012395499
0001a0 bc 86 32 3d c9 0f 1e bd 83 47 9a 3d 87 c6 5f 3a
       0.043585524 -0.038589273 0.07533171 0.0008536358
0001b0 55 cc 04 3d 28 4a 9e 3b 0a c9 72 bd 19 2a 8c bd
       0.03242143 0.0048306175 -0.059273757 -0.06843967
0001c0 fe 6d 10 3d f3 62 8c bd 04 15 ba bd 53 06 65 bd
       0.035261147 -0.068548106 -0.0908604 -0.055914234
0001d0 35 a9 2d bb ac 45 ae 3d 82 9a c1 3b 0e 09 94 ba
       -0.002649856 0.085093826 0.0059083113 -0.0011294202
0001e0 4b ff ea 3c e2 f3 34 3c 14 69 77 3b a7 dd 5e 3a
       0.028686186 0.011044474 0.003775184 0.00085016567
0001f0 c4 da 38 bd 98 e3 10 3d 88 bc 8b 3d c4 3c be bc
       -0.045130506 0.0353733 0.06823069 -0.023222335
000200 78 c4 b6 3d 64 e6 3c bd e2 0f b2 3d c0 dd b4 bc
       0.08924192 -0.046118155 0.08694436 -0.022078395
000210 e7 fa 53 3c 4b 79 bf 3c 57 4d 82 bd d2 53 3b 3c
       0.012938238 0.023373267 -0.06362408 0.011433559
000220 6e 13 39 3b 05 29 1d bd f4 a9 5d bd 10 7d dc bd
       0.002824034 -0.038369197 -0.054117158 -0.10766041
000230 44 f9 c2 bd be b1 2f 3d 77 4b 09 3d 93 e3 ab 3c
       -0.095202 0.042894118 0.033519235 0.02098254
000240 b3 36 83 3d 92 9a ff 3c 3d 84 7d bb 00 eb 3e bd
       0.064069174 0.031201635 -0.0038683556 -0.046610832
000250 54 bc d4 3c 45 54 00 3e 24 f6 85 bc cf 74 bb bc
       0.025968708 0.12532146 -0.01635272 -0.022882847
000260 ca a9 35 3d bc c9 c0 bd dd 35 90 3c 05 d5 93 bd
       0.044351377 -0.09413478 0.017603809 -0.072183646
000270 2f 49 06 bc 0e 65 ad 3d ee e3 f8 3c de 00 9d bc
       -0.008196159 0.0846654 0.030382123 -0.019165453
000280 73 b1 e8 3c 43 0c 71 bd 38 17 6c bd 3c 8a 1c bd
       0.028404927 -0.058849584 -0.05763933 -0.038217768
000290 83 81 0b 3d fb 3a 95 bd 67 10 1b 3d 75 6f 06 bc
       0.03405906 -0.0728664 0.03785744 -0.008205284
0002a0 e8 40 33 3d 86 b9 7f 3d 9d 64 41 bd 91 f0 49 3d
       0.04376307 0.06243279 -0.047215093 0.049301688
0002b0 eb d3 c9 3d 69 6d 4c 3d 30 f0 e9 3c ac a4 c0 3d
       0.09854873 0.04990903 0.028556913 0.09406409
0002c0 e1 b6 69 3b da b7 41 3c df b6 30 3c 56 11 7b 3d
       0.0035661983 0.011823619 0.010785787 0.06129583
0002d0 2f ee 20 3d 12 55 8f bc 72 03 8f 3d 34 10 a2 bd
       0.03928965 -0.01749662 0.06983079 -0.07913247
0002e0 0c f0 65 bb a9 73 d2 bd 5e ce b4 bc aa fb 38 3d
       -0.0035085706 -0.10275967 -0.02207106 0.04516188
0002f0 d1 fa 3d 3d 1f ca 96 bc 4f c5 e5 3c 5a 11 af bc
       0.046381775 -0.018406926 0.028048186 -0.021370579
000300 1e 04 12 bc 2b a4 1a bc 41 33 fc bc 45 b2 82 3c
       -0.008912114 -0.009438555 -0.030786159 0.015954146
000310 79 ea 51 3a a8 be e8 3c c1 e2 24 bd 4f 43 e7 3b
       0.00080076564 0.028411224 -0.040255312 0.0070575844
000320 ae 59 d1 bd 97 1c 2a bc 45 10 b2 3d 33 d2 54 bd
       -0.10222183 -0.010382793 0.086945094 -0.051958274
000330 3a 17 22 bd b9 66 6e 3d 6b db 6d bd ce 69 cf bd
       -0.03957293 0.058203433 -0.05807058 -0.101276025
000340 ad 06 8c 3d da 41 a1 3d 3b 87 36 3d 47 06 ca 3d
       0.06837211 0.07873888 0.04456256 0.098644786
000350 61 23 3c 3d 16 5b c8 3d 52 1b 4c 3d dd 30 15 bd
       0.045932177 0.09782998 0.049830742 -0.036423553
000360 df db 91 3c b7 be ed 3b 9f 29 d8 3b b4 7b 40 3d
       0.017805038 0.007255401 0.0065967585 0.046992972
000370 fa 6c 1d bd 28 01 69 3d 2d 91 59 bc f9 e8 96 3d
       -0.038434006 0.05688587 -0.0132792415 0.07368655
000380 7a a1 d2 3c 24 f9 4d 3c d6 ff d6 3c ea 25 bc 3d
       0.025711764 0.012571607 0.026245039 0.09186919
000390 af 02 3e bd 69 db 79 ba d4 74 68 bb e0 ad 5d 3c
       -0.046389278 -0.0009531291 -0.0035470026 0.013530225
0003a0 1e 25 66 bd 88 44 37 bb e4 66 e9 3c 60 3b 16 3c
       -0.05618774 -0.0027964432 0.028491445 0.00916943
0003b0 52 4f 64 ba 9e c6 a6 3c c9 17 1d 3d b6 c4 fc bc
       -0.00087093294 0.02035838 0.03835276 -0.030855518
0003c0 1c 25 ae bc 55 de 8a bd 32 42 a5 bd 44 6d 0d bd
       -0.02125793 -0.06780688 -0.080692664 -0.034528032
0003d0 df 04 55 bd f3 4d 81 3b b5 64 b5 bd 37 40 3e bd
       -0.0520066 0.00394606 -0.08857099 -0.04644796
0003e0 ef e7 55 bd ec 98 30 3c e0 f9 a1 3d 33 9a 29 3c
       -0.052223142 0.010778647 0.07908988 0.010351705
0003f0 82 3c 75 3b 35 93 13 3c 6a 07 60 bd 26 db 36 bd
       0.0037420099 0.009007265 -0.05469457 -0.04464259

res1a.conv1.bias f4 [16]
000000 6e 07 73 bc 7e 78 1c 3d 34 18 93 bc b1 d1 05 3d
       -0.014833314 0.038200848 -0.017955877 0.03267068
000010 94 cf 42 bb 47 04 2b 3d d6 a7 af 3c 84 c8 13 3d
       -0.0029725777 0.041752126 0.021442335 0.0360799
000020 5c 8f 99 bc 87 ed 7b 3c 2c dd 45 bc 34 01 a5 3d
       -0.018745117 0.015376455 -0.012076657 0.0805687
000030 93 5e 9a 3d 0d 48 00 bd c5 eb 24 3c d5 46 f3 3b
       0.0753757 -0.031318713 0.010065977 0.0074242153

res1a.conv2.weight f4 [16, 16, 3, 3]
000000 c0 07 a3 bd 89 d3 45 3c 55 c7 d7 3d 27 e9 a4 bd
       -0.079604626 0.01207436 0.105360664 -0.08052283
000010 cd 34 02 bd 1f a8 b7 bb 40 8a 90 bd 9f 27 a9 bc
       -0.031788636 -0.0056047584 -0.07057619 -0.020648776
000020 79 e5 45 bd 20 95 ce bc aa f4 71 3d 92 9e a6 3d
       -0.048314545 -0.025217593 0.05907122 0.08135714
000030 ef 62 12 3c ac 16 ce bd 26 3a 4f bd 40 e7 80 bd
       0.00893472 -0.10062918 -0.050592564 -0.062941074
000040 24 e6 02 be be de ad bd d3 0d 84 bd 18 2c 53 3d
       -0.12783104 -0.0848975 -0.06447949 0.051555723
000050 c6 97 61 3c d6 76 aa 3d 5b df be bb 5e 4a 47 3c
       0.013769096 0.083234474 -0.005824966 0.012163727
000060 1b 47 a0 3d 16 db 26 3d cd b0 da bb 5b 82 91 3d
       0.07826062 0.04073628 -0.0066739083 0.071049415
000070 7b 97 b2 3d e0 b5 57 3c a7 35 a0 3c d5 f8 88 bd
       0.08720299 0.013165921 0.019556833 -0.06688086
000080 46 ca 4b bd d6 97 95 bd e3 2e 28 bd 9d 95 37 3c
       -0.04975345 -0.07304351 -0.04106034 0.011205104
000090 5b 86 7c 3d d0 83 54 3d c2 4b a8 bb b7 70 42 bd
       0.06165157 0.05188352 -0.005135984 -0.047470775
0000a0 91 16 07 bd cb b5 88 3d ed 4a 3c 3d 96 7e 9e bd
       -0.032980505 0.06675299 0.045969892 -0.07738988
0000b0 d0 90 61 3d fd 42 56 3b 52 80 30 3d 50 1d ba bd
       0.055069745 0.0032693737 0.043091126 -0.09087622
0000c0 df 39 87 3d 2b 3a 81 3d ec 64 db 3c 60 6b 99 bd
       0.06602835 0.06309923 0.026781522 -0.07491183
0000d0 e6 ce 89 3c c4 11 ae 3d c7 34 3f 3c 2a e8 cb 3d
       0.01682229 0.08499482 0.011670298 0.09956391
0000e0 9e 5b ef bc 80 15 27 3c 68 43 be bc 63 e0 1e 3c
       -0.029218491 0.010197997 -0.023225501 0.009697053
0000f0 c8 d1 9c bd 0d 52 53 bd 75 78 70 bd 9e 72 12 3d
       -0.076572 -0.05159192 -0.058708627 0.03575384
000100 35 b0 92 3c 63 dd 88 bc db 2a b3 3d 31 30 3c 3d
       0.017906288 -0.016707128 0.087484084 0.045944396
000110 b7 8f 5f bd f3 e9 03 bd a2 56 9c bd 3f 97 f8 bb
       -0.054580417 -0.032205533 -0.076337114 -0.0075863893
000120 78 c7 95 3d 08 0e 0a 3c 6f ff 9e 3c d0 16 14 bd
       0.07313436 0.008426197 0.01940891 -0.03615457
000130 ca 30 6d bc 05 88 b1 bb 7e 2e 61 bd 4b b8 9e bb
       -0.014476964 -0.005417826 -0.05497598 -0.004843747
000140 71 90 d0 bc 98 eb 55 3c 7e d9 cc 3d 02 70 b1 3c
       -0.0254595 0.013056658 0.10002421 0.021659855
000150 b0 cb 28 3c f3 30 fb 3c 05 f8 e8 bc 4d 4c 8a 3d
       0.010302469 0.03066299 -0.028438577 0.067528345
000160 25 f8 4d 3d 89 fd 85 3d 67 58 84 3d 66 2f f8 bc
       0.050285477 0.065424986 0.06462174 -0.030296039
000170 20 49 e1 bc ac 24 d5 bd b3 f6 36 bd 73 bf 41 3c
       -0.027500689 -0.10407385 -0.044668864 0.01182543
000180 8a e3 ee bd cb 9c 46 3d 81 26 46 3d 49 70 12 3d
       -0.116644934 0.048489373 0.048376564 0.035751615
000190 25 c6 8b bc e7 f7 ee bd 01 43 b7 bd 2c dd 35 bd
       -0.017062256 -0.11668377 -0.08948327 -0.04440038
0001a0 f7 9c d7 3c 6a f9 be bc 98 ba 8d bc b7 15 16 bb
       0.026319964 -0.02331229 -0.017300889 -0.0022901127
0001b0 3a 0a b8 3a 6b b9 b7 3d f9 35 91 3d 7c a1 3c bc
       0.0014041134 0.089709125 0.070903726 -0.01151311
0001c0 f4 29 a3 bd d0 7a c6 bb e4 f1 00 bd 41 39 2f bd
       -0.07966986 -0.006057121 -0.031480685 -0.04277921
0001d0 97 12 48 bd d7 f8 a8 3d 36 c3 4e 3d fa f1 82 bd
       -0.048845854 0.082505874 0.050479136 -0.063938096
0001e0 53 83 96 3d d6 92 b7 3d 67 81 9f 3d 67 d8 b0 bd
       0.07349267 0.089635536 0.077883534 -0.086350255
0001f0 2c d0 82 bc 13 c9 bf 3d c1 fa 72 3d f2 35 f7 b9
       -0.015968405 0.09364524 0.05932117 -0.00047151704
000200 cb 72 93 3c b0 b8 cb 3d a3 08 21 3d 61 a8 be bc
       0.017999073 0.09947336 0.039314877 -0.023273649
000210 48 57 0d 3d 28 95 83 bd ec 4b d3 bc dd 51 8d 3d
       0.034507066 -0.06424934 -0.025793038 0.0690038
000220 f3 de bc 3c 07 2f 93 3c dc d3 49 bd 16 ea 54 bd
       0.02305553 0.01796676 -0.04927431 -0.051981054
000230 38 14 af bc f7 64 d2 bd 6e e9 27 bc 2a 14 21 ba
       -0.021371946 -0.10273164 -0.010248525 -0.0006144667
000240 b2 d2 ae bc 69 13 e0 3c 16 b2 76 bb 87 18 28 bd
       -0.021340702 0.027353005 -0.0037642769 -0.041039016
000250 cd 1d 0f bd d7 a2 91 3d e7 9f 6a bd 7e 26 0e bd
       -0.03494053 0.07111137 -0.0572814 -0.034704678
000260 28 8e 5e 3d 8e be b7 bd 0b 66 d6 bc 03 f8 3f bd
       0.05433479 -0.08971892 -0.026171705 -0.04686738
000270 98 e9 c7 bd c2 b9 69 3d 34 1e 8b 3d a6 d3 d2 bd
       -0.09761351 0.057061918 0.0679287 -0.10294275
000280 85 bf 14 bd 92 9e 5b bd 94 24 94 3d 30 5d a9 bd
       -0.03631546 -0.05361802 0.07233539 -0.08269727
000290 40 96 03 3d 45 3a 94 3c e5 dd 83 3d 92 8f 29 3d
       0.03212571 0.018094191 0.064388074 0.041396685
0002a0 69 40 d1 bc d9 f7 a1 bc fb 2a 27 3d 6e b3 45 3d
       -0.025543408 -0.019771503 0.040812474 0.04826682
0002b0 0e 48 49 bc e3 c7 85 3d 39 97 57 bd 81 d8 b8 3b
       -0.012285246 0.06532266 -0.05263445 0.0056410437
0002c0 d7 80 78 bc 85 5c 06 3d 4e b8 06 bd db 30 a7 3c
       -0.015167437 0.032803077 -0.03289061 0.020409038
0002d0 a9 c2 83 bd 6f a5 e4 bb 46 ba bd 3c b3 91 27 bd
       -0.06433613 -0.006977729 0.023160111 -0.040910434
0002e0 1a 92 c8 bc e9 3c 22 3d 03 bc 44 3d 0e a5 19 3d
       -0.02448373 0.03960887 0.048030864 0.037510924
0002f0 05 e9 87 3d d9 61 29 bd e6 be 38 3d 9f 72 16 bd
       0.06636242 -0.04135308 0.04510393 -0.036730405
000300 b8 fe 95 bd 23 e5 93 3d f9 b6 d5 bc fa 3d 12 3c
       -0.07323974 0.07221439 -0.026088225 0.008925909
000310 ce 1c aa bd 09 66 37 bd c1 05 bd bc 8f ae 3e 3d
       -0.08306275 -0.044775043 -0.023074033 0.04655319
000320 34 f4 5f 3d 8c 7d 57 bd b5 9f b7 3c 59 04 42 3b
       0.05467625 -0.052609965 0.022415021 0.0029604642
000330 65 9d e4 bd a0 7c 8e bb b0 56 30 bd e2 b0 10 ba
       -0.11162833 -0.0043483526 -0.04305142 -0.00055195217
000340 76 0e ef 3c 84 3d 1f bd 80 f1 ee bc 2f 68 92 3d
       0.0291817 -0.038877025 -0.02916789 0.07148778
000350 56 54 b9 3d 97 22 24 bd 56 42 03 3e d4 3e 92 3d
       0.09049289 -0.04007205 0.12818274 0.0714089
000360 ab 16 58 bc 8a ab 34 3d a3 20 9d bd 5d 0c 80 bd
       -0.013188998 0.044108905 -0.076722406 -0.06252358
000370 12 dc 86 3d fd 07 59 3d 90 78 03 3d 39 37 98 3c
       0.06584944 0.052986134 0.0320974 0.01858102
000380 69 5e 9e 3d 36 e2 96 3d fd 5e a6 bd 56 c1 3d bd
       0.07732851 0.07367365 -0.08123586 -0.046326958
000390 9d 10 57 bc de a6 3f 3d 9a a9 a9 3d 46 9c 17 3d
       -0.0131265195 0.046789996 0.08284302 0.03701427
0003a0 92 91 dd bc 1b 9e 56 bd b3 4c 2e bd 6e 0a ce 3d
       -0.027046952 -0.052396875 -0.042553615 0.10060583
0003b0 6d 71 ea 3c 69 8d 8d bd b6 59 30 3d a0 c4 86 3c
       0.028618539 -0.069117375 0.043054305 0.01645118
0003c0 e4 e2 87 bd da 9d 17 bd dc 63 39 3d 62 f2 26 3d
       -0.06635073 -0.037015773 0.04526125 0.040758498
0003d0 70 c3 a5 bd 2d 8b 11 bc 48 87 1f 3d 1e b5 63 bc
       -0.08093917 -0.00888328 0.038947374 -0.013898162
0003e0 53 d4 21 3d f2 d2 c2 3c 27 74 e5 bd ba 54 85 bd
       0.03950913 0.023782227 -0.11203795 -0.06510301
0003f0 b9 48 9d bd 22 5a 2c bc 29 9d ed bc 5b 69 b0 bd
       -0.07679886 -0.010519536 -0.029005604 -0.08613845

res1a.conv2.bias f4 [16]
000000 b4 65 52 bd d4 d3 11 3c de bb 50 bd fa a2 ef 3c
       -0.051366523 0.008900601 -0.050960414 0.029252518
000010 7c c1 07 3d b2 81 cf bc ce 53 e6 bc 42 2b 18 3a
       0.033143505 -0.025330398 -0.028116133 0.0005804786
000020 9a 70 2e bd a3 c4 46 3a 90 1b 6c bd af 78 68 3d
       -0.042587854 0.0007582402 -0.057643473 0.056755718
000030 f6 9e 70 bc 92 cd a1 bc f1 bb c1 bc 9e 21 a6 bd
       -0.014686337 -0.019751344 -0.023649188 -0.08111881

res1b.conv1.weight f4 [16, 16, 3, 3]
000000 2c 6b 70 bd d0 68 5b bd a2 e9 3f bc bf 00 89 bd
       -0.058695957 -0.053566754 -0.011713417 -0.066895954
000010 16 26 e9 3a 21 0d d1 bc 2a e9 8d 3d ca f6 39 3d
       0.001778784 -0.025518956 0.06929238 0.045401372
000020 a7 fd 5d bc 8d f1 4c 3d 0f ad 2e 3b de 6c 4e bd
       -0.013549245 0.05003505 0.0026653444 -0.050396793
000030 5f f6 36 3d ca 94 82 3d 81 c1 df 3b 7e 05 69 bd
       0.04466855 0.063760355 0.0068284874 -0.056890003
000040 c4 4f 93 3d 10 6a b0 3b 80 8b 5d bc 13 6d 07 3b
       0.071929485 0.0053837374 -0.013522029 0.0020664379
000050 90 2a 22 3d 00 8e b3 3d 44 9c 40 3d 1b 92 a2 3d
       0.039591372 0.08767319 0.047024027 0.07938024
000060 81 00 2a 3d a1 46 83 3d d7 e3 9a bc c1 71 4b bd
       0.041504387 0.06409956 -0.01890747 -0.04966903
000070 24 1c 3f 3d a9 a0 9f 3d 52 70 80 3d 14 75 7f 3c
       0.046657696 0.07794315 0.062714234 0.015591878
000080 b9 30 c8 3b ba ea 35 3d 74 7b 68 3d 01 2c a4 bb
       0.006109324 0.044413306 0.05675836 -0.0050101285
000090 c0 6f b2 bc ef 3e 8d bd 75 7c d8 3b 60 7e 23 3d
       -0.021781802 -0.06896769 0.0066066333 0.039915442
0000a0 80 10 39 bd 5f c1 60 bd 22 57 83 3d 48 92 93 bd
       -0.04518175 -0.054871913 0.06413104 -0.07205635
0000b0 95 81 74 bd b9 39 ce 3c 05 da 8d 3d eb f5 b8 3d
       -0.05969389 0.025174009 0.069263496 0.0903128
0000c0 1a 66 5a bd 94 c8 fd 3c 3e 31 84 3d d9 cf 3a 3d
       -0.053320028 0.030979432 0.06454705 0.045608375
0000d0 33 a3 a0 3c 23 9a 0a bd 82 69 79 3d 00 85 00 3d
       0.01960907 -0.033838402 0.060891636 0.03137684
0000e0 bd d3 ac bd 48 1d f4 3c 92 81 f7 3d a9 90 8a b9
       -0.08438823 0.029799119 0.120852605 -0.0002642919
0000f0 99 7e 07 3d 5f ab a3 3b 11 8f 84 3d c8 a1 f8 bc
       0.033079717 0.0049947943 0.064726 -0.03035058
000100 13 cc 39 bc 09 7c 1e be 15 47 19 be b8 53 e3 bd
       -0.011340159 -0.15477003 -0.14968522 -0.110999525
000110 5e fe b9 bd 44 f4 f4 bd f7 7e 7d 3c 2b 69 27 bd
       -0.0908172 -0.119606525 0.015472165 -0.04087178
000120 3a 97 02 bd 4b 7b 5d 3d 09 bc 25 3c 0d 80 60 bc
       -0.031882502 0.05407266 0.010115632 -0.013702405
000130 2c fe 86 bd 3d 76 13 bd 00 3b 1c 3d c7 92 98 3d
       -0.06591448 -0.036001433 0.038142204 0.074498706
000140 bb e2 58 bd 89 af 60 3c dc 2c 7c bd 4e 2a 59 bd
       -0.052950602 0.013713726 -0.06156622 -0.05301886
000150 db 17 5d bd 19 4b 59 3d 37 aa f9 3c 4b 80 06 bd
       -0.05397783 0.053050134 0.030476673 -0.032837193
000160 3e a0 a6 bd b6 69 54 bd b5 bc b1 3d f0 eb 59 3b
       -0.081360325 -0.051858626 0.08678571 0.0033252202
000170 7e 16 5b bd 3d 3c ca 3c 8f bb 34 3d 27 74 60 3d
       -0.053488247 0.024686927 0.044124182 0.05479827
000180 69 6d 6d bb 03 0c 29 3d 96 ea a8 3d f2 54 5f 3c
       -0.0036228544 0.04127122 0.08247869 0.013631092
000190 8f e6 da bc 52 8e 15 bd 3d 51 54 bd 06 d4 19 3d
       -0.026721267 -0.03651268 -0.051835287 0.037555717
0001a0 b3 15 61 3b 81 62 38 3d 5b ac 71 3d 9a 1c d4 bc
       0.003434521 0.045015816 0.05900226 -0.025892545
0001b0 db 9f ce 3c 74 c0 01 3d f1 bf a9 bc 54 14 dd bb
       0.02522271 0.03167768 -0.020721408 -0.006746808
0001c0 b6 19 a2 bd b0 25 d5 bd 61 4d 3b 3d 4e 06 38 bc
       -0.0791506 -0.10407579 0.04572809 -0.011231972
0001d0 6e ba 19 3c 2a 70 40 bd aa 11 8d bd ca 19 e8 ba
       0.009382827 -0.046981968 -0.06888135 -0.0017707881
0001e0 c6 f3 c5 3c b4 6d 92 bd a6 ff 89 3c bf 0a 25 3d
       0.024164092 -0.071498305 0.016845535 0.04029345
0001f0 c8 5a c1 bd f9 0c 60 3d f2 93 93 bc ba 08 dd bd
       -0.09441143 0.05469987 -0.018014882 -0.1079268
000200 09 17 5e bd 22 b5 b3 3c 37 b7 09 3d de 42 8f 3c
       -0.054221187 0.021936957 0.033621993 0.01748794
000210 56 7c 4c 3d bb e1 3d bd a3 30 17 bd 27 98 26 bd
       0.049923263 -0.04635785 -0.036911618 -0.040672448
000220 c1 ec 40 bd 34 18 00 3d b3 b6 bd 3b 14 44 1a 3d
       -0.047100786 0.031273082 0.0057896017 0.03766258
000230 64 62 5d 3d 97 24 93 bd ea f3 cb bd af d7 c5 3c
       0.05404891 -0.07184713 -0.09958632 0.024150698
000240 00 6f f0 39 96 ca 2f bd d8 f6 53 3c dc ea ec 3c
       0.0004585907 -0.04291781 0.01293727 0.028920583
000250 28 51 7e bc 34 02 b8 3c 28 2b 63 bc 70 0b a1 3c
       -0.015522279 0.022461988 -0.01386527 0.019658774
000260 f0 4a 94 bb af 91 a0 3d fc 90 99 3c 1c cd c8 bc
       -0.004525535 0.07840287 0.018745892 -0.024511866
000270 00 70 fb bc ac d9 9b bc c4 0e 9f 3c c3 de 47 bd
       -0.030693054 -0.019024692 0.01941622 -0.048796427
000280 58 6b 14 3c 4c 70 e4 bc 7b 6f 15 bd 80 a1 b5 3b
       0.009058796 -0.027885579 -0.03648327 0.005542934
000290 46 22 54 bd 9a 1a 8f bd c8 81 87 bd 22 1a 54 3d
       -0.0517905 -0.06987496 -0.06616551 0.051782735
0002a0 1c 35 88 bc fe 83 22 bd c0 c6 9e bb 06 d1 62 bd
       -0.016626887 -0.03967666 -0.00484547 -0.05537512
0002b0 7f 46 85 bd e0 3c 0e bd 27 34 84 3d 4e f1 9b bd
       -0.06507587 -0.034726024 0.0645526 -0.076143846
0002c0 f8 7a 3f bd e8 68 47 3c 3b 77 10 bd 50 ea 9c bb
       -0.04674813 0.012171008 -0.035269957 -0.0047886744
0002d0 be 65 87 bd fe be 02 3d 30 7b be bc 60 e2 25 bb
       -0.06611203 0.031920426 -0.0232521 -0.0025311932
0002e0 58 5e 7b bc d4 67 91 3c e8 6d 9d bd 1e 16 19 bd
       -0.0153423175 0.017749704 -0.076869786 -0.03737461
0002f0 ab f8 a0 bd a2 5d 32 3d 0b 40 42 bd d0 9e fb 3b
       -0.0785993 0.043546326 -0.047424357 0.007678844
000300 b5 10 a6 3d 60 2a 1c 3c 4a 55 4a 3d 28 1e 0d bc
       0.08108655 0.009531587 0.049397744 -0.008613147
000310 80 45 e8 bb c3 86 63 bd 92 b0 0c 3d 47 fc 8a 3d
       -0.007088363 -0.05554844 0.034348078 0.06786399
000320 78 2d 46 bc 4a e0 6c 3d db dc 5d bd 96 8f b3 bc
       -0.0120958015 0.057831086 -0.054165702 -0.021919053
000330 f0 c2 3f bd c2 48 87 bd d8 ff 27 bd 57 14 a7 bd
       -0.046816766 -0.06605674 -0.041015476 -0.081581764
000340 d8 c5 0a 3c 88 ba 12 3c 43 20 9c bd ce 86 63 bd
       0.008470021 0.008955605 -0.07623341 -0.05554848
000350 82 bc 45 3d 47 55 8f bd 74 24 96 3c 5c fe e9 bc
       0.04827548 -0.06998687 0.01832793 -0.02856367
000360 6a 51 01 3d ee a3 36 bd 64 55 91 bd c8 c8 22 bd
       0.031571783 -0.04458993 -0.07096365 -0.03974226
000370 be ab 76 bd 3e 5b 20 bd 28 9c 33 bc db 27 6e bd
       -0.06022238 -0.039149515 -0.0109625235 -0.058143478
000380 c4 71 d2 3c a3 e6 62 bd eb 2e 38 bd a8 11 63 bd
       0.025689013 -0.055395734 -0.04496662 -0.05543676
000390 68 f0 08 3c 72 9f 00 3d 66 8c 75 bd 80 24 9f bb
       0.008358099 0.03140206 -0.059948348 -0.004856646
0003a0 60 fa 70 3c 59 59 92 3d a9 fe 91 3d 70 c6 e0 3b
       0.014708132 0.07145948 0.07128651 0.006859593
0003b0 0c c3 af bc f6 7a 0e bd 74 54 b6 3c 0e 6d 1d bd
       -0.02145531 -0.034785233 0.022257067 -0.03843408
0003c0 70 de ad 3c f0 70 af 3c 1c 4c c1 bc 00 04 84 39
       0.02122423 0.021416157 -0.023595862 0.00025179982
0003d0 64 1f 81 bc 0e c8 28 bd b8 fb 2d bc ca fd 2c 3d
       -0.015762039 -0.041206412 -0.010619096 0.04223422
0003e0 6e 1a 4e bd f3 c8 02 bd 52 ff 35 3d b0 02 d4 bb
       -0.050318174 -0.03192992 0.044432946 -0.006470047
0003f0 63 93 9a bd 2c 30 c2 bc 70 14 b0 3c 37 9b a9 3d
       -0.07547643 -0.02370461 0.02149412 0.08281558

res1b.conv1.bias f4 [16]
000000 c8 40 19 3d be 1a 50 bd 47 58 a4 bd 63 65 87 bd
       0.037415296 -0.050806753 -0.0802465 -0.06611135
000010 e8 92 73 3d 1b d8 4f bc ad 2f 8c 3d d3 3a d6 bc
       0.059466273 -0.012685801 0.06845031 -0.026151096
000020 e8 9d 53 3d ca 8f 7b bd a7 1c 97 bc 55 4d 34 3d
       0.051664263 -0.061416425 -0.01844628 0.044019062
000030 b5 b2 8b 3d b5 b9 96 3d 92 39 35 3c cc 2c 0a 3d
       0.06821195 0.073596396 0.011061089 0.033734128

res1b.conv2.weight f4 [16, 16, 3, 3]
000000 9d 86 02 3e 14 74 8f 3d 1c a3 3b bd 15 d9 82 3d
       0.12746663 0.07004562 -0.04580985 0.06389061
000010 ed 03 a4 bd ab 2d c7 bc a1 8c 6e bc 24 48 f9 3b
       -0.08008561 -0.024313768 -0.014559896 0.007607477
000020 64 cc 49 3d 53 51 59 bc a0 95 ac 3c 36 92 92 bd
       0.049267188 -0.013264018 0.02106744 -0.07156794
000030 87 07 8d bc 1c 4a e1 39 ca 77 33 b9 df 19 3b bd
       -0.017215503 0.0004297056 -0.00017115395 -0.04567897
000040 9c 28 e7 3c 11 78 c4 bd bd 02 22 bd 5e 9f cb 3c
       0.028217606 -0.09593213 -0.039553393 0.024856266
000050 9f 31 27 bd 9a fc f1 bc 69 f0 8b bd 00 5b 18 3d
       -0.040818807 -0.029539395 -0.06832964 0.03719616
000060 6c d8 a9 3c fa d7 09 bd 3b 30 ca bc a2 49 6e 3d
       0.02073308 -0.033653237 -0.024681201 0.05817569
000070 5e d3 80 3d dd 5c 9f 3d 5e 1b 55 bd 32 1a 0c 3d
       0.06290315 0.07781384 -0.052028053 0.03420467
000080 53 1c bc bc e3 a6 da bb 3b 5a 98 bd c7 83 9f bc
       -0.022962725 -0.0066727265 -0.07439085 -0.019472016
000090 01 e0 34 3d 68 91 9f bd 61 e6 ba bc 28 d4 ac bc
       0.04415894 -0.07791406 -0.022814931 -0.021097258
0000a0 e5 60 2b bd 90 72 9a 39 87 77 c3 bd c1 81 38 bc
       -0.041840453 0.00029458525 -0.095442824 -0.0112614045
0000b0 18 49 29 3e ff 47 c8 bd 03 11 3d bd 78 bb 28 3d
       0.1653179 -0.09779357 -0.0461588 0.04119441
0000c0 13 f5 15 3d b3 ee 9b 3d ea 74 92 bd bf a5 6e bd
       0.036610674 0.07613888 -0.07151206 -0.058263537
0000d0 98 1b b7 bd b6 9f ad bd f0 a1 1a bd dd 9e 9c bd
       -0.0894081 -0.08477728 -0.037752092 -0.07647488
0000e0 a0 15 6f 3d 52 f1 ab bd 6a ce 1c 3c 37 06 86 3d
       0.058370233 -0.083956376 0.009570697 0.06544154
0000f0 5e db 8c bd 31 cb d6 bc 54 8c 66 ba 37 25 62 3c
       -0.068777785 -0.026219936 -0.0008794714 0.013802818
000100 39 62 bd bd 4b ae e5 3c 8b b2 39 bc 98 0b 2f bd
       -0.0924725 0.02803721 -0.011334072 -0.042735666
000110 22 78 a5 bc c4 12 33 3d 27 7c 60 bd 7a e8 7a bc
       -0.020198885 0.04371907 -0.0548059 -0.015314216
000120 34 9b 9c bd d3 aa 61 3d 67 f8 4b 3d c6 17 9d 3c
       -0.0764679 0.05509455 0.04979744 0.019176375
000130 5b a2 45 3d 83 f1 1e 3d 4e 29 7b bc 5a b8 01 bd
       0.048250537 0.038804542 -0.015329672 -0.031669952
000140 43 81 f2 bc 1f c9 27 3c e6 84 8e 3d 6a 30 03 3d
       -0.029602652 0.010240822 0.06958942 0.032028593
000150 f0 97 7c bd 0b 46 98 3d 1e 96 92 3d 0c 5f 18 bb
       -0.061668336 0.07435235 0.07157539 -0.0023250012
000160 06 3d ce bc 80 8c 32 bd 8a 99 86 bd 7f 76 7f bd
       -0.025175583 -0.043591022 -0.06572254 -0.062368866
000170 f2 e6 0b bd 9f 87 be bd 36 29 33 bd 59 d8 97 bd
       -0.034155793 -0.093032114 -0.043740474 -0.07414312
000180 51 cd 3b bd 49 99 d5 bb 3e 8b db bd 98 01 7d bd
       -0.0458501 -0.006518517 -0.10719918 -0.061769098
000190 36 06 ac bd 39 06 74 3d ff 1c de 3c dd 69 24 bd
       -0.08399622 0.059576247 0.027113436 -0.04014002
0001a0 ef 82 85 bd 54 ef 86 3d 59 0e b5 bd 35 02 b4 3c
       -0.06519114 0.06588617 -0.08840627 0.021973709
0001b0 5f 17 96 bc a9 01 31 3d 40 c9 7d bd 79 60 83 3c
       -0.018321691 0.043214474 -0.061959505 0.016037213
0001c0 09 58 90 3d 01 93 57 bd 2c 80 bd 3c 3c fc 98 3c
       0.070480414 -0.05263043 0.023132406 0.018674962
0001d0 08 73 32 bd 9a 79 21 bd e7 f6 8a bd 93 13 34 3d
       -0.043566734 -0.03942261 -0.06785374 0.04396398
0001e0 67 71 eb bc 31 80 4a bd 46 0d 12 3a f6 19 d4 3d
       -0.028740598 -0.04943866 0.0005571436 0.10356514
0001f0 4b e4 3a 3d 11 4d 8d bd 98 41 c2 bc c4 31 72 bd
       0.045627873 -0.06899465 -0.023712918 -0.05912949
000200 cf 54 79 bd 9e 2f 0f 3e 18 3e 17 3b 73 70 87 3d
       -0.060871895 0.13983008 0.0023077782 0.06613245
000210 73 aa be bc 0d ec 98 3d 7a 75 7b 3d 34 c2 a4 3d
       -0.023274636 0.07466898 0.06139133 0.08044854
000220 e8 e0 85 bd ef a5 4c bb a7 cf f2 3a f1 3c fc 3c
       -0.06537038 -0.0031226834 0.001852502 0.030790778
000230 21 73 8d 3d 45 1b c4 bd 1f da ab bd 90 5a 31 3d
       0.06906725 -0.09575514 -0.08391213 0.043299258
000240 cd eb 9d bd 26 2f d9 3c b0 98 9f bd c8 04 a1 bc
       -0.07710991 0.02651174 -0.07792795 -0.0196556
000250 b3 39 96 3d d9 24 49 bd 3d ec 5d bd bd fd ac bc
       0.07335224 -0.049107406 -0.054180373 -0.021117086
000260 05 c8 1a 3d 10 51 0f 3d d5 0a 8b bd cf f6 8e bd
       0.03778841 0.034989417 -0.067891754 -0.06980669
000270 df f9 ee 3c c3 10 84 3d d9 a8 ff bc 97 73 8f 3c
       0.029171882 0.064485095 -0.031208443 0.017511172
000280 20 b0 ff 3c 3b d3 7b bd 85 f0 26 bc 8e cc d1 3c
       0.031211913 -0.061480742 -0.01018918 0.025610235
000290 64 ca 8a 3d f2 ce 9c bc 23 28 a5 3d c5 a1 52 3d
       0.06776884 -0.019141648 0.08064296 0.051423807
0002a0 aa 2d 2d 3d d0 a3 7f 3d 84 1e a0 bd 6f eb 53 3c
       0.042279877 0.062412083 -0.078183204 0.01293455
0002b0 8f 62 bd bc c2 38 7d bd fc f6 c5 bb 90 f3 c5 3d
       -0.023118285 -0.061821707 -0.0060414057 0.096655965
0002c0 98 fe 55 3d 40 e6 82 bc 9b c0 a1 bd 9e 8c d0 3c
       0.052244753 -0.015978932 -0.07898065 0.025457677
0002d0 09 95 03 3d 2d 71 82 bd 5c 45 c9 3b 85 ea 17 3d
       0.032124553 -0.06369243 0.0061423015 0.03708889
0002e0 90 dd b0 bc 56 67 32 3d 03 21 d0 bd ad 28 1e 3c
       -0.021590024 0.04355558 -0.101625465 0.009653253
0002f0 f3 61 b9 3d f0 d3 68 3d fb 1d 5c 3c d0 e9 90 bd
       0.090518855 0.056842744 0.013434882 -0.07075846
000300 c3 b9 d6 ba b6 87 65 3d 4f 1d 86 bd e1 8c 04 3d
       -0.0016382266 0.056037627 -0.06548559 0.032360915
000310 6d d6 7f bb 5e 56 a6 3a 04 34 42 bb 04 71 3b bd
       -0.003903772 0.0012690534 -0.0029633055 -0.045762077
000320 db 4a bb bd 12 08 85 3c 18 45 5e 3c 74 ae 33 bd
       -0.09145137 0.0162392 0.013566278 -0.043867543
000330 ba 53 2c bc b2 95 9f bc 89 37 8c 3d 76 cd 38 3c
       -0.010518009 -0.01948056 0.0684653 0.011279454
000340 93 56 7f bd ad a4 43 3c 0a 8b 6e bd 5b 60 80 3c
       -0.062338423 0.011941117 -0.058238067 0.015670946
000350 6d a5 06 3d e5 97 94 bb 3f 75 2b bd 67 c2 5e bd
       0.032872606 -0.004534709 -0.04185986 -0.054384615
000360 5a e4 39 3d 5f 68 80 3d a2 fa 9e 3d a3 d5 45 3d
       0.04538379 0.06269907 0.07762648 0.048299443
000370 4c e7 9b bc aa b3 43 3d dc 76 22 bd 81 6a 40 3c
       -0.01903119 0.047778763 -0.039664134 0.0117441425
000380 6b 6b 76 bd 34 01 53 3c dd 45 46 3d 6e f0 ae 3c
       -0.060161036 0.012878705 0.04840647 0.02135488
000390 85 60 69 3d d6 6c c1 3d 36 c4 20 3d c8 8e 01 bc
       0.056976814 0.09444587 0.03924962 -0.007907577
0003a0 e8 4e 8f bd 04 0c 24 bd 66 dc 82 3d 49 13 96 3d
       -0.06997472 -0.04005052 0.06389694 0.07327897
0003b0 58 82 97 3d 59 34 6a 3d 76 e9 53 3d e3 0e 41 bd
       0.07397908 0.05717883 0.051736318 -0.047133338
0003c0 ff f7 35 bd eb 9c f1 3c c4 06 bc 3a b8 ee 8e bd
       -0.04442596 0.02949377 0.0014345278 -0.06979126
0003d0 9b 61 b6 3d e1 6a dd 3c 18 d8 7d 3c c2 ca 86 3d
       0.089053355 0.027028503 0.015493415 0.06581642
0003e0 3f a6 08 3d 42 4b 8d 3c 9d a0 ca bd cf 7e 6d 3d
       0.03336167 0.0172478 -0.09893916 0.057982262
0003f0 c0 33 ee bc da 87 a8 bc 11 89 f8 bc 2e db 18 3d
       -0.02907741 -0.020572592 -0.030338796 0.0373184

res1b.conv2.bias f4 [16]
000000 09 b4 2a bc 77 1b 14 bd 1b 7e 68 3d c1 4c f4 bb
       -0.0104189 -0.036159005 0.05676089 -0.007455439
000010 05 ce d7 bc 32 47 86 bd 78 a2 16 bd 32 ce e2 bb
       -0.026343355 -0.06556548 -0.036776036 -0.006921553
000020 65 99 1e 3d 29 53 4b bd b3 9a d5 3c 87 82 83 3c
       0.038720507 -0.049639855 0.026074743 0.016053451
000030 e1 1f 1c 3d a1 ca 0d bd 8f 3e 0c bd f3 88 34 bd
       0.03811634 -0.03461707 -0.034239348 -0.044075917

conv2.weight f4 [32, 16, 3, 3]
000000 79 79 b3 3d 56 e1 95 3d 37 a7 bb 3d 3b 12 de bc
       0.087634034 0.0731837 0.09162753 -0.027108302
000010 83 3c d4 3c 9e e6 b8 3d 91 98 a9 3b 20 04 fd bb
       0.02590776 0.09028362 0.005175658 -0.007721439
000020 4c 43 4a 3c bd 12 9c bd 71 ab fe 3c 50 d1 70 bd
       0.012345146 -0.076207615 0.031087609 -0.058793366
000030 1b fb 8b 3b 7c 13 44 bb ce 7c fd 3c b0 bc 49 bd
       0.0042718775 -0.002991884 0.0309433 -0.049252212
000040 3b cd 9f bd 42 5b a9 3c a8 dd 45 bc 37 d0 48 3d
       -0.078028165 0.020673398 -0.012076773 0.049026694
000050 13 34 97 bd da 9a d0 3c a0 6d 5b bd e2 c9 0b 3d
       -0.07382979 0.025464464 -0.053571343 0.034128077
000060 29 d7 e3 bc 99 06 2d 3d 02 99 b4 bd 5e 59 93 3d
       -0.027812557 0.04224262 -0.088182464 0.0719478
000070 ba 64 8d 3c da a8 0e bd 54 ae b7 3d e4 60 53 bc
       0.017259944 -0.034829 0.08968797 -0.0129015185
000080 d4 31 68 bd 9a 79 03 3c a2 61 4f 3d 2f 07 89 bd
       -0.056688145 0.008024598 0.05063022 -0.06690823
000090 4f b9 1b bd 3a b0 0b 3d 46 3a 9d bc 26 a9 35 3c
       -0.03801852 0.03410361 -0.019192826 0.011087691
0000a0 79 1e b5 bd 60 38 0d bd 79 cc dc bb 9b d3 0e 3d
       -0.08843703 -0.03447759 -0.006738242 0.03486977
0000b0 57 f0 d9 bc eb 38 91 bc 04 6f 66 ba 2e 6c 9c 3c
       -0.02660386 -0.017727336 -0.00087903463 0.019094553
0000c0 e4 09 eb 3c 01 03 e4 3c c5 2e 3e 3d 70 54 4b bd
       0.02869124 0.027833464 0.04643132 -0.049641073
0000d0 76 ed 86 3d 0e 96 07 bd 16 a8 f7 bd 06 a4 cf bc
       0.06588261 -0.033102088 -0.12092607 -0.025346767
0000e0 d0 71 d2 bc 82 80 df bc d5 81 01 bc 1a 50 8e 3c
       -0.025689036 -0.027282957 -0.0079044895 0.01737218
0000f0 ff a3 28 3d 2c f4 a3 bd 43 64 cc 3d 42 57 ef bd
       0.041172024 -0.080055565 0.09980061 -0.11686565
000100 e1 72 a3 bc 0d 19 59 bd b8 4e 74 3d 4b d5 f3 bc
       -0.01995224 -0.053002406 0.059645385 -0.029764792
000110 31 2b 88 bd d5 40 2e 3c a0 10 c5 bd ee 23 fe 3a
       -0.06648863 0.010635574 -0.096223116 0.001938937
000120 52 c8 4a 3d 4c 67 9e 3c 4f fc e7 3c f4 d5 0f bd
       0.049507447 0.019336365 0.028318552 -0.03511615
000130 bf 3f 84 bc 22 2d 92 3d 09 b7 08 be 67 d0 bf bc
       -0.016143678 0.07137515 -0.13351072 -0.023414804
000140 a0 39 80 3d 22 48 01 bc 2a 41 a7 bd cd 10 9a 3d
       0.06260991 -0.007890733 -0.08166726 0.07522736
000150 7f 9a ba 3c d6 64 8a bd 84 95 35 bc 63 1f b3 bd
       0.022778748 -0.06757514 -0.011083011 -0.08746221
000160 dc a3 15 bc ed 46 17 bd 57 a9 26 bd 3b 1e 55 bd
       -0.009133305 -0.036932874 -0.04068884 -0.052030783
000170 53 0e f8 bc 83 4f d4 3d 94 cb 68 3d e5 4a 65 3d
       -0.030280268 0.10366728 0.056834772 0.055979628
000180 9b 31 a1 bc 15 1b db 3d 7a 4b 4e 3c bc 96 4c 3d
       -0.019676974 0.10698525 0.012591237 0.04994844
000190 ed 77 a5 bc 9c 85 81 bd 36 a2 32 bd ad 10 0f 3d
       -0.020198787 -0.06324312 -0.043611728 0.034928013
0001a0 a8 a4 02 bd 7a 30 3b 3d d5 4f 33 3d 3b 2a aa 3d
       -0.03189531 0.045700528 0.043777306 0.08308836
0001b0 3e 2e 27 bd 66 6d a1 bc 3d b2 f0 3c cb b4 99 bc
       -0.040815584 -0.019705486 0.029381866 -0.018762967
0001c0 5f 9c 77 3d 2f 85 e7 bc 47 1c 7a 3c 6c 81 35 3d
       0.06045186 -0.02826175 0.015265531 0.04431288
0001d0 ed cc 3a 3d be 5d f2 bc 69 68 51 3d 38 f0 8d 3d
       0.04560559 -0.029585715 0.051124964 0.06930584
0001e0 7f 85 c8 bd 0c 27 83 bd 85 23 bc 3c 97 c4 04 3d
       -0.09791087 -0.06403932 0.022966156 0.032414045
0001f0 7c da ae bd 16 d4 b5 3c 75 24 0b 3d ec 3d 92 3d
       -0.08537766 0.022195857 0.033970315 0.07140717
000200 63 b3 3a 3d 84 96 c7 3d 60 ea 91 bd 88 9c 01 bd
       0.045581233 0.097455055 -0.071247816 -0.03164342
000210 45 b1 99 bc 13 6d 88 3d 15 6f 2f bd c3 77 15 3d
       -0.018761287 0.06661429 -0.042830545 0.036491167
000220 e1 d3 6b 3d 0c eb 46 3d f5 10 84 3d 0e 17 6d bd
       0.05757511 0.048564002 0.06448547 -0.057883315
000230 61 3e cd 3b 0f 7f bb 3c b6 20 ad bc a4 08 01 be
       0.0062635397 0.022887735 -0.021133762 -0.12600952
000240 2f bd 7a bd 32 8b 6d bd f2 aa a1 bd 08 13 f6 3c
       -0.061215576 -0.057994075 -0.07893933 0.030038372
000250 93 0d 38 bc 9e a8 a9 3d ff f5 dc 3d ae d9 9a bc
       -0.011233705 0.08284114 0.107891075 -0.018902626
000260 b5 e2 91 bd d3 b6 43 bd d9 bc 45 bc 22 04 61 3d
       -0.07123319 -0.047781777 -0.012068951 0.054935582
000270 0e da cc 3c d4 9d af bc c2 49 9d 3d 5e 34 7e 3c
       0.02500632 -0.021437563 0.07680084 0.015515415
000280 db 6d 0b 3c 2c bf 97 3c 25 65 9d 3d 98 77 23 bd
       0.008510078 0.018523775 0.076853074 -0.039908975
000290 1f bc 9f bd e5 45 a2 3d 4f 9c a5 bd 65 bb 77 3d
       -0.07799553 0.079234876 -0.08086454 0.060481448
0002a0 64 a0 a1 bd e4 46 12 3c e8 d4 81 bd 89 2c 2b 3c
       -0.0789192 0.008928034 -0.06339437 0.01044763
0002b0 93 52 14 3c 1c 13 34 bd 01 d0 51 3d 9c 46 22 3d
       0.00905289 -0.043963537 0.05122376 0.03961812
0002c0 42 36 e2 bd a3 0c f5 bb b5 1c 86 3d 1c 79 b6 bc
       -0.11045505 -0.007478313 0.06548444 -0.022274546
0002d0 f3 b4 6a 3c e7 77 5f 3c 09 d9 a4 3c 8d 51 54 3d
       0.014325368 0.013639427 0.020123022 0.051835585
0002e0 99 4a 5a bd c6 3d 10 3d 60 ad a2 3d 8c 97 1c 3d
       -0.053293798 0.03521516 0.07943225 0.038230464
0002f0 bb 34 07 bd 3d 68 92 bd e4 33 a6 3d 19 e4 78 bd
       -0.033009272 -0.07148788 0.08115366 -0.060764406
000300 57 d1 6d 3d 1c 6b 07 bd 4d 86 0a 3d 4c f6 1e 3c
       0.05806097 -0.03306113 0.033819485 0.009702276
000310 d5 07 8a bd 35 dd 83 3d 9c 28 25 bc d9 9f 9e 3c
       -0.06739775 0.06438676 -0.010080483 0.01936333
000320 eb 7b 2e 3d b3 d3 9a 3d e2 b4 a1 bc b8 57 69 3d
       0.042598646 0.0755991 -0.019739572 0.05696842
000330 29 46 b4 3b 08 0a 2d bd 39 67 03 3d d9 55 fd bc
       0.005501528 -0.042245895 0.032080863 -0.030924724
000340 2f ae d3 bc 25 3f 09 bc c4 e3 49 3d 59 0e 6c bd
       -0.025839893 -0.008376871 0.04928948 -0.05763087
000350 34 65 88 bd 39 5d 98 bd 48 09 7a bd c7 53 29 3d
       -0.06659928 -0.07439656 -0.061044008 0.041339662
000360 ab f3 8d bd e7 e5 6a bd f9 f3 80 bc 90 9c c1 bd
       -0.069312416 -0.05734816 -0.015741335 -0.0945369
000370 6d 82 a9 bc 0d 47 6a 3d 39 66 da bd 73 92 aa bd
       -0.020692075 0.057196666 -0.10664029 -0.08328714
000380 e6 2d 91 3d 8c ca 7e bd 1b 4e 0c bd 44 96 de 3d
       0.070888326 -0.062204883 -0.034254175 0.10868505
000390 71 58 9c bc 58 b4 19 3d 1b 8a a5 3c ee 03 4e 3c
       -0.01908514 0.037525505 0.020207455 0.012574179
0003a0 c5 38 b9 bc 1d 00 35 bb 57 5d 0a 3a 77 60 42 3d
       -0.022610078 -0.0027618476 0.0005278191 0.047455277
0003b0 89 42 88 bd bd b3 3d 3d 16 dd 9a 3d 5e 50 6a 3d
       -0.066533156 0.04631399 0.075617 0.05720555
0003c0 03 ed 87 bd ae 6b b7 bd 02 f3 01 bd 37 c5 e4 3d
       -0.06637003 -0.08956085 -0.03172589 0.11170428
0003d0 47 bc 71 bd ab f1 83 3c 1d ce 16 3d 96 1a 9f bd
       -0.059017446 0.016106447 0.03681766 -0.07768743
0003e0 04 1f eb 3c 07 33 18 bc c0 8c be 3c 73 9c 43 bd
       0.028701313 -0.00928951 0.023260474 -0.047756623
0003f0 50 10 31 3d ea 80 ac bd c5 3c 82 bc 33 21 a3 3d
       0.043228447 -0.08423026 -0.015898118 0.079653166

conv2.bias f4 [32]
000000 c6 4b 61 bd da 1a 95 3c ff 79 b6 3c dc bc cf 3c
       -0.055003904 0.01820128 0.02227497 0.02535861
000010 ba 9b fb 3c 79 1c 21 bd 9e 93 77 bd 3e 0f 42 3d
       0.030713905 -0.039333794 -0.060443513 0.047377817
000020 55 5f 5a bd 4b 79 01 bd 1e e2 00 3c 05 f1 85 bd
       -0.053313572 -0.031609815 0.007866411 -0.065401115
000030 87 05 8b bd ca 64 a9 bd 81 39 92 bd a2 c8 57 bd
       -0.06788164 -0.08271177 -0.07139874 -0.052681573
000040 05 4f 82 bc ed 01 5b 3d 19 27 38 3d e5 40 a5 bd
       -0.01590682 0.053468633 0.04495916 -0.08069018
000050 6f 52 7e bd 9f 2d 82 bb 8b 4c 3f 3d 94 56 d3 3b
       -0.062090334 -0.0039727236 0.046703856 0.00644953
000060 41 46 2a 3c 01 a1 6c bd fa cb 04 3d a8 ee 02 bc
       0.010392726 -0.057770733 0.03242109 -0.00799147
000070 0c 24 e7 bc 36 db 8b 3d 2e 4f 2c 3d 13 5e 5d bd
       -0.02821543 0.068289205 0.0420677 -0.054044794
